model_save_Adam_128Relu.pth (torch, 72026 bytes, 19 tensors)

embeddings.0.weight f4 [7, 4]
0	0x3f5fadac	0.8737438
1	0x3f830243	1.0235065
2	0x3f81a069	1.0127078
3	0x3f405e08	0.7514348
4	0x3fc946fe	1.572479
5	0x3c959b6d	0.01826259
6	0xbf01c262	-0.5068723
7	0x3f23e18c	0.6401603
8	0xbd6b8970	-0.057504117
9	0xbf1a1b64	-0.60198045
10	0xbefe39b1	-0.4965339
11	0x3f803fdc	1.0019488
12	0x3f07015d	0.52736455
13	0x40148cdc	2.3210974
14	0xbfb0cc29	-1.3812305
15	0xbf517f91	-0.81835276
16	0x3fe0eec0	1.7572861
17	0x3e85ae33	0.26109466
18	0x3ea10549	0.31449345
19	0xbef5fbc7	-0.48043653
20	0xc008dc67	-2.1384523
21	0xbee18e61	-0.4405394
22	0x3f09708f	0.53687376
23	0x3caec3f0	0.021333665
24	0xbf5d6f7d	-0.8649824
25	0x3f4865a1	0.78280073
26	0xbe9803b6	-0.2969033
27	0xbf320111	-0.6953288

embeddings.1.weight f4 [7, 4]
0	0x3daff68f	0.08591949
1	0x3fa7ce2d	1.3109795
2	0x3f34feb2	0.70701134
3	0xbf0ff38e	-0.5623101
4	0x3fd7d848	1.6862879
5	0x3e2bd458	0.16780221
6	0xbee976a7	-0.45598337
7	0xbf706b42	-0.9391366
8	0x3f421ae0	0.7582226
9	0x3e7b34f4	0.24531919
10	0xbf01e0e7	-0.507338
11	0x3eafbfd1	0.34326032
12	0x3f941144	1.1567769
13	0xbde6d42a	-0.11270936
14	0x3d0d6a29	0.03452507
15	0x3eb2ace8	0.34897542
16	0xbfc2730f	-1.5191363
17	0xbf0e1684	-0.55503106
18	0xbf8ec1f8	-1.1152945
19	0xbff12998	-1.8840818
20	0x3ef26bf6	0.47347993
21	0xc01593b2	-2.3371396
22	0xbf3bccc5	-0.7335933
23	0xbf44c8b9	-0.7686878
24	0xbec5215b	-0.3850201
25	0xbed9ad9f	-0.42515275
26	0xbf0dbcc1	-0.5536614
27	0x3db1e185	0.086855926

embeddings.2.weight f4 [6, 3]
0	0xbe9458cc	-0.28973997
1	0xbeea8904	-0.4580766
2	0xbeeeced8	-0.46642184
3	0xbfb80d11	-1.4378988
4	0xbf10faa0	-0.56632423
5	0x3f0660ed	0.52491647
6	0x3fc2bdd1	1.5214177
7	0xc02e2fe3	-2.7216728
8	0x3d78b5a9	0.06072012
9	0xbf4255ba	-0.7591206
10	0xbfaa6a49	-1.3313686
11	0xbf478a8c	-0.7794578
12	0x3d872835	0.06599466
13	0x3fecfc43	1.8514484
14	0xbe6b4649	-0.2297603
15	0x3f8d3b0a	1.1033642
16	0x3ecbe7b9	0.39825228
17	0x3e45944e	0.19294855

embeddings.3.weight f4 [6, 3]
0	0xbf95c05e	-1.1699331
1	0xbe83fb4d	-0.25777665
2	0xbfbe0c7b	-1.4847559
3	0xbaad9ed3	-0.0013246186
4	0x3f814569	1.0099307
5	0xc0159b31	-2.3375971
6	0x3e3dc2fb	0.1853141
7	0xbea5e2bb	-0.32399544
8	0x3e44a6ba	0.19204226
9	0x3e7dcd93	0.24785452
10	0x3f96a241	1.1768266
11	0x3f34564d	0.70444185
12	0xbf9babc8	-1.2161798
13	0x3dbc8e26	0.092068
14	0xbcad9557	-0.021189375
15	0x3ee69164	0.450328
16	0x3fe8fc98	1.8202085
17	0xbf3e20aa	-0.7426859

embeddings.4.weight f4 [4, 2]
0	0x3fa29dca	1.2704403
1	0x3fc6a664	1.5519528
2	0x3f5b2832	0.8560821
3	0x3a2425f2	0.0006261758
4	0xbfac474f	-1.3459262
5	0x3ead78ef	0.33881328
6	0x3f80c65b	1.0060533
7	0x3f1717c4	0.5902064

embeddings.5.weight f4 [8, 4]
0	0x3e8c51fb	0.27406296
1	0xbe75f3ea	-0.24018827
2	0xbdb725d2	-0.089427605
3	0xbd92d477	-0.07169431
4	0x3fcd1426	1.6021774
5	0x3f05d582	0.5227891
6	0xbf58a6bc	-0.84629416
7	0xbf0cba7c	-0.5497205
8	0xbfb5cddd	-1.420345
9	0xbf5686e6	-0.8379959
10	0xbf82ade1	-1.0209314
11	0xbf86a051	-1.0517675
12	0x3f78d053	0.9719288
13	0x3f5e5ef2	0.86863625
14	0xbe00b61e	-0.12569472
15	0x3fcfde45	1.6239706
16	0xbf984b8e	-1.1898057
17	0x3f88911d	1.0669285
18	0xbef94ae3	-0.48689947
19	0x3fa4f6bd	1.2887799
20	0xbe22df04	-0.15905386
21	0x3f7df008	0.99194384
22	0x3f0534fd	0.5203398
23	0x3e9cd400	0.30630493
24	0xbb3b09ef	-0.0028539856
25	0x3e9144cf	0.2837281
26	0xbe5f6c4c	-0.21818656
27	0x3fbc5074	1.4712052
28	0xbf18e2de	-0.5972117
29	0x3f3ae40c	0.7300422
30	0xbf6158b4	-0.88025975
31	0x3f111c85	0.5668414

embeddings.6.weight f4 [3, 2]
0	0xbc0630fb	-0.008190389
1	0xbf826457	-1.0186871
2	0x3dc4dc1e	0.096122965
3	0xbf971adc	-1.1805072
4	0x3f3478d5	0.70496875
5	0x3fb9c97f	1.4514617

embeddings.7.weight f4 [7, 4]
0	0xbe4c824d	-0.19971581
1	0xbef6500e	-0.48107952
2	0xbf46c6d0	-0.77647114
3	0x3dac860b	0.08424004
4	0x3ed9b533	0.42521057
5	0xbf237186	-0.638451
6	0xbeb0581e	-0.34442228
7	0x3cd812fa	0.026376236
8	0xbf35252c	-0.70759845
9	0xbeb59cf0	-0.35471296
10	0xbe887a47	-0.2665579
11	0xbfeea0d6	-1.8642833
12	0x3fa3f40c	1.2808852
13	0x3f6ba902	0.9205476
14	0x3e703100	0.23456192
15	0x3f0d2ec9	0.55149513
16	0x3d175154	0.036942795
17	0xbf0b00b3	-0.5429794
18	0xbf6420f0	-0.8911276
19	0xbe484224	-0.1955648
20	0x3d923bdc	0.071403235
21	0xbfccf045	-1.6010824
22	0x3e861881	0.2619057
23	0x3f88e4b0	1.069479
24	0x3f383cc5	0.71967727
25	0x3e43ab4e	0.19108316
26	0xbef0edb0	-0.4705634
27	0x3f6bbde6	0.9208664

embeddings.8.weight f4 [6, 3]
0	0x3fe6fdc3	1.8046192
1	0x3f3b5658	0.73178625
2	0x3f45bc90	0.7724085
3	0x3fdc45c1	1.7208787
4	0x3f07e6e3	0.5308668
5	0x3f9a1663	1.2038082
6	0xbead545d	-0.33853427
7	0x3eb7d960	0.3590803
8	0xbf4f5b76	-0.80998933
9	0x400d7f85	2.2109082
10	0x3efbac16	0.4915473
11	0x3ecd8a10	0.40144396
12	0xbf1241db	-0.5713174
13	0x401d4dab	2.4578655
14	0xbd072744	-0.03299643
15	0x3e2bb21d	0.16767164
16	0xbf692e09	-0.9108587
17	0xbfa0b824	-1.2556195

embeddings.9.weight f4 [6, 3]
0	0xbf1efb42	-0.6210214
1	0x3e8f6d43	0.28013048
2	0xbe9bef5f	-0.30456063
3	0x3f43b3b1	0.7644606
4	0x3ff3068b	1.8986372
5	0x4001f7f6	2.0307593
6	0xbfb152a3	-1.3853344
7	0xbd882a80	-0.06648731
8	0xbf1011f5	-0.562774
9	0xbfc3e26b	-1.5303472
10	0xbfe60efa	-1.797332
11	0xbe71babe	-0.23606393
12	0xbe86bf9d	-0.26318064
13	0x3f5cc2d1	0.86234766
14	0x3e8051b8	0.25062346
15	0xbe91db69	-0.2848771
16	0xbf722dd5	-0.94601184
17	0xbe1fe332	-0.15614012

embeddings.10.weight f4 [4, 2]
0	0x3e9e0d52	0.30869538
1	0x3f8384fb	1.0274957
2	0x3faafc8b	1.335832
3	0xbf4c0635	-0.7969697
4	0xbfd3014a	-1.6484768
5	0x3f28933a	0.6584965
6	0x3f55f463	0.8357603
7	0x3ea14744	0.31499684

embeddings.11.weight f4 [5, 3]
0	0x3faec708	1.365449
1	0x3fe351d8	1.7759352
2	0xbf268d67	-0.6505951
3	0xbf98085c	-1.1877551
4	0x3fb234a5	1.3922316
5	0x3e3225eb	0.17397277
6	0xbf88558c	-1.0651107
7	0xbea4d841	-0.3219624
8	0xbd972ece	-0.07381974
9	0x3fa65b9f	1.299671
10	0xbf8918fa	-1.0710747
11	0x3eaa8f9b	0.33312687
12	0x3edd423c	0.43214595
13	0xbf587b47	-0.84563106
14	0xbfb92a45	-1.4466025

model.0.weight f4 [128, 42]
0	0x3dc83d47	0.09777313
1	0xbbad3cb4	-0.0052867774
2	0xbdf060c7	-0.11737209
3	0x3d46f4ca	0.048573293
4	0xbe16dcc7	-0.14732657
5	0x3da4ae0b	0.080410086
6	0xbdb5c234	-0.08874932
7	0xbe0b6e68	-0.13616335
8	0xbcbbb3a5	-0.02291281
9	0xbdbd08a8	-0.09230167
10	0x3c4d9c20	0.01254943
11	0x3d852e9f	0.06503033
12	0xbbf9418a	-0.00760669
13	0x3d5649b7	0.052316394
14	0xbd25146b	-0.040302675
15	0x3e0ffe9a	0.14061967
16	0xbcc06abb	-0.023488393
17	0x3dc492c3	0.09598305
18	0x3d78593c	0.060631976
19	0x3e016fc6	0.12640294
20	0xbb9212c3	-0.004457803
21	0xbbf14874	-0.0073633734
22	0x3da6c7e6	0.08143596
23	0xbcc1de4d	-0.023665572
24	0x3e018c1d	0.12651105
25	0x3e0d1d49	0.13780703
26	0xbda39962	-0.0798824
27	0x3e191c9f	0.14952324
28	0x3ce25ee8	0.027633145
29	0x3e165f16	0.1468471
30	0xbdf0fdff	-0.11767196
31	0xbdd2092a	-0.10255654
32	0xbdb9c5a0	-0.09070897
33	0xbd91acac	-0.07113013
34	0x3da660d3	0.081239365
35	0xbdc99722	-0.098432794
36	0xbde5bb04	-0.11217311
37	0xbd38cf97	-0.045119848
38	0xbd1d2ba5	-0.0383717
39	0xbdbe54da	-0.09293528
40	0x3914e59a	0.00014199913
41	0xbe13f971	-0.14450623
42	0xbc84d327	-0.016213967
43	0x3ca0303c	0.01955425
44	0xbd60c4f3	-0.054875325
45	0x3dc085c4	0.09400514
46	0xbd99c5e8	-0.07508451
47	0x3d22f541	0.039784674
48	0x3d244ebb	0.040114146
49	0x3da8c61f	0.082409136
50	0xbe03b992	-0.12863758
51	0xbe00351e	-0.12520263
52	0xbc087dd1	-0.008330778
53	0x3e035bfc	0.12828058
54	0x3d1f79d1	0.038934533
55	0xbd4cccde	-0.050000064
56	0xbcd22183	-0.025650745
57	0x3ddf7b6d	0.109122135
58	0xbd3344b6	-0.0437667
59	0xbe194535	-0.14967807
60	0x3dc71015	0.09719864
61	0x3d93d417	0.07218187
62	0xbd83b802	-0.06431581
63	0xbd77b9ef	-0.060480054
64	0xbe1e9cad	-0.15489455
65	0xbdd3d227	-0.10342818
66	0xbd104810	-0.035224974
67	0xbdcce184	-0.10003951
68	0xbb3d398c	-0.0028873412
69	0xbe0702b9	-0.13184632
70	0x3de6dd94	0.112727314
71	0x3e1716f1	0.14754845
72	0xbd81b550	-0.06333411
73	0x3d776594	0.060399607
74	0xbde2a02a	-0.11065705
75	0xbdb4c0bd	-0.088258244
76	0x3ca7a707	0.020465387
77	0x3da9a367	0.0828312
78	0xbdb27b7a	-0.087149575
79	0x3e26c875	0.16287406
80	0xbbc34a9b	-0.0059598214
81	0x3cf8e926	0.030384611
82	0xbe0466ad	-0.12929793
83	0x3d6a5562	0.057210334
84	0xbe04ad35	-0.12956698
85	0xbe0fb9b3	-0.14035682
86	0x3ce3c204	0.027802475
87	0xbe16dfda	-0.1473383
88	0xbc3378a1	-0.010954053
89	0x3ca998db	0.02070277
90	0xbd093431	-0.03349704
91	0x3e0c91a0	0.13727427
92	0x3dfd19fd	0.123584725
93	0x3e0854ac	0.1331355
94	0x3d8490fa	0.064729646
95	0xbd4f794c	-0.050652787
96	0x3dff5ac7	0.12468486
97	0xbce5cedc	-0.02805274
98	0xbcfd2327	-0.030900551
99	0xbd2d135e	-0.042254798
100	0xbd5d8a78	-0.054087132
101	0xbdab783e	-0.08372544
102	0xbcbb796a	-0.022885043
103	0xbe10071c	-0.14065212
104	0x3d69f0e6	0.057114504
105	0xbdb6f170	-0.08932769
106	0x3d0b95f3	0.03407855
107	0x3ccd76bc	0.025081031
108	0xbe19cf87	-0.15020572
109	0xbdc6f1cb	-0.09714087
110	0x3b72cbf3	0.0037047833
111	0x3ddbb186	0.10727219
112	0x3e1159e7	0.14194451
113	0x3d287ea8	0.041136414
114	0x3dd88229	0.10571701
115	0xbd8cbcf9	-0.06871981
116	0xbdc47d0c	-0.09594163
117	0xbd0e612d	-0.034760643
118	0x3d98f563	0.07468679
119	0xbd2d35aa	-0.042287506
120	0x3d408672	0.047003217
121	0xbbe40cc3	-0.006959529
122	0x3c999644	0.01874841
123	0xbd80997c	-0.06279275
124	0x3ddb9494	0.107216984
125	0x3d9519bb	0.07280298
126	0x3de7d49b	0.11319848
127	0x3ddedefa	0.10882373
128	0x3e0bd313	0.13654737
129	0x3d9ff75e	0.078108534
130	0xbd49afec	-0.049240038
131	0x3d4bdba5	0.049770016
132	0xbdaab5db	-0.083354674
133	0xbdfb83d2	-0.12281002
134	0xbe0a708a	-0.13519493
135	0x3dc73837	0.09727519
136	0x3c3d1219	0.011539959
137	0x3dbd7a0b	0.092517935
138	0xbe08ce9f	-0.1336007
139	0x3d4fe61b	0.050756555
140	0xbda58712	-0.08082403
141	0x3d8e02cf	0.069341294
142	0xbcba4861	-0.022739591
143	0xbd1897ea	-0.03725425
144	0xbdb27699	-0.08714027
145	0x3c8263f0	0.015916795
146	0xbb89bcad	-0.0042034
147	0x3cf42845	0.029804358
148	0xbc4784ff	-0.012177705
149	0xbe164b44	-0.14677149
150	0x3b9a1384	0.0047020335
151	0x3e02152a	0.12703386
152	0xbdff8a10	-0.12477505
153	0x3db74983	0.08949568
154	0xbdb21f0c	-0.08697328
155	0x3e14d8eb	0.14535873
156	0x3d87a40c	0.06623086
157	0xbd80f703	-0.06297114
158	0xbdfa1fa1	-0.12213064
159	0x3b72dcec	0.003705795
160	0x3d647106	0.05577185
161	0xbd1932e6	-0.037402056
162	0x3e1bccc1	0.15214826
163	0xbc986dab	-0.018606981
164	0xbdd87e71	-0.10570992
165	0xbdf11053	-0.11770692
166	0x3e03139d	0.1280045
167	0x3c20eaad	0.009821576
168	0xbcff339a	-0.031152535
169	0xbe00ae63	-0.12566523
170	0x3dc3c72e	0.09559475
171	0xbda5d7d3	-0.08097806
172	0x3cf541ba	0.029938567
173	0x3d0c44c7	0.03424528
174	0x3d057703	0.0325842
175	0xbd0291b4	-0.031877235
176	0xbe04e8ab	-0.12979381
177	0xbdef524e	-0.1168562
178	0xbda990e6	-0.0827959
179	0xbd518073	-0.05114789
180	0xbd285b78	-0.041102856
181	0xbd82e505	-0.06391338
182	0x3d94ad91	0.07259668
183	0xbe0aff87	-0.13574038
184	0xbe14d619	-0.14534797
185	0x3d8dab9c	0.069174975
186	0xbdb6813f	-0.089113705
187	0xbccb9d91	-0.024855407
188	0xbe0d92fc	-0.13825601
189	0x3e13ca01	0.14432527
190	0x3d9565b3	0.07294788
191	0xbb81d57f	-0.0039622183
192	0xbd4b9117	-0.049698915
193	0x3dae9dbd	0.0852618
194	0x3e17fa70	0.14841628
195	0x3da820a8	0.08209354
196	0xbcf3fffd	-0.02978515
197	0xbdcb9cec	-0.0994204
198	0x3bf2ccae	0.0074096536
199	0xbaeaac0c	-0.0017904057
200	0x3e17f5e1	0.14839889
201	0xbded7a88	-0.115956366
202	0xbd3a21b6	-0.045442306
203	0x3bc06f6b	0.005872657
204	0xbd7cc7c5	-0.061713953
205	0x3e20e22f	0.15711282
206	0xbd4b7961	-0.049676303
207	0xbde6958e	-0.11258994
208	0x3d1edd85	0.038785476
209	0xbe02cfb5	-0.12774546
210	0xbd146580	-0.03622961
211	0x3cf28b2f	0.029607384
212	0xbde31679	-0.11088271
213	0xbe13f5cc	-0.14449233
214	0x3d54202a	0.051788487
215	0x3d0fa884	0.03507282
216	0xbd38afd6	-0.045089565
217	0x3d781f71	0.06057686
218	0xbd16c90f	-0.03681284
219	0xbd84d54a	-0.06485994
220	0x3e0967c7	0.13418494
221	0x3db8feb4	0.09032956
222	0xbd03f3e2	-0.032215007
223	0x3d80b7c0	0.062850475
224	0xbc45edee	-0.012080653
225	0x3d5a99eb	0.053369444
226	0x3d91d289	0.071202345
227	0xbded8be1	-0.115989454
228	0xbd9ea614	-0.07746521
229	0xbcf620fc	-0.030045025
230	0x3d1efe84	0.038816944
231	0xbe0236f1	-0.12716271
232	0xbdf2d9c6	-0.11857943
233	0x3ccd1a2f	0.0250369
234	0x3d6d4865	0.05793037
235	0xbd8033a2	-0.06259848
236	0x3d792c2e	0.06083315
237	0xbe146ab1	-0.14493825
238	0x3d988ad7	0.074483566
239	0x3dbf6093	0.09344592
240	0x3de06d25	0.10958318
241	0xbda418d3	-0.08012547
242	0x3dde5bf8	0.108573854
243	0xbe154e7e	-0.14580724
244	0x3e00b161	0.12567665
245	0x3e07973a	0.13241282
246	0x3da24e90	0.07925141
247	0xbba48a1a	-0.005021346
248	0xbcd91d92	-0.026503358
249	0x3df1e683	0.11811545
250	0x3dd5cdc7	0.104396395
251	0x3d83a509	0.06427962
252	0xbd9198bd	-0.07109211
253	0xbdb311c9	-0.087436266
254	0xbc00e740	-0.007867634
255	0xbd2cb084	-0.042160526

model.0.bias f4 [128]
0	0xbc0a3e2a	-0.008437673
1	0xbe118f49	-0.14214815
2	0x3cdd2e03	0.02699948
3	0xbccb2e8e	-0.024802472
4	0x3e1231a7	0.14276753
5	0x3d9b5573	0.075846575
6	0xbd977fc2	-0.07397415
7	0xbd80a255	-0.062809624
8	0x3d91ad21	0.071131
9	0xbe29e891	-0.16592623
10	0xbd9cd7a0	-0.07658315
11	0x3cc6270b	0.024188539
12	0xbdf4c837	-0.119522505
13	0x3de91686	0.11381249
14	0xbdfa435b	-0.12219878
15	0xbbd0166e	-0.00635033
16	0x3d982625	0.074291505
17	0x3d91b0f5	0.0711383
18	0x3e1125d6	0.1417459
19	0xbb67f77a	-0.003539531
20	0x3d88077b	0.06642052
21	0xbd932f18	-0.07186717
22	0x3d91085a	0.07081671
23	0xbd28b2d6	-0.041186176
24	0xbc051e45	-0.008124893
25	0x3d3ea482	0.046543606
26	0x3dc35954	0.09538522
27	0x3de6f726	0.112776086
28	0x3d94d0ae	0.07266365
29	0xbdcd0115	-0.10009972
30	0x3de96a01	0.11397172
31	0x3de79670	0.113079906
32	0xbd3b51a2	-0.045732148
33	0x3ccec0c8	0.02523841
34	0x3d4117eb	0.04714195
35	0xbd0d6d38	-0.034527987
36	0x3df86f9d	0.121306635
37	0xbce4307c	-0.02785515
38	0x3d47b2a3	0.048754346
39	0xbd16876d	-0.036750246
40	0x3cdc3498	0.026880547
41	0xbd58e844	-0.05295588
42	0x3cb0ed10	0.021597415
43	0x3d3b07bd	0.045661677
44	0xbcfab48c	-0.03060367
45	0x3de1d247	0.11026435
46	0x3e07839e	0.13233802
47	0xbdefa4c8	-0.117013514
48	0xbd997a18	-0.07493991
49	0x3d838896	0.06422536
50	0xbe15d3e7	-0.14631616
51	0x3d920773	0.07130327
52	0x3d00da45	0.031458158
53	0xbe38fde3	-0.180656
54	0x3e416200	0.1888504
55	0xbcc93121	-0.02455956
56	0x3cb8552b	0.022501549
57	0xbdbe656c	-0.092966884
58	0x3db58d13	0.088647984
59	0x3e26364f	0.16231655
60	0x3d88d23c	0.06680724
61	0x3e0c07cc	0.1367485
62	0xbdc5007b	-0.09619232
63	0x3db0ec8c	0.08638868
64	0x3b0cdf6c	0.0021495475
65	0x3d6ef794	0.058341578
66	0xbe0573c5	-0.13032444
67	0xbc87bb6c	-0.016568862
68	0xbe141c20	-0.14463854
69	0xbde9aeb8	-0.11410278
70	0x3dabc16f	0.08386504
71	0xbe2c5959	-0.16830958
72	0xbd94bb92	-0.07262339
73	0x3c88068f	0.01660469
74	0xbcc6a49e	-0.024248417
75	0xbd693367	-0.056933787
76	0x3d9538af	0.07286202
77	0x3e0d1fd0	0.13781667
78	0xbb350ec7	-0.0027627216
79	0xbc5e9d5e	-0.013587324
80	0xbddb09d0	-0.10695231
81	0xbdf718d5	-0.12065283
82	0x3de87da2	0.113520876
83	0x3e1a3583	0.15059476
84	0xbe1555b2	-0.14583471
85	0x3e1a77f8	0.15084827
86	0x3e18fba9	0.1493975
87	0x3e547abc	0.20749944
88	0xbd6e2de9	-0.058149252
89	0xbd300851	-0.04297668
90	0xbe4cb474	-0.19990712
91	0xbd9c0c20	-0.076195
92	0xbd8f65a3	-0.070018075
93	0x3db66bc9	0.08907277
94	0xbe037135	-0.12836154
95	0x3e47aceb	0.19499557
96	0x3cc2524a	0.02372088
97	0x3d36232c	0.044467136
98	0xbdc229b9	-0.09480614
99	0x3ca072c2	0.01958597
100	0xbcfe4c9d	-0.031042391
101	0x3e277d47	0.16356383
102	0xbddc446d	-0.10755239
103	0xbdbe660c	-0.09296808
104	0x3daa939a	0.08328934
105	0x3dc2e48f	0.0951625
106	0x3e179377	0.14802347
107	0xb9c25f93	-0.00037073772
108	0x3d9fca0d	0.0780221
109	0x3cea9b90	0.028638631
110	0xbdd4de0d	-0.10393915
111	0xbdece337	-0.11566775
112	0xbce993e7	-0.028512908
113	0xbd93a755	-0.072096504
114	0x3e0986b4	0.13430291
115	0x3e1ad459	0.15120067
116	0xbbc671a2	-0.0060560266
117	0xbdcfd258	-0.10147542
118	0x3dc94647	0.098278575
119	0x3bcb14ae	0.0061975336
120	0xbd10e386	-0.035373233
121	0xbde20a6d	-0.11037145
122	0xbd8257dd	-0.06364415
123	0xbdd80870	-0.10548484
124	0xbb21ca70	-0.0024687313
125	0x3d60f116	0.054917417
126	0xbdf3b78d	-0.11900244
127	0x3bd41b35	0.00647297

model.2.weight f4 [64, 128]
0	0x3c9449eb	0.018101653
1	0xbcb98e4f	-0.022650866
2	0x3dabb6d8	0.08384484
3	0x3d1ef70a	0.038809814
4	0xbdacf022	-0.08444239
5	0x3cb93fb7	0.02261339
6	0x3c48e992	0.012262719
7	0x3d80fc20	0.06298089
8	0x3d30138b	0.042987388
9	0xbc4045aa	-0.011735359
10	0xbcc361c6	-0.023850333
11	0x3d82a7b4	0.06379643
12	0xbcfa0bdb	-0.030523231
13	0x3c62bbe5	0.013838743
14	0x3d676db7	0.056501117
15	0x3cc2831f	0.023744164
16	0x3c679f8a	0.014137158
17	0x3c5b7ea1	0.01339689
18	0x3c6ddfe1	0.014518709
19	0xbd53b51d	-0.051686395
20	0xbd593897	-0.053032484
21	0x3d842a15	0.06453339
22	0x3d98eca6	0.07467012
23	0xbd5befc5	-0.05369546
24	0xbda9a87f	-0.08284091
25	0xbd0233b4	-0.03178759
26	0xbd946d87	-0.07247453
27	0xbd8ef85a	-0.06980963
28	0x3d4a79ac	0.04943244
29	0xbd81de0c	-0.0634118
30	0xbc5469e1	-0.012964697
31	0xbd27cf79	-0.040969346
32	0x3d82519b	0.06363221
33	0x3ca83726	0.02053411
34	0x3d042e54	0.032270744
35	0x3d9d0897	0.07667654
36	0xbce8ac44	-0.028402455
37	0x3c27a253	0.010231572
38	0x3ceec077	0.029144509
39	0xbdb7e4eb	-0.089792095
40	0xbccc3306	-0.024926674
41	0xbbeb87c2	-0.0071878145
42	0x3d8426ad	0.06452689
43	0x3d84d053	0.06485047
44	0xbd6d594e	-0.057946496
45	0x3ceba5ed	0.028765643
46	0xbdabfafd	-0.083974816
47	0xbbebd1f0	-0.0071966574
48	0xb8b3d11e	-8.574336e-05
49	0x3cde1e3b	0.027114024
50	0xbd0f96a5	-0.035055775
51	0x3cb04b4f	0.021520285
52	0x3a01f1e5	0.00049570046
53	0x3d9de024	0.07708767
54	0xbd7c5948	-0.061608583
55	0xbdbafc4f	-0.09130155
56	0x3c9ec32d	0.019380176
57	0x3d99ee05	0.07516102
58	0xbcbac2e3	-0.022798007
59	0x3d8b1f2c	0.06793055
60	0x3d28e36c	0.04123251
61	0x3d9a285f	0.075272314
62	0x3d818fe2	0.063262716
63	0x3d682c7c	0.05668305
64	0x3ca1d6dd	0.019755775
65	0xbd9bd0bc	-0.07608172
66	0xbb891c62	-0.0041842917
67	0xbd3fb294	-0.046801165
68	0x3d4c462a	0.0498716
69	0x3d159ac5	0.036524553
70	0x3c86af29	0.016440945
71	0x3cce21a6	0.02516253
72	0x3ce70441	0.02820027
73	0x3d8e0733	0.06934967
74	0xbcc02585	-0.02345539
75	0x3d6d0851	0.05786926
76	0xbdacc466	-0.084358975
77	0xbcb7d7a1	-0.022441687
78	0xbb6c7f02	-0.0036086445
79	0xbda6928a	-0.08133419
80	0xbc789103	-0.015171292
81	0x3d9367af	0.071975105
82	0x3d5dbb89	0.054133926
83	0x3d40449f	0.046940442
84	0x3da1f4c7	0.07908016
85	0xbda0ebfc	-0.078575104
86	0x3da9bd5e	0.08288072
87	0x3bf62aee	0.007512442
88	0x3d1e1569	0.038594637
89	0xbd9860e7	-0.07440358
90	0x3b793e69	0.0038031584
91	0x3d318d67	0.043347742
92	0xbc941895	-0.018078128
93	0xbd959b0d	-0.07304964
94	0x3c4b7da7	0.012420095
95	0xbd07ef98	-0.03318748
96	0xbc4611d5	-0.012089212
97	0x3cfdf833	0.03100214
98	0x3d0d3d6b	0.0344824
99	0x3c40b35d	0.011761514
100	0x3d32e6e1	0.043677215
101	0xbd343e84	-0.044004932
102	0xbba8499a	-0.005135727
103	0x3d924432	0.071419135
104	0xbceee29a	-0.029160786
105	0xbda914d0	-0.08255923
106	0xbc15159c	-0.00909939
107	0xbd8a56ad	-0.06754813
108	0xbd001425	-0.03126921
109	0x3cb87771	0.022517892
110	0xbd8c177f	-0.06840419
111	0xbc872919	-0.01649909
112	0xbd7f0c03	-0.062267315
113	0x3d5d8bab	0.054088276
114	0xbd1608a1	-0.036629323
115	0xbc839d89	-0.01606633
116	0xbd1026fc	-0.03519343
117	0x3c6bb8e5	0.014387344
118	0xbd8e8df7	-0.069606714
119	0x3d6fbd89	0.058530364
120	0x3cd968cd	0.02653923
121	0xbda58c4b	-0.080833994
122	0xbca9dcca	-0.020735163
123	0x3d1a7b2a	0.037715115
124	0xbdbcf609	-0.09226615
125	0xbdaf3fd8	-0.08557099
126	0xbc83d397	-0.016092105
127	0x3d99d5c9	0.075114794
128	0x3cd0393a	0.025417913
129	0x3d719d0c	0.058987662
130	0xbd7cede8	-0.061750323
131	0xbd99022a	-0.07471116
132	0x3b8fa8db	0.004384143
133	0xbd780fa9	-0.06056181
134	0x3da26d84	0.07931045
135	0xbd4db6f1	-0.050223295
136	0x3c5d56e3	0.013509485
137	0xbc08bbbd	-0.008345542
138	0x3ccb88d6	0.024845522
139	0x3d882454	0.06647554
140	0xbdb19715	-0.08671395
141	0xbc123af2	-0.0089251865
142	0xbd647b94	-0.055781916
143	0x3d0b2347	0.03396919
144	0xbd506bae	-0.05088394
145	0xb9ab532e	-0.00032677635
146	0xbd20847f	-0.039188858
147	0xbd061f36	-0.03274461
148	0x3d6e85d2	0.05823309
149	0x3ce27ec1	0.027648332
150	0xbd80bf64	-0.06286505
151	0x3c89e83b	0.016834369
152	0x3d400b05	0.04688551
153	0xbcea2842	-0.02858365
154	0x3c84e408	0.016222015
155	0x3d2da07d	0.04238938
156	0xbdb29e8c	-0.08721647
157	0x3bc7d74c	0.0060986634
158	0x3bfc607b	0.007701931
159	0xbd557944	-0.0521176
160	0x3d90f8ed	0.07078729
161	0xbb88059b	-0.004151059
162	0x3bdc9f30	0.006732844
163	0x3cdc6c29	0.026907044
164	0xbb8f4cf7	-0.0043731886
165	0xbd1f0909	-0.038826976
166	0xbc7b3179	-0.015331619
167	0xbd7a5982	-0.061120518
168	0x3d8cfced	0.06884179
169	0xbce0820c	-0.027405761
170	0xbd03608f	-0.032074507
171	0x3d75dbdc	0.060024127
172	0xbd2a0eb0	-0.041517913
173	0xbcc1d6e2	-0.023662034
174	0x3da1aa28	0.07893783
175	0x3d00c19f	0.03143465
176	0x3d80cf7e	0.06289576
177	0xbba41f20	-0.005008593
178	0x3d6eef36	0.058333598
179	0x3d3da4f3	0.046299886
180	0xbd450f68	-0.048110396
181	0x3d567039	0.052353118
182	0x3dad3b9e	0.08458637
183	0x3da35c15	0.07976548
184	0xbd6767b2	-0.056495376
185	0x3da45f42	0.080259815
186	0x3d308e31	0.043104354
187	0x3dbc61aa	0.091983154
188	0x3cf5c501	0.030001165
189	0x3a967b65	0.0011480866
190	0x3d930f27	0.071806245
191	0x3cbd3732	0.023097608
192	0x3c1612b7	0.009159735
193	0x3d6a2ffc	0.057174668
194	0x3bffb625	0.0078036957
195	0x3c0280e5	0.007965301
196	0xbd3a5d57	-0.045499172
197	0x3d660df4	0.05616565
198	0xbcdd45aa	-0.027010757
199	0xbd8ae988	-0.06782824
200	0x3dafe949	0.085894175
201	0xbcac0050	-0.020996243
202	0x3b242b09	0.0025050065
203	0x3ba6fe8a	0.0050962614
204	0x3ca7c983	0.02048183
205	0x3d3c5dcd	0.045987893
206	0xbd1e171c	-0.038596258
207	0xbda3bca8	-0.07994968
208	0xbd6acdcb	-0.057325166
209	0xbd13f085	-0.03611805
210	0x3d2b15ce	0.04176884
211	0x3dc8f52a	0.09812386
212	0x3d0f1af7	0.034937825
213	0x3bdab1f0	0.006674044
214	0xbda3fffb	-0.08007809
215	0x3da8e95c	0.08247635
216	0x3db88689	0.090100355
217	0x3d3cfa9c	0.046137437
218	0xbdcadc0d	-0.099052526
219	0x3c17b5f0	0.009259686
220	0xbc9adff9	-0.018905627
221	0xbd9c1a4b	-0.076222025
222	0x3b3c52f7	0.0028735974
223	0x3d4c5801	0.049888615
224	0x3d8b76ec	0.06809792
225	0x3d7967d6	0.06089004
226	0x3d5b610d	0.05355935
227	0xbdb68071	-0.08911217
228	0xbc6c5b38	-0.014426045
229	0x3d81051a	0.06299801
230	0xbd6e3210	-0.058153212
231	0xbca583d3	-0.02020446
232	0xbcbd1331	-0.02308044
233	0xbd8331f1	-0.0640601
234	0x3db2ec8d	0.08736525
235	0x38aedc08	8.3379506e-05
236	0xbdad1f2f	-0.084532134
237	0xbd9944b5	-0.07483808
238	0x3db577a1	0.08860708
239	0xbd75c3ae	-0.060001068
240	0xbd6c3799	-0.05767021
241	0xbd908e84	-0.07058433
242	0xbc55752e	-0.013028426
243	0x3d96370d	0.07334719
244	0x3d3cdb4e	0.046107583
245	0xbd83c60d	-0.064342596
246	0xbc1c229d	-0.009529737
247	0xbc125729	-0.008931913
248	0xbda10d52	-0.07863869
249	0x3da18e94	0.07888523
250	0xbc917cda	-0.01775973
251	0x3d4b4151	0.049622837
252	0xbd699edb	-0.057036262
253	0xbd3f785f	-0.046745654
254	0xbcfd72d3	-0.030938542
255	0xbd9ab627	-0.07554274

model.2.bias f4 [64]
0	0x3cb67292	0.022271428
1	0x3d8bf89f	0.0683453
2	0x3d5f1f59	0.054473255
3	0x3cf0a366	0.02937479
4	0xbdb10f9c	-0.086455554
5	0x3d202baf	0.03910416
6	0xbc4ac19d	-0.012375263
7	0x3d293c26	0.041317128
8	0xbc82624a	-0.015916009
9	0x3d9e4ed2	0.077298775
10	0x3e1e419e	0.15454718
11	0xbd2859f0	-0.041101396
12	0xbcf2e819	-0.029651688
13	0x3df96f2e	0.12179409
14	0x3d8f9192	0.07010187
15	0xbcc037e8	-0.023464158
16	0x3dfea91f	0.12434601
17	0xbdb0f7c6	-0.08641009
18	0xbd56766a	-0.052359022
19	0x3db90abb	0.0903525
20	0x3e838e1a	0.25694352
21	0x3d87a96d	0.06624112
22	0xbc1eed2d	-0.009700102
23	0x3d7cf786	0.061759494
24	0x3caea27c	0.021317713
25	0x3db09f3f	0.08624124
26	0xbdf3a814	-0.11897293
27	0x3d162b73	0.03666253
28	0x3d2cb560	0.04216516
29	0xbd433848	-0.047661096
30	0x3dc032e7	0.09384709
31	0xbd6052ad	-0.054766346
32	0x3cd41a39	0.02589141
33	0xbd96dd1a	-0.073663905
34	0xbc85df98	-0.01634197
35	0x3ca1565a	0.019694496
36	0x3c6d2eb3	0.014476466
37	0x3aadf4e1	0.0013271832
38	0xbd9373d3	-0.07199826
39	0x3d69affc	0.057052597
40	0xbd861ca2	-0.0654843
41	0xbbd3af4d	-0.0064601065
42	0xbcdc4c40	-0.026891828
43	0x3e0caff2	0.13738993
44	0xbd673318	-0.05644521
45	0x3e10baa4	0.14133698
46	0x3dc9dd5c	0.09856674
47	0x3d8e0281	0.06934071
48	0x3d6c7c97	0.057736006
49	0xbda21ba2	-0.07915427
50	0x3bea81db	0.0071565933
51	0xbdf80198	-0.12109679
52	0x3e4e155d	0.20125337
53	0x3d9b627d	0.075871445
54	0xbd89103e	-0.06692551
55	0x3db680d5	0.089112915
56	0x3c582d6f	0.013194426
57	0x3e9318e8	0.2872994
58	0x3c83ef9f	0.016105471
59	0xbd774681	-0.060369972
60	0xbd86eb1c	-0.06587812
61	0xbd5922af	-0.053011592
62	0xbe27b6fb	-0.16378395
63	0xbd42d9cc	-0.04757099

model.4.weight f4 [32, 64]
0	0xbdd5f3d2	-0.10446896
1	0xbd20e314	-0.03927906
2	0x3e09f695	0.1347297
3	0x3e0e9663	0.13924555
4	0xbba62ca0	-0.0050712377
5	0xbdfd529a	-0.123692706
6	0x3d8a3cb9	0.06749863
7	0xbd050879	-0.032478783
8	0xbdd4fb8b	-0.103995405
9	0xbd5b2c25	-0.053508896
10	0x3d8a47b2	0.06751956
11	0x3e1a476a	0.15066305
12	0xbda01498	-0.07816428
13	0xbc4734fc	-0.012158629
14	0xbd9ece8c	-0.077542394
15	0xbd982794	-0.07429424
16	0x3dd58c89	0.104271956
17	0xbdd4acec	-0.10384545
18	0xbd412947	-0.047158506
19	0x3d4ef328	0.05052486
20	0x3da26281	0.079289444
21	0x3d44ca68	0.048044592
22	0x3db4b9ff	0.088245384
23	0x3d572b1a	0.05253134
24	0xbceb344d	-0.028711462
25	0x3d915533	0.070963286
26	0x3da2b3de	0.07944463
27	0x3da0419b	0.07825013
28	0xbc4d59c1	-0.012533606
29	0xbd4751ce	-0.048662
30	0x3ce80efa	0.028327454
31	0xbdc0bf3b	-0.09411474
32	0xbd9e7f4c	-0.07739124
33	0xbd94a654	-0.07258287
34	0x3dcea2c1	0.100896366
35	0xbdad0959	-0.084490485
36	0x3db4510f	0.08804523
37	0x3dbf16c8	0.09330517
38	0xbdd3c861	-0.103409536
39	0xbdec0441	-0.11524249
40	0x3c7f728c	0.015591275
41	0x3cc3eac9	0.023915665
42	0xbd1946c4	-0.037421003
43	0x3e1b5b6a	0.1517159
44	0x3da2dbac	0.07952055
45	0x3df809cc	0.121112436
46	0xbdf7b560	-0.120951414
47	0xbd8eb657	-0.06968372
48	0xbc0b33ae	-0.008496208
49	0xbdf38b09	-0.11891753
50	0xbd90a11c	-0.07061979
51	0x3d4bdccd	0.04977112
52	0x3e3272a2	0.17426541
53	0xbdaec5c2	-0.08533813
54	0x3da3c3c0	0.07996321
55	0x3e0c409e	0.13696525
56	0x3e08a41b	0.13343851
57	0x3dc7e70f	0.09760868
58	0xbbbe0665	-0.005799102
59	0x3ddff76c	0.10935864
60	0x3a9ee28b	0.0012121958
61	0x3e05f511	0.13081767
62	0xbe0849c1	-0.13309385
63	0xbc7d6632	-0.01546626
64	0x3da43916	0.08018701
65	0x3dfb8d8a	0.12282856
66	0x3d8367f3	0.06416311
67	0xbd4bf60c	-0.049795195
68	0xbdaf69c1	-0.08565093
69	0x3d48bfa8	0.049010903
70	0x3da0db26	0.07854299
71	0xbd4c0caa	-0.049816765
72	0x3d44aedf	0.048018333
73	0x3ca80c60	0.020513713
74	0x3e0f1508	0.13972867
75	0x3de5f634	0.112286
76	0xbc9f4560	-0.01944226
77	0xbca36d6e	-0.019949641
78	0xbd5df5a3	-0.054189336
79	0xbd990859	-0.07472295
80	0x398922ad	0.00026156512
81	0xbc10480e	-0.008806242
82	0xbdbce678	-0.09223646
83	0x3dacca30	0.08437002
84	0x3a829736	0.0009963277
85	0x3c87d0ad	0.016578997
86	0x3dba17cd	0.09086571
87	0xbdd882e2	-0.10571839
88	0x3de50ef9	0.111844964
89	0xbd5320a0	-0.051544785
90	0x3d7fbeec	0.062437937
91	0xbda038ef	-0.07823359
92	0x3dc8da9e	0.09807323
93	0x3d0cc4b8	0.034367293
94	0x3d5c75f2	0.05382342
95	0x3d322e99	0.04350147
96	0x3dd44815	0.10365311
97	0x3de9a638	0.11408657
98	0x3d15a8a0	0.036537766
99	0xbdb2c8da	-0.08729716
100	0x3d9e956e	0.07743345
101	0x3ccbcdc0	0.024878383
102	0xbdae8784	-0.08521941
103	0x3cb91af1	0.022595854
104	0xbcbd294e	-0.023090985
105	0xbd873634	-0.06602135
106	0x3db5f30d	0.08884249
107	0x3d252e60	0.04032743
108	0x3d4732ad	0.048632313
109	0x3cc9999e	0.024609383
110	0x3dd92178	0.10602087
111	0x3d709b96	0.05874213
112	0xbd21c26e	-0.039492063
113	0x3df96fea	0.12179549
114	0xbd45cac6	-0.048289083
115	0xbcc7923f	-0.024361728
116	0x3dd6ddda	0.104915336
117	0x3c07d798	0.008291148
118	0x3c6c04d8	0.014405452
119	0x3dcd35be	0.10020016
120	0xbadf79ab	-0.001704981
121	0x3df5e21d	0.12006018
122	0xbded06eb	-0.11573585
123	0xbdb24456	-0.0870444
124	0xbc2078a2	-0.009794386
125	0xbd9c6813	-0.07637038
126	0xbcbbf4fe	-0.02294397
127	0x3d97d03b	0.07412764
128	0x3d6fdd79	0.058560822
129	0x3d744731	0.059638206
130	0xbd3db4a7	-0.04631486
131	0x3de3433d	0.11096809
132	0xbdb0024c	-0.08594188
133	0x3d2656d0	0.040610135
134	0xbb88b67b	-0.004172144
135	0x3ce3f0b4	0.027824737
136	0x3c5b1b82	0.013373258
137	0x3db5ff4a	0.08886583
138	0x3dd0bdc3	0.10192444
139	0xbd9971c4	-0.07492402
140	0xbdcc9a23	-0.09990337
141	0x3de0a0c9	0.10968167
142	0x3c809658	0.01569669
143	0x3df9cfc1	0.12197829
144	0xbd8c69d2	-0.06856121
145	0xbd500811	-0.050788943
146	0xbd8f1bb7	-0.06987708
147	0x3df5111b	0.11966153
148	0x3d98677c	0.07441613
149	0x3cb2922d	0.021798218
150	0x3d83d5cb	0.06437262
151	0xbdefffb5	-0.11718694
152	0xbd573b62	-0.052546866
153	0x3d0c7a7f	0.03429651
154	0x3d47d878	0.048790425
155	0x3d9b416b	0.07580837
156	0x3d135a67	0.035974886
157	0x3c8b842d	0.0170308
158	0x3df13d15	0.117792286
159	0x3dae3037	0.0850529
160	0xbcadcac5	-0.021214852
161	0xbd44e38c	-0.048068568
162	0x3dcb76d1	0.09934772
163	0x3cad73e4	0.021173425
164	0xbd2b951e	-0.041890256
165	0xbd469bd4	-0.048488453
166	0x3d018388	0.03161958
167	0x3bf6e759	0.007534903
168	0x3c250f9a	0.0100745205
169	0x3c7c8bbe	0.0154141765
170	0x3dfcbda9	0.12340862
171	0xbd2fcab2	-0.042917915
172	0x3cc0f57c	0.023554556
173	0x3d7cf915	0.06176098
174	0x3dbe7d16	0.09301202
175	0xbdc78c40	-0.097435474
176	0xbdf2f8bf	-0.11863851
177	0xbdb06e8e	-0.08614837
178	0x3c026c03	0.007960322
179	0xbdc9f641	-0.09861422
180	0x3d2d7251	0.04234535
181	0xbdaa9061	-0.08328319
182	0x3d691a95	0.056910116
183	0xbc4faad5	-0.012675007
184	0x3e10e9b8	0.14151657
185	0x3ddb554e	0.1070963
186	0x3dd9c1e8	0.10632688
187	0xbd96133c	-0.073278874
188	0x3d253ed2	0.040343113
189	0xba139cc9	-0.0005630968
190	0xbe0808f2	-0.13284662
191	0x3d37b5ba	0.044851042
192	0x3db2ce92	0.087308064
193	0x3dd5d8b0	0.104417205
194	0xbe0057a4	-0.12533432
195	0xbda6b341	-0.08139659
196	0x3da8e5e7	0.082469754
197	0x3d1ff098	0.039047807
198	0x3d8b2ad1	0.06795276
199	0xbd860316	-0.06543557
200	0x3c850823	0.016239231
201	0x3d467a76	0.04845663
202	0x3da2df94	0.079528004
203	0xbcaebaf4	-0.02132938
204	0xbd864670	-0.06556404
205	0xbdd600cd	-0.104493715
206	0xbdedc480	-0.11609745
207	0x3b71a789	0.003687354
208	0xbcca7212	-0.024712596
209	0xbce268d2	-0.027637873
210	0x3df1b8c6	0.11802821
211	0x3de00a58	0.10939473
212	0x3d597c61	0.053097133
213	0x3c8ff6a2	0.017573658
214	0x3dc6a4db	0.096994124
215	0xbdabcda3	-0.083888315
216	0x3dbcf62e	0.092266425
217	0x3dd84d72	0.105616465
218	0xbd713c01	-0.058895115
219	0x3da48a87	0.080342345
220	0xbd1d0a7d	-0.03834008
221	0xbd6d3599	-0.057912443
222	0xbd9850e1	-0.074373014
223	0x3d434413	0.047672343
224	0xbd81bedc	-0.06335232
225	0xbd9d3d82	-0.07677747
226	0x3d0a0b5e	0.033702247
227	0x3de370fa	0.11105533
228	0xbd9dca92	-0.07704653
229	0x3df903a6	0.12158899
230	0xbdd2dbaa	-0.10295804
231	0xbd6a763d	-0.057241667
232	0xbd4570ba	-0.048203208
233	0xbc167f7d	-0.009185669
234	0xbc4088f5	-0.011751403
235	0xbd3ada63	-0.045618426
236	0x3d9ad452	0.07560028
237	0x3ded7b01	0.11595727
238	0xbdd1302c	-0.10214266
239	0xbccb8ee9	-0.024848418
240	0xbdfd3813	-0.12364211
241	0xbde15bfd	-0.110038735
242	0xbd6e1600	-0.05812645
243	0x3cdc2be3	0.026876396
244	0x3cfa4467	0.030550195
245	0xbd18e5a4	-0.037328377
246	0xbdd23886	-0.10264687
247	0xbd89cd83	-0.067286514
248	0x3dcfe58b	0.10151204
249	0x3bf665b5	0.0075194486
250	0x3cacc12d	0.021088207
251	0xbbf24785	-0.0073937797
252	0xbdae7755	-0.085188545
253	0x3d65caf6	0.05610176
254	0xbb02bd7b	-0.0019949365
255	0xbdcfc7a6	-0.10145502

model.4.bias f4 [32]
0	0x3e75fe42	0.24022773
1	0x3d0185ae	0.031621628
2	0x3dfb9755	0.12284724
3	0xbdbb944a	-0.09159143
4	0xbddde90c	-0.10835466
5	0xbca55f69	-0.020187097
6	0x3dcb599e	0.099292025
7	0xbdda02df	-0.10645079
8	0x3cd0c279	0.025483357
9	0xbe097ea6	-0.13427219
10	0x3db00c38	0.085960805
11	0xbd4dab72	-0.05021233
12	0x3dc7d153	0.09756722
13	0x3d101b84	0.03518249
14	0xbdc7066b	-0.09718021
15	0x3daa5ee2	0.08318879
16	0x3e52b597	0.20577084
17	0xbc20c07b	-0.009811516
18	0x3e0b3831	0.13595654
19	0xbb36b8df	-0.0027881188
20	0xbe1109ec	-0.14163941
21	0x3e18e0d3	0.14929514
22	0x3bbde321	0.005794898
23	0xbe21e80d	-0.15811177
24	0x3e1350c1	0.14386274
25	0x3eab6e2f	0.334825
26	0xbd63fa77	-0.055658784
27	0xbd338cfa	-0.043835618
28	0x3e430f31	0.19048764
29	0x3ca3c2ea	0.019990403
30	0xbe62a139	-0.22131814
31	0x3e7302e6	0.23731574

model.6.weight f4 [1, 32]
0	0x3ec4e2b2	0.38454205
1	0x3e277be8	0.1635586
2	0x3e7347db	0.2375788
3	0xbe124dca	-0.14287487
4	0xbb3f259b	-0.0029166702
5	0x3cafa561	0.021441163
6	0x3e0d2161	0.13782264
7	0xbdf927f7	-0.12165826
8	0x3e661d20	0.22472048
9	0x3de49f5c	0.11163208
10	0x3d96ec3f	0.07369279
11	0xbbbb2291	-0.0057109077
12	0xbd87a900	-0.06624031
13	0xbdb22e27	-0.08700209
14	0xbe2ebb3e	-0.17063615
15	0xbdc673d1	-0.09690059
16	0x3e9efd5f	0.31052682
17	0x3e0a4f88	0.13506901
18	0x3ead0717	0.33794472
19	0xbe15bd6d	-0.14623041
20	0xbe345fb8	-0.17614639
21	0xbe357e9d	-0.1772408
22	0xbdb0241f	-0.086006396
23	0xbe14f5f2	-0.14546946
24	0x3e6c79af	0.23093294
25	0x3f1224cb	0.5708739
26	0x3e11ddc6	0.14244756
27	0xbe051ddc	-0.12999672
28	0x3e6e9912	0.23300579
29	0xbdba8764	-0.09107855
30	0xbe921d7b	-0.28538117
31	0x3e8af2e9	0.2713845
