model_save.pth (torch, 81058 bytes, 51 tensors)

embeddings.0.weight f4 [7, 4]
-1.3376385 -1.2086594 -0.94851965 1.2572172 -0.50692016 -0.52766037 0.31238574 0.77213174
-1.5886081 -0.6884111 0.16533907 0.03357424 -0.661798 1.281158 0.14847416 1.8089719
0.66078067 0.6569225 -0.1646539 0.35372913 -0.23760684 0.5719987 0.010506902 -0.35180405
0.43863627 0.87290746 -2.0292072 -0.30255988
00000000: bd37 abbf 5ab5 9abf 2fd2 72bf 7eec a03f
00000010: 85c5 01bf c014 07bf 06f1 9f3e 6daa 453f
00000020: 8357 cbbf b63b 30bf a54e 293e 2485 093d
00000030: 986b 29bf fcfc a33f 9c09 183e 648c e73f
00000040: ec28 293f 132c 283f 089b 28be fc1b b53e
00000050: 354f 73be 826e 123f 2425 2c3c a91f b4be
00000060: ef94 e03e dd76 5f3f 88de 01c0 21e9 9abe

embeddings.1.weight f4 [7, 4]
-2.5645838 0.4254494 0.6059225 0.18162282 0.3507468 1.4391743 1.6020995 0.5388401
-0.7442407 0.21872933 1.3178058 -0.7252686 -0.95122993 1.1065719 0.6397771 -0.08140293
-1.7295014 2.0972748 -0.3577099 0.14232506 -0.8424561 1.6659613 0.77026844 0.78960073
0.17792249 0.5875717 1.2063259 -1.123492
00000000: 2422 24c0 81d4 d93e bd1d 1b3f 55fb 393e
00000010: 1695 b33e dd36 b83f 9911 cd3f 6df1 093f
00000020: 8f86 3ebf 95fa 5f3e dcad a83f 34ab 39bf
00000030: ce83 73bf 26a4 8d3f 6fc8 233f 94b6 a6bd
00000040: 4d60 ddbf c039 0640 c125 b7be a9bd 113e
00000050: 34ab 57bf 383e d53f 5030 453f 4623 4a3f
00000060: 5031 363e 196b 163f e368 9a3f 96ce 8fbf

embeddings.2.weight f4 [6, 3]
0.7916323 -0.37100896 1.9750051 1.7247078 -0.3553212 -0.9223636 2.5280797 0.06435224
-0.7395093 -0.10977886 -0.2379288 1.5952468 -0.44252267 0.2116085 -0.9472163 -0.051045716
-0.56293213 -1.1515417
00000000: 6aa8 4a3f e3f4 bdbe f8cc fc3f 3ac3 dc3f
00000010: a9ec b5be 0520 6cbf 0fcc 2140 1bcb 833d
00000020: 7b50 3dbf bdd3 e0bd 9ba3 73be 0c31 cc3f
00000030: 5592 e2be e6af 583e c47c 72bf 5015 51bd
00000040: 521c 10bf b865 93bf

embeddings.3.weight f4 [6, 3]
-0.6302812 -1.2088367 -1.3434882 -0.34173968 -0.9411163 -0.46851307 -1.0749555 -0.78381443
-0.7027626 1.4707552 0.50058883 -0.570634 1.5947542 0.3448679 -1.5847735 0.9433
-0.39022803 1.1907967
00000000: 1c5a 21bf 29bb 9abf 6cf7 abbf 81f8 aebe
00000010: ffec 70bf f2e0 efbe 2498 89bf 10a8 48bf
00000020: 40e8 33bf b541 bc3f 9726 003f 1215 12bf
00000030: e820 cc3f 8692 b03e dcd9 cabf 1c7c 713f
00000040: f8cb c7be 076c 983f

embeddings.4.weight f4 [4, 2]
-0.21371818 -1.1852632 0.14717764 -1.1793344 1.5481486 -0.40384385 1.1295987 -1.3549354
00000000: f0d8 5abe b4b6 97bf bcb5 163e 6ef4 96bf
00000010: bc29 c63f 9fc4 cebe b196 903f 866e adbf

embeddings.5.weight f4 [8, 4]
0.4098358 -0.23994635 2.4757993 -1.0092262 -0.339587 -0.024644993 1.0889148 0.26086143
0.46306998 -1.5838002 -1.0129753 0.1573717 0.6961076 -0.46930388 0.6335531 -0.3698794
-0.7418987 -0.47816738 1.0586499 -0.5308008 0.34215868 -0.7895362 -0.09658145 1.0301758
-0.84747654 0.21618469 2.3788118 -0.7727806 1.4175855 0.37540948 2.034558 -1.239927
00000000: ffd5 d13e 7fb4 75be 7f73 1e40 532e 81bf
00000010: 59de adbe 4ce4 c9bc 8f61 8b3f a18f 853e
00000020: 8217 ed3e f7b9 cabf 2da9 81bf 0c26 213e
00000030: 1c34 323f 9948 f0be 8930 223f d560 bdbe
00000040: 13ed 3dbf 5bd2 f4be d781 873f 90e2 07bf
00000050: 6c2f af3e 0b1f 4abf 7fcc c5bd cddc 833f
00000060: 39f4 58bf 855f 5d3e 743e 1840 f3d4 45bf
00000070: 7173 b53f ac35 c03e 3336 0240 eeb5 9ebf

embeddings.6.weight f4 [3, 2]
0.21008246 1.1383035 -0.39677656 -0.12609857 -0.07682498 0.29172117
00000000: db1f 573e eeb3 913f 4c26 cbbe fc1f 01be
00000010: 6a56 9dbd 7a5c 953e

embeddings.7.weight f4 [7, 4]
0.64858645 -0.09354575 0.20687366 -0.46015355 -0.57481724 0.05501865 1.4709935 1.332793
-0.3062576 1.9785899 0.62752783 1.2783976 -0.88435143 0.43956307 1.2379726 -0.6046251
0.81500685 -1.102275 -0.75399333 -0.35392576 -0.647263 -0.599022 -1.5755508 -2.5454702
0.92270327 0.43195182 -0.22865975 0.7424781
00000000: c309 263f ea94 bfbd b0d6 533e 3f99 ebbe
00000010: 3927 13bf 3c5b 613d 8449 bc3f f698 aa3f
00000020: cccd 9cbe 6f42 fd3f aaa5 203f 88a2 a33f
00000030: db64 62bf 690e e13e e375 9e3f b6c8 1abf
00000040: 4aa4 503f 5917 8dbf b505 41bf c235 b5be
00000050: 07b3 25bf 8159 19bf a6ab c9bf fce8 22c0
00000060: 4836 6c3f ca28 dd3e c825 6abe 0b13 3e3f

embeddings.8.weight f4 [6, 3]
1.1358975 -2.144725 1.1536403 1.4703218 0.7264237 0.3917778 2.3160229 -1.1630279
0.27179515 -1.4202436 1.319825 -1.0987943 0.22599903 0.7674678 -0.65919256 0.087332025
-0.15812798 -1.3922948
00000000: 1765 913f 2d43 09c0 7caa 933f 8133 bc3f
00000010: e7f6 393f 1a97 c83e b839 1440 19de 94bf
00000020: bc28 8b3e 8bca b5bf 07f0 a83f 4ba5 8cbf
00000030: 4a6c 673e c578 443f d8c0 28bf 22db b23d
00000040: 4dec 21be b736 b2bf

embeddings.9.weight f4 [6, 3]
1.7810887 -1.06369 -0.19060837 1.331813 -2.7689223 1.2601541 -0.50129026 -1.8442807
0.5827537 0.099948816 -0.14372028 -0.6016632 0.14833327 0.19561352 1.4797655 1.2238637
-1.829865 1.7966464
00000000: b7fa e33f fe26 88bf d72e 43be d978 aa3f
00000010: 0636 31c0 bb4c a13f 8f54 00bf 6411 ecbf
00000020: 592f 153f f7b1 cc3d 692b 13be 9906 1abf
00000030: ade4 173e e94e 483e f568 bd3f 91a7 9c3f
00000040: 0439 eabf 82f8 e53f

embeddings.10.weight f4 [4, 2]
1.2415767 -0.5065095 0.36083007 -1.7992604 0.14647463 -1.4699163 0.22347464 -1.8784492
00000000: fceb 9e3f 9baa 01bf b8be b83e 2a4e e6bf
00000010: 72fd 153e 3826 bcbf 89d6 643e 0671 f0bf

embeddings.11.weight f4 [5, 3]
0.33071676 0.23976117 -0.6334822 1.6130432 -1.6486737 -0.017591575 -0.09688707 0.5330867
-0.6930447 1.8075756 0.32320905 -0.034738515 -1.187888 -0.80831915 -0.58828896
00000000: b553 a93e f483 753e e42b 22bf 3378 ce3f
00000010: bd07 d3bf 351c 90bc ba6c c6bd 5f78 083f
00000020: 616b 31bf a35e e73f a87b a53e f949 0ebd
00000030: b70c 98bf 01ee 4ebf 1b9a 16bf

model.0.weight f4 [64, 42]
0.11097064 -0.027821915 0.13978669 -0.024691219 -0.09014466 0.013267076 -0.08687458 0.049564697
-0.07429025 0.44302693 0.015890688 0.018376842 0.17141685 0.039102443 0.054688156 -0.0926603
-0.30810964 0.0631869 -0.08514196 0.017318543 -0.01158382 -0.056466874 0.009013136 0.0816973
0.11610703 -0.09978302 -0.19024764 0.030330027 -0.08359788 -0.036033005 -0.10658357 0.012195663
-0.101983935 0.06690448 0.048419766 -0.0548329 0.25150913 0.20765035 -0.022435164 -0.06945335
0.18540157 0.06978965 -0.046911232 0.014221885 0.16223207 -0.0081288135 -0.05169088 -0.06071304
-0.039452326 0.09177732 -0.0041660615 0.10914651 -0.0014554171 -0.1108551 -0.038514014 0.007558629
0.075485565 0.12387751 0.10586014 -0.03840804 -0.1053396 0.066170946 0.07370504 -0.0994041
-0.0025065213 0.04707419 -0.050401177 -0.09355851 -0.11473464 -0.006215404 0.034888208 -0.052535977
0.14531565 0.051744543 -0.10394468 0.116449066 0.002661822 -0.0063157263 -0.099459894 0.020014085
-0.06501411 0.13257633 -0.008939232 0.018679861 0.10656578 0.03879424 0.000268963 -0.22475982
-0.06653748 0.13137822 0.07060476 -0.14797129 -0.11437429 0.13112588 0.032150324 -0.08020762
-0.11592384 -0.10950104 0.060619257 -0.089520074 0.050609503 -0.13363025 0.0993633 0.1575944
0.09761168 -0.14076665 0.12899831 0.008237699 0.019463787 0.15121862 -0.122089915 0.089517154
0.069514096 -0.12836628 0.1643861 -0.0009900249 -0.110168085 -0.12827872 -0.08717078 0.119802974
0.16599286 0.11441043 0.1243338 0.011808897 0.169557 -0.054125935 -0.15163647 -0.05598043
-0.056684177 0.0537041 -0.051819995 0.09148348 0.124701485 -0.07006275 0.021324571 -0.063581094
0.031442102 0.07100042 -0.13684274 0.034283347 0.00019013899 -0.23956549 0.111955985 -0.2519729
0.02667383 0.0006514322 -0.14387493 0.10676547 0.037194487 -0.07184351 0.14081676 0.14291194
0.1690709 -0.20488013 -0.12650831 -0.019409556 -0.06828433 0.01775201 0.06825036 -0.1200178
0.04818895 -0.05171408 -0.049168725 -0.17489886 0.015301419 0.04535711 0.18390518 0.15086251
0.16240697 -0.09995327 0.1488237 -0.050352596 0.061144926 0.06267388 -0.21859987 0.06138889
0.15074188 0.28306967 -0.06521829 -0.10431089 0.08649995 -0.011357304 -0.074791156 0.09400835
-0.08631078 -0.03907504 -0.1432648 0.10918911 -0.04266822 0.020085402 -0.091270715 0.1361123
-0.17111497 0.1263347 -0.21200871 -0.00470589 -0.025750263 0.00050806394 -0.00550866 -0.21290198
-0.30120376 0.041198492 -0.0030673745 0.13123874 0.1596169 0.10220973 0.07491223 0.14374049
-0.08058387 0.11085732 -0.07263561 -0.12727575 -0.11784254 0.047115687 0.018499404 0.053750336
0.0067748125 -0.08826693 -0.19468063 0.034176737 0.04296133 0.08705326 0.048660994 0.22868414
0.04795072 0.08277741 -0.19436398 -0.061473273 -0.05853982 0.12143523 0.09130427 0.21156138
-0.0780813 -0.0054663187 -0.29344532 0.06176813 -0.075567335 -0.050100394 0.03996303 0.030220728
0.040292747 -0.048265062 -0.12313375 -0.045961812 0.13253444 -0.12724571 -0.04816366 0.09837931
-0.122656554 -0.011169324 -0.100447305 -0.021914914 -0.055376586 0.10717368 -0.021142572 0.14212488
00000000: 9344 e33d c9ea e3bc 3e24 0f3e 3d45 cabc
00000010: c39d b8bd 265e 593c 4deb b1bd 5a04 4b3d
00000020: 7d25 98bd 6dd4 e23e 302d 823c 088b 963c
00000030: e687 2f3e e229 203d b000 603d afc4 bdbd
00000040: 8cc0 9dbe 2268 813d e85e aebd 9edf 8d3c
00000050: 10ca 3dbc cf49 67bd d5ab 133c ea50 a73d
00000060: 86c9 ed3d 0a5b ccbd 47d0 42be ad76 f83c
00000070: 5e35 abbd 5897 13bd 7d48 dabd 51d0 473c
00000080: f4dc d0bd 3705 893d ce53 463d 7798 60bd
00000090: cec5 803e 4ba2 543e f3c9 b7bc 8f3d 8ebd
000000a0: e9d9 3d3e e0ed 8e3d fe25 40bd e902 693c
000000b0: 2a20 263e b72e 05bc d1b9 53bd 3dae 78bd
000000c0: c398 21bd bff5 bb3d 7583 88bb 3588 df3d
000000d0: b2c3 beba 0008 e3bd dfc0 1dbd 60ae f73b
000000e0: 2d98 9a3d 7eb3 fd3d 33cd d83d c051 1dbd
000000f0: 4abc d7bd a284 873d abf2 963d 6094 cbbd
00000100: 7344 24bb ded0 403d 7771 4ebd 9b9b bfbd
00000110: fff9 eabd 96aa cbbb f0e6 0e3d f72f 57bd
00000120: a0cd 143e 16f2 533d f3e0 d4bd d97c ee3d
00000130: f671 2e3b 27f4 cebb a1b1 cbbd 94f4 a33c
00000140: 1e26 85bd 17c2 073e db75 12bc 8206 993c
00000150: 293f da3d b6e6 1e3d 9a03 8d39 7027 66be
00000160: cd44 88bd 0388 063e 3a99 903d c985 17be
00000170: 113d eabd dd45 063e 0fb0 033d e543 a4bd
00000180: 7a69 edbd 1542 e0bd e64b 783d 4d56 b7bd
00000190: e94b 4f3d 5ed6 08be fc7e cb3d 6d60 213e
000001a0: a2e8 c73d 2225 10be 2218 043e 6af7 063c
000001b0: 8572 9f3c 0ed9 1a3e 470a fabd c554 b73d
000001c0: 685d 8e3d 7372 03be d454 283e b9c3 81ba
000001d0: ce9f e1bd 7f5b 03be 9886 b2bd 435b f53d
000001e0: 08fa 293e 0450 ea3d b8a2 fe3d 1b7a 413c
000001f0: 5aa0 2d3e 28b3 5dbd 9746 1bbe bc4b 65bd
00000200: ab2d 68bd d5f8 5b3d 3441 54bd b15b bb3d
00000210: 7e63 ff3d 0f7d 8fbd deb0 ae3c ce36 82bd
00000220: 6fc9 003d ab68 913d 8120 0cbe b26c 0c3d
00000230: 0c60 4739 a850 75be 2e49 e53d 9802 81be
00000240: 1383 da3c e0c4 2a3a f353 13be dba7 da3d
00000250: 3f59 183d b122 93bd 4532 103e 8257 123e
00000260: ec20 2d3e 19cc 51be 658b 01be ca00 9fbc
00000270: a8d8 8bbd aa6c 913c d8c6 8b3d e4cb f5bd
00000280: c761 453d 25d2 53bd 2565 49bd b018 33be
00000290: ceb2 7a3c 61c8 393d a451 3c3e b47b 1a3e
000002a0: 034e 263e 4db4 ccbd 3d65 183e 863e 4ebd
000002b0: 1a73 7a3d 2a5b 803d a5d8 5fbe eb72 7b3d
000002c0: 145c 1a3e 82ee 903e 2b91 85bd f3a0 d5bd
000002d0: e326 b13d fc13 3abc 1b2c 99bd 7387 c03d
000002e0: b5c3 b0bd 260d 20bd 02b4 12be 8a9e df3d
000002f0: dfc4 2ebd 248a a43c 24ec babd 0661 0b3e
00000300: c338 2fbe e25d 013e d018 59be de33 9abb
00000310: 37f2 d2bc 982f 053a fd81 b4bb fa02 5abe
00000320: 6137 9abe c0bf 283d 0106 49bb 7363 063e
00000330: 9d72 233e 5653 d13d 956b 993d b530 133e
00000340: 2809 a5bd 2a09 e33d fbc1 94bd 9354 02be
00000350: 6e57 f1bd 61fc 403d 108c 973c 5029 5c3d
00000360: 3fff dd3b 4bc5 b4bd 5c5a 47be e8fc 0b3d
00000370: 38f8 2f3d fb48 b23d c050 473d 2d2c 6a3e
00000380: f967 443d 3487 a93d 5a07 47be 66cb 7bbd
00000390: 73c7 6fbd 09b3 f83d bcfd ba3d 8ca3 583e
000003a0: 17e9 9fbd ce1e b3bb 773e 96be 9400 7d3d
000003b0: 0cc3 9abd 1236 4dbd 46b0 233d 7691 f73c
000003c0: 020a 253d 96b1 45bd 8c2d fcbd 7442 3cbd
000003d0: 1cb7 073e b34c 02be 4247 45bd 177b c93d
000003e0: 5c33 fbbd 8aff 36bc 51b7 cdbd e886 b3bc
000003f0: 8fd2 62bd e07d db3d 3033 adbc 2f89 113e

model.0.bias f4 [64]
-0.045982257 -0.026839014 0.05945288 0.15142885 -0.23291649 0.013410772 -0.0036091537 0.014503355
0.12651174 0.119820505 0.3554435 0.04524024 -0.029689617 0.0055604256 0.1145743 0.0460665
0.103487745 0.076266475 -0.27102375 0.08957341 0.11192667 -0.03615148 0.13383012 -0.053784955
0.113250226 -0.0034363577 0.07231317 -0.0965477 0.01423531 0.056468092 0.19814189 0.026914753
0.13423666 -0.25501794 -0.12611376 0.19674487 0.0197186 0.14850125 0.2742111 0.18052562
-0.036016155 -0.114540175 -0.024054317 -0.144369 -0.25755763 -0.10192501 -0.07404207 0.16418868
0.11382291 0.04394943 -0.17402731 0.2557148 -0.18718383 -0.0061432743 -0.1783276 0.06667114
0.16119304 -0.050845794 0.0454853 -0.022987863 0.09451842 -0.046475746 0.010981117 -0.0009991151
00000000: e457 3cbd 7edd dbbc dd84 733d 2a10 1b3e
00000010: a981 6ebe dbb8 5b3c 8d87 6cbb 7b9f 6d3c
00000020: 4b8c 013e 7464 f53d b1fc b53e d44d 393d
00000030: a437 f3bc 3b34 b63b eea5 ea3d 3ab0 3c3d
00000040: 62f1 d33d 9931 9c3d a0c3 8abe 4472 b73d
00000050: cf39 e53d 9313 14bd c30a 093e 9d4d 5cbd
00000060: bcef e73d 8434 61bb ed18 943d cdba c5bd
00000070: 383b 693c 164b 673d b5e5 4a3e 547c dc3c
00000080: 5675 093e b691 82be f723 01be 7d77 493e
00000090: e788 a13c b610 183e 6665 8c3e b5db 383e
000000a0: ad85 13bd 0a94 eabd 8f0d c5bc 78d5 13be
000000b0: 98de 83be 0fbe d0bd 5ea3 97bd 1421 283e
000000c0: fc1b e93d 5104 343d 3734 32be 0ded 823e
000000d0: 1ead 3fbe 854d c9bb 839b 36be e18a 883d
000000e0: ca0f 253e ae43 50bd cb4e 3a3d 0b51 bcbc
000000f0: e092 c13d 5a5d 3ebd 25ea 333c bdf4 82ba

model.2.weight f4 [32, 64]
0.08861969 -0.014902766 0.018041642 0.05945448 -0.080669746 0.039711107 -0.089438185 0.14542827
-0.07264138 0.109854855 0.1401808 -0.076260254 -0.099258184 0.070844345 0.1815554 -0.13300326
0.15055886 -0.072475635 0.12319107 0.15423879 0.041820448 0.09539745 0.118937664 -0.13932009
-0.124531426 0.013716618 -0.09704734 -0.037042048 0.043139387 0.1252806 -0.06843749 -0.13493429
-0.10817275 0.13940988 0.14038952 0.086858235 -0.082353875 -0.041502945 0.16754058 -0.14215848
0.0006460974 0.15050967 -0.050178137 0.10205509 0.015036314 0.06645342 0.0994474 0.07229306
-0.08208092 -0.11920071 -0.06259549 -0.1747641 0.07723837 0.13055587 -0.17585643 0.046006057
0.123750605 0.12051546 0.021386052 0.20138833 0.067530416 0.09447717 -0.029075505 -0.13910331
-0.14197385 -0.1001663 -0.10244344 -0.016015252 0.09758895 -0.03540302 -0.022621883 0.0090636695
0.06892141 -0.17745483 -0.10782411 0.16141424 -0.10076074 0.073713906 -0.035168484 0.10469837
-0.010831427 -0.053068098 0.008540938 -0.08878023 -0.10311823 0.048447907 -0.10897527 0.045394294
-0.080342576 0.086388454 0.12472673 -0.15711296 -0.10758394 0.035483412 -0.062292874 -0.32764143
-0.08908033 0.10282208 -0.22757319 -0.12761381 0.19323742 0.020927347 -0.1125351 -0.090548284
0.052586168 0.016831448 0.09917546 -0.10579085 0.10090041 -0.105504476 0.1113175 0.13945267
0.0059388094 0.09569072 -0.030032784 0.1163095 0.06975901 -0.07101921 0.08990402 -0.060757283
0.044843607 -0.16903567 -0.08055592 0.038381003 -0.1770675 -0.030056372 -0.09603588 -0.06643558
-0.11992564 -0.1551122 -0.15364212 0.1088788 -0.11582114 0.0072040865 0.042402286 -0.030157363
-0.12845302 0.14767061 0.018019794 0.011977812 0.06667036 -0.061827607 -0.10041137 -0.16776384
0.09943705 0.09794576 0.010578021 0.016956287 -0.023283705 0.087439105 -0.010739405 -0.07236012
-0.068523556 0.07912524 0.017329844 1.4669168e-07 -0.1129059 0.05985002 0.08924813 0.052654225
0.010091994 0.064487055 0.029098982 -0.13154009 -0.028985344 0.10863853 0.045713942 0.05565374
-0.08997843 -0.08824576 -0.005636573 -0.0058368365 -0.11621739 0.087604895 -0.009624821 0.07929227
0.039104465 -0.083724394 0.09901114 0.038919922 -0.054571956 0.025069535 -0.018300954 0.07141392
-0.09228736 0.0251183 0.101530604 0.041315887 0.09081593 -0.07789457 -0.0040587913 0.0019013635
0.051835902 0.06321328 -0.01932026 -0.0424764 -0.096123695 -0.020541834 0.05514268 0.12520696
0.021236798 0.052864894 0.08447759 0.003702358 0.088997394 0.06478048 0.09193479 0.01956938
0.033652768 -0.043246727 0.088929735 -0.04187739 0.026636323 0.057988808 0.043889035 -0.07260769
0.029544948 -0.09090136 -0.03872885 0.03926029 -0.015943853 0.0062579047 0.08734085 0.07508344
0.0031760866 -0.039798524 0.00449688 -0.083588526 -0.022674846 -0.037570797 -0.13703717 0.055104613
0.10038985 0.12354608 -0.019646578 0.020603646 0.035350855 -0.0012318187 -0.03616135 0.09716358
-0.06247658 -0.1250101 0.10309118 -0.10492029 -0.13089217 0.005004826 0.01462421 -0.0032576863
-0.09437415 -0.07654715 0.02804565 -0.082583874 0.024506737 -0.06506827 -0.076903015 0.045185145
00000000: 3d7e b53d bb2a 74bc 11cc 933c 8a86 733d
00000010: 2e36 a5bd 1da8 223d 5e2b b7bd 26eb 143e
00000020: 01c5 94bd 95fb e03d 8e8b 0f3e 562e 9cbd
00000030: e047 cbbd d716 913d a9e9 393e 0232 08be
00000040: 1a2c 1a3e 1b6e 94bd 9a4b fc3d c6f0 1d3e
00000050: eb4b 2b3d bd5f c33d 9795 f33d eda9 0ebe
00000060: 550a ffbd aabb 603c c1c0 c6bd 67b9 17bd
00000070: edb2 303d 8f49 003e f428 8cbd 372c 0abe
00000080: ad89 ddbd 77c1 0e3e 45c2 0f3e bbe2 b13d
00000090: 26a9 a8bd fefe 29bd c28f 2b3e fe91 11be
000000a0: dd5e 293a 351f 1a3e 9787 4dbd 4202 d13d
000000b0: df5a 763c bb18 883d 14ab cb3d 620e 943d
000000c0: 0b1a a8bd 801f f4bd 1032 80bd 5cf5 32be
000000d0: 272f 9e3d 70b0 053e b513 34be d970 3c3d
000000e0: f570 fd3d cfd0 f63d cd31 af3c be38 4e3e
000000f0: 634d 8a3d 3f7d c13d c12f eebc 1971 0ebe
00000100: 9861 11be fd23 cdbd decd d1bd 6b32 83bc
00000110: b7dc c73d c202 11bd 8751 b9bc c97f 143c
00000120: ab26 8d3d b8b6 35be e3d2 dcbd c649 253e
00000130: a65b cebd 51f7 963d d40c 10bd 196c d63d
00000140: 4c76 31bc ef5d 59bd 4aef 0b3c 69d2 b5bd
00000150: a72f d3bd 5071 463d 6d2e dfbd 5eef 393d
00000160: a68a a4bd 6eec b03d ba70 ff3d 38e2 20be
00000170: f854 dcbd 0e57 113d d026 7fbd 9ec0 a7be
00000180: c06f b6bd 6294 d23d f208 69be 32ad 02be
00000190: 08e0 453e d46f ab3c cd78 e6bd 6171 b9bd
000001a0: 9864 573d 1be2 893c 811c cb3d e0a8 d8bd
000001b0: e0a4 ce3d bb12 d8bd 6efa e33d aecc 0e3e
000001c0: 589a c23b 7ff9 c33d 5007 f6bc ad33 ee3d
000001d0: d0dd 8e3d 8572 91bd 991f b83d a1dc 78bd
000001e0: eead 373d b017 2dbe 81fa a4bd 6635 1d3d
000001f0: 2f51 35be c838 f6bc 76ae c4bd 610f 88bd
00000200: 939b f5bd bcd5 1ebe 5c54 1dbe d9fb de3d
00000210: a233 edbd 4210 ec3b 05ae 2d3d 930c f7bc
00000220: 3089 03be f736 173e 3f9e 933c 963e 443c
00000230: 788a 883d f23e 7dbd 7aa4 cdbd 49ca 2bbe
00000240: a7a5 cb3d c997 c83d 704f 2d3c e9e7 8a3c
00000250: 78bd bebc 4613 b33d 54f4 2fbc 8b31 94bd
00000260: 1456 8cbd 6a0c a23d 51f7 8d3c 4d82 1d34
00000270: 353b e7bd 4b25 753d b9c7 b63d f5ab 573d
00000280: e458 253c ca11 843d fd60 ee3c 72b2 06be
00000290: ac72 edbc e17d de3d 8b3e 3b3d 2df5 633d
000002a0: 9c46 b8bd 31ba b4bd 00b3 b8bb ef42 bfbb
000002b0: 6203 eebd 326a b33d 6db1 1dbc fc63 a23d
000002c0: 012c 203d b277 abbd 5ac6 ca3d 7f6a 1f3d
000002d0: d886 5fbd a05e cd3c e2eb 95bc 7641 923d
000002e0: 2801 bdbd e5c4 cd3c 47ef cf3d d93a 293d
000002f0: b4fd b93d 3087 9fbd 9cff 84bb 2c37 f93a
00000300: e251 543d f775 813d 8645 9ebc bcfb 2dbd
00000310: 80dc c4bd 5947 a8bc 4add 613d 4136 003e
00000320: cbf8 ad3c dc88 583d 9602 ad3d 43a3 723b
00000330: 4444 b63d a1ab 843d 4f48 bc3d f74f a03c
00000340: 7cd7 093d 7b23 31bd cb20 b63d a087 2bbd
00000350: 6b34 da3c ac85 6d3d fdc4 333d 57b3 94bd
00000360: 3f08 f23c 7e2a babd 25a2 1ebd 66cf 203d
00000370: af9c 82bc 1c0f cd3b c2df b23d 59c5 993d
00000380: e425 503b c703 23bd 905a 933b 7630 abbd
00000390: 99c0 b9bc d6e3 19bd 7953 0cbe 60b5 613d
000003a0: 3299 cd3d ba05 fd3d dcf1 a0bc fac8 a83c
000003b0: 0fcc 103d fa74 a1ba ec1d 14bd b3fd c63d
000003c0: 71e7 7fbd a602 00be 7821 d33d 73e0 d6bd
000003d0: 9908 06be 86ff a33b 629a 6f3c e87e 55bb
000003e0: 3c47 c1bd c1c4 9cbd febf e53c bc21 a9bd
000003f0: 5ac2 c83c 8342 85bd 547f 9dbd 0f14 393d

model.2.bias f4 [32]
0.05497856 0.09335676 0.052841846 -0.067188054 0.08347491 0.0067828097 0.010230252 -0.004150916
0.22517115 0.13170035 0.20251478 -0.067652084 0.12234393 -0.09039033 0.035006482 -0.09969517
-0.093468346 0.11577758 -0.09154718 -0.013961792 0.06940083 0.062463626 0.1480263 -0.11024653
0.10705275 0.10477682 0.017368017 -0.02183323 -0.089834645 0.08558652 0.043420155 0.2913099
00000000: 3331 613d d431 bf3d b170 583d e499 89bd
00000010: e5f4 aa3d 5542 de3b c99c 273c 6804 88bb
00000020: 4493 663e 75dc 063e 0960 4f3e 2d8d 8abd
00000030: 748f fa3d 911e b9bd f562 0f3d fb2c ccbd
00000040: 556c bfbd cc1c ed3d 177d bbbd 00c0 64bc
00000050: 0622 8e3d dcd9 7f3d 3594 173e efc8 e1bd
00000060: 793e db3d 3b95 d63d 5f47 8e3c 9adb b2bc
00000070: 3afb b7bd fc47 af3d 55d9 313d 9226 953e

model.4.weight f4 [1, 32]
0.17926644 -0.1522807 -0.07893784 -0.035802927 -0.17827888 -0.06179414 -0.106728196 0.118579574
0.16403048 0.1998711 0.18476014 0.18894854 0.0957743 -0.018911561 0.15365908 -0.09242057
-0.12718108 0.21210654 -0.07322796 0.1560835 0.1141035 -0.13097896 0.15230227 -0.0625378
0.05888436 0.17396365 -0.09810799 0.08311666 -0.10782047 0.0448564 0.12841748 0.26549035
00000000: 9f91 373e 79ef 1bbe 2aaa a1bd 17a6 12bd
00000010: bd8e 36be da1b 7dbd 5094 dabd d9d9 f23d
00000020: 9bf7 273e 02ab 4c3e c331 3d3e ba7b 413e
00000030: 5125 c43d 6bec 9abc ce58 1d3e ff46 bdbd
00000040: c23b 02be 7532 593e 8af8 95bd 5ad4 1f3e
00000050: 19af e93d 591f 06be 20f5 1b3e d113 80bd
00000060: ba30 713d 8723 323e d8ec c8bd 1139 aa3d
00000070: fbd0 dcbd 58bb 373d df7f 033e 5aee 873e

exp_avg f4 [7, 4]
0.00070708635 7.483298e-05 0.0014237011 -0.0002993177 -0.00019424615 -0.00041436468 -0.00021538092 -4.349677e-05
0.00060976873 -0.00017115328 0.00016486096 0.0002903705 0.00025698982 -0.0001903593 0.00052766467 -8.160369e-05
0.00024905187 -0.00029828673 4.0297487e-06 0.00056403765 0.00016071965 -0.00014261973 -0.00029887777 0.0003939622
-0.00014119316 0.00024669818 -0.00082550524 0.0007021969
00000000: c35b 393a a6ef 9c38 7b9b ba3a beed 9cb9
00000010: 8eae 4bb9 163f d9b9 e0d7 61b9 4d70 36b8
00000020: e3d8 1f3a 9c77 33b9 87de 2c39 de3c 9839
00000030: 97bc 8639 2f9b 47b9 fa52 0a3a a622 abb8
00000040: 2d93 8239 5e63 9cb9 4737 8736 eddb 133a
00000050: da86 2839 318c 15b9 b2b2 9cb9 b68c ce39
00000060: 400d 14b9 4557 8139 b866 58ba a313 383a

exp_avg_sq f4 [7, 4]
3.3301417e-06 1.2126251e-06 4.352872e-06 2.960124e-06 3.5035396e-06 1.7883011e-06 7.0610636e-06 4.8401107e-06
3.5532482e-06 1.7603147e-06 7.3557962e-06 5.648261e-06 1.5573522e-06 8.355863e-07 2.2117426e-06 1.5033081e-06
1.3645968e-06 1.1111139e-06 3.2558428e-06 2.6258192e-06 2.082455e-06 1.5007449e-06 4.9640025e-06 3.5518524e-06
1.3141777e-06 1.1643656e-06 3.3501435e-06 3.2130324e-06
00000000: 667b 5f36 7bc1 a235 e30e 9236 8ba6 4636
00000010: 5a1e 6b36 8f05 f035 13ee ec36 3c68 a236
00000020: 5774 6e36 f443 ec35 cfd1 f636 3186 bd36
00000030: 3706 d135 0e4d 6035 736d 1436 46c5 c935
00000040: 3027 b735 9521 9535 f47e 5a36 3b37 3036
00000050: 4ec0 0b36 346d c935 7590 a636 5c5c 6e36
00000060: cd62 b035 4c47 9c35 07d3 6036 7a9f 5736

exp_avg f4 [7, 4]
0.0014657505 -0.0011235456 -0.0017634744 0.00031891602 0.0012648549 -0.0010010744 -0.0017634542 0.00060319266
0.00022012152 -0.000926826 -0.00074492715 0.0010363315 0.0009623746 -0.0016393906 -0.0014746449 0.0012663824
0.00050111377 -7.775274e-05 -0.0008431583 -0.00037013539 0.0010490887 -0.00061864615 -0.000517853 0.00057120295
0.0013565797 -0.0016323228 -0.0017771729 0.0013409521
00000000: 6d1e c03a ef43 93ba 6224 e7ba 2f34 a739
00000010: 7dc9 a53a 7c36 83ba b423 e7ba 931f 1e3a
00000020: 6cd0 6639 3df6 72ba 3747 43ba 84d5 873a
00000030: de47 7c3a d2e0 d6ba df48 c1ba befc a53a
00000040: 2d5d 033a 2f0f a3b8 6507 5dba bb0e c2b9
00000050: 9381 893a a42c 22ba 87c0 07ba c8bc 153a
00000060: 43cf b13a aaf3 d5ba 07f0 e8ba e3c2 af3a

exp_avg_sq f4 [7, 4]
1.7082006e-05 3.0779054e-05 3.4856508e-05 1.7213064e-05 8.206339e-06 2.4129893e-05 2.644976e-05 1.3079169e-05
1.3628681e-05 3.3365057e-05 4.031708e-05 2.2345286e-05 1.5295254e-05 3.1854568e-05 3.9342238e-05 1.864351e-05
1.6738804e-05 3.2836702e-05 3.5511668e-05 1.7784276e-05 1.1668472e-05 2.6091857e-05 3.070228e-05 1.3895034e-05
1.1485172e-05 3.4300876e-05 3.695459e-05 2.2532377e-05
00000000: 544b 8f37 c218 0138 e432 1238 c664 9037
00000010: f5ad 0937 8d6a ca37 6de0 dd37 9a6e 5b37
00000020: bda6 6437 75f1 0b38 231a 2938 2372 bb37
00000030: 4f4e 8037 959b 0538 6803 2538 a264 9c37
00000040: 4f6a 8c37 24ba 0938 5df2 1438 712f 9537
00000050: b5c3 4337 d6df da37 52c6 0038 b71e 6937
00000060: 70b0 4037 49de 0f38 b0ff 1a38 e903 bd37

exp_avg f4 [6, 3]
9.150125e-05 0.0018094643 0.00031901177 -0.00035287553 -0.00035663033 -0.00050801015 -0.0006062371 0.001816404
0.00083293684 -0.0006699794 0.0017157885 -0.00012636972 -0.00024108763 -0.0007840883 -1.9792096e-05 -0.00024344843
0.0028410284 0.0008818843
00000000: 5ce4 bf38 8c2b ed3a 0941 a739 2702 b9b9
00000010: 1dfa bab9 fc2b 05ba e2eb 1eba 6814 ee3a
00000020: 7259 5a3a 8ea1 2fba 4fe4 e03a 1d82 04b9
00000030: 78cc 7cb9 468b 4dba 3407 a6b7 3146 7fb9
00000040: 8c30 3a3b 412e 673a

exp_avg_sq f4 [6, 3]
5.761285e-06 2.2528347e-05 2.7366068e-06 1.8023752e-06 1.0473896e-05 3.180953e-06 2.4325927e-06 1.3409334e-05
4.029441e-06 7.667251e-06 2.3809023e-05 2.780233e-06 8.75721e-06 3.5163226e-05 6.8361046e-06 4.062157e-06
2.7363038e-05 8.885786e-06
00000000: 1051 c136 42fb bc37 8ca6 3736 24e9 f135
00000010: 0ab9 2f37 5b78 5536 a03f 2336 a7f8 6037
00000020: a234 8736 98a2 0037 7db9 c737 0a94 3a36
00000030: eeeb 1237 3a7c 1338 b161 e536 aa4d 8836
00000040: ad89 e537 2914 1537

exp_avg f4 [6, 3]
-0.00020333269 0.00012782318 0.00048263776 1.7022928e-06 0.0007695202 0.00041648487 -0.0012202327 0.0018206503
0.00069342717 -0.00057278847 0.0012202747 0.0006256372 -0.00061348587 0.0008498067 0.0005184916 0.00021722706
-0.00029990906 -0.00028774378
00000000: b435 55b9 4608 0639 8b0a fd39 567a e435
00000010: a0b9 493a a75b da39 37f0 9fba e3a2 ee3a
00000020: 1cc7 353a 2f27 16ba a0f1 9f3a cd01 243a
00000030: 57d2 20ba 90c5 5e3a 62eb 073a 72c7 6339
00000040: 1d3d 9db9 51dc 96b9

exp_avg_sq f4 [6, 3]
2.5806303e-06 9.045636e-06 3.22512e-06 6.0803295e-06 1.7932776e-05 5.117305e-06 4.4182584e-06 1.6793276e-05
6.681909e-06 4.3568043e-06 1.015245e-05 2.6913763e-06 4.261188e-06 1.0751484e-05 4.2117813e-06 8.092167e-06
1.7807883e-05 3.4778548e-06
00000000: e42e 2d36 b6c2 1737 246f 5836 a205 cc36
00000010: 586e 9637 51b5 ab36 8d40 9436 49df 8c37
00000020: 2935 e036 aa30 9236 7154 2a37 7e9d 3436
00000030: 54fb 8e36 4661 3437 ed52 8d36 98c3 0737
00000040: 2362 9537 1765 6936

exp_avg f4 [4, 2]
-0.0005762845 0.001769522 -8.7358225e-05 -0.0011794692 -0.0018177883 0.004739875 -0.00053759664 0.0017585561
00000000: cc11 17ba 4eef e73a 1734 b7b8 6b98 9aba
00000010: db42 eeba f450 9b3b 80ed 0cba 5a7f e63a

exp_avg_sq f4 [4, 2]
6.387945e-06 7.569426e-05 8.71256e-06 9.141651e-05 9.290418e-06 7.922309e-05 6.6506664e-06 5.629961e-05
00000000: 0858 d636 0cbe 9e38 292c 1237 ddb6 bf38
00000010: 0bde 1b37 9324 a638 ca28 df36 3f23 6c38

exp_avg f4 [8, 4]
-0.0005880369 2.230692e-05 -0.00010239975 0.0001421533 -0.0015696816 0.0009079457 -0.0005917684 0.0004047702
-0.0012113333 0.0029018917 -0.000428119 -0.00031410225 2.2911958e-05 0.00040646523 -0.00018567946 -0.00015550789
-0.0022217748 0.00018955179 -2.1180776e-05 0.0006312435 -0.0005192747 0.004014275 -0.0007376572 -0.0010258204
0.00034774168 0.0005991185 -0.00019074036 -0.00022791725 -0.00030367126 0.0009637429 -0.00035695182 -0.00041172598
00000000: 7d26 1aba bf1f bb37 72bf d6b8 fc0e 1539
00000010: c6bd cdba 3403 6e3a e820 1bba 5637 d439
00000020: 9ac5 9eba aa2d 3e3b 2975 e0b9 17ae a4b9
00000030: 0e33 c037 d71a d539 f3b2 42b9 d50f 23b9
00000040: 329b 11bb 6cc2 4639 5fad b1b7 097a 253a
00000050: ef1f 08ba 2e8a 833b 565f 41ba d274 86ba
00000060: 1951 b639 290e 1d3a 7a01 48b9 12fd 6eb9
00000070: 1136 9fb9 b1a3 7c3a 4325 bbb9 eddc d7b9

exp_avg_sq f4 [8, 4]
3.6003596e-06 1.8375393e-05 1.4392276e-06 7.494783e-07 1.1591814e-05 1.8050752e-05 1.4333258e-06 1.7935391e-06
5.757964e-06 6.9402355e-05 1.9272352e-06 1.7665815e-06 8.713169e-06 5.5473414e-05 2.6273194e-06 2.2392805e-06
2.8766011e-05 8.2409555e-05 5.6122954e-06 4.334202e-06 3.6241038e-06 2.9041015e-05 8.317316e-07 1.4353703e-06
7.440626e-07 3.9480256e-06 4.745577e-07 1.6115166e-07 1.45442355e-05 8.0921374e-05 8.484271e-06 2.3260732e-06
00000000: b59d 7136 db24 9a37 7c2b c135 c22f 4935
00000010: 767a 4237 b26b 9737 b360 c035 89b9 f035
00000020: 8934 c136 1b8c 9138 a655 0136 471b ed35
00000030: c72e 1237 20ac 6838 0151 3036 8c46 1636
00000040: 8a4e f137 4bd3 ac38 4051 bc36 836e 9136
00000050: a135 7336 1b9d f337 2944 5f35 f3a6 c035
00000060: 98bb 4735 4879 8436 b7c6 fe34 0809 2d34
00000070: 0403 7437 55b4 a938 ab57 0e37 a219 1c36

exp_avg f4 [3, 2]
0.000815244 -0.00045738605 0.00029765 -4.8423262e-05 0.006364822 -0.0015998366
00000000: 19b6 553a 51cd efb9 e80d 9c39 151a 4bb8
00000010: ff8f d03b 9cb1 d1ba

exp_avg_sq f4 [3, 2]
8.022496e-05 4.770261e-06 0.000114402224 5.74847e-06 0.000111085305 5.6528797e-06
00000000: 733e a838 3b10 a036 3aeb ef38 fbe2 c036
00000010: 78f6 e838 dead bd36

exp_avg f4 [7, 4]
-0.0006219813 -0.00030770368 -0.00012869331 0.0004205127 -0.00033281595 -0.00032866397 -0.00013200472 0.00022655794
-0.00067763246 8.8381195e-05 -9.633162e-05 0.00076078693 -8.241913e-05 -0.0001328699 3.2775074e-06 8.04865e-07
-0.0003949406 0.00020816606 -0.00010980856 0.00036987057 6.693273e-05 -0.00027162873 0.000423762 -0.0004435415
-0.00043274727 -7.350598e-05 -0.00024449584 0.00011860705
00000000: 750c 23ba 4a53 a1b9 d9f1 06b9 4278 dc39
00000010: cd7d aeb9 8850 acb9 bf6a 0ab9 2f90 6d39
00000020: 25a3 31ba 4b59 b938 a505 cab8 8c6f 473a
00000030: 6fd8 acb8 fe52 0bb9 26f3 5b36 e70d 5835
00000040: 0810 cfb9 2747 5a39 0649 e6b8 30eb c139
00000050: 3c5e 8c38 6469 8eb9 5f2c de39 228b e8b9
00000060: 5be2 e2b9 3927 9ab8 ad2f 80b9 adbc f838

exp_avg_sq f4 [7, 4]
2.1043115e-06 1.3755288e-06 1.8709997e-06 8.5429804e-07 1.3922988e-06 8.2706407e-07 1.5759119e-06 4.6585166e-07
2.668015e-06 2.0013547e-06 1.9326335e-06 9.0210824e-07 1.424885e-06 1.4129645e-06 2.1637313e-06 9.602753e-07
3.4323068e-06 1.4743256e-06 1.8376265e-06 8.250386e-07 1.3974411e-06 1.63729e-06 1.82924e-06 1.4081271e-06
2.2872255e-06 1.2036634e-06 1.0443828e-06 6.3338354e-07
00000000: cc37 0d36 cf9e b835 0f1f fb35 ea52 6535
00000010: 06df ba35 6903 5e35 ec83 d335 2a1a fa34
00000020: 260c 3336 034f 0636 64b2 0136 6828 7235
00000030: ad3e bf35 17a5 bd35 9f34 1136 cfe2 8035
00000040: 9556 6636 71e1 c535 5ea4 f635 3978 5d35
00000050: b68f bb35 dbc0 db35 3584 f535 e1fe bc35
00000060: 3c7e 1936 8f8d a135 b82c 8c35 c905 2a35

exp_avg f4 [6, 3]
-0.0008514302 0.0005854194 0.00091682357 -0.0007663374 0.00053819304 0.0012887254 -0.0005296021 -0.00014588791
0.00038986292 1.6132235e-05 -0.00018117811 0.00014580764 -0.00053613604 0.00057482446 0.0022762003 -0.00024807756
0.00018775549 -0.00025276074
00000000: 8332 5fba d576 193a fd56 703a 08e4 48ba
00000010: 8615 0d3a 73ea a83a ffd4 0aba 7df9 18b9
00000020: 8466 cc39 b653 8737 a1fa 3db9 f1e3 1839
00000030: 7b8b 0cba d1af 163a 4e2c 153b 6810 82b9
00000040: 3be0 4439 f984 84b9

exp_avg_sq f4 [6, 3]
2.974864e-06 4.137284e-06 1.2036556e-05 2.2805546e-06 1.8664066e-06 1.3708005e-05 4.6029136e-06 4.3849495e-06
2.8078628e-05 2.3092912e-06 1.3238016e-06 2.2236274e-05 3.9045185e-06 2.0020614e-06 2.5753112e-05 2.2117526e-06
2.8886857e-06 3.303234e-05
00000000: c6a3 4736 00d3 8a36 9df0 4937 a10b 1936
00000010: 3e81 fa35 6ffb 6537 ba72 9a36 6e22 9336
00000020: 658a eb37 52f9 1a36 7aad b135 0988 ba37
00000030: 8f03 8336 275b 0636 6308 d837 9f6d 1436
00000040: 3edb 4136 348c 0a38

exp_avg f4 [6, 3]
-7.0093694e-05 0.00018484089 0.00046510392 2.4960062e-05 0.0003985894 -0.00038883716 -0.00024882625 0.00070563116
-0.00013995108 0.00033178183 -0.00064682297 3.8270984e-05 -0.00047149026 0.00050797604 -0.0004063655 -0.00023723958
0.00015303482 -5.4028096e-05
00000000: 44ff 92b8 d9d1 4139 31d9 f339 5361 d137
00000010: c4f9 d039 d7dc cbb9 e574 82b9 1bfa 383a
00000020: d5bf 12b9 01f3 ad39 8e8f 29ba 2885 2038
00000030: 5a32 f7b9 b229 053a 740d d5b9 84c3 78b9
00000040: f977 2039 3a9c 62b8

exp_avg_sq f4 [6, 3]
1.2245291e-06 2.4005578e-06 2.4037672e-06 1.3012933e-06 3.846233e-06 2.609497e-06 1.4451402e-06 2.9713342e-06
2.6557127e-06 2.1130752e-06 3.0834224e-06 3.625152e-06 1.5865699e-06 1.7743166e-06 2.5682689e-06 1.2742128e-06
3.2351927e-06 2.762827e-06
00000000: 805a a435 4519 2136 6850 2136 19a8 ae35
00000010: e40e 8136 d11e 2f36 a4f6 c135 2267 4736
00000020: cc38 3236 5bce 0d36 cbec 4e36 a347 7336
00000030: 20f2 d435 0e25 ee35 865a 2c36 9e05 ab35
00000040: 301c 5936 0269 3936

exp_avg f4 [4, 2]
-0.0013518002 0.0006369426 -0.0017995603 0.0011168198 -0.0060691596 0.0044068405 -0.00018941212 -4.7303434e-05
00000000: e32e b1ba 7ff8 263a 39df ebba 4162 923a
00000010: cddf c6bb 4267 903b ee9c 46b9 ad67 46b8

exp_avg_sq f4 [4, 2]
7.498096e-05 3.50457e-05 7.2565184e-05 4.0958297e-05 7.06675e-05 4.2038533e-05 5.984364e-05 3.4859266e-05
00000000: 193f 9d38 09fe 1238 232e 9838 a3ca 2b38
00000010: 5333 9438 8852 3038 9f00 7b38 da35 1238

exp_avg f4 [5, 3]
0.0011465646 8.06394e-05 -0.00018665903 0.00033057705 -5.8303627e-05 0.00039437477 0.00037463618 -3.111079e-05
0.0006714771 0.00020161892 -0.00022913041 0.002289977 -0.0008678726 -2.8695684e-05 0.00346094
00000000: 5348 963a f31c a938 e7b9 43b9 4d51 ad39
00000010: 0b8b 74b8 16c4 ce39 d16a c439 f57c 02b8
00000020: 1106 303a ab69 5339 ba42 70b9 7013 163b
00000030: f281 63ba 83b7 f0b7 f0d0 623b

exp_avg_sq f4 [5, 3]
4.1648714e-06 6.7217144e-07 1.1254569e-05 3.9284982e-06 6.480645e-07 6.2416866e-06 7.969924e-06 1.613706e-06
2.9359131e-05 1.1392405e-05 1.4324391e-06 1.4955529e-05 9.6447875e-06 2.6466514e-06 5.2157367e-05
00000000: f9bf 8b36 456f 3435 01d2 3c37 8bd1 8336
00000010: a7f6 2d35 ae6f d136 90b6 0537 8496 d835
00000020: 4148 f637 0222 3f37 3c42 c035 82e9 7a37
00000030: 0cd0 2137 209d 3136 8cc3 5a38

exp_avg f4 [64, 42]
-0.0014403978 -0.0006607315 -6.6005254e-05 0.0018330471 -0.00085593195 0.0011602214 0.00037450963 0.00044514783
0.000344602 -0.00017488791 0.00092872616 -0.0005307791 -0.00049476296 0.00055859634 0.0014882815 0.00011919063
-0.0011813118 -0.00071601634 0.0001685192 0.00020477586 1.46151815e-05 0.0005572464 -0.00044515956 0.0009699291
0.00064906507 0.0008902977 0.00045195082 -0.0009309305 0.00016732738 9.460776e-05 0.00058091286 0.0014416705
-3.763935e-05 -0.0015342503 0.0038608129 -0.00019215723 0.0005135342 0.005644098 0.020188633 -0.007909235
-4.75993e-05 2.7475025e-05 -0.0004912738 -0.00060139 0.0003667593 0.0005491992 0.0004296299 -0.00051040284
-0.0002625104 -4.74343e-05 2.0561598e-05 0.00015187872 -0.00094344956 0.00051840703 0.0005569455 0.0009170632
-0.0005960579 0.0001869649 -0.00015214915 0.00015551347 -0.00022644637 -7.8255376e-05 5.6296405e-05 -5.159825e-05
-0.00062932377 -0.00030232858 -0.00029005655 -0.0007108603 -0.0003162717 -0.00029259833 -0.0006144708 -9.4906296e-05
0.0011343652 -0.00027313174 -0.00010756304 0.0006091788 0.0005488539 0.00030993018 0.00018960718 -0.008415579
-0.0062375977 -0.008717484 -0.00010060347 -0.0003898488 -0.00022065509 -0.0005934903 0.00052970555 0.0008317871
0.00042698171 -0.0005774275 -0.0012059789 0.0004921909 -0.00038652733 0.00035355976 -0.0007295888 -0.00040080072
0.00020633727 0.0013879573 -0.0010974738 0.0009219012 -0.0011048492 0.0006665564 -0.00019360716 -0.00032719853
9.943925e-05 -0.00022868287 -0.0008256006 -0.00032890576 -0.00079960155 -0.0010838017 -0.0011737371 -0.00060416607
-0.0002490292 -0.0007436384 0.0024502317 -0.00062774506 -0.00052817276 0.0010350969 0.0032024153 0.0008086569
0.0009406288 -0.0065787095 -0.049106695 -0.017010743 -0.00017005282 -0.0005109033 0.000634567 -0.0008165087
0.00049609435 0.00030015036 0.0012028841 -0.0017754294 -0.0019373014 0.0005383709 -0.00079522276 0.00052815874
-0.0018480562 -0.00032567396 0.00029386382 0.0022842085 -0.003173491 0.0010260195 -0.0008134699 0.0018197745
0.00025157514 -0.001136193 0.0001476657 -0.00065208593 -0.0017969034 -0.0002519561 -0.0012831013 -0.002393527
-0.002382597 -6.5134394e-05 -0.0005323817 -0.0017241979 0.003695521 -0.0017488904 -0.0005494019 0.0029113314
0.0016908069 0.0015550327 0.0008044095 -0.011131554 -0.096541576 -0.022346009 -0.00023364763 -0.000778443
-0.00019622703 0.00023975883 5.3526634e-05 0.00064774085 -0.0005434586 0.0006219597 8.886481e-05 0.00030410915
-7.308559e-05 -0.00018944824 0.0007493825 -1.4450119e-05 -0.0003065541 -0.0002697753 0.0006853126 0.00010430658
-0.0005730219 -0.0001710578 0.00031690698 -8.223407e-05 -3.23919e-07 0.0002550203 -0.00013996662 0.0006565907
0.00042705078 0.00070289406 5.393656e-05 -6.19716e-05 0.00024662534 -0.0004305075 7.101367e-05 0.0005452441
0.00013649762 -0.0005012068 0.0010471335 -0.00016085837 0.00010812189 0.0029525296 -0.0029602963 0.0007875816
-3.2250096e-05 5.2418138e-05 -0.00015714049 -0.00021169423 0.000567046 0.000330854 -0.00017726108 -9.7308555e-05
-0.0006862956 -4.6333487e-05 0.00037705828 0.00010137229 0.00024247862 0.00033258548 0.0005165986 1.6571354e-05
9.3262184e-05 0.00039715963 -0.0003960537 -5.4443217e-06 -0.0002924378 5.134793e-05 -2.2579718e-05 -0.000111536014
-5.1859653e-05 -0.00028027044 -0.0004935028 -0.00052946137 0.00027223834 -0.0006057443 1.1267895e-06 -0.00068670243
0.0007942365 -0.0002337904 -0.00012961977 0.00017939303 0.00051271566 0.0004943061 0.0001397942 -0.007556068
-0.0047705933 -0.004060194 0.00014433976 0.00032054263 -4.8994716e-05 0.00048631133 -0.00057813036 -0.00097232923
00000000: bbcb bcba f134 2dba 4d6c 8ab8 db42 f03a
00000010: 9f60 60ba 9212 983a d559 c439 bb62 e939
00000020: b3ab b439 1e62 37b9 c275 733a fc23 0bba
00000030: fbb2 01ba c46e 123a 7112 c33a fbf5 f938
00000040: 3fd6 9aba 0bb3 3bba 87b4 3039 1ab9 5639
00000050: ba33 7537 2c14 123a 4e64 e9b9 d742 7e3a
00000060: 0526 2a3a de62 693a d0f3 ec39 b009 74ba
00000070: 9a74 2f39 2868 c638 6748 183a 6ff6 bc3a
00000080: f2de 1db8 e618 c9ba b105 7d3b d07d 49b9
00000090: b29e 063a 20f2 b83b a262 a53c bc95 01bc
000000a0: 5ca5 47b8 2b7a e637 d4c8 00ba 9aa6 1dba
000000b0: 9a49 c039 22f8 0f3a f33f e139 8ecc 05ba
000000c0: 8da1 89b9 31f4 46b8 b27b ac37 a241 1f39
000000d0: d451 77ba b5e5 073a fbff 113a 1267 703a
000000e0: c540 1cba 020c 4439 3a8a 1fb9 5411 2339
000000f0: 3c72 6db9 091d a4b8 ce1f 6c38 336b 58b8
00000100: 34f9 24ba db81 9eb9 bb12 98b9 0759 3aba
00000110: 45d1 a5b9 e267 99b9 7014 21ba 6e08 c7b8
00000120: fbae 943a 1f33 8fb9 7893 e1b8 4cb1 1f3a
00000130: f6e0 0f3a 207e a239 4ad1 4639 7fe1 09bc
00000140: c364 ccbb c7d3 0ebc 14fb d2b8 9f64 ccb9
00000150: a65f 67b9 7694 1bba f0db 0a3a 4a0c 5a3a
00000160: 84dc df39 815e 17ba f011 9eba 5f06 013a
00000170: d2a6 cab9 fd5d b939 e041 3fba 9022 d2b9
00000180: 3d5c 5839 1eec b53a 1cd9 8fba beab 713a
00000190: 96d0 90ba d8bb 2e3a 0703 4bb9 d88b abb9
000001a0: 0a8a d038 97ca 6fb9 1e6d 58ba fc70 acb9
000001b0: 5a9c 51ba 5a0e 8eba 15d8 99ba e660 1eba
000001c0: 2290 82b9 baf0 42ba 1194 203b 428f 24ba
000001d0: 1375 0aba 17ac 873a 9ddf 513b 0cfc 533a
000001e0: 8894 763a 3792 d7bb 1a24 49bd 1d5a 8bbc
000001f0: 3550 32b9 24ee 05ba 1259 263a f90a 56ba
00000200: 540c 023a 805d 9d39 18aa 9d3a 86b5 e8ba
00000210: 0ced fdba 7621 0d3a 7f76 50ba 2274 0a3a
00000220: 7a3a f2ba 38bf aab9 bc11 9a39 a9b2 153b
00000230: 58fa 4fbb 807b 863a 0a3f 55ba 8085 ee3a
00000240: d8e5 8339 50ec 94ba b6d6 1a39 bff0 2aba
00000250: 1386 ebba fa18 84b9 bc2d a8ba b8dc 1cbb
00000260: 5825 1cbb c398 88b8 888f 0bba 7bfe e1ba
00000270: 8e30 723b 063b e5ba bd05 10ba 09cc 3e3b
00000280: 119e dd3a 3dd2 cb3a 02df 523a 1f61 36bc
00000290: 97b7 c5bd fa0e b7bc 4fff 74b9 6d10 4cba
000002a0: 4bc2 4db9 c567 7b39 c981 6038 27cd 293a
000002b0: e476 0eba 020b 233a ee5c ba38 d770 9f39
000002c0: 8745 99b8 a0a6 46b9 3572 443a ca6e 72b7
000002d0: ffb8 a0b9 a170 8db9 8da6 333a 2bbf da38
000002e0: d936 16ba fb5d 33b9 8926 a639 1575 acb8
000002f0: 17e7 adb4 3fb4 8539 01c4 12b9 0e1f 2c3a
00000300: c9e5 df39 6c42 383a f139 6238 c0f6 81b8
00000310: 7e4d 8139 bdb5 e1b9 2ced 9438 b6ee 0e3a
00000320: cd20 0f39 6b63 03ba f83f 893a 17ac 28b9
00000330: 7fbf e238 3a7f 413b 8801 42bb b575 4e3a
00000340: 4744 07b8 8cdb 5b38 14c6 24b9 3dfa 5db9
00000350: d0a5 143a 7976 ad39 29df 39b9 2212 ccb8
00000360: 85e8 33ba 3456 42b8 e8af c539 d597 d438
00000370: dc41 7e39 de5e ae39 586c 073a b602 8b37
00000380: c195 c338 dd39 d039 6ea5 cfb9 5eae b6b6
00000390: 5652 99b9 6c5e 5738 9369 bdb7 71e8 e9b8
000003a0: e183 59b8 43f1 92b9 6a5e 01ba 8dcb 0aba
000003b0: 36bb 8e39 d0ca 1eba 313c 9735 d203 34ba
000003c0: 4f34 503a a225 75b9 8bea 07b9 731b 3c39
000003d0: c467 063a 5294 013a b895 1239 e498 f7bb
000003e0: a352 9cbb 600b 85bb e959 1739 810e a839
000003f0: ad7f 4db8 9af7 fe39 ac8d 17ba e9e3 7eba

exp_avg_sq f4 [64, 42]
1.4584777e-05 1.0293914e-05 1.0328116e-05 1.1395512e-05 2.9301695e-05 3.1040043e-05 1.5371254e-05 4.628365e-06
1.8658131e-05 1.1176813e-06 2.9492121e-05 1.6545067e-05 8.453156e-06 1.567204e-05 1.43550915e-05 2.0913147e-05
1.0464908e-05 4.468862e-06 3.262214e-05 9.198914e-06 9.924123e-07 5.5481164e-06 7.61893e-06 1.6159662e-05
1.5461237e-05 2.8086173e-05 2.5288171e-05 2.641292e-05 1.2785113e-05 1.7297481e-05 3.963206e-05 2.1036378e-05
7.1409486e-06 3.7645554e-05 2.7815326e-05 9.8439605e-06 3.8767344e-06 0.009714092 0.05448719 0.004416083
6.1201777e-06 5.2853625e-06 3.0468739e-06 1.7478345e-06 1.2943244e-06 2.0707325e-06 6.0438183e-06 6.077275e-06
3.3011456e-06 9.308039e-07 3.5522517e-06 2.6852874e-07 5.176119e-06 3.0083304e-06 1.9823128e-06 2.7647582e-06
2.3754965e-06 4.701287e-06 1.676244e-06 1.9204256e-06 6.9904854e-06 1.8415707e-06 1.5049079e-07 1.4839768e-06
1.3148122e-06 2.6343273e-06 3.004248e-06 5.9761933e-06 4.671024e-06 3.868723e-06 2.7272395e-06 3.199085e-06
8.906951e-06 4.2512515e-06 1.2029892e-06 8.782576e-06 3.4665748e-06 1.7322187e-06 9.2568104e-07 0.00083202025
0.0036681814 0.0016996546 1.2634152e-06 1.082471e-06 1.8187318e-05 1.0545351e-05 1.0495773e-05 1.3263565e-05
3.7423357e-05 3.5621244e-05 2.1510406e-05 5.4828274e-06 2.4457007e-05 1.4539589e-06 2.7349655e-05 1.7803248e-05
1.0564468e-05 1.7744296e-05 1.685729e-05 3.000359e-05 1.186176e-05 8.4551375e-06 4.1463998e-05 1.0828411e-05
1.0575086e-06 6.674919e-06 7.957747e-06 1.4938565e-05 1.455814e-05 2.4604404e-05 3.0066514e-05 2.1691782e-05
1.37108855e-05 2.1545402e-05 5.9105747e-05 2.6436435e-05 8.465894e-06 5.6707624e-05 2.2324846e-05 9.563404e-06
6.4162637e-06 0.005146702 0.08686906 0.007413876 6.635997e-06 5.950635e-06 4.3984415e-05 2.173223e-05
2.0927331e-05 2.7558286e-05 8.4790576e-05 8.052578e-05 5.1665498e-05 1.2055312e-05 5.337405e-05 3.4949346e-06
5.506169e-05 3.8968872e-05 2.3230492e-05 4.1740866e-05 3.9244784e-05 7.1827904e-05 2.507777e-05 2.5631598e-05
8.896066e-05 2.4757157e-05 2.2934962e-06 1.5806421e-05 1.6994607e-05 3.1217573e-05 3.2587646e-05 5.0283466e-05
7.3870404e-05 4.301491e-05 3.137263e-05 4.9190134e-05 0.0001464661 5.5871165e-05 2.1053884e-05 0.00013755336
4.118148e-05 2.0930553e-05 1.6092914e-05 0.0037154623 0.22989371 0.018839817 1.4952084e-05 1.4703492e-05
2.924411e-06 1.9844779e-06 2.094305e-06 2.2523568e-06 5.9061786e-06 6.4152123e-06 3.295494e-06 9.748514e-07
4.35686e-06 1.8397328e-07 5.235162e-06 3.3213714e-06 1.6786767e-06 3.1778955e-06 3.0252886e-06 4.288128e-06
2.0953437e-06 9.87512e-07 7.0522556e-06 2.0569382e-06 2.0122162e-07 1.176105e-06 1.4410606e-06 2.6572e-06
2.692415e-06 5.2480295e-06 5.376995e-06 4.5783418e-06 2.3756452e-06 3.2271953e-06 8.255158e-06 3.9454458e-06
1.3533629e-06 8.332381e-06 4.336229e-06 1.7087477e-06 8.8657873e-07 0.001560577 0.016652573 0.0009085335
1.0814838e-06 1.0375333e-06 4.2784154e-06 2.7253263e-06 1.963093e-06 2.5304782e-06 6.1657884e-06 7.520054e-06
3.6414847e-06 1.199579e-06 2.2157735e-06 2.7022293e-07 6.8011686e-06 3.083206e-06 2.0100777e-06 3.5514904e-06
3.1813329e-06 4.639733e-06 2.1469134e-06 9.145285e-07 8.327669e-06 2.0083169e-06 2.062782e-07 1.591273e-06
1.6350083e-06 4.064181e-06 3.848513e-06 8.135006e-06 5.4136176e-06 6.20577e-06 3.2176729e-06 3.1758964e-06
6.8106287e-06 4.6812024e-06 1.5745792e-06 8.210764e-06 5.6593153e-06 2.2754696e-06 9.949108e-07 0.0018995794
0.00032022904 0.0011485585 1.5348232e-06 1.4287983e-06 2.606718e-05 1.3995511e-05 1.35117425e-05 1.8046829e-05
00000000: 24b1 7437 06b4 2c37 ec46 2d37 5a2f 3f37
00000010: e9cc f537 fe30 0238 84f1 8037 5a4d 9b36
00000020: 0884 9c37 3d03 9635 d965 f737 43ca 8a37
00000030: 07d2 0d37 7377 8337 a6d6 7037 a46e af37
00000040: 7092 2f37 3bf3 9536 c2d3 0838 0955 1a37
00000050: 0733 8535 f529 ba36 1ca6 ff36 9c8e 8737
00000060: c1b2 8137 999a eb37 ef21 d437 5091 dd37
00000070: a47f 5637 0f1a 9137 9a3a 2638 4777 b037
00000080: 489c ef36 9be5 1d38 f554 e937 7d27 2537
00000090: e514 8236 db27 1f3c f62d 5f3d cab4 903b
000000a0: ed5b cd36 eb58 b136 e578 4c36 2397 ea35
000000b0: a6b8 ad35 eaf6 0a36 01cc ca36 65eb cb36
000000c0: 4089 5d36 5bdc 7935 3863 6e36 4f2a 9034
000000d0: 86ae ad36 b9e2 4936 e007 0536 2f8a 3936
000000e0: b86a 1f36 bfbf 9d36 4efb e035 a9e0 0036
000000f0: d08f ea36 e32b f735 9896 2134 0e2d c735
00000100: 9a78 b035 66c9 3036 969c 4936 1c87 c836
00000110: cabb 9c36 14d0 8136 9e05 3736 ddaf 5636
00000120: 106f 1537 f9a5 8e36 6576 a135 e058 1337
00000130: 4da3 6836 957e e835 517c 7835 ef1b 5a3a
00000140: df65 703b f2c6 de3a 9e92 a935 6c49 9135
00000150: f890 9837 f0eb 3037 0017 3037 9486 5e37
00000160: 06f7 1c38 0568 1538 3f71 b437 21f9 b736
00000170: 0629 cd37 a625 c335 f06c e537 2f58 9537
00000180: 0b3e 3137 96d9 9437 c168 8d37 38b0 fb37
00000190: df01 4737 8ada 0d37 a1e9 2d38 acab 3537
000001a0: b8ef 8d35 1ef9 df36 4382 0537 a6a0 7a37
000001b0: bc3e 7437 8e65 ce37 5937 fc37 bff6 b537
000001c0: ce07 6637 66bc b437 50e8 7738 d0c3 dd37
000001d0: bd08 0e37 59d9 6d38 3e46 bb37 8272 2037
000001e0: 494b d736 aaa5 a83b 68e8 b13d 19f0 f23b
000001f0: c8aa de36 91ab c736 e87b 3838 9c4d b637
00000200: 1a8d af37 f82c e737 98d1 b138 f3df a838
00000210: 68b3 5838 2c41 4a37 f3dd 5f38 858a 6a36
00000220: 0af2 6638 8272 2338 1adf c237 ea12 2f38
00000230: c49a 2438 50a2 9638 1a5e d237 7003 d737
00000240: 6490 ba38 97ad cf37 f7e9 1936 0898 8437
00000250: a48f 8e37 9def 0238 b8ae 0838 76e7 5238
00000260: dfea 9a38 e86a 3438 1b96 0338 8151 4e38
00000270: b294 1939 3557 6a38 df9c b037 333c 1039
00000280: 47ba 2c38 0594 af37 45ff 8637 1d7f 733b
00000290: 4269 6b3e f655 9a3c b6da 7a37 04af 7637
000002a0: 0041 4436 122d 0536 e38b 0c36 3227 1736
000002b0: b02d c636 4142 d736 2828 5d36 a4d7 8235
000002c0: 2431 9236 318a 4534 b3a9 af36 bae4 5e36
000002d0: e44e e135 d443 5536 1006 4b36 bde2 8f36
000002e0: bb9d 0c36 a78a 8435 6aa2 ec36 ee09 0a36
000002f0: 610f 5834 a9da 9d35 776a c135 5952 3236
00000300: 56af 3436 3b18 b036 096c b436 a89f 9936
00000310: 466d 1f36 cb92 5836 a27f 0a37 1f63 8436
00000320: 32a5 b535 4ecb 0b37 ec7f 9136 2058 e535
00000330: 3afd 6d35 468c cc3a fa6a 883c a72a 6e3a
00000340: 8027 9135 5f41 8b35 4f8f 8f36 c0e4 3636
00000350: aebd 0336 49d1 2936 b8e3 ce36 c654 fc36
00000360: 3b60 7436 3801 a135 b3b2 1436 2813 9134
00000370: 9835 e436 13e9 4e36 dfe4 0636 2456 6e36
00000380: e27e 5536 01af 9b36 b113 1036 ec7d 7535
00000390: 11b7 0b37 9fc6 0636 527d 5d34 b993 d535
000003a0: 7572 db35 0d5f 8836 7a22 8136 967b 0837
000003b0: 9fa6 b536 293b d036 33ef 5736 7c21 5536
000003c0: db86 e436 3913 9d36 2156 d335 f6c0 0937
000003d0: 26e5 bd36 45b4 1836 e088 8535 4ffb f83a
000003e0: 6ae4 a739 3a8b 963a 2000 ce35 23c5 bf35
000003f0: d8aa da37 43ce 6a37 7eb0 6237 4563 9737

exp_avg f4 [64]
0.00065284135 -0.000409641 -0.0010240327 -0.0019842787 0.00031714898 -0.0002934456 0.00097218587 -6.5850785e-05
-0.0022721074 -0.00020732211 -0.0047471523 0.0013681789 0.0 -0.00010845028 -0.0028234439 -0.00060077297
0.00024630976 -0.0017360458 0.0017387166 -0.00050079357 -0.00022334771 -1.0389357e-05 0.00014699271 -0.0006779671
-0.001231592 -0.00017773476 -0.000762936 -2.9274124e-05 -0.0012428738 3.4356366e-05 -0.0022382815 0.0006399429
-0.0012564014 0.0011276328 0.0036747232 -0.00071952573 0.00046275323 -0.0008438042 -0.00521669 -0.0018893208
0.0009584485 -0.000159479 0.00045921726 -0.00019414206 0.00055100315 -0.00038153157 0.0009767623 -2.612336e-05
0.00017555653 -0.0011268941 2.356813e-28 -0.0024682134 0.00071477506 -0.0013573066 0.00052441616 -5.1637642e-05
-0.00554221 0.0019588082 9.038853e-05 -0.0006224439 -0.0017926799 -0.00012160923 -0.0004434064 -0.0009942317
00000000: 7123 2b3a 16c5 d6b9 d638 86ba ac0a 02bb
00000010: 0447 a639 9ad9 99b9 4ada 7e3a 5f19 8ab8
00000020: a3e7 14bb 9b64 59b9 008e 9bbb 7754 b33a
00000030: 0000 0000 cd6f e3b8 8709 39bb 317d 1dba
00000040: 2323 8139 088c e3ba a6e5 e33a b047 03ba
00000050: 7232 6ab9 f34d 2eb7 0e22 1a39 9ab9 31ba
00000060: 5f6d a1ba 505e 3ab9 c5ff 47ba b491 f5b7
00000070: ede7 a2ba de19 1038 22b0 12bb d7c1 273a
00000080: d6ad a4ba 14cd 933a a0d3 703b 8e9e 3cba
00000090: b09d f239 be32 5dba c4f0 aabb 16a3 f7ba
000000a0: 6440 7b3a d139 27b9 19c3 f039 9d92 4bb9
000000b0: 3271 103a 4d08 c8b9 b406 803a 7d23 dbb7
000000c0: 9915 3839 4bb4 93ba 7a61 9511 c0c1 21bb
000000d0: be5f 3b3a a7e7 b1ba f978 093a 7f95 58b8
000000e0: 6d9b b5bb 595f 003b f98e bd38 812b 23ba
000000f0: 5bf8 eaba 7508 ffb8 0079 e8b9 e150 82ba

exp_avg_sq f4 [64]
1.8190392e-05 4.088413e-06 2.7445009e-05 6.7555324e-05 3.924634e-06 3.896865e-06 3.920744e-05 5.644444e-07
2.797864e-05 9.890025e-05 0.00011910267 8.864337e-06 0.0 6.86772e-06 4.19361e-05 6.036738e-06
6.812689e-06 3.9369235e-05 2.6687869e-05 3.0986306e-05 1.7498592e-06 6.2764167e-09 2.4482208e-06 6.5923405e-06
3.2058826e-05 4.3491816e-08 2.303274e-05 8.447088e-07 2.0898555e-05 1.6872365e-05 5.484941e-05 5.947866e-05
1.6596981e-05 6.4436863e-06 5.6373414e-05 1.1991921e-05 1.6652978e-06 1.5112082e-05 0.00033225978 8.547772e-05
8.641298e-06 3.1768226e-07 4.101945e-06 2.9746836e-06 8.018274e-06 3.2111398e-06 1.9896492e-05 1.2153101e-06
3.0099778e-07 2.6685806e-05 6.8117434e-10 5.7723322e-05 2.3523657e-05 2.6922547e-05 1.3847436e-05 2.9462105e-06
0.00014419132 3.379309e-05 8.316953e-06 1.4917475e-05 9.951248e-05 2.7788843e-05 3.4290206e-05 4.8598384e-05
00000000: 9297 9837 332f 8936 b539 e637 7dac 8d38
00000010: 59b0 8336 d1c1 8236 ab72 2438 5384 1735
00000020: acb3 ea37 ab68 cf38 c2c6 f938 0ab8 1437
00000030: 0000 0000 4471 e636 8be4 2f38 2f8f ca36
00000040: 8e98 e436 6520 2538 c3df df37 4bf7 0138
00000050: b4dc ea35 f2a7 d731 1d4c 2436 c633 dd36
00000060: e776 0638 c2cb 3a33 6f36 c137 f2bf 6235
00000070: 4e4f af37 2189 8d37 1b0e 6638 ba78 7938
00000080: bf39 8b37 d836 d836 7e72 6c38 e930 4937
00000090: 3283 df35 e689 7d37 2733 ae39 8042 b338
000000a0: 18fa 1037 eb8d aa34 70a3 8936 ada0 4736
000000b0: 3986 0637 f67e 5736 64e7 a637 bd1d a335
000000c0: d298 a134 55db df37 623d 3b30 f21b 7238
000000d0: ab54 c537 bbd7 e137 4952 6837 83b7 4536
000000e0: 1032 1739 0ebd 0d38 0b89 0b37 1146 7a37
000000f0: 5bb1 d038 161c e937 d4d2 0f38 1ed6 4b38
