model_save_Adam1.pth (torch, 27046 bytes, 17 tensors)

embeddings.0.weight f4 [7, 4]
0	0x3e15dc7b	0.14634888
1	0x3fa94ee5	1.3227202
2	0x3f42cb5b	0.76091546
3	0xbfb2bf82	-1.3964694
4	0x3e83154d	0.2560219
5	0xbee00ec0	-0.43761253
6	0x3f8d3771	1.1032544
7	0xba117a4e	-0.0005549536
8	0x3f861174	1.0474076
9	0x3f9a346a	1.2047246
10	0x3e85b824	0.2611705
11	0x3ef89c02	0.48556525
12	0xbfa3dc46	-1.2801597
13	0xbdaadee7	-0.083432965
14	0xbfa4ac95	-1.2865168
15	0xbeff3bfe	-0.49850458
16	0xbe37d047	-0.17950545
17	0x3f6a7563	0.9158537
18	0xbf5482b7	-0.83011955
19	0xbe8a3cd0	-0.2699952
20	0xbfd16aaa	-1.6360676
21	0xbf888311	-1.0664998
22	0xbffe9ebb	-1.9892191
23	0xbe9c6ca8	-0.30551648
24	0x3c431fb5	0.011909415
25	0x3eb62b93	0.3558012
26	0xbfd04970	-1.6272411
27	0x3faff7de	1.3747518

embeddings.1.weight f4 [7, 4]
0	0x3f90a060	1.1298943
1	0xbf060115	-0.523454
2	0xbed0dbdf	-0.40792748
3	0xbfcb37cc	-1.5876403
4	0xbf451b73	-0.7699501
5	0xbfc9f66c	-1.5778327
6	0xbf61eef1	-0.8825522
7	0xbeedd2bb	-0.46449837
8	0x3fb63965	1.4236265
9	0xbf60498b	-0.8761222
10	0x3e6427eb	0.22280852
11	0xbf09160f	-0.53549284
12	0xbf11e41e	-0.56988704
13	0x3f197d09	0.59956414
14	0x3f921057	1.1411237
15	0x3face0a0	1.350605
16	0xbf43f624	-0.76547456
17	0x3d80acd8	0.06282967
18	0xbdb62dcb	-0.08895453
19	0x3f1f3165	0.62184745
20	0xbebf15d5	-0.37321344
21	0xbfa66cf0	-1.3001995
22	0xbe35a04c	-0.1773693
23	0x3de4bedd	0.11169217
24	0xc0084f3c	-2.129836
25	0xbfde78db	-1.7380632
26	0xbe8575ec	-0.2606653
27	0xbec1f39a	-0.37881166

embeddings.2.weight f4 [6, 3]
0	0xbe52efac	-0.2059924
1	0x3f80a882	1.0051425
2	0x3fe1ffbb	1.7656168
3	0xbf31c7c3	-0.6944544
4	0xbed4555c	-0.41471374
5	0xbecd582c	-0.40106332
6	0xbf4acc5f	-0.79218096
7	0xbe83ae94	-0.2571913
8	0xbef47417	-0.4774482
9	0x3fa671cc	1.3003478
10	0x3fc1e8e3	1.5149196
11	0x3e9d284e	0.30694813
12	0x3f93f0f9	1.1557914
13	0xbdb99207	-0.09061056
14	0xbff719a4	-1.93047
15	0x3f869a4c	1.0515838
16	0x3f9f38cd	1.2439209
17	0x3f4dd1a4	0.8039801

embeddings.3.weight f4 [6, 3]
0	0xbf3466ea	-0.70469534
1	0xbff3b01b	-1.9038118
2	0xbe252a72	-0.16129473
3	0xbf47e525	-0.7808402
4	0xbe89570e	-0.2682423
5	0xbf149edd	-0.58054906
6	0xbf818036	-1.0117252
7	0xbf1c549c	-0.61066604
8	0x3eb4d0f3	0.35315666
9	0xbec05e51	-0.37571958
10	0x3f6accb4	0.917186
11	0xbfc48405	-1.5352789
12	0x3f9ebe5a	1.2401841
13	0x3f93dfff	1.1552733
14	0xbf315cc7	-0.6928219
15	0x400cfd3b	2.202956
16	0xbf1a2b7b	-0.60222596
17	0x3e949ac0	0.29024315

embeddings.4.weight f4 [4, 2]
0	0x3e3d02e7	0.18458138
1	0xbed12177	-0.40845844
2	0xbfad8060	-1.3554802
3	0xbed59ea3	-0.41722593
4	0x3e11c032	0.14233473
5	0x3fdb4fa4	1.7133679
6	0xbed34a4a	-0.41267616
7	0xbeaeadc6	-0.34116954

embeddings.5.weight f4 [8, 4]
0	0xbfd69a37	-1.6765813
1	0xbf030854	-0.5118458
2	0x3e86f7e0	0.2636099
3	0x3f87acb8	1.0599585
4	0x3fb3c4eb	1.404447
5	0xbec3bed3	-0.38231525
6	0x3edebd25	0.4350368
7	0x3ecad369	0.39614418
8	0xbf7feae8	-0.99967813
9	0x3f848259	1.0352279
10	0x3fb1e598	1.3898191
11	0xbeb75f5c	-0.3581494
12	0xbf1b4479	-0.60651356
13	0x3ff9f40a	1.95276
14	0xbe0721a0	-0.1319642
15	0x3fc78e1b	1.5590242
16	0xbfbaed76	-1.4603717
17	0xbf5e260e	-0.86776817
18	0xbf216e5c	-0.6305902
19	0xbf329329	-0.697558
20	0xbfc2b4a0	-1.5211372
21	0xbf4c62f5	-0.79838496
22	0x3f431939	0.7621036
23	0xbe2b901b	-0.1675419
24	0xbf73e3d5	-0.9526952
25	0xbf58e883	-0.84729785
26	0x3d4d2137	0.050080504
27	0xbe69b9e3	-0.22824816
28	0xbdd17a40	-0.102283955
29	0xbf38776e	-0.72057235
30	0xbfa67987	-1.3005837
31	0xbf9257c4	-1.1433034

embeddings.6.weight f4 [3, 2]
0	0xbf9c5ff4	-1.2216783
1	0x3f5b2d91	0.85616404
2	0x3fbe07cb	1.4846128
3	0x3f84a63b	1.036323
4	0xbdee5462	-0.116371885
5	0xbfc2b501	-1.5211488

embeddings.7.weight f4 [7, 4]
0	0x3f8469fa	1.0344841
1	0xbf9df7d2	-1.2341254
2	0xbf06d433	-0.5266754
3	0xbf89a0ed	-1.0752236
4	0xbf16f8c3	-0.5897333
5	0x3f715aac	0.9427898
6	0x3f4e073f	0.80479807
7	0x3f537e84	0.8261492
8	0x3f001b56	0.5004171
9	0x3e643678	0.22286403
10	0xbedfda43	-0.43721208
11	0x3f7c8cdc	0.98652434
12	0xc00793d4	-2.1183977
13	0x3ebcbe0e	0.3686375
14	0xbd88cbef	-0.06679522
15	0x3ea4f0b1	0.32214883
16	0x3e304d4c	0.17216986
17	0xbf2e7df9	-0.6816097
18	0xbf3a89ec	-0.728667
19	0x3f4150dd	0.7551401
20	0xbf24f852	-0.64441407
21	0xbea30673	-0.31840858
22	0x3efc5526	0.49283713
23	0x3ed434c9	0.41446522
24	0x3f62c63f	0.8858375
25	0xbdb21fa3	-0.086974405
26	0xbfda6c89	-1.7064372
27	0xbfbe4571	-1.4864942

embeddings.8.weight f4 [6, 3]
0	0xbf53e6b0	-0.82773876
1	0xbe48bafa	-0.19602576
2	0x3e6bb2ad	0.23017378
3	0x3fe4c974	1.7873979
4	0x3ea0849e	0.3135118
5	0xbf4e6b58	-0.80632544
6	0xbeeba46b	-0.46023878
7	0xbfefd47b	-1.8736719
8	0xbefe4f8a	-0.49670058
9	0xbeeaa202	-0.45826727
10	0xc01cc55c	-2.4495459
11	0xbf88ef0a	-1.0697949
12	0xbe451795	-0.19247277
13	0x3f3c73a1	0.73613936
14	0x3eeab184	0.4583856
15	0xbf7d46ba	-0.98936045
16	0xbf9d4500	-1.2286682
17	0xbef4fe80	-0.47850418

embeddings.9.weight f4 [6, 3]
0	0xbdeb2639	-0.114819
1	0xbdb9841f	-0.09058403
2	0x3ec3dd0f	0.38254592
3	0x3f5b008e	0.8554772
4	0x3ea44e8b	0.32091174
5	0x3e3f0fec	0.18658417
6	0x3d82ea27	0.06392317
7	0xbf5d36ba	-0.8641163
8	0xbf3291f0	-0.6975393
9	0xbfef631c	-1.8702121
10	0xbf8a78e0	-1.0818138
11	0x4051c57c	3.2776785
12	0x3f51ad32	0.819049
13	0xbf1a0652	-0.60165894
14	0xbfd74f12	-1.6821005
15	0xbf948295	-1.160235
16	0x3f327abd	0.69718534
17	0xc002347b	-2.0344532

embeddings.10.weight f4 [4, 2]
0	0x3e0e4667	0.13894044
1	0x3fbce941	1.4758683
2	0xbfa23d3b	-1.2674936
3	0x3f46db79	0.7767864
4	0x3f945fe3	1.1591762
5	0x3ebfab60	0.37435436
6	0x3df670f9	0.120332666
7	0xbfa56242	-1.2920611

embeddings.11.weight f4 [5, 3]
0	0xbf428576	-0.75984895
1	0x3f5c2fbc	0.86010337
2	0x3fbe630f	1.487398
3	0x3fee376f	1.8610667
4	0xbefc6dc9	-0.4930251
5	0x3eb7a199	0.35865477
6	0x408eaf05	4.4588647
7	0xbf0591db	-0.5217568
8	0x3fd4c1b3	1.6621612
9	0xbfcef858	-1.6169538
10	0x3f916827	1.135991
11	0x3f8aeee8	1.0854158
12	0x3ec42bb1	0.38314584
13	0x3f257eb0	0.64646435
14	0xbeea0f92	-0.45715004

model.0.weight f4 [64, 42]
0	0x3e064d57	0.1311544
1	0xbdeb4170	-0.114870906
2	0x3d87f06e	0.06637655
3	0x3e10bc7c	0.14134401
4	0x3c9316a0	0.017955124
5	0xbde2082b	-0.11036714
6	0x3da75265	0.081700124
7	0x3dfb8356	0.1228091
8	0xbda6652d	-0.081247665
9	0xbc01609f	-0.007896571
10	0x3e19fc0b	0.15037553
11	0x3e21de41	0.1580744
12	0x3dfba455	0.12287203
13	0x3d8e6a82	0.069539085
14	0xbdab6484	-0.08368781
15	0xbafd908a	-0.0019345444
16	0x3c4994e8	0.012303568
17	0xbb34da26	-0.0027595847
18	0x3d97773b	0.07395788
19	0xbe1e2377	-0.15443216
20	0x3e223f88	0.15844548
21	0x3d55518a	0.052079715
22	0x3ba84c24	0.00513603
23	0x3e0370b7	0.12835966
24	0x3db5ee5d	0.08883355
25	0x3dc3f402	0.09568025
26	0x3ca6458c	0.020296834
27	0xbe20cc69	-0.15702976
28	0xbd887a6a	-0.06663974
29	0xbdd96c93	-0.10616412
30	0x3d8ede8d	0.06976042
31	0x3da69c23	0.081352495
32	0x3df7fd75	0.1210889
33	0xbe05665e	-0.13027331
34	0xbe075608	-0.13216412
35	0x3e013f02	0.12621692
36	0x3e18f912	0.14938763
37	0xbd55f104	-0.052231804
38	0x3d4844d1	0.048893753
39	0xbd843c7e	-0.064568505
40	0x3e1b486e	0.15164348
41	0x3e1a3653	0.15059786
42	0xbc889115	-0.016670743
43	0xbe2d10b8	-0.16900909
44	0xbd0cdb2c	-0.034388706
45	0x3cd2930d	0.025704885
46	0xbe088c01	-0.13334657
47	0xbdec259c	-0.11530611
48	0xbc0bcb40	-0.008532345
49	0x3d4b7abe	0.049677603
50	0xbce5a668	-0.02803345
51	0x3d69fca7	0.057125714
52	0x3bbe77e5	0.0058126324
53	0xbccbaba0	-0.02486211
54	0xbe0a0b55	-0.13480885
55	0xbc0718b4	-0.008245636
56	0x3e1de7e4	0.1542049
57	0x3bee97c1	0.007281274
58	0xbd6e991e	-0.058251493
59	0xbe010428	-0.12599242
60	0x3d9c8c07	0.076438956
61	0x3d8ae715	0.06782357
62	0xbd9bef0f	-0.07613956
63	0xbe06d1bc	-0.13165945
64	0xbc439ba7	-0.011938966
65	0x3c115778	0.008870952
66	0xbd564056	-0.05230745
67	0xbd8bd78f	-0.06828224
68	0xbda54edb	-0.08071681
69	0xbd7a206e	-0.061066084
70	0x3d444e3c	0.047926173
71	0x3ce38cdb	0.027777126
72	0x3bfaed18	0.0076576583
73	0x3da37f8f	0.07983314
74	0xbd946062	-0.07244946
75	0xbd77677a	-0.060401417
76	0x3e0c4e8e	0.13701841
77	0xbd8133dd	-0.0630872
78	0x3dba7ab3	0.09105434
79	0x3cf8ac2a	0.030355532
80	0x3d810f63	0.06301763
81	0xbdab7c7d	-0.08373354
82	0xbd96a882	-0.07356359
83	0x3d676958	0.056496948
84	0x3d706621	0.058691148
85	0xbdf7f467	-0.12107163
86	0x3da96784	0.08271697
87	0x3e1b93f0	0.15193152
88	0xbe17944b	-0.14802663
89	0x3d074c6b	0.033031862
90	0x3d94c4b7	0.07264083
91	0xbd90715b	-0.07052871
92	0x3d79cf6e	0.060988836
93	0x3de0ab49	0.1097017
94	0xbdacc26d	-0.08435521
95	0xbd3be80e	-0.0458756
96	0xbe16ba26	-0.14719447
97	0xbc975b76	-0.01847623
98	0x3ba3c304	0.004997613
99	0xbd64a8ab	-0.055824917
100	0x3ca4ae89	0.020102756
101	0xbd893b2a	-0.06700738
102	0x3d11da66	0.03560867
103	0xbcd4f06d	-0.02599355
104	0x3d62e576	0.055394612
105	0x3d20dceb	0.039273184
106	0xbc0ab462	-0.008465858
107	0x3deb0fec	0.11477646
108	0xbc7d59ff	-0.015463351
109	0xbca38c87	-0.01996447
110	0x3cd0c284	0.025483377
111	0x3d9603d2	0.073249474
112	0x3c948c82	0.018133406
113	0x3c99245c	0.018694095
114	0x3d82eee4	0.06393221
115	0x3d6bf84f	0.057609852
116	0xbda3050e	-0.079599485
117	0xbdc7ea64	-0.09761503
118	0xbd0f250e	-0.034947447
119	0xbcaee8ba	-0.021351207
120	0x3dc5622f	0.09637868
121	0x3dff5513	0.124673985
122	0xbe3fc5c8	-0.18727791
123	0x3d4dd15d	0.050248493
124	0xbdd2abb1	-0.10286654
125	0x3d589b22	0.05288232
126	0xbe09b4d2	-0.13447884
127	0xbd09ad81	-0.03361273
128	0xbde5dfc6	-0.11224322
129	0x3d8ff57a	0.07029243
130	0xbd09bf54	-0.03362973
131	0xbdbb1fe6	-0.091369435
132	0x3def32f1	0.11679638
133	0xbcaf5f05	-0.021407614
134	0x3d55e749	0.052222524
135	0x3ddc5e31	0.10760153
136	0x3d821f4d	0.063536264
137	0xbe072f43	-0.13201623
138	0xbd344eee	-0.044020586
139	0x3e162e21	0.14666034
140	0x3dd37a76	0.10326092
141	0x3bef3a14	0.0073006246
142	0xbe098251	-0.13428618
143	0xbd9ea5e1	-0.07746483
144	0xbdc5f3f6	-0.096656725
145	0xbd3a4c57	-0.04548296
146	0x3d5929bd	0.05301832
147	0xbde20d86	-0.11037736
148	0xbd207f9b	-0.039184194
149	0xbe1bea63	-0.1522613
150	0xbe15e110	-0.14636636
151	0x3c825dcd	0.015913868
152	0x3d809ee5	0.06280307
153	0xbcd28f19	-0.025703
154	0xbdfbb1cd	-0.12289772
155	0x3ccf9921	0.025341572
156	0x3dd546e7	0.10413914
157	0x3d905575	0.0704755
158	0x3de66053	0.11248841
159	0x3e125190	0.14288926
160	0x3db09a7f	0.08623218
161	0xbd444f6a	-0.047927298
162	0x3e191e2c	0.14952916
163	0x3e1e154a	0.15437809
164	0xbd51650b	-0.051121753
165	0xbe2aac67	-0.16667329
166	0xbd1229f2	-0.035684533
167	0xbda50723	-0.08058002
168	0xbdcd6a0b	-0.10029992
169	0xbcbca16b	-0.023026189
170	0x3dbe151a	0.092813686
171	0x3d391d1f	0.045193788
172	0x3e082f38	0.13299263
173	0x3d80980b	0.06279
174	0x3dae7ffb	0.08520504
175	0xbd610593	-0.054936957
176	0xbba7c939	-0.005120423
177	0x3df4df3d	0.11956642
178	0x3e0f62f3	0.1400259
179	0xbd84ff1d	-0.064939715
180	0xbd327603	-0.043569576
181	0x3e1acb9f	0.15116738
182	0x3d97ea93	0.07417788
183	0x3cb7135c	0.022348098
184	0x3dd9b0f8	0.10629457
185	0x3de811c6	0.11331515
186	0xbcc02698	-0.023455903
187	0xbad5f114	-0.0016322457
188	0x3e07ab95	0.13249047
189	0x3dab34bd	0.083596684
190	0x3db84edc	0.08999416
191	0x3c35639e	0.011071114
192	0xbe0f55c0	-0.13997555
193	0xbe127eb6	-0.14306149
194	0xbde85730	-0.11344755
195	0xbd763080	-0.060104847
196	0xbd94f0eb	-0.07272514
197	0x3e16d09e	0.14728019
198	0xbc53fad7	-0.012938223
199	0xbcc005b6	-0.023440223
200	0x3e09ad50	0.1344502
201	0xbdb3f474	-0.0878686
202	0xbda2017c	-0.07910439
203	0x3e0c359c	0.13692325
204	0xbe1055fc	-0.140953
205	0x38a06eee	7.650057e-05
206	0xbdfb6a28	-0.12276107
207	0xbd887862	-0.06663586
208	0x3e08ce6d	0.13359995
209	0x3d4cdf29	0.05001751
210	0x3e12906d	0.14312907
211	0x3da42b2f	0.08016049
212	0x3da028f7	0.078203134
213	0x3d82f988	0.063952506
214	0x3de753c7	0.11295276
215	0xbd46e999	-0.04856262
216	0xbd29fe25	-0.041502137
217	0x3b5cdf7e	0.0033702548
218	0xbd0192cc	-0.031634137
219	0xbd846401	-0.06464387
220	0xbcc29cb7	-0.023756368
221	0xbdea9492	-0.11454119
222	0x3dd48e40	0.103786945
223	0x3d23344c	0.039844796
224	0x3dbfa4c6	0.093576
225	0x3df88b72	0.12135972
226	0x3e1e471d	0.15456815
227	0x3d416825	0.04721846
228	0x3def38af	0.116807334
229	0x3c93aceb	0.01802679
230	0xbdb91353	-0.09036889
231	0xbd10ca44	-0.035349146
232	0xbce93c50	-0.028471142
233	0x3dec3b3e	0.11534737
234	0x3dc2aba9	0.09505398
235	0xbdd28cf9	-0.10280795
236	0x38c57219	9.414944e-05
237	0x3de3e97c	0.11128518
238	0xbc3ff13c	-0.01171523
239	0x3da03d1b	0.07824155
240	0x3e02adbd	0.12761588
241	0x3dc67395	0.09690014
242	0x3cedeabc	0.029042594
243	0xbda6a6a6	-0.081372544
244	0x3d822904	0.06355479
245	0xbe1411e8	-0.14459956
246	0xbd955383	-0.07291319
247	0xbe2650d7	-0.16241775
248	0x3d633048	0.055465966
249	0xbdd9f5d5	-0.10642592
250	0xbe2885f3	-0.16457348
251	0x3d5826a6	0.052771233
252	0x3d1cf812	0.038322516
253	0xbdab82bf	-0.08374547
254	0x3d35d28a	0.04439024
255	0xbc92e283	-0.017930275

model.0.bias f4 [64]
0	0x3e29ab2b	0.16569202
1	0x3e042eb8	0.12908447
2	0xbbac7395	-0.005262802
3	0x3d0843a9	0.03326765
4	0x3df0f4fe	0.117654786
5	0x3b20e61b	0.0024551216
6	0x3e3dc4ed	0.18532152
7	0x3bea0a18	0.0071423166
8	0x3d101a31	0.035181228
9	0xbda899bb	-0.08232447
10	0xbcf5a2de	-0.029984888
11	0xbb2ac1ea	-0.0026055523
12	0xbd46a723	-0.048499238
13	0x3d39da86	0.045374416
14	0xbe1ac6b4	-0.15114862
15	0xbdb0caf7	-0.086324625
16	0xbcbfa726	-0.023395132
17	0x3d9f48b9	0.077775426
18	0xbe05d61a	-0.13069955
19	0x3e2c7899	0.1684288
20	0xbe14d753	-0.14535265
21	0xbc96cb43	-0.01840747
22	0x3e011473	0.12605457
23	0xbd17e669	-0.03708497
24	0x3dce511c	0.10074064
25	0xbe0f5d93	-0.1400054
26	0xbd0ac8a4	-0.033882752
27	0xbcdd7ba2	-0.027036492
28	0x3db73b8e	0.08946906
29	0x3dd2b400	0.102882385
30	0xbd7cde39	-0.061735366
31	0xbe1897b2	-0.14901617
32	0xbcbba901	-0.022907736
33	0x3db45336	0.08804934
34	0x3d8e492f	0.069475524
35	0x3dea79d9	0.11449022
36	0x3de7386e	0.1129006
37	0xbe4bb7b1	-0.19894291
38	0x3d95848e	0.073006734
39	0x3dd2536b	0.10269817
40	0xbe26d4e4	-0.16292149
41	0x3e1055e6	0.14095268
42	0x3e7f9218	0.24958074
43	0x3d80e9dd	0.06294606
44	0x3da20c83	0.07912543
45	0xbda90dbd	-0.082545735
46	0xbdf435bf	-0.11924314
47	0x3e301fd8	0.17199647
48	0x3e2dd50d	0.16975804
49	0x3cd68350	0.026185662
50	0xbe50103c	-0.20318693
51	0x3e5c7df3	0.21532421
52	0x3cb4f012	0.02208713
53	0xbd8287c6	-0.06373553
54	0xbe0f5686	-0.1399785
55	0x3d75ad1c	0.059979543
56	0x3e0b4edb	0.136043
57	0x3e7379b9	0.23776902
58	0x3de057de	0.10954259
59	0xbd824e28	-0.06362563
60	0x3b6179b3	0.0034404814
61	0xbdf66325	-0.12030629
62	0xbdf65768	-0.1202839
63	0x3de85939	0.11345143

model.2.weight f4 [32, 64]
0	0x3dbd8169	0.09253199
1	0xbcf4d603	-0.029887205
2	0x3c355755	0.011068185
3	0xbd88065e	-0.066418394
4	0xbd08c878	-0.033394307
5	0x3dd9fc83	0.10643866
6	0x3dbfdb70	0.09368026
7	0x3d8658b8	0.065598905
8	0xbd221edb	-0.039580207
9	0x3dc7f503	0.09763529
10	0xbd104920	-0.035225987
11	0xbd8501e2	-0.064945
12	0xbcf02ce6	-0.029318284
13	0x3b827da2	0.0039822618
14	0x3c947e1c	0.01812654
15	0xbdf11653	-0.11771836
16	0x3def55df	0.116863005
17	0xbc6bfcb2	-0.014403509
18	0x3cf43a00	0.029812813
19	0x3ddfe173	0.10931673
20	0x3d6ee67d	0.05832528
21	0x3c5afb06	0.013365513
22	0xbd34d290	-0.04414612
23	0xbd96039b	-0.073249064
24	0x3d55ba81	0.052179817
25	0x3db380ba	0.08764787
26	0xbd825a5f	-0.06364893
27	0x3d9997bb	0.074996434
28	0xbdc2b18d	-0.095065214
29	0x3d51133a	0.051043727
30	0xbd66d13a	-0.056351878
31	0xbdadcd62	-0.08486439
32	0x3d3cc750	0.046088517
33	0x3de6fe1f	0.112789385
34	0xbb385a77	-0.0028130093
35	0x3dfc4cbd	0.12319324
36	0xba169949	-0.0005744887
37	0x3d5c3df6	0.053770028
38	0xbde6026a	-0.11230929
39	0xbc9d0e45	-0.019171843
40	0xbdf53fab	-0.11975034
41	0x3d7106c9	0.05884436
42	0xbd577ac6	-0.05260732
43	0xbd433e83	-0.047667038
44	0xbcef5a25	-0.029217789
45	0xbcd1da21	-0.025616707
46	0x3d1c4a39	0.03815672
47	0x3db1fa9a	0.086903766
48	0x3dcf1081	0.1011057
49	0x3d10753a	0.035268046
50	0xbdea0fb6	-0.11428778
51	0x3dd825f5	0.10554115
52	0x3d8a2e08	0.06747061
53	0xbd97963d	-0.074017026
54	0xbd8d2c70	-0.068932414
55	0xbdc79506	-0.09745221
56	0xbdfd53a7	-0.12369471
57	0xbd79058d	-0.06079631
58	0xbd117bcf	-0.035518464
59	0xbe0d4b17	-0.13798176
60	0x3d6fd840	0.05855584
61	0x3d71a640	0.05899644
62	0xbd638371	-0.055545274
63	0x3cba8a5e	0.022771057
64	0xbd8b0377	-0.0678777
65	0xbdd39d99	-0.10332794
66	0x3c96be20	0.018401206
67	0x3c6eb770	0.014570102
68	0x3d84e0ea	0.064882115
69	0xbdf23929	-0.11827309
70	0xbdc5f67a	-0.09666152
71	0x3dde0105	0.10840038
72	0x3d7368ee	0.05942624
73	0xbdded1a8	-0.108798325
74	0xbdaf692d	-0.085649826
75	0x3c56ce3d	0.0131106945
76	0xbd8148bc	-0.06312701
77	0xbd19e5bd	-0.03757261
78	0xbc4d5e40	-0.012534678
79	0xbb2db414	-0.002650504
80	0x3d938cbf	0.072045796
81	0xbd3922c4	-0.04519917
82	0xbdeaaa3d	-0.114582516
83	0x3d6975ce	0.056997113
84	0xbda30093	-0.07959094
85	0xbd7e642e	-0.062107258
86	0xbcce332e	-0.025170889
87	0x3d75ae2b	0.059980553
88	0x3c8507d9	0.016239094
89	0x3de366bd	0.1110358
90	0x3d2b47bd	0.04181646
91	0xbd11845e	-0.035526626
92	0x3db444ac	0.088021606
93	0x3c8edcb2	0.01743922
94	0xbda8fad5	-0.082509674
95	0xbd8740d8	-0.06604165
96	0x3dbe5b4a	0.09294756
97	0xbcd7c92e	-0.026341047
98	0x3dda026d	0.10644994
99	0xbc8cebea	-0.017202336
100	0xbdc8d2c1	-0.09805823
101	0x3ddb8b11	0.10719884
102	0xbd99026f	-0.07471167
103	0xbccdf079	-0.02513908
104	0xbd51be69	-0.05120698
105	0x3de75507	0.112955146
106	0x3df5b9ce	0.1199833
107	0xbd987044	-0.07443288
108	0x3c43862c	0.011933845
109	0x3d0cdf2c	0.03439252
110	0x3deaa9b0	0.114581466
111	0x3d3d7e3c	0.046262965
112	0xbdc6f741	-0.09715129
113	0x3e016a7b	0.12638275
114	0xbe042747	-0.12905608
115	0x3d89a683	0.06721213
116	0x3d435046	0.047683977
117	0xbdeca9e5	-0.11555842
118	0xbc873030	-0.01650247
119	0xbda635eb	-0.08115753
120	0x3ccbca3a	0.024876703
121	0x3d5cd79c	0.05391656
122	0x3c67f423	0.014157328
123	0x3c9d4967	0.01920004
124	0x3db3bf27	0.08776694
125	0xbdaa04cc	-0.08301696
126	0x3db12e57	0.08651417
127	0x3dca92d6	0.09891288
128	0x3dc4acdf	0.09603285
129	0x3dc878dd	0.09788678
130	0x3c9d23a3	0.019182032
131	0xbd0b39c2	-0.03399063
132	0x3d0c6a68	0.034281164
133	0x3de18278	0.11011213
134	0xbde3506b	-0.11099323
135	0x3dd63d9f	0.10460972
136	0x3cd0e6a4	0.025500603
137	0x3d872102	0.065980926
138	0xbd4ccb9d	-0.04999887
139	0xbcad0555	-0.021120707
140	0xbdcf2070	-0.10113609
141	0x3dddbca1	0.10826994
142	0x3dbd1aed	0.09233651
143	0x3cd24002	0.025665287
144	0x3debb51c	0.11509153
145	0x3dc2ba08	0.09508139
146	0x3dcf3814	0.10118118
147	0x3dce4d58	0.10073346
148	0xbd11ac3e	-0.035564654
149	0x3d5c7fe9	0.053832922
150	0xbbdc54cc	-0.0067239758
151	0x3d47ab4a	0.04874734
152	0x3cb3ab97	0.021932406
153	0x3d75d29c	0.060015306
154	0xbde0a76c	-0.10969433
155	0xbc61f811	-0.013792054
156	0x3d8f871d	0.07008193
157	0xbca13bfa	-0.01968192
158	0xb90b4f4f	-0.00013285618
159	0x3cf0b71f	0.029384194
160	0xbd47085c	-0.048591956
161	0xbd1416f3	-0.0361547
162	0xbda26e97	-0.079312496
163	0xbdc37fe4	-0.095458776
164	0xbd89885a	-0.0671546
165	0x3dbb4290	0.09143555
166	0x3c67cbca	0.014147708
167	0x3d3d44db	0.046208244
168	0xbd4966c0	-0.049170256
169	0x3df11c16	0.11772935
170	0xbd0e4714	-0.034735754
171	0x3ce3da3d	0.027814025
172	0xbd6fcc97	-0.05854472
173	0xbc577f7c	-0.013152953
174	0xbd41419f	-0.04718172
175	0x3de56d9f	0.11202549
176	0x3dec30e2	0.11532761
177	0xbda28a6a	-0.07936557
178	0x3c9322f7	0.017961008
179	0x3be6fb10	0.007048972
180	0xbb5cae16	-0.00336731
181	0x3c6c5b3c	0.014426049
182	0x3d80cf2c	0.06289515
183	0x3d8804f7	0.06641572
184	0xbc029b59	-0.007971608
185	0x3d0ef749	0.0349038
186	0x3cb72125	0.022354672
187	0xbdb2051b	-0.0869238
188	0xbcd8a130	-0.026444048
189	0xbce89105	-0.028389463
190	0xbd9b3d82	-0.07580091
191	0xbdd13e1f	-0.10216927
192	0xbd88a928	-0.06672889
193	0x3c9f2f19	0.019431638
194	0xbddb0ac5	-0.106954135
195	0xbdbd3337	-0.09238284
196	0x3dd0369a	0.101666644
197	0xbd376234	-0.04477139
198	0x3dc88104	0.09790233
199	0x3d166cad	0.036724735
200	0x3de53ca5	0.11193208
201	0xbdb26742	-0.08711101
202	0x3dd1fd5f	0.10253405
203	0x3d95042b	0.072761856
204	0xbdff2477	-0.12458127
205	0x3ddee2ef	0.10883128
206	0x3cb7c3a2	0.022432152
207	0x3d13f6e3	0.03612412
208	0xbc836464	-0.01603908
209	0x3def5f9c	0.11688158
210	0x3d4803e5	0.04883184
211	0x3c0848d0	0.008318141
212	0x3de42e2d	0.1114162
213	0xbd8e1f16	-0.06939523
214	0x3de8b422	0.113624826
215	0xbde201f7	-0.11035531
216	0x3b81fc56	0.0039668484
217	0x3cc0d8a6	0.023540806
218	0x3d98853d	0.07447288
219	0x3dd24c56	0.10268466
220	0xbd85ee54	-0.06539598
221	0xbdc31a57	-0.09526508
222	0x3d7a7b85	0.061152954
223	0x3dc30933	0.09523239
224	0x3bbc7900	0.005751729
225	0xbd6dc32d	-0.058047462
226	0xbd532bb8	-0.051555365
227	0x3d4da481	0.05020571
228	0xbd9e19b7	-0.077197485
229	0x3c8f8c06	0.017522823
230	0xbd51423f	-0.051088568
231	0x3de9e1cc	0.114200205
232	0xbd80ca1a	-0.06288548
233	0x3e086468	0.13319552
234	0xbc67585f	-0.01412019
235	0xbc8f1c83	-0.01746965
236	0x3da22ab7	0.079183035
237	0xbda35398	-0.079749286
238	0x3ca4dc27	0.020124508
239	0x3dd32e30	0.10311544
240	0xbddb7b44	-0.107168704
241	0x3debe36f	0.11517989
242	0xbb752702	-0.0037407284
243	0x3e1e2797	0.1544479
244	0x3ce082bb	0.027406087
245	0xbd8034ab	-0.062600456
246	0xbde49cce	-0.111627206
247	0x3c4d5b80	0.012534022
248	0xbde58ac0	-0.11208105
249	0x3cadecb6	0.021231037
250	0x3d8cc9f6	0.068744585
251	0xbdc47a2c	-0.09593615
252	0xbd130da7	-0.03590169
253	0x3dd0f6b8	0.10203308
254	0xbe05d710	-0.13070321
255	0x3d2873c0	0.041126013

model.2.bias f4 [32]
0	0x3b47602e	0.0030422318
1	0xbdb958a2	-0.090501085
2	0x3cdb2efe	0.026755806
3	0x3cf93e11	0.030425103
4	0x3d93bdf3	0.07213964
5	0x3d2c1657	0.042013492
6	0xbc8244f9	-0.01590203
7	0x3f0c12bb	0.5471608
8	0xbd7408f3	-0.059578847
9	0xbe04e057	-0.12976204
10	0x3d2178da	0.039421894
11	0xbde4eb4d	-0.111776926
12	0x3d8fe479	0.070259996
13	0x3b6f089b	0.0036473635
14	0x3df46574	0.11933413
15	0x3a857b92	0.0010183922
16	0x3e8ff0e2	0.28113467
17	0xbe05b6a9	-0.1305796
18	0x3da5c07d	0.08093355
19	0xbd8be349	-0.068304606
20	0xbd33dc37	-0.043911185
21	0xbd1475fd	-0.036245335
22	0x3d6a61b7	0.057222094
23	0x3d7fd4cf	0.06245881
24	0x3e138d76	0.14409432
25	0xbd29d43b	-0.041462164
26	0xbd5da0c0	-0.05410838
27	0x3b5f83d4	0.0034105675
28	0xbe16040b	-0.1464998
29	0x3dc1e6a1	0.09467817
30	0x3e2e11bd	0.16998954
31	0x3d81e05b	0.063416205

model.4.weight f4 [1, 32]
0	0x3d962cb3	0.073327444
1	0x3da4cb80	0.08046627
2	0x3d5b487b	0.05353592
3	0x3e364f61	0.17803718
4	0x3e054bde	0.13017222
5	0x3e184a2e	0.14872047
6	0xbdd55a90	-0.10417664
7	0x3f3043d0	0.68853474
8	0x3db5cf8d	0.08877478
9	0x3e796f38	0.24358833
10	0x3e63c255	0.222421
11	0xbd391586	-0.045186542
12	0x3dfad6fe	0.12248038
13	0x3e0a2288	0.13489735
14	0x3e4d9ab0	0.2007854
15	0x3e8556d9	0.26042822
16	0x3eb2a534	0.34891665
17	0xbce5ac33	-0.028036213
18	0xbd4853ba	-0.048907973
19	0xbd9a5869	-0.07536394
20	0xbe2e3072	-0.17010668
21	0xbdb66851	-0.089066155
22	0xbdb8ee01	-0.09029771
23	0xbd12a057	-0.035797443
24	0x3e8b2aed	0.27181187
25	0x3e5828c4	0.21109301
26	0xbe224aeb	-0.15848891
27	0xbe5760e6	-0.21033058
28	0xbe46b5fa	-0.19405356
29	0x3e2188e3	0.15774874
30	0x3e85ec2f	0.26156756
31	0x3d10977f	0.035300728
