model_save_Adam_128.pth (torch, 71802 bytes, 19 tensors)

embeddings.0.weight f4 [7, 4]
00000000: 50e9 423f d60b dc3f b577 56bf d8ff a4bf
00000010: 7a6d 1e3f 12c8 4cbf 52de 0f3e bb98 86bf
00000020: 346e a5be a078 133f b8ee a0bf 5b33 4b3e
00000030: 3458 e23f ea48 84bf 8f66 e93e 1fda f53e
00000040: f271 71bf 512c 4b3f 879f 973e 7072 803f
00000050: f989 01bf 9957 08be 7b53 c53e ad59 4a3f
00000060: b3cb 29be 8cf1 74bf 92c8 d13f e798 8f3e
0.76137257 1.7191112 -0.8377641 -1.2890577 0.618858 -0.79992783 0.14049652 -1.051536
-0.3231064 0.57605934 -1.2572851 0.1984381 1.7683167 -1.0334752 0.45586058 0.48017976
-0.9431449 0.79364496 0.29613897 1.0034924 -0.50601155 -0.13314666 0.38540253 0.79043084
-0.16581611 -0.9568107 1.6389334 0.28046343

embeddings.1.weight f4 [7, 4]
00000000: ea33 173f 4702 a43f 6e0a 9b3e ec81 4b3f
00000010: c19b 55bf b447 f93f cf9a e13d beb3 b0be
00000020: b89a bebf acac 183f c313 4fbf eeb4 ae3e
00000030: 5cb9 9a3f bddc 81be f80b e8be c73b 8abf
00000040: 45ed d7be 6037 a83f 05b6 2cbe d74b a23f
00000050: 64e1 c3be c000 3c3f d02d 15be aca0 21bf
00000060: e027 4d3f 59f7 033f cbba ec3e 710f 96bf
0.5906359 1.2813195 0.30281395 0.7949512 -0.83440787 1.9475007 0.110158555 -0.34512132
-1.4890966 0.59638476 -0.8088953 0.34122413 1.2087817 -0.25363722 -0.4532163 -1.0799493
-0.4217321 1.3141899 -0.1686631 1.2679394 -0.38257897 0.73438644 -0.14568257 -0.6313579
0.8013897 0.515493 0.46236262 -1.1723462

embeddings.2.weight f4 [6, 3]
00000000: 365d 49bf dd1c afbb 39eb 143f a19e 783f
00000010: acc7 903f be06 eebf 1781 c93f 9e5e f7bf
00000020: 24b7 433e c209 64bf 5880 2cbf 9d41 fdbd
00000030: 1926 d2be 0074 e5bf 300d 97bf e10b c3bf
00000040: 7179 f63e b1ce 07bf
-0.78657854 -0.005344017 0.5817142 0.9711705 1.1310935 -1.8595808 1.574252 -1.932575
0.19112831 -0.8907739 -0.6738334 -0.1236603 -0.4104469 -1.7926025 -1.18009 -1.5238
0.48139527 -0.5304976

embeddings.3.weight f4 [6, 3]
00000000: 4133 bbbe 3c81 d73f 8a5c 2040 fbfa 8bbe
00000010: ebeb 0c3c 0e91 243f 63d3 383f 764c 3b3f
00000020: f3ba 68bf 5702 81bf 9ccf 993f dceb 323f
00000030: 5dec 06bf 9a00 89bd 2c2a 8d3f f48a 8abf
00000040: 0f84 2d3f 3aa0 5cbf
-0.3656254 1.6836314 2.5056481 -0.2733992 0.008601169 0.64283836 0.7219755 0.73163545
-0.9091026 -1.0078839 1.2016482 0.6989114 -0.5270441 -0.06689568 1.1028495 -1.0823655
0.6777963 -0.86181986

embeddings.4.weight f4 [4, 2]
00000000: 8935 d03e dfbf 12bf 0a67 03bf 9a04 ac3f
00000010: 0feb e33e 60ef 9a3f 5a5e 83bf b670 253e
0.40665844 -0.5732402 -0.513291 1.3438904 0.44515273 1.2104301 -1.0263169 0.16156277

embeddings.5.weight f4 [8, 4]
00000000: 8a0b 773f acda a03e 08d8 5e3f 5236 7ebf
00000010: 9466 acbe 0193 14bf 59d7 bd3f 07df d3bf
00000020: 727c f6bf e88c cebd 6719 a33f 6346 1bbe
00000030: d13a 99be 849e 2dbe 141d 8fbf 7877 ddbe
00000040: 89a3 9e3f 9756 d23f c874 0a40 5895 a0bf
00000050: d376 d53e 1344 82bf a409 8d3f 9259 37c0
00000060: fbdb 793e 294e 953e 7abf b63f 9419 023f
00000070: 1c11 5a3e 87fb 953f 115f 163e 0819 41be
0.9650198 0.31416833 0.8704839 -0.99301636 -0.3367201 -0.5803681 1.4831344 -1.6552438
-1.9256728 -0.100854695 1.2742127 -0.15163569 -0.29927686 -0.16955 -1.1180749 -0.4325521
1.2393657 1.6432675 2.1633778 -1.2545576 0.41692218 -1.0177025 1.1018567 -2.864842
0.24400322 0.29161194 1.4277184 0.5082028 0.21295589 1.1717385 0.14684702 -0.18857205

embeddings.6.weight f4 [3, 2]
00000000: e2b4 3abf 945c 13bf e0b6 553f 70d6 243f
00000010: e01c c0bf 2c5d b8be
-0.72932255 -0.5756314 0.8348217 0.64389706 -1.5008812 -0.36008584

embeddings.7.weight f4 [7, 4]
00000000: a1cd 1dbe 5d4d 15c0 e6e9 0fbf d270 1b40
00000010: 462d c8be 392d cb3d 7944 70bf ff98 08c0
00000020: a78a 5ebf a5f6 283f f5d2 1abf afc7 0a3f
00000030: 6761 793f 24ab 3abe 3012 783f 06ce 1ec0
00000040: 39c1 5abf fec5 8c3e ab7b 88bf fbe2 f0bf
00000050: 9c2e 5b3e 7ee9 1dbc eaed dcbe 8567 8d3f
00000060: 5fa2 06bf 9888 e33f c39b 3bbf 7f64 af3f
-0.15410472 -2.3328469 -0.56216276 2.428761 -0.3909704 0.09920735 -0.9385448 -2.1343381
-0.86930317 0.6600135 -0.60478145 0.54210943 0.9741425 -0.18229347 0.9690275 -2.4813247
-0.85451084 0.27494806 -1.066274 -1.8819269 0.21404499 -0.009638188 -0.43150264 1.1047217
-0.5259151 1.777606 -0.7328455 1.3702544

embeddings.8.weight f4 [6, 3]
00000000: 8539 943f 5450 fa3f 43bd 633f df3e f63e
00000010: 75bd 32bf 1523 083d 3796 d5bf 4e13 a13e
00000020: eb97 a2bf bc4d 85bf 32e5 0e3f 8634 dcbe
00000030: e272 94be 7a57 26bf 98a0 a93e 2a7a 573f
00000040: eb07 c3be d8a6 b9bf
1.1580054 1.9555764 0.88960665 0.48094842 -0.6982034 0.03323658 -1.6686467 0.3146004
-1.2702612 -1.0414348 0.55818474 -0.43008822 -0.289939 -0.6497723 0.33130336 0.8417078
-0.38091978 -1.4504042

embeddings.9.weight f4 [6, 3]
00000000: 027f 02bf cfd2 1dbf 012f ec3e 1aac e0bf
00000010: 7997 a33f 7e64 433f 2abb f3be f0bf f43f
00000020: a12e 09bf 887d c23e 8d30 51bd 1b61 afbd
00000030: 2777 dabd 3f6d 48bc ad9e 033f cea9 d8be
00000040: 8aab c6bf d7da 11bd
-0.5097505 -0.61649793 0.4612961 -1.7552521 1.2780601 0.76325214 -0.47603732 1.9121075
-0.53586775 0.37986398 -0.051071692 -0.08563443 -0.10667258 -0.012233078 0.51413995 -0.4231705
-1.55211 -0.035609093

embeddings.10.weight f4 [4, 2]
00000000: 13fc 48be 41ab bd3f 9879 7abf cc9f 3e3f
00000010: 56d2 20bf b7b0 313f bab9 8ebf 04a2 41bf
-0.19627409 1.4817888 -0.9784179 0.7446258 -0.6282095 0.6941027 -1.1150429 -0.7563784

embeddings.11.weight f4 [5, 3]
00000000: 55d6 aebf dc9f 06bf eefe a5bf 7325 4c3f
00000010: 2ad2 d7bf 5052 38bf b78e af3f d6d9 c4be
00000020: f912 cbbf 921e e4be 1a21 ddbf 9992 26bf
00000030: 9b59 89bf b176 cf3f 018b 49bf
-1.3659159 -0.52587676 -1.2968423 0.7974464 -1.6861012 -0.720006 1.3715428 -0.38447446
-1.5865165 -0.44554573 -1.7275727 -0.6506744 -1.073047 1.6208097 -0.7872773

model.0.weight f4 [128, 42]
00000000: 0768 0d3e ce03 c5bd d592 c6bd 09f1 1a3e
00000010: 7c70 f3bd d701 fdbb f9ba 9ebc fa86 da3d
00000020: 84b0 bcbd 35ec 153e f485 0c3d dc08 93bd
00000030: ffc8 0abe d2a3 503d 1d69 11be bd20 3a3d
00000040: 762a fabd 795e ee3d 9025 89bd 8d3b c33d
00000050: 2278 6c3d 28a9 a63b b753 083e a6c5 043d
00000060: 6677 de3d 70ad 0f3e afb4 6a3d a554 94bd
00000070: a9f7 9abc 16bd 383d eb2a de3d 9ff1 273d
00000080: d054 213c f6cf ef3d a6b6 183e 839b b3ba
00000090: 4720 8dbd 4c55 363d 6cbb 9dbd ead0 9abc
000000a0: 7c5e 713d fcc6 0ebe c3f9 993d f91a 133d
000000b0: 9187 afbc 32a2 12be d033 10be a5e6 cbbd
000000c0: b2e2 963b efae 0e3d 6bef 91bd ef1b 83bd
000000d0: 4a54 b63d 2220 e93d 5d7e e3bd 6004 27bc
000000e0: 3acb 033d 00d8 00be e8a5 1bbe a0b8 39bd
000000f0: 1bb8 3e3e 0a5d 8d3d 4a87 9e3d 346a d43d
00000100: d0b5 a6bd c923 02be 5fe0 d43b c9bd 15be
00000110: eab9 abbd 4e81 9cbd ee2f 26be 5d65 0dbd
00000120: 10ad a53d 78cb febc 3424 0dbe da87 30bd
00000130: 54b8 453d 371c 363d 90a0 42be e904 993d
00000140: 0f08 943c 280e a83d 7200 273e edbe 1e3e
00000150: 5673 153c ea99 5b3d ba6b e33d 3f95 43bc
00000160: 4567 7a3d 26c2 abbd ab07 6a3b 2eac 68bd
00000170: 18b4 b2bc ce0c 2e3e f45a bf3d f70e 363d
00000180: 62e4 05be 0aad af3d e4f3 6b3d f3eb 823d
00000190: ad7b 873d 816f d1bd f93e d5bd fcdb 2abd
000001a0: 3f90 50bc 5048 9e3d 499c 0c3e 99eb 0e3e
000001b0: 3ce3 b9bd 9a3a 44bd b906 97bd 4d40 763d
000001c0: a13d 5439 9a08 e5bd 8f79 c3bd 849c 94bd
000001d0: 7614 3cbb 080e 0abe 0a6e 22bd 7173 8d3d
000001e0: 2c21 a33d 889a f73d d30c b2bc 24e8 193e
000001f0: 8b66 a0bd af4a e33d d4a8 8e3d a78e ebbd
00000200: 9965 dbbd 11dd adbd 4e29 ce3c 7328 063d
00000210: 805f eebd aff3 fdbd 09e7 55bd e2cc b9bd
00000220: fb29 8c3d a85b d0bb 5729 963d 6732 5ebb
00000230: d61a b8bb a6c2 16bd 3d23 34be 3257 1ebe
00000240: 9888 dd3d efc9 c1bd 7f14 d9bd c7d8 94bd
00000250: 1ddd 14bd c325 213d 154d 5d3c c9b9 9abd
00000260: 989d 023e 5d69 ea3d 86f4 da3a 32e6 bb3d
00000270: 4f5f 6abc ccf8 f3bd 0999 fbbd 6a4a 06bd
00000280: b716 ed3d 3087 45bd 2d58 23be 4bc7 4abd
00000290: 9ed1 0d3e 7514 9bbd b6f9 223e e0d7 183e
000002a0: 1a6e a73d 8319 d3bc 6d41 593d b36b f8bd
000002b0: cb0b 21be e2ff c63d 9ec3 a63c 5f77 03be
000002c0: 4f1c ac3d 5adc 9dbd 44c6 703d 861c bdbd
000002d0: 3bce 8dbb 1ea7 983b 87e6 77ba dbbb e33d
000002e0: ae62 0f3d ce4c 113e 2f23 52bd 2aab 163e
000002f0: 8b96 8ebb 588c 0dbe ca73 6dba b9a1 443d
00000300: a42a 94bd 19aa b9bd 3c01 893d c8ea 25bd
00000310: 5357 a23d e552 123e 26d6 57bd 9bec cdbc
00000320: a8f1 2ebd 55fc 083d 4398 d2bc 74f1 e2bd
00000330: fbae eb3d 2fe3 2dbe 45dd 883d a4a9 443d
00000340: a2b8 04bd 6529 e93d ac77 20be f22c 573d
00000350: f9d5 7ebc 6f71 adbd 00e8 073d a3ef 2a3e
00000360: 22c1 f5bc 641a 023e fb1c e9bc 293a d03d
00000370: c59c 0f3e e4b3 c2bc 7251 0e3e 41a8 e0bd
00000380: f314 b1bb 5dfd 3bbc 0d28 3fbc ca79 033c
00000390: 9e06 123e 20c0 743b cef2 1f3e b5dc 893a
000003a0: 42e5 18be f57f 5cbd 08a1 e73d 5573 53bc
000003b0: 4203 e4bd 49f6 653d 7dec e5bc f06a ddbd
000003c0: 3815 843d 17b5 f0bd eef3 8b3d 7e5c c23d
000003d0: adf8 613c 385e bd3d f510 b83d 1f59 c8bc
000003e0: 1cd9 31bd 2aa6 943d fdf8 683d 20f0 9a3d
000003f0: 41d2 f8bd 4021 13ba 8893 00be 8b49 4a3d
0.13809215 -0.09619866 -0.09695975 0.1513101 -0.11886689 -0.0077211666 -0.019376265 0.10670276
-0.09213355 0.14640887 0.034307435 -0.07179424 -0.13553236 0.05093748 -0.14200254 0.045441378
-0.1221513 0.11639113 -0.066966176 0.09532843 0.057731755 0.005086083 0.13313185 0.032415055
0.10862617 0.14031005 0.05730122 -0.07242707 -0.018916922 0.0451022 0.1084803 0.041001912
0.009846881 0.11709587 0.14913425 -0.0013702962 -0.06890922 0.04451494 -0.077017635 -0.018898446
0.058927998 -0.13943094 0.075183414 0.035914395 -0.021426948 -0.14319685 -0.14082265 -0.09956101
0.004604661 0.0348348 -0.071257435 -0.06401812 0.089027956 0.11383082 -0.11108086 -0.010193914
0.032176234 -0.12582397 -0.15200007 -0.045342088 0.18624918 0.069025114 0.07740648 0.10371819
-0.08140147 -0.12708963 0.0064964737 -0.14623179 -0.0838507 -0.076418504 -0.16229221 -0.034520496
0.0808965 -0.03110288 -0.13783342 -0.04309831 0.048271492 0.0444605 -0.19006562 0.0747164
0.018070249 0.08205825 0.16308764 0.1550252 0.0091217365 0.05361358 0.111045316 -0.0119374385
0.06113364 -0.0838664 0.0035710137 -0.05680483 -0.021814391 0.16997072 0.0934352 0.044447865
-0.13075402 0.085779265 0.05760564 0.0639266 0.06615386 -0.10226346 -0.10412402 -0.0417137
-0.012729703 0.07728636 0.13731493 0.13957061 -0.09076545 -0.04790745 -0.07374329 0.060119916
0.00020240854 -0.11183281 -0.0954467 -0.072564155 -0.002869872 -0.13481915 -0.039655723 0.06906784
0.079653114 0.12090021 -0.02173463 0.15029961 -0.078320585 0.11098229 0.06965795 -0.11501818
-0.107127376 -0.08489431 0.02516618 0.03275342 -0.11639309 -0.123999946 -0.052222285 -0.090722814
0.06843945 -0.0063585825 0.07332104 -0.0033904554 -0.0056184335 -0.036806725 -0.17591567 -0.1546295
0.10817069 -0.09462344 -0.105996124 -0.072679095 -0.036343683 0.039342653 0.013507147 -0.07554967
0.1275543 0.11445878 0.0016704954 0.09174766 -0.01430495 -0.119126886 -0.122850485 -0.03278581
0.11576598 -0.048224628 -0.15951605 -0.049506467 0.13849494 -0.07572261 0.1591557 0.149261
0.08175297 -0.025769 0.05304091 -0.12129917 -0.15727155 0.097167745 0.02035695 -0.12838505
0.08403837 -0.07708044 0.05878283 -0.09233956 -0.004327563 0.004658594 -0.00094566535 0.11119815
0.035006218 0.14189455 -0.051303085 0.14713731 -0.004351442 -0.13823068 -0.00090580864 0.048005793
-0.072346956 -0.09065647 0.066896886 -0.040507108 0.07926812 0.14289434 -0.052694462 -0.025137236
-0.04271093 0.033443768 -0.02570737 -0.1108121 0.11507984 -0.16981195 0.06682829 0.048013344
-0.032402642 0.113848485 -0.15670651 0.052533098 -0.015553945 -0.08468901 0.033180237 0.16692977
-0.02999932 0.1270538 -0.028456202 0.10167343 0.14024647 -0.02376742 0.13898256 -0.10969592
-0.0054041087 -0.011473981 -0.011667264 0.008024642 0.14260337 0.003734596 0.15619966 0.0010518046
-0.14931205 -0.053832967 0.11310011 -0.012905915 -0.11133434 0.05614308 -0.028066868 -0.10811412
0.0644936 -0.1175329 0.06833635 0.09490298 0.013792199 0.092464864 0.08987609 -0.024456559
-0.043419942 0.07258256 0.05687808 0.075653315 -0.12149478 -0.00056125596 -0.12556279 0.049386542

model.0.bias f4 [128]
00000000: caad cb3d 3d74 3e3e 18c9 d03d fc76 3abd
00000010: 04b5 803d 124d 613c 72be 163e 9c61 c53d
00000020: 30bb f6bd 0050 0e3e eeb3 41bd 359b 07be
00000030: 4374 0a3d da6b 1dbe 5012 7b3c ab03 11be
00000040: 2d26 4dbd 8f60 afbc 9dcb 193d 6b3e 053e
00000050: 38aa c8bd 7521 f3bd 34ff 303e 5cd7 1c3d
00000060: 25f8 8fbd e4da 27bd f41e 3fbd 2fc8 983b
00000070: 9f3b 6dbd e020 ae3c a9a4 593d 6c07 ef3d
00000080: d17c 47bd 15b7 1c3e 3828 3a3d aab4 cdbd
00000090: a538 343e e3ef b93d 91c3 95bd b574 993d
000000a0: 9acd d43d 6e32 5cbd bd2f 36bd 05c4 c7bc
000000b0: a54d fa3d 0571 633d 66ac 083d df66 2b3a
000000c0: 8b36 3dbd 1ca5 813d 2af9 ecbc d92c a93d
000000d0: af24 0abe 5707 1e3e 5fb7 603d 85c5 823d
000000e0: 8691 2ebc c985 8bbc 5997 87bd 981e 08be
000000f0: 147f dd3c 2459 213e 2656 223d 3131 a7bd
00000100: 6059 273e bcab c6bd 3ad6 52bd 1b63 b03d
00000110: fbc2 8bbc 31a7 793d c3cb adbc 375e 24be
00000120: 3c30 9f3d 3c3c df3d d0f0 22bd 5090 cc3c
00000130: 1fd6 adbd d9d8 063d 1a0e 1a3e febd 473d
00000140: 19d9 13bd f7d2 bf3d 7a06 5fbd 1659 08be
00000150: e6af eebd c159 8e3d 876f 00be 0f25 d43d
00000160: fa04 fbbc db6b bcbc 2d8c 213d 0cf0 133b
00000170: 28e1 fb3d c5e1 bd3d 90bb de3a a0b2 bdbd
00000180: 3b07 2b3d 7eec 283c e32d 9ebd 903e 1b3e
00000190: bad4 ab3d 9a19 8fbd 3046 de3d 1b60 aebd
000001a0: ab46 cbbd 9457 a83d 4914 cabd cee6 adbb
000001b0: fd21 5ebd eff3 e33d b953 4c3d b315 e1bd
000001c0: 0870 08be 3c7f 143e 06b8 05be c19b 76bd
000001d0: c265 bcbd 0332 d53d ada9 22bb b7b9 2dbe
000001e0: bc88 b03c e82c 86bd 5448 5e3d 2a63 1abe
000001f0: 9983 803d 046e 093e eb48 e23d 0010 56bd
0.09945257 0.18599029 0.101946056 -0.04552363 0.06284526 0.013751285 0.14721087 0.09637758
-0.12047422 0.13897705 -0.047290735 -0.132428 0.033802282 -0.15373173 0.01532419 -0.14161555
-0.050085235 -0.021408347 0.037547696 0.13012092 -0.09798092 -0.11871616 0.17284852 0.03829132
-0.07029752 -0.040980235 -0.04666038 0.0046625356 -0.057918187 0.02125591 0.053135548 0.116713375
-0.04870302 0.15304215 0.04544851 -0.100442246 0.17599733 0.09078958 -0.07312692 0.07492963
0.10390778 -0.05375903 -0.04447912 -0.024385462 0.12221841 0.055527706 0.033367537 0.00065384613
-0.046194594 0.0633032 -0.028927404 0.08260507 -0.13490556 0.15432487 0.054862376 0.0638533
-0.010654813 -0.017031567 -0.06620664 -0.1329292 0.027038135 0.1575666 0.03963294 -0.081636794
0.16342688 -0.097007245 -0.051473834 0.08612653 -0.017060747 0.06095046 -0.021215325 -0.16051565
0.07772872 0.10900161 -0.039780438 0.024971157 -0.08488106 0.032921646 0.15044442 0.048765175
-0.036095712 0.0936641 -0.054449536 -0.13315234 -0.11654644 0.06950713 -0.12542544 0.10358631
-0.030642021 -0.023000648 0.039440323 0.00225735 0.122988045 0.09271578 0.0016993154 -0.09262586
0.041754942 0.01031029 -0.07723596 0.15160584 0.08390184 -0.06987305 0.10853231 -0.085144244
-0.09925588 0.08219829 -0.0986715 -0.005307055 -0.054231633 0.11130511 0.04988453 -0.10990467
-0.13323987 0.14501661 -0.1305848 -0.060207132 -0.09199096 0.104099296 -0.0024820373 -0.16965376
0.021549575 -0.06551534 0.054268196 -0.1507689 0.062751 0.13420874 0.11049064 -0.052261353

model.2.weight f4 [64, 128]
00000000: 9ba8 31bd 97b1 afbd fbdd 78bd 557c 57bd
00000010: 4093 88bd 7172 6e3d 33bc 75bd 2a90 493d
00000020: 7cc4 adbd 4474 0abd ac4a cf3c d5ea c5bc
00000030: 077b 823d 8fab 9ebd 0c97 9aba a2e1 853d
00000040: 5d03 69bd 17d4 20bd 532d 45bd c97f ed3b
00000050: cdd5 813d 1c56 b3bd d2b3 b43b 25e0 d7bc
00000060: cf7c 9e3d aab7 303d d816 a03c 34b0 efb8
00000070: 53f0 e8bc 5143 9d3d 704b 9d3b 6980 663d
00000080: 490e 51bb 7653 943d 6cc8 3a3d d6ef 853d
00000090: ee46 98bd e323 6bbb bdf5 14bd b4e6 c03c
000000a0: 6a0c b23d 618d 88bc 8552 53bd 2b14 a2bd
000000b0: 3a4f 853d 8ea4 15bd d6cd 37bd b042 15bd
000000c0: 53e1 84bd b529 a7bd 93b8 97bd 7ebc 923d
000000d0: 0fd8 98bd a564 b4bd 1c31 053d fbde fa3c
000000e0: 45b9 413d 707a b33d 3ae1 253d a1e1 8fbc
000000f0: e00c 4fbd b753 4b3d 5194 993c 3b46 a5bb
00000100: 0b84 8bbd e993 fbbc f95f 743d 8e6a 013c
00000110: b350 5e3d 84d7 6cbb 1b7d 96bd f80c 10bb
00000120: 4d7f 11bd 1997 f7bc 0c20 3abd bf4e ecbc
00000130: 7ce8 a73d c6c6 87bd 06ba 873d 558b b33d
00000140: 778a 053d ba33 8cbc 15c3 b33d af2d 4bbd
00000150: 4626 b5bc b781 78bd bdf6 0d3c ab4c 6cbd
00000160: 19b9 3ebc 6e1b a3bc 7531 79bd f632 7f3d
00000170: d4eb 713d 6506 1c3d fdb7 423d 2ba0 15bc
00000180: f406 583c 6156 513d 8b4d 913d 8da1 47bd
00000190: f410 653d c07e afbd 31d2 893d 7a4e 95bd
000001a0: e93d 2dbd 5107 6a3c 20d2 f1bb 44ae aabd
000001b0: 0e10 9a3c 3217 803d 74bc 6cbd 0940 dabc
000001c0: 52e1 0cbd cf7c 07bd 8a36 d43b 680c 96bd
000001d0: 0488 b0bc 21f9 a53c 8c5e 93bd 45e7 903d
000001e0: 00da 8d3d d179 e0bc 37c8 a63d a96e a43d
000001f0: d925 473d e2a6 64bb 29d0 833d 8b90 803c
00000200: 348a 79bd 944a af3d efc8 d3bc 327f 163d
00000210: 29cf 813c 75d6 a5bd 4fec 9e3d 2a52 753c
00000220: 99ba 6bbd 061a a5bc d602 afbc f35e 483d
00000230: 37f4 2fbd ec30 573d dd0d 113d 05e9 a5bd
00000240: 8e5b 923d 6a08 693d 5f18 7abd ddf8 c63c
00000250: 2334 6f3d 8658 6f3d 8ca0 a53d dfa6 d03d
00000260: d08d 823c c231 613d 921e 953d 30c1 023d
00000270: b09a 1d3c c48e 853d 3bea 87bc 7012 f33c
00000280: 07ee 4fbc e833 613d 1185 0bbc 92c5 15bd
00000290: 94c5 d8bc 13ef 3e3d 0a27 e73c 8411 31bd
000002a0: 659e 1cbd 161c e8b8 21e8 a1bd e7e7 09bd
000002b0: 7894 b1bd 0fb3 b73a bfaa a93d 42e7 3ebd
000002c0: 102c 5e3d e5ee 883c 7db4 91bd 6fd5 313d
000002d0: 9fdc abbd 1276 863c 9fd3 213d dbf5 df3c
000002e0: f43f a83d 4a72 c1bc 2698 2c3d 3786 a8bd
000002f0: 6ffd 16bc b22e 84bd 6ea3 3f3d 5c28 81bd
00000300: 92e6 5bbd 0d34 09bd eee2 9fbd accf 31bd
00000310: 8e82 93bd be9d 5d39 b8a9 2ebd fa6a a2bd
00000320: fb8f 60bd 2741 89bc f78e bebc a3b5 da3a
00000330: 6a00 333d 5e72 6bbd 5d6c 10bd b1a8 42bd
00000340: 5961 643d 6129 913d 4b54 793d 685d 91bd
00000350: 8501 60bc 74d0 8b3c 69b8 383c b05f 93bd
00000360: e503 4f3c b230 a4bc 5485 7f3d 9a68 523d
00000370: cd28 c53c 1081 b4bd 1317 4bbd 56aa a0bd
00000380: 5866 013d 6eef 86bb 794b 97bc 9f09 09bd
00000390: 839e 97bc 5fc2 3fbd 634a 4abd 754a 54bd
000003a0: 9441 873d 0001 6b3c eaef 04bd 8c30 31bc
000003b0: 79cc 0e3d 2e05 313d 0eb0 ab3c fe93 383d
000003c0: 85ea 0c3d 6654 0fbd 3671 a1bc f1d1 053d
000003d0: 0cc4 a63d 61a8 98bd 537b a53d a223 42bd
000003e0: 59ff 733d b67f 20bd b823 af3c d340 573d
000003f0: 2676 59bc 2efe 893d d6eb 723d 1b98 e93a
-0.043373685 -0.085787944 -0.060758572 -0.052608807 -0.06668711 0.05821461 -0.059993934 0.04920975
-0.08484742 -0.033802286 0.025304161 -0.024159828 0.06371122 -0.07747566 -0.0011794283 0.06537177
-0.056887973 -0.039264765 -0.048138928 0.007247899 0.063396074 -0.087566584 0.0055146003 -0.026351998
0.07738649 0.043143906 0.019542143 -0.000114292285 -0.028434908 0.07678855 0.0048002526 0.056274805
-0.0031899384 0.072424814 0.045601293 0.06539886 -0.07435404 -0.0035879544 -0.036367167 0.023547508
0.08693774 -0.016668977 -0.05159237 -0.07914003 0.06509252 -0.036533885 -0.044874035 -0.03644055
-0.0648829 -0.08162252 -0.074082516 0.07164858 -0.07463085 -0.08808259 0.032517537 0.030623903
0.047295827 0.087635875 0.040497996 -0.017563643 -0.050549388 0.049640384 0.01874748 -0.0050437725
-0.068122946 -0.030710177 0.05966184 0.00789894 0.05427618 -0.00361392 -0.07348081 -0.0021980386
-0.035521794 -0.030223416 -0.04544072 -0.028846143 0.0819864 -0.0662971 0.06627278 0.0876681
0.032602753 -0.017114509 0.08777443 -0.049604114 -0.022112977 -0.06067058 0.008664784 -0.057690304
-0.01164081 -0.01991054 -0.06083818 0.06230446 0.059062794 0.038092036 0.047538746 -0.009132425
0.0131852515 0.051107768 0.07094868 -0.04873805 0.05592437 -0.085690975 0.06729544 -0.07290359
-0.04229537 0.014283971 -0.007379785 -0.0833402 0.018806484 0.06254424 -0.05779691 -0.026641862
-0.03439457 -0.03307801 0.006476228 -0.07326585 -0.021549232 0.020260395 -0.07195768 0.07075361
0.06926346 -0.027401837 0.08143657 0.08028919 0.04862008 -0.003488951 0.06436188 0.015693923
-0.060922816 0.085591465 -0.025852649 0.036742397 0.015845852 -0.08097545 0.07759916 0.014973203
-0.057551 -0.02015401 -0.021363657 0.048918676 -0.04295751 0.05253689 0.03541361 -0.081010856
0.07146369 0.05689279 -0.0610584 0.02428859 0.05839933 0.058434032 0.080872625 0.10188078
0.015936762 0.054979093 0.072812214 0.03192252 0.0096194 0.06521371 -0.016591182 0.029671878
-0.0126910275 0.054981142 -0.008515612 -0.03656537 -0.0264614 0.046614718 0.028216857 -0.043229595
-0.038236994 -0.000110678535 -0.07905603 -0.033668425 -0.08670896 0.0014015156 0.0828452 -0.046607263
0.05424124 0.016715476 -0.071145035 0.043416437 -0.083916895 0.016413722 0.03950846 0.027338913
0.08215323 -0.023614068 0.042137288 -0.082287244 -0.009215697 -0.06454219 0.046786718 -0.06306526
-0.053686686 -0.033496905 -0.07806955 -0.043410942 -0.07202636 0.00021134966 -0.042642325 -0.079305604
-0.05482481 -0.0167547 -0.02326153 0.0016686212 0.043701567 -0.057482116 -0.035259593 -0.047524158
0.0557569 0.070879705 0.060871404 -0.07097894 -0.013672237 0.017067172 0.011274436 -0.07195985
0.012635206 -0.020042751 0.06238301 0.051369287 0.024067307 -0.08813679 -0.049582552 -0.07844989
0.031591743 -0.0041178977 -0.018468605 -0.03345644 -0.018508201 -0.046816226 -0.049387347 -0.05182882
0.06604305 0.0143435 -0.032455362 -0.010814797 0.03486297 0.04321783 0.020957973 0.04506301
0.034403343 -0.034992598 -0.019707303 0.03267092 0.08142862 -0.07453991 0.08080163 -0.047397263
0.05956969 -0.039184295 0.021379337 0.052552056 -0.013272798 0.06737934 0.059306942 0.001782182

model.2.bias f4 [64]
00000000: b089 433d 491a d8bb e627 ebbc 574e c93c
00000010: 3739 943d e9e2 babb 851a 013e d765 fcbc
00000020: 2688 10bd cf38 0dbe 77b5 f33d 2704 ba3d
00000030: 9ffa 443d 6954 023e c8bd ddbc 69c7 b6bd
00000040: e89f 36bb 8c34 63bd 8ff6 e33c dbfe 963c
00000050: 13e7 ad3d d49d f93d f67d 453d 6632 a23c
00000060: b38a 99bd 6fd6 193d a9bb 443d c28d 09bd
00000070: 97d4 d3bd ed62 a43d 6310 b7bc 697c 033d
00000080: a7a0 623d ee73 61bd 2454 d2bd a09f a33d
00000090: 8354 7b3b ea02 43bd e988 843d e28d fbbd
000000a0: 3e08 c43d b6a4 a03b aa7a 23bd 470a e4bd
000000b0: e0c8 253d e4db 203d 53cb 773d 0bc4 c4bd
000000c0: 10fc cd3d 361d 03bd 51c9 b03d 4ab3 cf3d
000000d0: cc4b 493d 6898 013d 2657 f4bc 1c27 c5bc
000000e0: 33e7 a23d 919b a03d 146e 9bbd 1b72 55bd
000000f0: 9312 023e b14a 053d fbf5 9d3d b636 f93c
0.04773873 -0.0065949303 -0.028705548 0.024573488 0.07237475 -0.0057033193 0.12607773 -0.03081028
-0.03528609 -0.13791202 0.11899846 0.09082823 0.048090573 0.12727512 -0.027068034 -0.08924753
-0.0027866308 -0.055470034 0.02782753 0.018432071 0.084913395 0.121883065 0.04821583 0.019799422
-0.07497158 0.037558015 0.04803053 -0.033582456 -0.10343283 0.08026681 -0.022346681 0.03210107
0.05532899 -0.0550422 -0.10269955 0.079894304 0.0038349933 -0.0476102 0.06471426 -0.122829214
0.095718846 0.0049024476 -0.039911903 -0.11134773 0.040474772 0.039272204 0.06049664 -0.09607705
0.10057843 -0.03201028 0.08632148 0.101416185 0.04914455 0.031639487 -0.029826712 -0.0240665
0.07954254 0.07842172 -0.07589355 -0.052110773 0.12702398 0.032541934 0.07712933 0.030421596

model.4.weight f4 [32, 64]
00000000: 2a55 c3bd 4351 c43c 2115 cbbc 21a8 86bd
00000010: 1ed7 8fbd 6ac3 80bd 1dde d13c f368 8abc
00000020: 8cb9 87bd 5dd8 e1bd 90b7 70bd 4d2b fc3d
00000030: 85cc 3c3d 7762 0abd 8450 893c 09fe 173e
00000040: 9145 17bd 2ebc d73d c84c b6bd b3a9 19bd
00000050: 1ebe bb3d f92a b4bd 7dfb 6a3d 8e5b ba3d
00000060: 77dd debd d70e 83bc 9bb4 a13a dfdb fa3d
00000070: c78c 913d a12a 1b3d b61e e43d bea3 aebc
00000080: 938a 403c b175 8bbd 751a 203d ae48 be3b
00000090: 9b36 d63d 5571 693d 1a83 8cbd d7bc 013e
000000a0: a1cd 67bd 48b7 d43c 3c90 81bd 0f52 a3bd
000000b0: c1a1 8b3d 9542 db3d cb79 873c c44d 80bb
000000c0: 7985 5cbd a6ce 74bd 4a29 c83d 3697 f73d
000000d0: e4af f6ba aba9 66bd 5911 ca3d 85ee 923d
000000e0: e544 22bd 4cfb e53d 7dff 2cbd f2b1 f3bd
000000f0: 7ac4 b33d c1d2 cdbd 1882 a73d 5280 c1bd
00000100: ed74 8dbd 729c b13d dfd9 fcbd 8601 9cbd
00000110: aece 133e 0498 1bbc 1f66 26bc 6b09 243c
00000120: 84b2 c83d 3ffb d0bd 1ad3 193e 380a 2d3d
00000130: 94cf 95bd a521 fb3d 656d bfbd ac96 ae3d
00000140: ca01 26bd 560e d63c a6a2 95bd 2dea 1abd
00000150: ae6e e2bc de0e 043e 044a 803c 3811 1ebc
00000160: d464 c1bd 41e0 4cbc c103 873d 975d f53d
00000170: b235 a3bd d975 d7bc 566e 23bb 3233 203b
00000180: 793b f7bd 4b55 e7bd d6f7 fa3d 8df1 9a3d
00000190: e3de debc 6b12 67bd 5709 f83d 5ffd ae3d
000001a0: f68d 1dbd 7e23 94bd 70ff dabb 0a72 e03d
000001b0: be68 73bd c4aa 9e3d 93cd 8c3d d91b 863d
000001c0: 526a 4c3d fc2e 3fbd a0e3 95bd 8590 603d
000001d0: 8e07 70bd c36e 763b 34d8 e03d 334c da3d
000001e0: d1d5 9f3d a845 50bd 5421 b7bd e5fd ef3d
000001f0: 3cd1 87bd 745f 13bd 1e51 3e3d 4308 e4bd
00000200: f2b6 ad3c d37a b23d 1b9f febc 70cb 9c3d
00000210: da1f 8ebd 489a 53bd ff98 e0bc d020 013d
00000220: 741f b93d 1fce d13c e708 64bd 5e44 d3bd
00000230: a061 e1bd 0039 c1bd 67c2 3e3d 1aae 943d
00000240: 47b6 2c3d d826 853d 43f1 a9bd 602b e0bd
00000250: 27fd 943d aa1d 6b3d c1e9 7dbd 257f f73d
00000260: 776f ebbd c28a b33d 91bb f7bc f75a d7bc
00000270: 1eab bbbd 2bdc 013d bfb2 a6bd 93e2 643d
00000280: ae66 4a3d 8f3b 66bd b646 753c 3855 dd3c
00000290: 9480 d23c ad19 653d e28c c1bc d963 11bd
000002a0: 1dcb 443d af6d e13a 8361 debb b1d3 eb3c
000002b0: b152 523c 5c9d 5f3d 5eb7 93bd 7718 a33d
000002c0: 2b77 373d 57e5 693c 2897 283d 4776 603d
000002d0: 4ac3 773c 063c adbd 457a 973c 33ef 2ebd
000002e0: 0661 8f3d 1e59 a93d 5918 40bd 6179 fa3a
000002f0: 1f78 98bd a55f 6fbd d1ae 7e3c d53b 7dbd
00000300: 5188 f3bd a7f8 a9bd 448b ad3d 3141 93bd
00000310: 6ac4 02bd 027a 953d caaa 833d 7130 963d
00000320: 9d63 46ba 0aab 17bc 493e 603d 608b 27bd
00000330: b773 193b 948d d6bd 4696 84bd 59de 993c
00000340: ed9d 773d 536b 04be 283a 12bc 7787 ccbd
00000350: de37 b3bd 331a 25bc 9d44 af3d 3268 91bc
00000360: bb89 c0bc c86f e83d c4f7 6b3c 87b5 c9bd
00000370: 892c 093d 5f90 5cbc 8632 553c 8808 6a3b
00000380: 98a4 ae3d 8c18 223d c1f7 dcbc e7f8 153d
00000390: 7b13 7ebd 8c63 f83c 9279 febd 5a51 00bd
000003a0: 7d2e 6d3d 3252 aebd ea17 bd3d 46db d8bd
000003b0: af5d e0bd 2e96 803d c640 953c 839d 833a
000003c0: e581 503d 34df e3bd 2242 08bd 05ea 993d
000003d0: 7784 3ebd 6bd4 ccbd 7c44 f43c e659 9ebd
000003e0: 62bb 6d3d 2eb1 cdbd d751 a0bd fbb3 083d
000003f0: a30d 583d 0144 c1bd a963 f13d 6db6 afbd
-0.09537728 0.02396453 -0.024790348 -0.06575037 -0.07023452 -0.06287272 0.025618607 -0.016895747
-0.06627187 -0.11027596 -0.05876881 0.123129465 0.046093483 -0.03378531 0.016762026 0.14843
-0.036931578 0.10533939 -0.089013636 -0.037515353 0.09167121 -0.08797259 0.057368744 0.09099494
-0.10882085 -0.015998287 0.001233715 0.12248968 0.07106929 0.03788245 0.1113867 -0.021318313
0.011751789 -0.06809557 0.03908773 0.005807004 0.10459634 0.056992847 -0.06860943 0.12669693
-0.056592587 0.025966302 -0.06326339 -0.07974636 0.068179615 0.10706059 0.016537568 -0.0039155204
-0.053838227 -0.059767388 0.097735 0.12089388 -0.001882073 -0.05631415 0.0986659 0.071744
-0.039616484 0.11229572 -0.04223584 -0.11899175 0.08777709 -0.10049964 0.0817911 -0.09448303
-0.069070674 0.08672418 -0.12346243 -0.07617478 0.14434311 -0.009496693 -0.0101561835 0.010012011
0.09799674 -0.102041714 0.15021935 0.042246073 -0.07314983 0.122622766 -0.09347037 0.08524832
-0.04052905 0.026129883 -0.07306413 -0.037820984 -0.027640667 0.12896296 0.015660293 -0.00964766
-0.094430596 -0.012504638 0.06592513 0.119807415 -0.07969226 -0.026301311 -0.0024937592 0.0024444577
-0.120718904 -0.11295565 0.12254302 0.075656034 -0.02720589 -0.05641405 0.121111564 0.085444205
-0.038465463 -0.07233332 -0.0066832826 0.10959251 -0.05942606 0.07747415 0.06875148 0.0654828
0.049906082 -0.046675667 -0.07318807 0.054825325 -0.058600955 0.003760264 0.109787375 0.10659065
0.07804454 -0.05084768 -0.08941904 0.117183484 -0.06631705 -0.035979703 0.046464078 -0.11134388
0.0212054 0.08714833 -0.031081727 0.0765599 -0.06939669 -0.051660806 -0.027416704 0.031525433
0.09039202 0.025610982 -0.055672552 -0.103157744 -0.110049486 -0.094347 0.046572115 0.0725977
0.04216602 0.065015495 -0.0829797 -0.10945773 0.072748475 0.057401337 -0.061990503 0.12084798
-0.114958696 0.087667 -0.030240806 -0.026288493 -0.091634974 0.03170411 -0.08139562 0.05588014
0.04941433 -0.056209143 0.014970472 0.027018175 0.025696076 0.05593269 -0.023626748 -0.035495613
0.048045266 0.0017198826 -0.0067865266 0.028787466 0.012837098 0.05459343 -0.07212709 0.07963651
0.04479138 0.01427587 0.04115978 0.054800298 0.015122244 -0.08458714 0.01849092 -0.042708587
0.070009276 0.08268951 -0.04689822 0.001910966 -0.07444786 -0.058440823 0.015544609 -0.06182464
-0.11891235 -0.0829938 0.084738284 -0.07190169 -0.031925596 0.07298662 0.0642906 0.07333458
-0.0007567944 -0.0092570875 0.0547469 -0.040904403 0.0023414919 -0.10476223 -0.06473975 0.018782781
0.060453344 -0.12931566 -0.008924998 -0.09986775 -0.0875089 -0.010077047 0.08558009 -0.01774988
-0.023503175 0.113494456 0.014402334 -0.09849077 0.033489738 -0.013462155 0.013012534 0.0035710651
0.085274875 0.03957419 -0.026973607 0.036614325 -0.062030297 0.030320905 -0.124255314 -0.031327583
0.057905663 -0.08511771 0.09233077 -0.10588698 -0.10955369 0.062786445 0.018219363 0.0010041449
0.050905127 -0.11126557 -0.033266194 0.07515339 -0.046513047 -0.10001453 0.029817812 -0.077319905
0.05804003 -0.1004356 -0.0782811 0.033374768 0.05274738 -0.09436799 0.11786587 -0.08579717

model.4.bias f4 [32]
00000000: 9539 ffbd 5850 433e 59ec 8abd c47a cdbd
00000010: d94b 023d a5e9 533e 3ddd 6f3d cc0e fcbd
00000020: aebf c53d c616 523d 6593 0cbe f774 633d
00000030: da41 c93c fe2e 853b 9910 46bd 71d3 1bbe
00000040: af4b 7f3e 7435 d5bb 2309 95bd 635e 083e
00000050: 256f 78bd ef80 833c 34ff ec3d b42b 623e
00000060: b5a2 b4bd a64a 1d3a aaca fa3c 7d10 b73d
00000070: 5a0d afbd de7f ae3d 6023 80bd a3b0 edbd
-0.12462155 0.19073617 -0.06783361 -0.10033181 0.031810615 0.20694597 0.0585606 -0.1230751
0.096557006 0.05129125 -0.13728102 0.05553147 0.024567533 0.00406444 -0.048355673 -0.15217377
0.24931215 -0.0065066162 -0.07277133 0.13317256 -0.06065287 0.016052691 0.11572114 0.22086984
-0.088200964 0.0006000198 0.030614216 0.08938692 -0.085474685 0.085204825 -0.06256747 -0.116059564

model.6.weight f4 [1, 32]
00000000: 6f6c 55be aa82 433e 97d2 c43d b6de 043c
00000010: 71e2 ecbd 32a8 9b3e 2613 00bd cdf0 053e
00000020: b71d 613d 0fe8 26bc b63f bebd ce7d 263d
00000030: 6ed9 6f3c d215 1cbe 58c7 49be b0ea 6fbe
00000040: 92cf 053f d095 1d3e b55e 113e b333 a03d
00000050: 23fa 62bc 09b3 d0bc a6e1 ca3d 1731 f63e
00000060: dc8d 2cbe 98f2 923d 3f8c f3bd 5f80 953e
00000070: d655 25be 325e 22be af5d c3bd 3df4 06be
-0.20842145 0.19092813 0.09610479 0.008109739 -0.11566628 0.3040176 -0.03126826 0.1308014
0.05495998 -0.010187163 -0.09289496 0.04064732 0.014639242 -0.15242699 -0.1970495 -0.2342937
0.5226985 0.1538918 0.14196284 0.07822361 -0.013853583 -0.025475996 0.0990632 0.48084328
-0.1685099 0.07175177 -0.11891984 0.29199502 -0.16146025 -0.15856245 -0.09539353 -0.13179107
