model_Adam_128Relu_val_Huber_LR.pth (torch, 217990 bytes, 57 tensors)

embeddings.0.weight f4 [7, 4]
00000000: 1a51 6cbf b5bf b23e 1b3f 0ec0 b5ad 56bf
00000010: ba93 4d3f 50f7 473f 3bd9 cb3f 43e0 17bf
00000020: 487e 26bf 5953 ba3c e013 3a3e 137b 983f
00000030: 2580 d9be edad 923e 14e8 063e b1b3 ca3c
00000040: 2ca7 85c0 6560 aabe 288c c7bd 3270 c8be
00000050: b011 c33f a019 d33f d2e5 0ebe 75fa dc3e
00000060: a18e f0bf 1ae3 2e3e 4385 40be da04 bdbf
-0.9231125 0.34911886 -2.2226017 -0.83858806 0.8030354 0.78111744 1.5925668 -0.5932657
-0.6503644 0.022744821 0.18171644 1.1912559 -0.4248058 0.2864832 0.13174468 0.024743887
-4.1766567 -0.33276668 -0.097435296 -0.39148098 1.5239773 1.6492195 -0.13954857 0.43159834
-1.8793527 0.1707882 -0.18800835 -1.4767106

embeddings.1.weight f4 [7, 4]
00000000: 68e1 983e 4a05 523c d856 da3f aef6 773f
00000010: 4799 86bf 0b94 283f 31d6 dfbe 57c1 473f
00000020: 4eca cfbd 0ebb 1bbf c12c 87bf 2487 be3f
00000030: 9d96 f33e d3d5 b13d eaf2 0ebf 8722 e3bf
00000040: b4c6 60bf 9ce6 7f3e 4a14 8f3d 0aeb 8cbf
00000050: d402 38bf 8394 99bf 58c1 ab3f 1b77 49bd
00000060: 6d27 6bbe 8049 aabf a27f e8be fd97 dabe
0.2985947 0.012818644 1.7057753 0.9686078 -1.0515527 0.65850896 -0.43718103 0.7802939
-0.101460084 -0.608323 -1.0560533 1.4884992 0.47575846 0.08683362 -0.5583941 -1.7744912
-0.87803197 0.24990314 0.06986292 -1.1009228 -0.71879315 -1.1998447 1.3418379 -0.049185853
-0.22964258 -1.330368 -0.45409876 -0.42694083

embeddings.2.weight f4 [6, 3]
00000000: 81f8 823d 6e80 7cbf ff80 c03e 99d5 523f
00000010: 9824 29be 6c07 e43e 3298 963f 4add 0a3f
00000020: f63b 1e3f f7be e1bc 5d71 cbbf 5474 08bf
00000030: 9b39 2dbe 30f8 c1bf 5617 2e3e 2b37 c33e
00000040: c218 84bf 06a9 7d3f
0.063950546 -0.9863347 0.37598416 0.82357174 -0.16517866 0.44536912 1.1765196 0.5424391
0.61810243 -0.02755688 -1.5893971 -0.533025 -0.16916506 -1.5153866 0.1700109 0.38128027
-1.0320055 0.99086034

embeddings.3.weight f4 [6, 3]
00000000: 9143 06c0 30cb d0be 0ac2 0640 ef1d 0ec0
00000010: a3f3 853e 545c 283e 2a06 6cbf 6a76 983f
00000020: 0afc 1bbf 889b 18bf 2e54 293f bd4a c43f
00000030: 6087 98bf 687a 203f ac41 503f 534b b3be
00000040: 42e9 a93f 3b2a c2be
-2.097874 -0.4078002 2.1055932 -2.220577 0.26162443 0.1644147 -0.92196906 1.1911137
-0.60931456 -0.5961232 0.66144073 1.5335308 -1.1916313 0.6268678 0.8135021 -0.35018405
1.327431 -0.37922844

embeddings.4.weight f4 [4, 2]
00000000: c7c7 c2be d682 9ebf 0570 2abf f941 9fbf
00000010: 1fce d83e 9b76 f13e 7a3c 5abf 832f 2c3f
-0.38043043 -1.2383678 -0.6657718 -1.2442008 0.42344758 0.471608 -0.8524853 0.6726

embeddings.5.weight f4 [8, 4]
00000000: 82b1 82bf f649 353f 6078 50bf b96e ff3f
00000010: e59a db3e 2817 f13d c9e1 1ec0 6fcb 3dbe
00000020: 6703 61bf 0105 0ec0 5829 6dbf 7dc9 2cbe
00000030: d72a 2dbf 827c 45bf 5375 4b3f 0be4 24be
00000040: dc97 8e3f 3121 46be 3ceb 26bf f8f1 483e
00000050: 9d13 fc3e f63f bebc 1e3b 8d3f efb3 c53f
00000060: 864f 0d40 d84e 93be 99b9 c4bc f41b ce3e
00000070: 9a4c c6bf 5a88 52bf 6281 c8be dd83 f7be
-1.0210421 0.7081598 -0.8143368 1.9955665 0.42891613 0.11771995 -2.4825308 -0.18534635
-0.87895817 -2.2190554 -0.9264121 -0.16873737 -0.67643493 -0.7714311 0.794759 -0.16102616
1.1140094 -0.19348599 -0.6520269 0.19623554 0.49233714 -0.023223858 1.1033666 1.5445536
2.2079787 -0.2877109 -0.024014281 0.40255702 -1.5492127 -0.82239306 -0.3916121 -0.4834279

embeddings.6.weight f4 [3, 2]
00000000: 55a1 823f c93c 3abe 27a5 b7be e81e 21bf
00000010: 205f 1440 4e71 7b3e
1.0205485 -0.1818725 -0.3586819 -0.62937784 2.318306 0.24554941

embeddings.7.weight f4 [7, 4]
00000000: 1670 55bf ef7e 11bf c00b 75bf 1ca8 7a3e
00000010: 1ac7 75bf 994c 52bf 88d4 fe3f c49f 0a3e
00000020: 8d85 babd 3e5b a73f b957 403f 6c04 7b3f
00000030: 1a02 82be e1a7 a83e ee29 913f 53e1 cb3f
00000040: 0c9b 88bf 38d3 4d3f ee72 65bf c801 2fbe
00000050: fed0 c03f b9d3 49bf c6f5 d5ba ef20 fd3d
00000060: 6ac3 173e 46be ae3d 4326 17bf c930 a03f
-0.83374155 -0.5683431 -0.95721054 0.24478191 -0.9600693 -0.8214813 1.9908609 0.13537508
-0.09107504 1.307472 0.75133854 0.9805362 -0.25392228 0.3294058 1.1340921 1.5928138
-1.0672317 0.8040042 -0.89628494 -0.17090523 1.5063779 -0.7883869 -0.0016323857 0.12359797
0.14820638 0.085323855 -0.5904276 1.2514888

embeddings.8.weight f4 [6, 3]
00000000: 6cae 13c0 9450 30be c254 16bf 28e0 8e3f
00000010: 55be 973f 561d 0abe 9fbb 41bf 7ade d7be
00000020: 494f ca3f 6c53 98bf 809f 863e 5c73 233d
00000030: 64f2 c0be 0f6b 02c0 4bf3 e83f c3d3 9ebf
00000040: 999b 523f 7fde 3340
-2.3075209 -0.17218238 -0.5872308 1.1162157 1.185496 -0.13487753 -0.7567691 -0.42161924
1.5805446 -1.1900458 0.26293564 0.039904937 -0.3768493 -2.0377843 1.8199247 -1.2408375
0.82268673 2.810455

embeddings.9.weight f4 [6, 3]
00000000: 6440 debf b21e ab3f f30e 64bf 595d 07bf
00000010: 6ef7 9a3d a27a 473f d323 a93f c5bc 0740
00000020: ab8e 81bf 43e6 9e3f 0a02 09be 18aa bcbe
00000030: 624c 1d3e c5b5 1840 cfac 98be 2f53 1a3f
00000040: 72e6 53be fad3 3ac0
-1.73634 1.3368742 -0.8908531 -0.5287681 0.07566725 0.779215 1.3214058 2.1208966
-1.0121664 1.241402 -0.13379684 -0.3684852 0.15361169 2.3860943 -0.29819342 0.6028318
-0.20693377 -2.919188

embeddings.10.weight f4 [4, 2]
00000000: d58e 9e3f 4cd2 3f3f 42c4 853d 86cc 823e
00000010: 2f33 3b3e c6d0 9bbf 07fc 593f 7a73 133e
1.2387339 0.7493026 0.06531574 0.25546664 0.18281244 -1.2173088 0.8515019 0.1439952

embeddings.11.weight f4 [5, 3]
00000000: 428b 57c0 e13f cebc a7b5 50be 7b3f 7e3f
00000010: 81cf f23d 62ab cdbf f7af 92bf 0fb8 71bf
00000020: 5564 28bf 52c3 08c0 3ae8 a63f cdf8 24c0
00000030: b48b efbe c993 53bf 8c4f ee3d
-3.3678746 -0.025176944 -0.20381795 0.99315614 0.118559845 -1.6067927 -1.145995 -0.94421476
-0.65778095 -2.1369214 1.303962 -2.5776856 -0.46786273 -0.8264738 0.11636266

model.0.weight f4 [128, 42]
00000000: a00c 34bd 0ca9 30be 3665 4ebd 47bc 5e3e
00000010: 65d4 423d c76d af3d 318b 863d 0f9a 413e
00000020: 1222 9e3d ded3 92bd 11b6 1f3b 7cd5 913e
00000030: 0dac 0a3b 3709 20be 0d87 d43d 5061 723d
00000040: a14f 6d3d 1a88 823e 7d99 8ebd f15a 9d3d
00000050: 7813 313c d86c 1d3e 06ba 2dbe 4a34 c03d
00000060: 14d5 f03d ed97 b63d 4d7c 9f3d 2feb 8d3e
00000070: c4cb e83d 02c5 f23d a07a 15be 6c00 2c3d
00000080: 6d85 d43c d311 d2bc 1e2e 7b3e df47 0ebe
00000090: 110e 01be f4f8 ebbc 0324 81be 32a3 cf3d
000000a0: 11e3 b43e cb14 083e 2d29 2ebe 9569 64bb
000000b0: 886d c33d cb1c 9cbc eefa 0d3d dcf1 1cbe
000000c0: 22e7 a33d b806 193d 4f54 4f3e d7c6 953d
000000d0: 7367 463e 85b2 f4bd a00c 403e 26e2 b6bd
000000e0: bc0c 72be 7ba2 e53d 9d66 e93d 0474 27be
000000f0: 4e97 48bd cf14 cd3d 03ff 023d e60d d83d
00000100: c043 333e e633 8c3d d5fb 2a3e 10a6 55bc
00000110: 5e99 e33c 1653 c53d d8e3 db3d 04b4 383d
00000120: 612b 40bd 66c3 e93d 7f72 cfbd 50cc 0dbe
00000130: e9a2 ed3b 76c7 dbbd 3131 233d a8d0 a23c
00000140: a73f 9abd 97e1 263e aacf f33d 81fd cdbd
00000150: 226d 18bc 21c6 5dbd 700b 3b3e efbd 99bd
00000160: e219 b03c b46f ef3d 3efb 9ebd 0d07 03be
00000170: 3b42 f33d 2ef6 09be 90f6 b53d b204 18be
00000180: 4eac edbd ffcc b13d a9f2 39be 9bef 05bc
00000190: 3500 d93c 3506 9abd 0b84 873e b586 d63c
000001a0: 220c 8d3d e932 323d a8e2 83bd 6491 2f3e
000001b0: 4190 a3bd 6738 853d 5279 cebd a0f6 0fbe
000001c0: e79b a83d 4e7d db3d 553e d4bd 4c37 ca3d
000001d0: 8e1f 96bd 4151 1ebd 5e1f 9d3d a6f2 3cbe
000001e0: 2c78 e7bd f1f4 ea3b 5640 85bc 8202 0c3e
000001f0: dba6 9e3d b28f 8d3e 4f57 8c3c b3dd c0bd
00000200: d8b0 873d 4f6f 91be b37a 6cbe a51a b0be
00000210: 35e1 e2bd 3b76 a73d bebe 4d3b 2fb5 43be
00000220: 8dac abbd 80e4 33bb 4bca 8c3d 8de2 82bd
00000230: 6e76 7fbd b319 c83d 0c28 d1bc 4e08 3cbe
00000240: e7bf 0b3e 749e 0b3d cbbe 15be 1ae5 56be
00000250: 70d3 81bc 7d93 a7be 4f3a c3bd fa29 f7bc
00000260: f1d5 39be 9738 a43e 327d 4bbe 7923 8cbe
00000270: 9dc4 04be 3f5d 933e 023d 18bd 33b6 8bbd
00000280: f5fd fa3d 9750 a03e e043 c6bd 77d8 2abd
00000290: 1219 223d 1570 65bd a77f adbd ac89 eb3d
000002a0: 5583 39bd 4596 443c 7c2f d63d 8bbb cabd
000002b0: 6954 2d3e 7308 bebc 7234 c9bc 3a6b 54ba
000002c0: c43f 6a3e 48e6 5f3b 7d0a 9a3e 30b6 48bd
000002d0: cd21 9f3e d1b1 8f3e ed9b 01be 2560 22be
000002e0: 7c9e 42bd dda7 6c3a 0783 c4bd f4be 7c3d
000002f0: f0d7 20be 6269 c4be 97c6 523d 84c8 843e
00000300: ec19 973c e44b b83d 3c23 263e 2790 453e
00000310: 1a1d da3d b386 1a3e ce1d 003e 8194 12bd
00000320: 115c 813e 1a8a 153e d306 c33d b39f 60bd
00000330: c274 1dbd 7ee4 ba3d 7285 36bd bf04 a0bc
00000340: d582 adbe 59f4 0c3e 7cde 893d 9db9 223e
00000350: 83a9 863c 37e6 f2bc 760d 093e b2f3 843d
00000360: 5d4a 97be 9ff2 ec3c ce04 63be 33b2 67be
00000370: 3e41 c03d aca7 103e 44ec d73d 7418 efbb
00000380: 46b5 533e 2c9d 243e 4370 abbd fbd2 793e
00000390: 98fd 87be 368b cf3c 7ccc 88bd 5294 34be
000003a0: 6f6b f33d 209e d23b 750d ea3d 2383 b93d
000003b0: a20a 74be 4f8e ab3e dd06 393c 2baf 3a3d
000003c0: 8a98 e1bd 0243 aa3d 6c34 01bd 8fd2 afbd
000003d0: f041 8abb 80d6 9b3c fd12 a1bc 540e 853d
000003e0: d9d3 c03c 7e68 27bd 11e6 b4bd 48a1 cbbd
000003f0: 54b8 043e 02fc 523d 5aa7 b6bd ebfe 543d
-0.043957353 -0.17251986 -0.05038949 0.2175151 0.047565836 0.0856586 0.065695174 0.18906425
0.07721342 -0.07169317 0.0024369995 0.28483188 0.002115968 -0.15628515 0.103773214 0.059174836
0.05793727 0.25494462 -0.06962869 0.07683361 0.010807864 0.15373552 -0.16965494 0.09384973
0.117593914 0.08915696 0.0778738 0.27718493 0.1136699 0.118539825 -0.14597559 0.04199259
0.025942529 -0.025643265 0.24529311 -0.13894604 -0.12603022 -0.028805234 -0.25222787 0.10138549
0.35329488 0.13289182 -0.17007895 -0.003485297 0.09542376 -0.019056698 0.034663133 -0.15326637
0.080030695 0.037359923 0.20247005 0.07313316 0.193754 -0.119481124 0.18754816 -0.08929853
-0.2363767 0.11212631 0.11396525 -0.1635285 -0.04897242 0.100137345 0.03198148 0.10549526
0.17506313 0.06845836 0.16697629 -0.013040081 0.027783092 0.09634988 0.10736817 0.04509355
-0.04691637 0.114142224 -0.1012926 -0.1384747 0.0072520864 -0.107314035 0.039841834 0.019874886
-0.07531672 0.16296993 0.11904843 -0.10058118 -0.009303363 -0.05414403 0.18266082 -0.0750693
0.021496717 0.116912276 -0.077627644 -0.12795658 0.11877867 -0.13472816 0.08884919 -0.14845541
-0.1160513 0.08681678 -0.18158974 -0.008174802 0.026489357 -0.07520715 0.26467928 0.02618728
0.0688708 0.043505583 -0.064397156 0.17145306 -0.079864986 0.065048985 -0.10081734 -0.14058924
0.08232861 0.10717259 -0.103634514 0.09873828 -0.07330237 -0.03865171 0.076719984 -0.18451938
-0.11302218 0.0071703126 -0.01626603 0.13672832 0.07746669 0.27648693 0.017131476 -0.09417286
0.06625527 -0.28405234 -0.23093681 -0.34395328 -0.11078111 0.081768475 0.0031394209 -0.19112085
-0.08382521 -0.002744943 0.06874522 -0.063908674 -0.062368803 0.09770527 -0.025531791 -0.18362543
0.13647424 0.03408666 -0.14623563 -0.20985833 -0.015847892 -0.32729712 -0.09532606 -0.030171383
-0.18148018 0.32074425 -0.19871977 -0.27370813 -0.12965627 0.2878208 -0.037167557 -0.06821861
0.1225547 0.31311485 -0.09680915 -0.041710343 0.03957469 -0.056015093 -0.084716134 0.11500868
-0.045291264 0.011998718 0.10458276 -0.09899052 0.16926731 -0.023197388 -0.02456114 -0.0008103136
0.22875887 0.0034164358 0.30086127 -0.049001873 0.31080475 0.2806535 -0.12657137 -0.15856989
-0.047514424 0.0009027699 -0.09595304 0.061705545 -0.15707374 -0.3836165 0.05145892 0.2593423
0.018444978 0.0899885 0.16224378 0.19293271 0.10650082 0.15090446 0.1251137 -0.035786156
0.25265554 0.14603463 0.09522786 -0.0548398 -0.038441427 0.09125613 -0.044560857 -0.019533513
-0.3388888 0.13765086 0.06731889 0.15891118 0.016438251 -0.02965079 0.13384041 0.06491794
-0.29548922 0.028924285 -0.22169802 -0.22626571 0.09387444 0.14126462 0.10543111 -0.007296616
0.20674619 0.16075581 -0.083710216 0.24396889 -0.26560664 0.025334936 -0.06679627 -0.17634705
0.11885726 0.0064275414 0.11428348 0.090582155 -0.23832181 0.3350701 0.01129314 0.04557721
-0.11015423 0.08313562 -0.031544134 -0.08585083 -0.004219286 0.01902318 -0.019662375 0.064968735
0.023538517 -0.040871136 -0.08832944 -0.09942871 0.1296094 0.051509865 -0.089186385 0.05200092

model.0.bias f4 [128]
00000000: b6c9 7b3b 90a0 433e 5de0 a23d fd38 813e
00000010: 3d85 413e 719e 2f3e d71c 02be dc02 dc3d
00000020: e134 cc3e 3bd8 a13e d34b 5f3e d2ea 0b3e
00000030: 522f a13d ebcc 4bbe f9e4 d4bd 4820 38bd
00000040: fbf7 95bd a6cc 333e 506d 16be 3132 f1bd
00000050: 8cd5 5c3e 4037 ba3d 7090 e3bc 140a a23d
00000060: 2a56 dabd b9e6 193d 4b80 0c3e e0a6 063e
00000070: bdea 423e 9f6e b0be d094 8d3e b442 b3bd
00000080: cf42 113c 6fea 543e 17b6 fe3d 720e 203e
00000090: 5fb3 2bbe 95f8 703e 511c 683e 4605 313e
000000a0: bfa4 c2be 72cb cf3b 7816 bdbe b864 9cbc
000000b0: 514a 3c3d f71d b5bc 9541 a03d 3156 25be
000000c0: a1c5 63be 7260 733c ad17 233e 5cd6 8a3e
000000d0: 759a a03e 2f4f 8b3d 0eb5 1dbe d717 7b39
000000e0: aca5 0d3d 1736 543e 56d8 003d 8a89 79bc
000000f0: 57fc 60bd 5ac9 36be 0409 af3c 34c9 9fbd
00000100: 1f66 843e 6bca 323e ddab 2abe 665f 1bbe
00000110: dc2a 8fbe e3e0 09be c1b5 85be 38ba 033d
00000120: 1b10 853e 2ceb fe3d 361d b13d 938b cbbe
00000130: c788 823e af00 5f3c 2cde 0d3e 65fa 5ebe
00000140: d32d 1cbe 8fa7 eebd 2ad6 113d dfc0 50bc
00000150: eabe 263c 8a93 b0bd 0927 9c3e d18f f9be
00000160: b625 e0bd cf97 8abd 703f 6b3e c900 f03d
00000170: 4dc3 8e3d 6b5f 37be 51ac 71bd 8153 e8bd
00000180: ca64 1a3e 9949 92bc 68e3 383e 39e1 f0bd
00000190: 0d14 153e addb 60be 19ed c23c 8bec 773e
000001a0: 62af 0e3e 92b3 da3d f425 643d 57bf 073d
000001b0: 93b3 15bd 0605 31be 1de7 ef3d d31b 0c3d
000001c0: 4e0d 86be 0b94 743e aeb6 c2be 7975 783d
000001d0: 4fa9 6c3e cca2 29be 3d10 eb3d f3b3 973e
000001e0: fbce 623d 9407 523e e7ad 873e cb19 a2be
000001f0: 7636 f7bc 4862 493e 56b6 27be c250 793e
0.003841979 0.19104218 0.0795295 0.2523879 0.18898483 0.17150284 -0.12706314 0.10742733
0.39884093 0.31610283 0.21806268 0.13663796 0.07870354 -0.19902389 -0.103952356 -0.04495266
-0.07322689 0.17558536 -0.14690137 -0.117771514 0.21565837 0.09092569 -0.027778834 0.079120785
-0.10660966 0.03757355 0.13720815 0.13149595 0.19034858 -0.34459397 0.27652597 -0.08752957
0.008866026 0.20792554 0.12437075 0.1563051 -0.16767643 0.23532327 0.22667052 0.17287168
-0.38016316 0.0063413912 -0.36931205 -0.019090995 0.04596931 -0.022109015 0.07825009 -0.1614616
-0.22243358 0.014854537 0.15927 0.27116668 0.3136784 0.068022124 -0.15401098 0.00023946106
0.034581825 0.20723759 0.031456314 -0.015230546 -0.05492815 -0.17850247 0.021366604 -0.07802048
0.25859162 0.17460029 -0.16667123 -0.1517311 -0.27962387 -0.13464694 -0.2611523 0.032160014
0.2598885 0.12447199 0.0864815 -0.39754924 0.25494978 0.013611003 0.13854283 -0.21775205
-0.15251856 -0.11653053 0.035604633 -0.012741297 0.010177353 -0.08621891 0.3049853 -0.48742536
-0.10944693 -0.067672364 0.22973418 0.117189 0.069708444 -0.17907493 -0.059002224 -0.11344052
0.1507751 -0.01785736 0.18055499 -0.11761708 0.1455843 -0.219588 0.023794698 0.24211328
0.1393409 0.106787816 0.055700257 0.03314146 -0.03654821 -0.17287073 0.11714003 0.034206223
-0.26182026 0.23884599 -0.3803 0.060658906 0.23111461 -0.16566008 0.114777066 0.29629478
0.055373173 0.20510703 0.26499864 -0.31660303 -0.030177336 0.19666398 -0.1637815 0.24347213

model.2.weight f4 [64, 128]
00000000: eaa4 9ebd 67c2 47bd 0167 483d e617 f93c
00000010: c970 a43c 98bd 543d 244d b9bc 5066 4b3b
00000020: ff1a 92bd 2bbf 353d d3cd c4bd 174a 91bd
00000030: 88af 9fbd 6b44 dfbd 6657 e23c 2cdb 293d
00000040: f421 cfbd 6502 aabd d858 1e3c 88de a8bd
00000050: 5c71 67bd 8179 dbbd 3486 b43c 5278 e6bc
00000060: 0050 fb3c d7a5 6b3d f8c7 853c 8a2f d4bd
00000070: 3a9b 52bd f70b b9bc 80ef bb3b 3395 51bd
00000080: 496f 6bbc 6e64 0b3d a11b c73c f4b7 ffba
00000090: b764 7c3d 3afd cabd 7700 f2bc a196 6d3c
000000a0: 6836 8d3d 0390 22bd 0956 9abd 39ae e03c
000000b0: 0918 17bd 5ec3 8b3c 07be c53c 25b2 aa3d
000000c0: e134 cd3c 1f60 733d 27f0 e7ba 4d77 65bd
000000d0: af42 ce3c 5655 11bd d15a 0ebd 0fa4 913d
000000e0: 14a6 2dbd 3b46 233c 7bdf fbbd b025 e0bb
000000f0: b1af 1dbd 7941 1dbd 5de6 89bd 4804 b8bd
00000100: 837c 0abd 468c 2d3d e1db 1cbd dc2c 2d3c
00000110: dab5 a6bd 8169 b3b9 76a5 d7bd ac3c ff3b
00000120: c4e3 46bd 497c 00bc 7d41 6e3d adb8 73bd
00000130: 0e7d cfbd 0750 843c aca5 ad3c 3943 ce3b
00000140: 5dce 98bd 365c d13c 5ef3 c3bc a0ad 2ebd
00000150: 0676 4abd 4010 6c3b 589f 443d 2d50 c2b9
00000160: 8b94 48bd 5a56 c3bc f8f0 c7bd 244b b13d
00000170: 634a b23c cd11 953c 2796 7f3d b2f1 48bc
00000180: 6d0c 95bd a605 b33d 100f abbc f057 30bd
00000190: bc6e 05bc 37ec 7b3d 8a17 353d 76e0 30bc
000001a0: 17e0 d4bd 5625 debc 1c74 933d a9b4 a0bd
000001b0: c0a7 b2bd 9b73 60bd dc4c 093d 827a 2fbd
000001c0: 3c03 dd3a 8094 d0bc 57ba 22bc c328 08bd
000001d0: b19a c3bb 7eb0 e5bd f205 a9bd fa3a 383d
000001e0: cfd7 35bc 9e5b 9abd b819 a6bd e623 e3bc
000001f0: 1bd5 f9bc 0df4 4abd 39e9 aabd 305e 2c3c
00000200: 973c 393d 8f36 88bb db25 d63b 84fc 9dbd
00000210: 4927 b7bd af9c 7cbd fed6 253e e6c3 1a3e
00000220: 7488 a93d 7f5f 203d 2e2d 613c 9ccc 103d
00000230: 3ff8 c8bc b0e7 e33c 9c87 94bc 835d ae3d
00000240: 73e9 a53d 52f1 ab3d 2c3a 82be 96d6 e63d
00000250: 293c 423e f7c2 1a3e 4f74 013c 2c34 96bd
00000260: 5e0a 77bc 3fe1 1f3d 6acf 0d3d b0a3 8f3d
00000270: 9087 b03d b362 bcbd 3781 22bd dbc0 b63c
00000280: b7b0 08be 4d04 943d 40a7 663e ac5f 1fbd
00000290: 7512 85bd a28b 853d db11 b23d 56d8 b13d
000002a0: bd87 8fbd a527 cb3d 08ed b13d bdee 84bd
000002b0: 8221 87bd 692c c9bd 0696 9bbd ac2d 86bd
000002c0: e83c c8bb 7d18 063e 3007 9a3d f7a9 3abd
000002d0: 76fd d33d 22aa 3b3d dc7a 363d 3e4e 003e
000002e0: 6778 44bd e9d6 273e 4183 d7bc 3610 1f3c
000002f0: 0f1a a8bd 174c ef3d cf59 f23c db7e b7bd
00000300: 1fc0 7c3d 48b5 463e 99fa b6bc ec32 9bbd
00000310: 016f e0bc 85a9 4b3d 144b 0abd 7e72 37bd
00000320: a9e7 e53d 104d e5bd a3d9 f6bb 3971 46bd
00000330: c0d0 843e a6f7 fb3d 7377 a03d fd4b 49be
00000340: 96f0 9a3d 0f0d afbd bee7 acbd 993e 43bd
00000350: 34fa f83c ebd9 4ebe fea8 ba3d f48a b2bc
00000360: cfb5 61be 6336 b23c f113 2f3e eddb 8f3c
00000370: 90ce ab3d e3db 9c3d 5fe3 8dbc 1436 933d
00000380: 2aaa da3d 248b 97bd bb8b 303d 6ddc 44bd
00000390: b6a0 febb ce87 f7bd 8440 debc 2243 c73d
000003a0: ba00 34bb 441c bebd 704d 2f3e f389 0abd
000003b0: a28b d43c 3a8a 873c 3b7c 81bc c79e 643e
000003c0: 9428 99bd 9643 9e3d 1783 0b3d f779 c23d
000003d0: c342 373d 88df 9f3c 5e5d 253d 350b be3d
000003e0: 9a52 393c 40f8 353e 3c61 d33d 5fc9 5abe
000003f0: 189d 7a3d 3c78 833d 626a a13d 2c89 7a3e
-0.077462986 -0.04876938 0.048926357 0.030406903 0.020073311 0.051938623 -0.022619791 0.0031036325
-0.07134055 0.044371765 -0.0960957 -0.0709421 -0.07797152 -0.109017216 0.027629565 0.041468784
-0.10113898 -0.08301238 0.009664737 -0.082455695 -0.056504592 -0.107165344 0.02203665 -0.028133545
0.030677795 0.057531204 0.016330704 -0.1036063 -0.051417567 -0.022588713 0.0057353377 -0.051167678
-0.014369794 0.034031324 0.024305167 -0.0019509778 0.061619487 -0.099115804 -0.029541237 0.014501245
0.06895143 -0.03968812 -0.07535941 0.027426826 -0.036888156 0.017060932 0.024138464 0.083347596
0.025049629 0.05941784 -0.0017695472 -0.056021977 0.025178282 -0.035481773 -0.034754578 0.0711137
-0.042394713 0.009965475 -0.12298485 -0.00684043 -0.03849763 -0.038392518 -0.067333914 -0.089851916
-0.03381015 0.042370103 -0.03829563 0.010569777 -0.08140154 -0.00034220147 -0.10529606 0.007789215
-0.048557058 -0.007842132 0.058167923 -0.059502292 -0.10131274 0.016151441 0.021197163 0.0062946347
-0.07461236 0.025556665 -0.023919757 -0.04264605 -0.049428962 0.0036020428 0.048003525 -0.000370623
-0.048969787 -0.023844887 -0.09762758 0.0865691 0.021763986 0.018196965 0.062399056 -0.012264656
-0.07277761 0.08741312 -0.020881206 -0.043052614 -0.008144077 0.06150457 0.0442119 -0.010795703
-0.10394304 -0.027117413 0.071998805 -0.07846958 -0.08723402 -0.05479775 0.033520564 -0.042841442
0.0016861926 -0.025461435 -0.009932122 -0.033242 -0.0059693684 -0.11215304 -0.08253087 0.04497812
-0.011098816 -0.07537006 -0.08110374 -0.027727079 -0.030497124 -0.04954915 -0.08345265 0.010520503
0.0452238 -0.0041568945 0.0065352744 -0.07714179 -0.0894304 -0.061672863 0.16195294 0.15113792
0.082779795 0.039153572 0.013743682 0.03535138 -0.024532435 0.027820438 -0.01813107 0.0851393
0.081011675 0.083956376 -0.25435007 0.11271398 0.18968262 0.15113436 0.007901265 -0.0733417
-0.015078155 0.03903317 0.034621634 0.07013643 0.086196065 -0.09198513 -0.03967401 0.022308758
-0.13348661 0.07227383 0.22524738 -0.0389096 -0.06497661 0.065207735 0.08694812 0.08683841
-0.07008312 0.09919671 0.08687788 -0.06490848 -0.06598188 -0.09822924 -0.07596974 -0.0655168
-0.006110776 0.13095279 0.07520902 -0.045572247 0.10351078 0.04581655 0.04455076 0.12529847
-0.047966387 0.16390575 -0.026307704 0.009708455 -0.08208095 0.11684435 0.02958384 -0.08959743
0.06170666 0.19405091 -0.022336291 -0.07578072 -0.02739668 0.049722213 -0.033763006 -0.044786923
0.11225826 -0.11196339 -0.0075332685 -0.04844782 0.25940514 0.123030946 0.07835283 -0.19657893
0.075654194 -0.085474126 -0.08442639 -0.04766712 0.030392744 -0.20200317 0.09114264 -0.021794774
-0.2204201 0.02175445 0.17097451 0.017560923 0.08389008 0.076591276 -0.017320333 0.07188049
0.106769875 -0.07399586 0.043102007 -0.048061777 -0.007770623 -0.120864496 -0.027130373 0.097296014
-0.0027466253 -0.09282735 0.17119384 -0.033822965 0.025945488 0.016545404 -0.015806308 0.22326194
-0.07478443 0.07727735 0.034060564 0.09495919 0.044741403 0.019515768 0.040372245 0.09279481
0.011311198 0.17770481 0.1032128 -0.2136588 0.061184973 0.06419417 0.07881619 0.2446639

model.2.bias f4 [64]
00000000: 66d9 0ebd bc6c 1b3e f727 c5bd e637 61bd
00000010: e66b ba3d 4431 e6bc a120 68bc 29ed a7bc
00000020: f4f5 e53d bdf7 d63c 6693 bebc e15f e5ba
00000030: ec93 e93d 1448 42bd ca1e cbbd 112d d9bb
00000040: b8d6 393e 35d3 593e b803 16bd e9c8 8b3d
00000050: 798c 2f3e 011a b3bd cf51 a5bd fdb9 f9bd
00000060: 0a24 e93d 2aa9 ca3d 7639 99be 6f1e fb3d
00000070: 0423 173e a6e9 fc3c ae6d 59be 2d79 8d3d
00000080: c0ef 843e e660 843d d922 173d c23e 153e
00000090: 0ec8 083e da46 87bd 65c7 f13b b00f 21be
000000a0: cff8 1f3e 5cd3 61bb bb11 cf3d 8912 9a3d
000000b0: 2301 df3c fa5e 38bd 309e 33bd 8b95 c23d
000000c0: f264 613d c16c da3c 8703 a33d 63e0 6d3e
000000d0: a8ea 2cbd db63 023d 4982 13bd c0ff af3d
000000e0: 46da ce3d 6fe7 c03c 4a86 0d3e 0b15 183e
000000f0: ca93 113d 149f 3fbd 0ea4 25bd 99ce f2bc
-0.034875296 0.15178198 -0.09626763 -0.05498495 0.09102611 -0.028099664 -0.014167936 -0.020498829
0.112285525 0.026241178 -0.023263644 -0.0017499888 0.11405167 -0.04743202 -0.09917982 -0.006627687
0.18148315 0.21271975 -0.03662464 0.0682543 0.1714343 -0.08745194 -0.080722444 -0.121936776
0.11383827 0.09895547 -0.29926652 0.12261664 0.14759451 0.030873131 -0.21233246 0.06907878
0.25964165 0.064637944 0.036898468 0.14574721 0.13357565 -0.06605311 0.007378506 -0.1572864
0.15622257 -0.0034458255 0.10110804 0.075230666 0.027222222 -0.04501245 -0.04385203 0.09501179
0.05502791 0.026663186 0.07959657 0.23230128 -0.042215973 0.03183351 -0.03601292 0.08593702
0.10100226 0.023547856 0.13820758 0.14851777 0.035541333 -0.046782568 -0.040439658 -0.029639529

model.4.weight f4 [32, 64]
00000000: 16c7 78bc d1a0 b9bd 0666 c83d 190c a23d
00000010: 313b 89bd f648 8e3e 7f17 023e 6b61 263c
00000020: d143 c43c 2928 8fbd b845 af3d 8c70 973d
00000030: 897b 1cbe c412 89bc 1c26 603d d82e b53c
00000040: 12fa 003e 7e67 1dbe e65a 7c3d d8fd 883c
00000050: 69ff 3bbd 3633 91bd 6637 54bd 5640 063e
00000060: c206 e1bd 324c 5fbc 1287 ca3e 6978 cfba
00000070: c94a 09be 76fb 873d c4c3 d03d 5bbb 273d
00000080: ade9 08bd 0679 8cbc 1166 78be b614 47be
00000090: a971 dabd ff42 c83d 728d 5cbd 2a04 243e
000000a0: 603c 563c f992 9c3c ddd4 59bd a18e 983d
000000b0: 1b02 6f3d ffa2 053d c9f1 8b3c 189e fdbd
000000c0: 2b0a 503b 6c6f 013e c888 ff3c a64c 27bc
000000d0: ab50 78bd e161 19be 20db 8e3b 824d c93d
000000e0: 9f90 21be a7d4 a8bd fc8e a53c b8ff ad3c
000000f0: 7656 173d a4c4 38bd bf6d 093d 14e5 86bd
00000100: 6d72 163d 4a93 d93b 067a f83d 7621 0ebc
00000110: 3416 85bd e4f3 72bd 7416 ebbc 1057 363d
00000120: 2682 a93c f768 02bd d022 ebbd 9ffe db3d
00000130: 3698 09bc f494 0cbe bac6 a03d bc49 c8bd
00000140: 085f 1bbd 623f 0bbd 37e2 67bd f012 bb3c
00000150: 6dba 1cbe a094 da3b bb3d 473d ffc6 acbd
00000160: 698a 56bd 6a4e 86bd 0f8b 353d 6a6c 773d
00000170: 9107 893c f7a1 c03c 099d c6bd 4ed5 bd3d
00000180: c9ed 2c3d a42d b83d 73c2 113b 58e8 233d
00000190: f032 a1bd 1711 b1bd 4a16 62bd 00c8 933d
000001a0: 2a26 07be e3a4 ac3d 37cd 34bd 4d12 c43d
000001b0: 3b3b 8d3c c829 abbd 5e78 04be 767c 4c3c
000001c0: 86d0 b93d 24f6 b03d 5ac6 f83c 4e88 9d3d
000001d0: 0c5e 453d 1f15 a73d 3828 76bd 9e59 93bd
000001e0: 5093 f0bd 47ba a1bc 5b89 9b3d 6f4b 0abe
000001f0: 14b9 1d3d 4b16 d83d e0a9 923d af09 84bd
00000200: 0f03 9ebd 1b5f 153e cf8c e5bc a822 2dbe
00000210: cd5d b0be 3c6e 3abd 9778 61be 8d28 473d
00000220: 9b08 eebd 08de e3bc 9d05 59be 3af4 8abc
00000230: b1d3 c6bd 7f09 103d d69d 833d 86d9 ee3d
00000240: cd7c 9d3c 7f74 96bd fb01 c13d e619 b9bd
00000250: c05a 45bd f13b 9cbc 374c d0bd 0d5c 21be
00000260: 3d78 09be d967 0c3e e5cd cf3c d4df 94be
00000270: d19d 41bd e0ee ffbd faad d13c f72e 0e3e
00000280: b3a4 6a3d bda8 f83d 96db 75bd 129a bcba
00000290: e77f 373e e3cd 38bd b5e9 023d 8898 e2be
000002a0: 8b6e 023e 1a34 f73d 16c3 443e dfac 09bf
000002b0: e823 9f3d c13c 0abe 2ebf debd 5bf0 c3be
000002c0: d866 8ebe dbe9 1dbe cabd 1abe 2bc5 cb3d
000002d0: 5e6f b03d 68a0 9c3d 5da3 48bc 66cb 99bd
000002e0: b223 3e3e 449a 9abd 7af5 fe3d ec78 f63c
000002f0: d275 9fbc c2c2 223e 7cbc 1b3d 1460 e43d
00000300: 1f93 79bd a4ab 163e 4db0 8a3c a5e4 033e
00000310: 7392 64bd 25cf 0dbd acfa 5bbc 4c53 34bd
00000320: 618b 373c 4078 dc3d 032d 96be 25cd f13c
00000330: 4b19 813d 58ea cd3d 7776 54bc c0cb 63bc
00000340: b22d 9b3d ad5a 83bd 61ec 0e3e 084d ef3c
00000350: 84b8 26bd a4fd c73d 86ab adbd 09ef 24bd
00000360: c629 bfbd a3d2 123d d6b8 8c3e e355 b33c
00000370: 532b 983d 5959 b73d dde4 91bd 93fc a93d
00000380: 9ba7 903d 30ee 03ba c2b1 febd 8dad 903d
00000390: 43da 683b 7e0a ec3d 4e30 f73d 1421 06be
000003a0: b738 f03d 1e51 d53c 6ec1 123e c327 61bd
000003b0: 3a07 143e f5ae e83d b5f6 fb3b c67d 05be
000003c0: 2522 483e f37a 88bc 41bb a2bd 0a3a ce3d
000003d0: 5e64 0c3d 6866 18bd f72f ccbc e423 a6bd
000003e0: 5399 dfbc 3e79 a9bd ebbb a4bc cc29 c93c
000003f0: b3e1 94bd 2043 2b3e 7ca4 573d 6576 82bd
-0.015184185 -0.090638764 0.097850844 0.07912464 -0.06700743 0.2779004 0.12704276 0.010155062
0.023958119 -0.06990082 0.0855822 0.073945135 -0.152815 -0.016732581 0.054723844 0.022117063
0.12595394 -0.1537151 0.061610125 0.016722605 -0.045897875 -0.07089846 -0.051810645 0.1311048
-0.10987617 -0.013629006 0.39556175 -0.0015828732 -0.13407435 0.06639759 0.10193589 0.04095016
-0.033425976 -0.017147552 -0.24257685 -0.19441494 -0.1066621 0.097784035 -0.05384583 0.16017213
0.013075918 0.01911305 -0.053181518 0.07449079 0.058351617 0.03262615 0.017083066 -0.123836696
0.0031744342 0.1264016 0.031193152 -0.0102111455 -0.060623806 -0.14978744 0.004359618 0.098292366
-0.15777825 -0.08243685 0.020209782 0.0212401 0.03694769 -0.045109406 0.033551928 -0.06586662
0.03673022 0.0066398727 0.12132649 -0.00867497 -0.064983755 -0.059314623 -0.02869723 0.044516623
0.020691942 -0.031838384 -0.11481249 0.107419245 -0.008398106 -0.13728696 0.07850404 -0.09779689
-0.037932426 -0.033995993 -0.05661222 0.022836179 -0.15305491 0.0066705495 0.048642855 -0.08436393
-0.052378092 -0.06557925 0.04432207 0.060406126 0.01672724 0.02351473 -0.09697921 0.092692
0.042218957 0.0899308 0.0022241145 0.040016502 -0.07871044 -0.08645838 -0.055197038 0.07215881
-0.13198152 0.08429887 -0.04414102 0.09573803 0.017240157 -0.083575785 -0.12936541 0.012480846
0.09072976 0.086406976 0.030368019 0.07692014 0.048185393 0.081583254 -0.06009695 -0.071948275
-0.11746848 -0.019742144 0.07594558 -0.13505338 0.038506582 0.10551127 0.07161307 -0.064471595
-0.07715427 0.14587061 -0.028021244 -0.16907752 -0.34446564 -0.045515284 -0.22018658 0.048622657
-0.11622735 -0.027815834 -0.21193548 -0.01696216 -0.09708346 0.035165306 0.06426589 0.11662583
0.019224549 -0.073464386 0.09424206 -0.09038143 -0.04818225 -0.019071551 -0.10170787 -0.15757771
-0.13424774 0.1371149 0.025366733 -0.29077017 -0.047269646 -0.12496734 0.025595654 0.13885103
0.057285976 0.12141559 -0.060023867 -0.0014389178 0.17919885 -0.045118224 0.03196116 -0.44256997
0.12737481 0.120704845 0.19215044 -0.53779405 0.077705204 -0.13499738 -0.108763084 -0.38269314
-0.2781284 -0.1542124 -0.15111461 0.09949716 0.086149916 0.076477826 -0.01224598 -0.07509498
0.18568304 -0.07548955 0.12449165 0.030086957 -0.01946536 0.15894607 0.03802155 0.11151138
-0.06093132 0.14713913 0.01692977 0.1288019 -0.055803727 -0.034621377 -0.013426464 -0.04402475
0.011202664 0.10765123 -0.29331216 0.029516766 0.063036524 0.10054463 -0.012967697 -0.013903558
0.07577075 -0.064137794 0.13957359 0.029211536 -0.04070331 0.09765175 -0.08479981 -0.040267024
-0.093341395 0.03584541 0.2748477 0.02189154 0.074301384 0.089525886 -0.0712373 0.08300128
0.07063218 -0.0005032746 -0.12436248 0.07064352 0.0035530485 0.11525439 0.1206976 -0.13098556
0.117295675 0.026039656 0.143316 -0.05496956 0.14455882 0.113614954 0.007689322 -0.1303626
0.19544275 -0.01666019 -0.07945872 0.10069664 0.034275405 -0.037207037 -0.024925215 -0.08112314
-0.02729479 -0.08275078 -0.020109138 0.024556063 -0.07269611 0.16724825 0.0526471 -0.06370238

model.4.bias f4 [32]
00000000: a7a3 e2bd 633c 4b3d d10b 04bc 15ef 22bd
00000010: 5010 60be 9f7a fd3d 51f0 353d aa47 3b3d
00000020: 8567 c33c d267 233d c288 f6bd 2c93 bbbd
00000030: e495 943d 7791 d9bc f17a 67be 90de 0cbd
00000040: 9fee 863c 95f7 513b dbac 663e 51e5 82bd
00000050: ec10 a03c 217d df3d c8ec 1ebe d344 fa3d
00000060: 0384 fcbd 45e6 54bb a719 edbc 7078 483d
00000070: 2704 09be c516 a93d 3bf4 90be ad13 173e
-0.110663705 0.049618136 -0.008059458 -0.039778788 -0.21881223 0.12376904 0.044418637 0.04572264
0.023853073 0.039893933 -0.12037803 -0.0915893 0.07255152 -0.02655862 -0.22605492 -0.03439194
0.016471205 0.003203844 0.22526877 -0.06391395 0.019539319 0.10912538 -0.15520012 0.122201584
-0.12329867 -0.0032485884 -0.028942896 0.048942983 -0.1338049 0.08256296 -0.28311333 0.147536

model.6.weight f4 [1, 32]
00000000: d4e3 86be d3f0 27be 40af 933e d738 333e
00000010: 809e 6ebe bdf7 403e fb68 cabd 74ad cbbd
00000020: d29b dd3d 0154 063e 787b 0dbd a8f6 1d3c
00000030: b26d 80be cf75 873d 19e6 663e ee8e 143e
00000040: c52f cbbb 8992 713d 5c05 74be 580b 26bd
00000050: c67e c43d d7f2 8a3d e665 fabe 6c64 e93d
00000060: e43f b0bc 6a22 1b3e 940f bdbe c9cf 513e
00000070: 916c 77bd a1f6 5dbe 5a20 313e 352b ba3d
-0.26345694 -0.16400461 0.28844643 0.17502151 -0.2330265 0.18844505 -0.09883305 -0.09945193
0.10820736 0.13117982 -0.034541577 0.009641327 -0.2508369 0.06614267 0.22548713 0.14507648
-0.006200763 0.058977637 -0.2383017 -0.040538162 0.095944926 0.06784599 -0.48905867 0.11396107
-0.02151484 0.15149847 -0.36925948 0.2048942 -0.06040627 -0.21676113 0.17297497 0.09090272

exp_avg f4 [7, 4]
00000000: cd17 10b9 11eb 2238 31a8 99b8 c7ce d539
00000010: 19e4 7cb9 6420 c6b9 43ba a0b7 befe 15b9
00000020: f3bd adb8 1896 1539 2982 3f38 d7d0 f5b9
00000030: 40c4 20b9 9c14 a3b7 f758 0db8 f847 fdb7
00000040: 6093 36b9 1265 c337 e14f c438 77c9 2eb9
00000050: d1c2 11b8 e4b6 d538 f746 0d38 265d 39b9
00000060: 3319 14b9 b72f 4cb8 cc75 a3b8 2789 26b9
-0.00013741777 3.8842732e-05 -7.3269366e-05 0.00040780587 -0.00024117566 -0.00037789636 -1.9160221e-05 -0.00014304646
-8.2846636e-05 0.00014265662 4.565917e-05 -0.0004688564 -0.00015331898 -1.9440711e-05 -3.3699875e-05 -3.0193463e-05
-0.00017411774 2.3292876e-05 9.360887e-05 -0.00016668985 -3.475213e-05 0.000101906975 3.368311e-05 -0.00017677675
-0.00014123767 -4.8681828e-05 -7.794387e-05 -0.00015882087

exp_avg_sq f4 [7, 4]
00000000: c965 b234 7ca7 e234 5853 9235 0183 7235
00000010: b9ea 2e35 448e 3635 5b83 de35 f301 be35
00000020: 9b8c 0e35 5ef6 4735 e593 8035 ea36 4336
00000030: 6988 3534 0164 2534 4371 7334 ca8f cc34
00000040: 8d22 9734 ebfe 6534 1b3a dd34 2f96 4835
00000050: 412e b534 b3cd 0f35 9385 1f35 9d9b 5435
00000060: fbed 7a34 a0bd 7034 a8b2 e334 b98c 3f35
3.3229142e-07 4.221764e-07 1.0902104e-06 9.034266e-07 6.516162e-07 6.800731e-07 1.6578518e-06 1.415667e-06
5.310373e-07 7.449179e-07 9.579786e-07 2.9089229e-06 1.6906564e-07 1.5403204e-07 2.2672343e-07 3.810258e-07
2.815108e-07 2.1420026e-07 4.1206735e-07 7.472435e-07 3.374753e-07 5.3570983e-07 5.942649e-07 7.92026e-07
2.3369641e-07 2.2420727e-07 4.2412034e-07 7.1357823e-07

exp_avg f4 [7, 4]
00000000: 3898 72b9 795f c637 592d e0b7 aa09 21b9
00000010: e596 3ab9 e172 3e39 d2f0 41b9 d7ad 67b8
00000020: adb5 ebb8 afcb ec38 38d5 9138 09bc 8e38
00000030: b7f0 18b7 563d ecb9 7cd4 5c39 5313 5eb9
00000040: c4ba b2b9 9f20 a2b9 e55a dd39 6d75 7ab9
00000050: f587 8139 45bc 9238 c11f 0b3a ba9a 24b9
00000060: ae06 65b9 83c2 6a39 1c1b a1b9 62a3 0fb9
-0.00023135624 2.3647897e-05 -2.6723998e-05 -0.00015357757 -0.00017794555 0.00018162608 -0.00018495627 -5.5236593e-05
-0.00011239513 0.00011291296 6.953854e-05 6.806112e-05 -9.115952e-06 -0.00045059127 0.00021059992 -0.00021178769
-0.00034089957 -0.00030923352 0.00042220126 -0.00023885602 0.00024706093 6.9968904e-05 0.0005307161 -0.00015697899
-0.0002184163 0.0002238844 -0.0003072851 -0.00013698408

exp_avg_sq f4 [7, 4]
00000000: 2695 4235 10be 0e35 6bff 7535 0689 ff34
00000010: d046 a035 5cae 0535 439b 0635 328e 9934
00000020: 6b64 6835 d22c 6335 47b4 7835 622f 1335
00000030: ff8f 4a35 4ec3 af35 74f4 9b35 3c4c 1735
00000040: d881 b635 225f 7235 f35a b635 b611 6b35
00000050: 847b 8535 3d3c 7e35 ad68 8735 5146 0e35
00000060: 3cfb 8935 f4b2 3f35 6251 6835 bb30 ed34
7.248767e-07 5.31757e-07 9.1641294e-07 4.759715e-07 1.1941538e-06 4.980009e-07 5.0144826e-07 2.8601931e-07
8.657286e-07 8.462931e-07 9.264954e-07 5.483072e-07 7.5460406e-07 1.3095357e-06 1.1619545e-06 5.636282e-07
1.3597846e-06 9.029046e-07 1.3586526e-06 8.7570095e-07 9.94522e-07 9.471003e-07 1.0088748e-06 5.3001446e-07
1.0280414e-06 7.1413456e-07 8.654516e-07 4.4180146e-07

exp_avg f4 [6, 3]
00000000: 5943 eb3a 745f a3ba 94f3 ab3a 24f5 49ba
00000010: 2000 333a cc8c e6b9 c867 19b8 1baf 38b9
00000020: f985 9939 62d1 7fba e05b 9639 f909 0eba
00000030: e971 f7b8 4543 ccb7 95f6 abb9 0393 0839
00000040: 469e cbb8 6cb3 3bb8
0.0017949148 -0.001246436 0.0013118857 -0.00077040703 0.0006828327 -0.0004397392 -3.6574696e-05 -0.0001761284
0.00029282251 -0.00097586785 0.00028678682 -0.0005418356 -0.00011799095 -2.435002e-05 -0.0003279938 0.00013024737
-9.709275e-05 -4.4751374e-05

exp_avg_sq f4 [6, 3]
00000000: 6525 0b38 5757 4837 58fb 2137 5e16 0837
00000010: 9749 4d36 c50d 4136 f6eb a037 01df d636
00000020: 9d34 0037 0e1a e837 3c4e 3e37 5b0d a536
00000030: 166a 4238 5f7b 9737 b4f9 3437 8342 8937
00000040: 92c4 1737 a523 6e37
3.317501e-05 1.1941264e-05 9.654868e-06 8.1114395e-06 3.0590215e-06 2.8767256e-06 1.9183364e-05 6.403658e-06
7.6416445e-06 2.7668688e-05 1.1343098e-05 4.918938e-06 4.6352005e-05 1.8058052e-05 1.0786975e-05 1.6362645e-05
9.046069e-06 1.4194205e-05

exp_avg f4 [6, 3]
00000000: 3962 9839 27e7 b3b9 2555 b4b8 5bdd a7b9
00000010: 3727 213a 564c 9938 b696 8a39 c690 89ba
00000020: a8ee 03b9 737e bfba 225a 1d3b c048 7e3a
00000030: 1513 3a39 9374 fbb9 26d5 e3b9 d57d afb9
00000040: 7e3a d039 72ee ae38
0.0002906488 -0.00034313762 -8.598928e-05 -0.00032017645 0.0006147506 7.309827e-05 0.000264337 -0.0010495416
-0.0001258204 -0.0014609828 0.0024010022 0.00097001716 0.00017745451 -0.00047961305 -0.00043455622 -0.00033472353
0.00039716432 8.3413805e-05

exp_avg_sq f4 [6, 3]
00000000: df65 2337 71d5 d637 76a9 9536 69c6 8e37
00000010: 3837 5f38 ed58 c136 130d 3e37 c7e9 2c38
00000020: 86b6 5836 8a39 3337 a53c 1b38 e963 9836
00000030: 0c73 3337 6b06 1d38 9f2d 8936 d2a2 ad37
00000040: 0e2f b238 a970 c036
9.739276e-06 2.561018e-05 4.460274e-06 1.7020111e-05 5.321877e-05 5.7622005e-06 1.1327927e-05 4.1225718e-05
3.229275e-06 1.0682628e-05 3.701136e-05 4.541584e-06 1.0696018e-05 3.7437694e-05 4.088229e-06 2.0699026e-05
8.496466e-05 5.7351613e-06

exp_avg f4 [4, 2]
00000000: b833 76ba 02f6 44b9 3142 3ab9 4617 6639
00000010: a8fd 1fba 6987 bbb8 f66e a8b9 3515 1539
-0.0009391862 -0.00018783662 -0.00017763 0.0002194318 -0.00061031664 -8.942077e-05 -0.0003212613 0.00014217648

exp_avg_sq f4 [4, 2]
00000000: cda5 a436 2c5e d235 daf2 a636 4f3c 0136
00000010: 5c1d a036 87a0 d335 bcfc 8936 5f5a 6d35
4.9068826e-06 1.5673627e-06 4.975457e-06 1.9257602e-06 4.7717895e-06 1.5767445e-06 4.1123403e-06 8.842089e-07

exp_avg f4 [8, 4]
00000000: aaab 58b9 115d b539 5fdc 7bb8 a57a 87b9
00000010: 03c7 8139 3151 e2b9 02b2 84b9 2774 ac39
00000020: 5543 aab8 526a 8639 fe90 8739 083c 38b9
00000030: c00b e439 c46c 5ab9 8e62 aa37 4df8 02b7
00000040: bf96 f239 a1c6 0fba 75e0 d839 e6d7 3639
00000050: c3c7 8639 5f4e b238 821f 9539 b46e abb7
00000060: 0d88 36b9 f3ed e338 4fa8 f4b8 577a 03b9
00000070: 08c3 143a 1711 033a a2ec 8a39 bb04 5bba
-0.00020663315 0.0003459235 -6.00483e-05 -0.00025840584 0.00024753073 -0.0004316657 -0.00025309628 0.00032892937
-8.118773e-05 0.00025637686 0.00025857234 -0.00017569971 0.00043496303 -0.00020830618 2.0311472e-05 -7.806416e-06
0.00046270152 -0.0005484615 0.00041365964 0.00017437301 0.00025707306 8.502299e-05 0.0002844297 -2.0436339e-05
-0.00017407555 0.00010868525 -0.000116661766 -0.00012538709 0.0005674814 0.00049998 0.00026497716 -0.0008354892

exp_avg_sq f4 [8, 4]
00000000: d90e 7135 cc62 bc35 a6f7 f734 91d7 9035
00000010: be04 1f36 c847 e336 6267 7336 1662 8236
00000020: 6019 a935 2a19 0837 7783 e134 eb3c c335
00000030: fa39 6336 3c08 ad36 b78e 1036 c483 0936
00000040: 42d3 aa36 2fbc 6737 d655 9d36 41c3 d636
00000050: 1f20 fc35 96b8 4736 cef5 d935 66c4 9136
00000060: 2c9d 9634 1b6d af34 90ca 4634 d30e 5c34
00000070: 0b5e b936 1abd 2037 75f7 1836 6607 5b36
8.98011e-07 1.4035845e-06 4.6187523e-07 1.0791574e-06 2.3695607e-06 6.7734836e-06 3.6269998e-06 3.8857206e-06
1.2598866e-06 8.112091e-06 4.200517e-07 1.4546362e-06 3.3859383e-06 5.1567604e-06 2.1540743e-06 2.0491289e-06
5.0909885e-06 1.3812488e-05 4.6889572e-06 6.4004275e-06 1.8784812e-06 2.9760754e-06 1.6239298e-06 4.3442005e-06
2.8054035e-07 3.2675675e-07 1.8513879e-07 2.049449e-07 5.5243777e-06 9.580772e-06 2.2793804e-06 3.263785e-06

exp_avg f4 [3, 2]
00000000: ec87 f639 70c7 33bb 8fbb e1b7 4a4b 6738
00000010: 5423 0fba 9145 a53a
0.00047022046 -0.0027432106 -2.6909429e-05 5.514481e-05 -0.00054602814 0.0012609233

exp_avg_sq f4 [3, 2]
00000000: 44e4 a736 00b5 2738 090a f036 ca1d 8d38
00000010: 738d 2d37 5161 8238
5.0035615e-06 3.9984472e-05 7.1537256e-06 6.7289526e-05 1.0344537e-05 6.21701e-05

exp_avg f4 [7, 4]
00000000: 4fd1 8db9 299a 07b6 b2cf 4239 0a49 20b9
00000010: a90a 00b8 b45e 3d39 0697 4338 f386 3a39
00000020: dccb 3b39 788d 04b7 b2d4 9539 afa5 cf39
00000030: b326 b139 cf7f d2b8 9d2f beb8 c3b3 34b9
00000040: f883 ab38 8a45 a739 75ed 7739 d924 8039
00000050: 6749 c639 5743 5bb9 e7d8 3638 34af 9139
00000060: 1f90 9838 2705 1239 c478 c0b7 3b5c 4e39
-0.00027049563 -2.02063e-06 0.00018578654 -0.00015285998 -3.0527506e-05 0.00018059724 4.6632274e-05 0.00017788615
0.00017909653 -7.900751e-06 0.00028577965 0.0003960556 0.00033788904 -0.000100373865 -9.068775e-05 -0.00017233104
8.1784965e-05 0.00031904533 0.00023644215 0.00024441516 0.00037820192 -0.00020910554 4.3594187e-05 0.00027787092
7.2747695e-05 0.00013925564 -2.294442e-05 0.0001968005

exp_avg_sq f4 [7, 4]
00000000: c5f3 4035 169e 8435 550f 9835 8919 dd35
00000010: 6234 ed34 1594 3535 ece2 bf34 7747 aa35
00000020: fbe9 4235 944d 4735 a287 2635 8ec9 0a36
00000030: 4c9d 3435 7201 6335 9dfc 1f35 bbb0 c435
00000040: c3ab a535 3230 6b35 14ab 9335 543b d635
00000050: 446e a135 b185 d535 f3bb 4835 282e f035
00000060: fbed 2435 834c 2335 86f3 3b35 d598 da35
7.1880305e-07 9.880775e-07 1.1329345e-06 1.6473215e-06 4.4182804e-07 6.764324e-07 3.574163e-07 1.2686786e-06
7.261112e-07 7.424617e-07 6.203719e-07 2.0680923e-06 6.728412e-07 8.4566193e-07 5.9599716e-07 1.4654573e-06
1.2343447e-06 8.7614455e-07 1.1002144e-06 1.5961509e-06 1.2027526e-06 1.5908646e-06 7.477931e-07 1.7894827e-06
6.144107e-07 6.083357e-07 7.00173e-07 1.6286746e-06

exp_avg f4 [6, 3]
00000000: 4812 20b9 9f1e 8839 4160 b939 523c 3db9
00000010: 2ba9 54ba fa7a 39b8 383a cdb9 e429 6938
00000020: cebb c639 407c 8a38 e4b4 cdb9 c0f8 55b8
00000030: ff2f 8ab9 7e8f 3cba 5bd4 82b7 2c4a 2039
00000040: 28d6 9e39 4a15 d2b7
-0.000152656 0.00025962756 0.00035357664 -0.00018046916 -0.0008112366 -4.4221968e-05 -0.00039144023 5.5590543e-05
0.00037905428 6.603496e-05 -0.0003923542 -5.1014824e-05 -0.0002635717 -0.0007193013 -1.5596093e-05 0.0001528642
0.00030295667 -2.5043864e-05

exp_avg_sq f4 [6, 3]
00000000: c9c4 a935 ce39 6936 3665 ae35 a13a 1335
00000010: 0c6a 4736 a6bf 9434 3b1d b835 ef36 8036
00000020: 5bad 2436 d534 6935 2512 a036 67d1 a235
00000030: 8f14 ca35 ac5c c036 8ba3 4336 245e c835
00000040: 92cf a435 dcbb 1136
1.2648753e-06 3.4753352e-06 1.2993466e-06 5.4847084e-07 2.9715038e-06 2.770659e-07 1.3717575e-06 3.8210924e-06
2.453881e-06 8.6876145e-07 4.770484e-06 1.2130885e-06 1.5056156e-06 5.7328343e-06 2.915246e-06 1.492856e-06
1.2279363e-06 2.1716032e-06

exp_avg f4 [6, 3]
00000000: b849 87b8 8cf9 ea37 d09a 6f39 ff5a 81b8
00000010: af07 1439 130f b8b6 253b 70b9 9060 9c38
00000020: 9f7b 4639 9d14 9b38 dd67 3bb7 e8d7 b6b8
00000030: c89d cab8 5d99 3538 75b0 9f36 aa15 dcb8
00000040: 5ac8 48b9 78a1 1db9
-6.451033e-05 2.8011178e-05 0.00022850488 -6.168149e-05 0.00014117242 -5.485382e-06 -0.00022910217 7.456646e-05
0.00018928804 7.3948155e-05 -1.1170251e-05 -8.718652e-05 -9.6615e-05 4.3296594e-05 4.7591116e-06 -0.00010494453
-0.00019148123 -0.00015032839

exp_avg_sq f4 [6, 3]
00000000: a286 5935 4ce6 1b35 f293 8335 6a0b 1a35
00000010: afd0 0835 9abb c735 4601 9335 ae7b 0335
00000020: 4a19 3235 a6be 8635 84de 3735 213a 3635
00000030: 1b72 8635 62f2 3635 4f4f 7835 c31a 5d35
00000040: 88df f634 32dc 4d35
8.1034716e-07 5.8077126e-07 9.803318e-07 5.738608e-07 5.096762e-07 1.4881255e-06 1.0952724e-06 4.898128e-07
6.634697e-07 1.0039264e-06 6.8496615e-07 6.788487e-07 1.0016987e-06 6.8152997e-07 9.250261e-07 8.236786e-07
4.598371e-07 7.668888e-07

exp_avg f4 [4, 2]
00000000: 0cb8 3739 3547 ba38 9c7b 4439 3093 de39
00000010: 6313 ba38 0dc4 25b9 434a d8b8 be24 62b9
0.00017520803 8.8824345e-05 0.00018738065 0.00042452803 8.872782e-05 -0.00015808661 -0.00010313515 -0.00021566727

exp_avg_sq f4 [4, 2]
00000000: 9bb1 b535 063c 0b36 2ab1 5935 d17e ad35
00000010: 06d5 6835 cf68 9635 f4a3 4135 8b08 5735
1.3537241e-06 2.0747552e-06 8.1096607e-07 1.2926413e-06 8.6736725e-07 1.1206374e-06 7.2136686e-07 8.0106173e-07

exp_avg f4 [5, 3]
00000000: e4d2 e035 5f3e d5b9 80e3 56b9 4e8b 9238
00000010: 666a 6eb8 e3e6 e8b9 04cc 8339 944f 3fba
00000020: 991c 86ba 8ab5 9eb9 f35e f8b9 0f51 83ba
00000030: a2cf a037 ed75 423a 4799 fc39
1.6750678e-06 -0.00040672996 -0.0002049338 6.98777e-05 -5.6842713e-05 -0.00044422512 0.0002513827 -0.000729793
-0.0010231911 -0.00030271366 -0.0004737299 -0.0010018664 1.9170173e-05 0.0007418085 0.00048179386

exp_avg_sq f4 [5, 3]
00000000: 9729 c235 59f4 a136 82cb 5d36 54cc 7e34
00000010: 5899 3a36 25d0 8535 add2 9535 83ca 3b37
00000020: 5510 ce36 a79b 1b36 a2ad d836 f085 fd36
00000030: 8930 0836 e7f9 df37 926b 4437
1.4466231e-06 4.8266197e-06 3.3050023e-06 2.3729928e-07 2.7805418e-06 9.96985e-07 1.116268e-06 1.11932195e-05
6.1411797e-06 2.3187401e-06 6.457515e-06 7.55558e-06 2.029383e-06 2.6700041e-05 1.1707556e-05

exp_avg f4 [128, 42]
00000000: eb31 3cb8 2b78 30b8 ce95 cb38 689f 8eb8
00000010: 1590 5137 dd12 b938 5315 8e38 20de c938
00000020: fc2b 6038 d9a1 5139 7f58 ab36 f6fc 0639
00000030: 1ac1 cab8 34de 6138 19aa eab7 1559 01b8
00000040: 553a 6ab9 dbc3 d436 6130 ba38 69e4 03b7
00000050: d90f a5b9 5d8b 55b8 5e03 8136 4fbf 9737
00000060: 6f50 36b9 0a7b 21b9 2697 1c39 f03d 30b6
00000070: 6a2b 26b9 161d 5739 d793 f1b8 6b79 ea38
00000080: 512d 03b9 ff6d d1b8 6a9d 9c39 067a 1e37
00000090: 64ef f0b4 7bfd 63bb 741c 01ba 4bef 7abb
000000a0: a2fb e535 2fc2 e0b7 f1b4 3eba 285f 66b9
000000b0: 4f2f 1aba eaf2 3639 3c03 61b9 7171 33b9
000000c0: f9fe 2739 1638 a839 aa6b 7a38 687e 6eb9
000000d0: 8b7c 98b8 d7e9 f5b9 a073 8538 8bca 2e38
000000e0: 2168 39b9 a133 adb9 76e4 ffb9 73a5 acb9
000000f0: 2f74 cab9 7a43 2db9 518e 50b9 2ed8 39b9
00000100: 1c0c d2b8 f224 7239 cdda bc37 1307 ef38
00000110: 1ca7 0eba f3e3 003a 1b7f f339 2a1d 2eb9
00000120: 5e95 06b8 a375 60b9 aab0 9838 94ae 3e38
00000130: 65ae 04ba 5b42 c9b8 3100 98b8 6922 823b
00000140: bd2e 103c c05f c23b 4edf 5eb9 e453 9639
00000150: 5ef4 11bb 2d77 c1b8 be88 52ba 2f0c c9b9
00000160: 522c 03b9 3ea6 7138 84dc 9cb9 1c46 abb9
00000170: 5f8b 2739 8a26 1dba f566 9039 ac51 1bba
00000180: 9244 1d3a 1886 a539 30ec 69b9 b55b a6b9
00000190: 8f78 01ba 56f4 1dba fbd5 87b9 2370 1eb9
000001a0: f2ad d039 5a6a 69b9 e0f5 4539 aca6 4cb9
000001b0: 82c6 54b8 085f 8f38 cb61 dab8 fca6 0aba
000001c0: fa61 263a 18a4 c538 da3b 9939 eb00 82ba
000001d0: 33a1 cb39 abf2 e039 543f 54ba 8f5b ff39
000001e0: 44f0 d3ba 6169 173c 74f7 3b3d 3d43 953b
000001f0: f8d3 a439 98dc 7038 72ff bd38 1a55 4438
00000200: 5c97 d7b9 beb6 6938 7de4 2038 7f43 0139
00000210: 40d4 0bba f44a 4839 ca86 ab37 3c5e eb38
00000220: 23fd 1039 f8ef 79b8 4735 6fb9 1cc7 d639
00000230: 9285 47b9 3c0d 72b8 78a4 9239 f725 7e38
00000240: 013e 3239 9765 a6b7 8599 c9b9 f55f ecb8
00000250: 1a74 deb9 6c34 0639 bb7f 0db8 75ec 4538
00000260: d994 e9b9 7925 b737 5628 d1b9 5ff5 41b7
00000270: 2e1c 37b9 f472 d839 f36b cab7 9bba 3f39
00000280: cbd6 7838 3ca5 2138 28bf bc37 cc25 adbb
00000290: d0cc 53bc 28a4 1abb 38b7 9f38 52ec 7537
000002a0: 3136 63ba fa22 e0b9 0de9 03ba 8501 8d39
000002b0: b38c 14b9 76c7 9db9 c8c3 d9b8 bbd5 5a3a
000002c0: 0364 b9b8 fd49 0939 65a5 0ab9 472f 8236
000002d0: f5fe 07ba 735c 043a 7955 60b7 c8e2 2639
000002e0: 2a6d bc36 c95f 8237 d48c 31ba 1ece 17b9
000002f0: eafd c139 f416 8139 7ecb 8f38 8a69 21b9
00000300: c123 b5b9 e642 22ba 5a76 2fba fc07 9f39
00000310: 0481 afb9 dd3a 87ba 4856 a139 db67 903a
00000320: b4d8 27b9 711d 9eb9 a086 b239 6925 1238
00000330: 44e0 6239 ead7 dcbb 13b3 b2bc e4be 813b
00000340: 0b7c 8cb9 6aa7 8039 708f d3b8 3639 adb8
00000350: 4a4c 71b8 ef30 f038 0976 3db7 9966 4a39
00000360: 9efe 85b9 b9fb 96b8 c4dd a3b8 90fc 0e38
00000370: b5f8 0d38 c00d 0639 bcc6 a5b8 7179 bfb7
00000380: 5a1f 04b8 2a7c 9eb8 d020 7438 1612 9e38
00000390: 8777 5239 3133 d437 3511 d0b7 3f76 3938
000003a0: 43a0 a5b8 2fd9 1637 2ee1 84b9 9f07 7ab9
000003b0: 04c1 30b8 bef2 3b38 85a8 5438 9a60 b2b8
000003c0: 0f30 8bb9 44f4 b339 64e3 d5b7 0dd0 7b38
000003d0: 1bce 1337 7772 6838 8649 3537 b38e 8dbb
000003e0: 6cdb afbb 7e48 eeba aec9 b4b7 bcbf ffb7
000003f0: 2cf0 d139 3264 ebb6 d4f2 9dba bf85 a2b9
-4.4869183e-05 -4.2073585e-05 9.7076976e-05 -6.8007794e-05 1.24909175e-05 8.825001e-05 6.7750596e-05 9.625801e-05
5.3446725e-05 0.00019992086 5.1064994e-06 0.00012873471 -9.6680786e-05 5.3851123e-05 -2.7974182e-05 -3.083896e-05
-0.0002233771 6.340893e-06 8.8781824e-05 -7.861389e-06 -0.0003148306 -5.091295e-05 3.8448916e-06 1.8089688e-05
-0.00017386836 -0.00015399992 0.00014933627 -2.6262096e-06 -0.00015847167 0.00020514833 -0.00011519313 0.00011180605
-0.00012510015 -9.986385e-05 0.0002987192 9.445945e-06 -4.4877663e-07 -0.0034788537 -0.00049251993 -0.0038289602
1.7135064e-06 -2.6793305e-05 -0.0007274887 -0.00021969958 -0.00058816833 0.00017447365 -0.00021458877 -0.0001711303
0.00016021346 0.00032085244 5.9704915e-05 -0.00022744539 -7.271123e-05 -0.00046904266 6.363471e-05 4.1673466e-05
-0.00017681766 -0.00033035598 -0.00048807607 -0.00032929666 -0.00038615006 -0.00016523703 -0.00019889443 -0.00017723508
-0.00010015836 0.00023092682 2.2513233e-05 0.00011397726 -0.00054417714 0.00049167796 0.00046443273 -0.00016604798
-3.20872e-05 -0.00021406128 7.280831e-05 4.546212e-05 -0.0005061387 -9.5967865e-05 -7.2479605e-05 0.003971387
0.008800206 0.0059318244 -0.00021254757 0.00028672733 -0.0022270898 -9.2251554e-05 -0.00080312404 -0.00038346785
-0.00012509644 5.7613703e-05 -0.00029918936 -0.00032667897 0.00015978281 -0.00059948175 0.0002754253 -0.0005924951
0.00059992925 0.0003157116 -0.00022308598 -0.00031730314 -0.0004938924 -0.00060254836 -0.00025908634 -0.00015109828
0.0003980245 -0.0002226023 0.0001887898 -0.00019517046 -5.0729614e-05 6.836472e-05 -0.000104132654 -0.0005289165
0.0006346997 9.424257e-05 0.00029227027 -0.0009918486 0.0003883928 0.0004290541 -0.0008096595 0.00048705607
-0.0016169627 0.009241433 0.045890287 0.0045551346 0.00031438447 5.7425903e-05 9.059803e-05 4.68093e-05
-0.00041120767 5.572172e-05 3.835977e-05 0.00012327543 -0.0005334057 0.00019101409 2.0447555e-05 0.00011223226
0.00013827211 -5.9589715e-05 -0.00022812664 0.0004096561 -0.00019027878 -5.770962e-05 0.0002796983 6.0593677e-05
0.00016998501 -1.9836049e-05 -0.00038452088 -0.0001127123 -0.00042429642 0.00012798765 -3.3735978e-05 4.7188678e-05
-0.00044552123 2.183275e-05 -0.0003989364 -1.1560826e-05 -0.00017462738 0.00041284377 -2.4130544e-05 0.00018284695
5.932785e-05 3.8539278e-05 2.250036e-05 -0.0052840468 -0.012927249 -0.002359638 7.615838e-05 1.4658161e-05
-0.0008667438 -0.0004275067 -0.00050319807 0.00026894748 -0.00014166794 -0.00030093984 -0.000103838334 0.00083478884
-8.840116e-05 0.00013092901 -0.0001322232 3.8798057e-06 -0.0005187833 0.00050491764 -1.3371341e-05 0.00015915476
5.615545e-06 1.5541811e-05 -0.0006772999 -0.00014477267 0.0003700101 0.000246219 6.856675e-05 -0.00015393473
-0.0003454965 -0.0006189778 -0.0006693356 0.00030332792 -0.00033474725 -0.0010317225 0.00030772598 0.001101728
-0.0001600709 -0.00030158044 0.0003405111 3.4843953e-05 0.00021636585 -0.006739606 -0.021813905 0.0039595235
-0.000267953 0.00024538796 -0.00010087981 -8.259939e-05 -5.7529927e-05 0.000114532064 -1.129276e-05 0.00019302442
-0.0002555744 -7.1994444e-05 -7.813753e-05 3.4090655e-05 3.3848646e-05 0.00012784358 -7.90483e-05 -2.2825525e-05
-3.150045e-05 -7.5571545e-05 5.8204692e-05 7.537396e-05 0.00020071688 2.5296207e-05 -2.4803545e-05 4.4217562e-05
-7.897664e-05 8.991264e-06 -0.00025344774 -0.00023844697 -4.214143e-05 4.4810346e-05 5.0701685e-05 -8.505695e-05
-0.00026547952 0.00034323533 -2.5497466e-05 6.0036826e-05 8.80987e-06 5.5419714e-05 1.0805559e-05 -0.0043199896
-0.0053667333 -0.0018179563 -2.1551587e-05 -3.0487652e-05 0.00040042528 -7.01521e-06 -0.0012050518 -0.00030998696
