model_Adam_128Relu_val.pth (torch, 216658 bytes, 57 tensors)

embeddings.0.weight f4 [7, 4]
-0.39542198 1.3120548 1.6477885 -0.730636 -2.0458765 0.97676396 -0.06520257 0.22036226
-0.2509367 -0.1184166 -1.0451463 0.066349186 -0.22306016 -0.5476204 0.6263346 -2.7204843
-2.0306227 -1.7865255 -0.9539391 -1.3207556 1.4380009 -1.4686569 -1.4328374 -1.7828323
-0.9372932 -1.4695735 1.5837976 1.2973367
00000000: c074 cabe 69f1 a73f bcea d23f f60a 3bbf
00000010: a4ef 02c0 340d 7a3f ed88 85bd a5a6 613e
00000020: c67a 80be 6784 f2bd 5bc7 85bf 15e2 873d
00000030: e269 64be da30 0cbf 7757 203f 6a1c 2ec0
00000040: b9f5 01c0 deac e4bf 5a35 74bf 850e a9bf
00000050: 6a10 b83f f3fc bbbf 3767 b7bf d933 e4bf
00000060: 72f2 6fbf fc1a bcbf e1b9 ca3f 210f a63f

embeddings.1.weight f4 [7, 4]
2.054467 0.02098921 1.2977694 -1.5243722 -2.08668 0.9702164 1.5137103 1.0970402
0.6910583 0.93363667 -0.6637314 -2.0528102 0.87956107 -1.3720664 -1.6044255 2.2747836
-1.235099 0.96834034 -0.9373016 -0.18920079 0.25460103 1.2581222 0.87066466 0.026869485
1.1202008 2.7366755 -1.3239105 -1.3602394
00000000: 637c 0340 90f1 ab3c 4f1d a63f a11e c3bf
00000010: 2a8c 05c0 1a60 783f 42c1 c13f d06b 8c3f
00000020: 32e9 303f d002 6f3f 4dea 29bf 3e61 03c0
00000030: ea2a 613f df9f afbf d15d cdbf 0e96 1140
00000040: b917 9ebf 27e5 773f fff2 6fbf dabd 41be
00000050: 115b 823e 260a a13f e1e3 5e3f 651d dc3c
00000060: bd62 8f3f b125 2f40 e675 a9bf 531c aebf

embeddings.2.weight f4 [6, 3]
0.12346302 0.28267437 -0.67680955 -0.70238745 -0.7741784 0.85515195 -0.1782606 -0.7191014
-1.247094 0.33030462 0.8247079 0.51054686 0.94062513 0.84576637 -1.7198848 0.73431534
-1.0575076 0.7624326
00000000: 2eda fc3d b2ba 903e 6443 2dbf aacf 33bf
00000010: 8e30 46bf 3deb 5a3f f289 36be 0817 38bf
00000020: c7a0 9fbf b01d a93e 0f20 533f 33b3 023f
00000030: cfcc 703f 2584 583f 2f25 dcbf 17fc 3b3f
00000040: 695c 87bf c82e 433f

embeddings.3.weight f4 [6, 3]
-0.8956066 0.29632437 1.0193945 -0.043705866 1.0939858 0.8990163 0.06977004 -0.3744616
-0.42120895 1.5355645 -0.18677723 -1.5624754 0.535056 -1.9724319 -0.7330881 -0.6702884
-0.34297416 -3.2583354
00000000: 7946 65bf d4b7 973e 857b 823f ec04 33bd
00000010: ba07 8c3f ef25 663f 98e3 8e3d 6eb9 bfbe
00000020: b3a8 d7be 618d c43f 8842 3fbe 32ff c7bf
00000030: 6ef9 083f a678 fcbf a9ab 3bbf 0598 2bbf
00000040: 4f9a afbe 9188 50c0

embeddings.4.weight f4 [4, 2]
1.6699387 0.57302 1.585967 0.028505096 0.7935347 -1.9331267 1.9487492 1.2724681
00000000: 8dc0 d53f 70b1 123f f700 cb3f 8583 e93c
00000010: 1725 4b3f b270 f7bf 9d70 f93f 3ce0 a23f

embeddings.5.weight f4 [8, 4]
-0.25378013 -0.8343204 0.6023536 -1.215461 -0.96839756 1.1720334 0.19655065 -0.27959752
-0.26412848 -0.75515425 1.5734246 0.008748034 0.4582282 -1.0358181 0.40143475 0.7328634
0.9204633 0.06789125 0.41409943 1.7015147 -2.2856705 -0.9206007 0.36142308 0.95774245
0.3740973 -0.014538007 -1.4126956 0.18819052 -2.132504 -0.5196074 0.2298471 -2.7774363
00000000: 78ef 81be 0696 55bf d833 1a3f 3a94 9bbf
00000010: e7e8 77bf 3105 963f 9344 493e 6827 8fbe
00000020: d93b 87be ca51 41bf fa65 c93f ea53 0f3c
00000030: e39c ea3e b095 84bf db88 cd3e f09c 3b3f
00000040: 7ca3 6b3f 910a 8b3d d704 d43e 3ccb d93f
00000050: 6d48 12c0 7dac 6bbf 720c b93e 9c2e 753f
00000060: ae89 bf3e d230 6ebc 36d3 b4bf 04b5 403e
00000070: f27a 08c0 fe04 05bf 0a5d 6b3e 84c1 31c0

embeddings.6.weight f4 [3, 2]
-0.15313713 -1.5295141 -0.8626802 1.6770341 1.0840979 2.9676776
00000000: fbcf 1cbe 1ec7 c3bf 9cd8 5cbf 0ea9 d63f
00000010: b8c3 8a3f 6eee 3d40

embeddings.7.weight f4 [7, 4]
-0.9707637 -2.1637654 -0.7759786 2.1057537 0.012638537 -0.870454 0.9512294 0.36045992
0.10100328 0.21134329 3.0252738 -0.56669647 3.1087663 -0.8374437 0.12461025 -0.16656551
-2.2052672 -1.9842867 0.9660744 1.1571088 0.7068936 0.22372027 1.1658474 1.196196
-0.049045563 1.1613497 0.4820383 2.2765326
00000000: f883 78bf 227b 0ac0 89a6 46bf abc4 0640
00000010: de11 4f3c 13d6 5ebf c583 733f 348e b83e
00000020: cfda ce3d 606a 583e 169e 4140 0513 11bf
00000030: 07f6 4640 b662 56bf a933 ff3d 2690 2abe
00000040: 1923 0dc0 1bfd fdbf a750 773f 241c 943f
00000050: fbf6 343f ed16 653e 7d3a 953f f31c 993f
00000060: 00e4 48bd 1ba7 943f b9cd f63e b6b2 1140

embeddings.8.weight f4 [6, 3]
1.329665 1.248387 -1.3582723 0.17104405 0.17535484 -1.1048299 -0.8373135 0.7729051
-0.3134634 -0.0906 0.5809224 -0.5673364 -0.9445936 -0.49426508 0.21918969 0.15075313
-0.7347043 -1.456982
00000000: 7632 aa3f 25cb 9f3f dedb adbf 2c26 2f3e
00000010: 3890 333e 116b 8dbf 2d5a 56bf 1cdd 453f
00000020: 467e a0be 7e8c b9bd 55b7 143f f53c 11bf
00000030: e3d0 71bf 5010 fdbe 4373 603e 075f 1a3e
00000040: 9515 3cbf 637e babf

embeddings.9.weight f4 [6, 3]
-0.8217862 -0.7323614 -1.9077679 0.036404867 -0.008714166 -1.7243669 1.8452116 0.7977006
-1.3315113 0.4569628 -0.1415972 -1.5824711 0.6883388 -0.9465833 -0.60598063 -0.010547516
-1.1791762 -1.0227902
00000000: 9560 52bf 097c 3bbf bd31 f4bf 451d 153d
00000010: dcc5 0ebc 0eb8 dcbf e52f ec3f 1b36 4c3f
00000020: f66e aabf 07f7 e93e dbfe 10be 6a8e cabf
00000030: f936 303f 4853 72bf 8c21 1bbf 7dcf 2cbc
00000040: 3fef 96bf caea 82bf

embeddings.10.weight f4 [4, 2]
-0.6354663 -1.1073605 -0.21511918 -1.5497068 -1.6057184 0.32446876 -0.58836305 -0.9902388
00000000: ebad 22bf fdbd 8dbf 3448 5cbe cb5c c6bf
00000010: 2e88 cdbf c520 a63e f69e 16bf 4a80 7dbf

embeddings.11.weight f4 [5, 3]
-0.7570013 1.0195085 1.1188039 -0.11364087 -0.43339083 -2.575013 -1.1347364 1.885796
-0.20902959 1.7766294 1.4812856 0.61208713 0.61479473 -0.8864698 1.5569758
00000000: d6ca 41bf 417f 823f f734 8f3f 8bbc e8bd
00000010: 67e5 ddbe 03cd 24c0 0b3f 91bf c361 f13f
00000020: da0b 56be 9868 e33f c49a bd3f beb1 1c3f
00000030: 3063 1d3f afef 62bf fc4a c73f

model.0.weight f4 [128, 42]
0.09552334 0.039022565 -0.05935007 0.04841341 -0.0038960716 -0.07359582 0.12087663 -0.09214514
-0.042085838 -0.10185107 0.09585689 0.008060936 -0.11558202 -0.057252035 0.23495588 -0.16267042
-0.08165748 -0.032525472 0.24231894 -0.01674325 -0.052559357 -0.004329632 0.14524129 -0.034542784
0.15309167 0.07340024 -0.06697183 0.014524093 -0.037156865 -0.05934861 0.028135732 0.00994678
-0.07357493 -0.1338368 0.016587254 0.23918752 0.0732466 -0.1309534 0.09434631 0.0036831694
0.09564766 -0.11543009 -0.05107835 -0.006155902 -0.0781381 -0.12690371 -0.09416143 -0.10857589
-0.17370526 -0.042037103 0.06097564 -0.019370649 -0.043476 0.08785995 -0.15205918 0.035338517
-0.29647642 0.12897512 -0.044176903 0.12018972 0.09330622 0.23774603 -0.2531868 -0.18453133
-0.22357467 0.1048133 -0.14948268 -0.06402137 0.4074663 0.17262906 0.38870323 0.03841211
-0.04199994 0.26521686 0.24559504 0.16676377 0.078775935 0.047510285 -0.12078372 0.07262212
0.072266325 -0.102099985 0.018682929 -0.119508 0.07145238 -0.32171044 0.16439904 -0.23797187
0.20614001 -0.09459739 0.2537257 -0.16207974 -0.16597468 0.23112915 0.36716855 -0.26491314
0.07393791 -0.19661698 0.019528227 0.1466462 0.024133721 0.05177293 0.0101513965 0.21808706
0.017762821 0.17764604 0.07281246 -0.08945227 -0.20109716 0.23976868 0.28583932 0.082998
0.02828981 -0.13480851 0.100220054 0.15966302 -0.1719682 -0.021582555 0.29726276 0.21770991
0.10757443 -0.02191944 -0.011723524 -0.022741705 0.10730629 -0.089495644 -0.03775603 0.10807013
0.06342933 -0.15189683 0.10077048 0.16838704 -0.01942878 0.12379483 0.26697594 -0.15053535
0.43052855 -0.047020376 -0.0062599876 -0.05891664 0.2829026 -0.08640093 -0.0811093 -0.034726504
0.3971802 0.07763603 -0.0031685643 0.041245356 0.02745094 -0.040107124 -0.015718596 0.09347058
-0.033644363 -0.3294861 -0.06477944 -0.1388963 -0.10371211 -0.2109295 -0.1658334 -0.1763195
0.17238168 0.043073293 0.012998329 -0.52116317 0.010643102 0.04703423 -0.039760288 -0.11054068
-0.21020414 0.21281235 0.03475687 -0.009641173 -0.14110164 -0.10647197 -0.11748148 -0.019859696
-0.10445285 0.02008873 0.32336143 0.31720963 0.21122657 -0.18235473 -0.18263933 -0.13067578
0.110940106 0.2764484 0.24961147 0.1553231 -0.16101249 0.25136527 -0.1872689 -0.034132868
0.123134546 -0.31345683 -0.1344048 -0.09584939 -0.15558971 -0.22317585 0.15598278 -0.0746169
-0.12944113 0.22718008 0.058282252 0.27299166 0.1440019 0.046186335 -0.0057854573 -0.0356132
-0.22833872 0.13603278 -0.19923465 -0.3322921 -0.032444313 -0.10042356 -0.20725939 0.15196091
-0.012345086 -0.23575322 -0.13408224 -0.2878566 0.22425671 -0.49649578 0.15609789 0.09278261
0.21616311 0.31839138 -0.04808323 -0.11734031 0.018292025 -0.24146147 0.28863683 -0.07235594
-0.3668126 0.015446973 0.2209344 0.15443526 0.011594389 0.14372465 -0.3264304 0.01199419
-0.23877986 0.04885804 0.12270839 -0.16985197 0.031835526 0.04407335 -0.09203411 -0.052708395
-0.030923873 0.02301528 0.23022436 -0.08505168 -0.16732642 0.09148559 -0.12320326 -0.08450506
00000000: bea1 c33d 20d6 1f3d 0f19 73bd 244d 463d
00000010: 3c55 7fbb 68b9 96bd 2b8e f73d 97b6 bcbd
00000020: 3362 2cbd 4b97 d0bd 9e50 c43d 0412 043c
00000030: 44b6 ecbd 1c81 6abd 4698 703e 1393 26be
00000040: 093c a7bd 6e39 05bd 7522 783e 2429 89bc
00000050: 7b48 57bd 96df 8dbb 22ba 143e bc7c 0dbd
00000060: 10c4 1c3e dd52 963d 8728 89bd 76f6 6d3c
00000070: cc31 18bd 8717 73bd e87c e63c d2f7 223c
00000080: 74ae 96bd 840c 09be fee1 873c 93ed 743e
00000090: 5002 963d a618 06be a338 c13d 5461 713b
000000a0: ece2 c33d 9c66 ecbd 8837 51bd 73b7 c9bb
000000b0: de06 a0bd 0cf3 01be b5d7 c0bd 095d debd
000000c0: cbdf 31be 192f 2cbd 98c1 793d 32af 9ebc
000000d0: e413 32bd ebef b33d 67b5 1bbe 1fbf 103d
000000e0: c2cb 97be 0e12 043e d7f2 34bd 0726 f63d
000000f0: 5517 bf3d b273 733e b3a1 81be c8f5 3cbe
00000100: c2f0 64be 5ba8 d63d fd11 19be a31d 83bd
00000110: 6c9f d03e acc5 303e 1c04 c73e 0456 1d3d
00000120: 2108 2cbd 81ca 873e 447d 7b3e 1fc4 2a3e
00000130: 4755 a13d 259a 423d 745d f7bd e8ba 943d
00000140: 5e00 943d cc19 d1bd f10c 993c 9cc0 f4bd
00000150: a055 923d 3bb7 a4be 3958 283e e6ae 73be
00000160: 5e16 533e 47bc c1bd 56e8 813e 3bf8 25be
00000170: 44f5 29be 1fad 6c3e 84fd bb3e b2a2 87be
00000180: c26c 973d f655 49be a9f9 9f3c 6c2a 163e
00000190: 15b4 c53c da0f 543d 0b52 263c 3752 5f3e
000001a0: 5683 913c d8e8 353e b31e 953d c032 b7bd
000001b0: 6aec 4dbe ec85 753e 8859 923e dbfa a93d
000001c0: 08c0 e73c 3e0b 0abe 2c40 cd3d b47e 233e
000001d0: 6f18 30be e6cd b0bc d332 983e 59ef 5e3e
000001e0: fc4f dc3d 6690 b3bc 0614 40bc d04c babc
000001f0: 66c3 db3d 7e49 b7bd 11a6 1abd df53 dd3d
00000200: 3de7 813d d88a 1bbe c160 ce3d a76d 2c3e
00000210: 1b29 9fbc 2588 fd3d 12b1 883e f025 1abe
00000220: 3d6e dc3e 7098 40bd 9520 cdbb 9352 71bd
00000230: 9cd8 903e f9f2 b0bd a21c a6bd 613d 0ebd
00000240: 345b cb3e a4ff 9e3d b0a7 4fbb e4f0 283d
00000250: cbe0 e03c 5e47 24bd 49c4 80bc 816d bf3d
00000260: acce 09bd 67b2 a8be 15ab 84bd d53a 0ebe
00000270: 0467 d4bd e7fd 57be 3bd0 29be 198d 34be
00000280: d384 303e 9f6d 303d f1f6 543c f36a 05bf
00000290: 6860 2e3c f7a6 403d afdb 22bd 2763 e2bd
000002a0: c13f 57be 7beb 593e 385d 0e3d 03f6 1dbc
000002b0: f37c 10be fa0d dabd 219a f0bd cdb0 a2bc
000002c0: 60eb d5bd 1f91 a43c a18f a53e 4d69 a23e
000002d0: c74b 583e 33bb 3abe ce05 3bbe dfcf 05be
000002e0: 9134 e33d a58a 8d3e 269a 7f3e 050d 1f3e
000002f0: 75e0 24be f3b2 803e 6bc3 3fbe e8ce 0bbd
00000300: f72d fc3d 6a7d a0be 69a1 09be af4c c4bd
00000310: e952 1fbe 3688 64be f3b9 1f3e bfd0 98bd
00000320: 378c 04be e5a1 683e 5fb9 6e3d 90c5 8b3e
00000330: 3c75 133e e22d 3d3d ef93 bdbb 26df 11bd
00000340: a0d1 69be 2d4c 0b3e 2b04 4cbe 3122 aabe
00000350: 54e4 04bd deaa cdbd ce3b 54be a49b 1b3e
00000360: 0b43 4abc 4b69 71be db4c 09be f161 93be
00000370: 8da3 653e b234 febe 20d8 1f3e cf04 be3d
00000380: dd59 5d3e 3204 a33e ecf2 44bd 1e50 f0bd
00000390: 28d9 953c ad41 77be 35c8 933e 5a2f 94bd
000003a0: dcce bbbe 4d15 7d3c a13c 623e 4724 1e3e
000003b0: 64f6 3d3c 8e2c 133e e321 a7be 4783 443c
000003c0: b582 74be 5e1f 483d 894e fb3d aded 2dbe
000003d0: f865 023d 4286 343d 617c bcbd c2e4 57bd
000003e0: 1054 fdbc 8a8a bc3c efbf 6b3e 932f aebd
000003f0: 9e57 2bbe cc5c bb3d fe51 fcbd fd10 adbd

model.0.bias f4 [128]
0.3551681 -0.4351934 0.13483481 0.1101244 -0.005131957 0.22609232 0.27605787 -0.39008546
0.08778534 0.045076046 -0.004171765 0.30081162 0.2126616 0.41346854 0.16957343 -0.11302891
0.21266353 0.44339603 -0.33092648 0.12644614 -0.24351276 0.0143427905 -0.14431338 0.17493606
0.15482414 -0.19287579 0.09068925 -0.18881051 -0.24251108 0.15011615 0.27157244 -0.08793877
-0.23988037 0.07416986 0.33908057 0.3560014 -0.22050713 0.109750055 -0.1433418 -0.084587134
-0.067061566 0.2071471 -0.109608926 -0.26245582 0.12885067 -0.3948258 0.14904098 -0.04796817
-0.13312055 0.29527783 -0.12758693 -0.023450827 0.35471833 0.26286498 0.03180669 0.12216534
0.13625103 0.3580839 0.3528775 0.17895974 0.30901617 0.35765514 0.018164385 0.11525864
0.055802453 -0.016527316 -0.25388038 -0.19390424 -0.00536771 0.1678383 -0.32303315 0.4329859
0.21000609 0.33954647 0.04588188 -0.043429613 -0.1309893 -0.24235918 0.040399585 -0.10790735
0.5813188 0.027982233 0.03663954 0.35328194 -0.24210972 0.2000037 0.19443649 -0.33207372
-0.09462169 0.29415774 -0.3916645 0.28275517 0.13243046 0.36461815 0.030165331 0.19991095
-0.33551583 -0.14841276 0.14334585 -0.09337111 0.28967413 0.17692298 0.3743114 -0.07579485
0.26547715 -0.28547257 -0.29396915 0.020690346 0.015955774 -0.13755018 0.03131435 0.07013252
0.12187944 -0.27683526 0.1219461 -0.108845875 -0.31457737 0.26139417 0.094984785 0.07480036
-0.05175269 0.051052455 -0.20200609 0.141233 0.050980292 0.18000638 0.2422207 0.15901937
00000000: 98d8 b53e abd1 debe 2312 0a3e e788 e13d
00000010: fa29 a8bb bf84 673e 7557 8d3e 48b9 c7be
00000020: cdc8 b33d a9a1 383d 4db3 88bb fb03 9a3e
00000030: f6c3 593e 26b2 d33e a8a4 2d3e b37b e7bd
00000040: 78c4 593e ce04 e33e 326f a9be 197b 013e
00000050: 695b 79be 06fe 6a3c e3c6 13be 7022 333e
00000060: 388a 1e3e 3b81 45be 49bb b93d 8b57 41be
00000070: d354 78be 0cb8 193e 8b0b 8b3e 3e19 b4bd
00000080: 33a3 75be 5ee6 973d f89b ad3e d145 b63e
00000090: 9fcc 61be a3c4 e03d 31c8 12be 053c adbd
000000a0: 9357 89bd 5f1e 543e a57a e0bd 9c60 86be
000000b0: 6ef1 033e 9b26 cabe 339e 183e 467a 44bd
000000c0: c150 08be a82e 973e 26a6 02be f31b c0bc
000000d0: a49d b53e 3d96 863e bb47 023d d231 fa3d
000000e0: 6485 0b3e c656 b73e 5cac b43e 3941 373e
000000f0: 5e37 9e3e 931e b73e 7acd 943c b90c ec3d
00000100: 1d91 643d 4b64 87bc 9cfc 81be d58e 46be
00000110: 9de3 afbb cedd 2b3e 9a64 a5be 54b0 dd3e
00000120: d60b 573e 09d9 ad3e a3ee 3b3d 40e3 31bd
00000130: 0f22 06be 012d 78be 097a 253d 87fe dcbd
00000140: 4fd1 143f ff3a e53c 5813 163d 5fe1 b43e
00000150: 9ceb 77be c5cd 4c3e 5c1a 473e 9105 aabe
00000160: 04c9 c1bd d89b 963e 4088 c8be 49c5 903e
00000170: da9b 073e 3baf ba3e 491d f73c 75b5 4c3e
00000180: bbc8 abbe 84f9 17be 41c9 123e 5a39 bfbd
00000190: 2b50 943e 4c2b 353e bea5 bf3e 553a 9bbd
000001a0: 9fec 873e 7629 92be 2083 96be cd7e a93c
000001b0: afb5 823c f4d9 0cbe 7a43 003d a3a1 8f3d
000001c0: ee9b f93d 5abd 8dbe e0be f93d 96ea debd
000001d0: 4910 a1be 75d5 853e 6287 c23d ee30 993d
000001e0: a1fa 53bd 611c 513d afda 4ebe 629f 103e
000001f0: b6d0 503d 9853 383e b408 783e f9d5 223e

model.2.weight f4 [64, 128]
0.053385004 0.021754976 -0.18548341 -0.16674304 -0.12021156 0.26167655 -0.12701353 -0.058674037
-0.42600968 -0.102497995 -0.0800665 0.10310589 -0.19711733 -0.080561236 0.07080545 -0.04793067
0.09493669 -0.026334563 0.0020547472 0.015583043 0.0790141 0.020442115 -0.106217116 -0.011898701
-0.10627613 -0.07203275 0.111879975 0.08501205 0.09019243 -0.18722004 0.104628585 0.07752932
0.14816312 0.05388756 0.07692573 0.07433206 -0.017608365 0.07360784 -0.009095585 -0.029233228
0.09932738 0.1211988 0.37824008 -0.5990297 -0.12531763 0.024064608 -0.048388407 -0.19161105
0.077085964 -0.20496903 0.09846533 -0.06354508 0.04270916 0.010993243 0.02387153 0.12586597
-0.09837642 -0.10626041 -0.080682695 -0.036177993 -0.4268978 -0.051016085 -0.1514975 0.083615616
0.08377335 -0.12789889 0.09123621 0.19678196 0.008778609 -0.029384999 0.0732765 0.06934636
-0.2380562 -0.052523937 -0.022565508 -0.0021438499 -0.022616927 0.018092256 0.03589408 0.018369818
0.018102648 -0.19883886 -0.01616871 -0.013550503 -0.06689638 0.035372764 0.071629025 0.07910021
-0.03423372 -0.029300954 0.0017567339 -0.09176273 0.105584234 -0.033786852 -0.020948825 -0.07454813
0.09638697 0.014052437 -0.11515188 -0.058856886 -0.2458386 -0.18431446 0.022959607 -0.23205774
-0.047818348 -0.0476332 -0.05283705 -0.06192962 0.080270946 0.03578826 0.016962213 -0.13245296
0.1075176 -0.053255465 0.087036826 0.031409048 -0.03748323 -0.08616491 -0.025368385 -0.27405977
-0.46807352 0.0452671 -0.090105705 -0.034455404 -0.0017502883 0.08854403 -0.027468996 0.082327425
0.07257925 -0.09174401 -0.030862242 0.0091528185 -0.07984366 0.023282142 0.014823253 0.031250764
0.026981112 -0.02113899 -0.05585455 -0.09564283 0.04702329 -0.0031145478 0.03446714 -0.056333415
-0.08144719 0.041431982 0.031207006 -0.013039671 0.053771205 -0.092064425 -0.057686683 0.02048791
-0.0103842355 -0.04067098 -0.06334858 -0.05137567 -0.081201434 -0.03609181 -0.094777256 0.06037411
0.0039299433 0.07072691 0.031901173 0.05899503 -0.055854462 0.053209495 -0.07337819 -0.007990744
0.038564026 -0.0637231 -0.028659517 -0.08027988 0.013168356 0.050533313 -0.0665069 -0.0941153
-0.088364616 -0.011835955 0.06663878 -0.007166107 -0.119567625 -0.030258775 -0.08246554 0.063257165
0.054708693 -0.053600144 -0.06552516 0.053244673 0.047503073 0.04862333 0.04293373 0.017382007
-0.031260848 0.009045957 -0.007906868 -0.084223114 -0.09048422 -0.095584646 0.068982646 0.04964845
0.056495022 -0.0050326493 0.04529759 0.030325089 -0.09616038 0.062143452 -0.06669896 -0.03256709
0.03761667 -0.08474997 -0.011239697 -0.063969664 0.034428753 -0.072542 0.025523018 0.024749141
0.03338278 0.038504783 -0.052190192 0.010129975 0.054297056 -0.06904249 -0.056399312 -0.072273076
-0.012903662 -0.04206082 0.06412936 -0.0799391 -0.09560937 -0.04247263 0.003022312 -0.017119098
0.036606997 -0.06955512 0.07596148 -0.036212455 -0.104449615 0.101934746 -0.058063462 -0.03967656
0.048962597 -0.08139692 0.0865107 -0.08328148 0.07337507 0.0126960715 -0.06063284 -0.02210642
0.009393342 -0.08408675 -0.001789992 -0.026464012 -0.008403262 -0.09220217 -0.11468412 -0.056981284
00000000: 3caa 5a3d 7e37 b23c 5def 3dbe b0be 2abe
00000010: 7a31 f6bd 78fa 853e d60f 02be 3054 70bd
00000020: f11d dabe 78ea d1bd e8f9 a3bd 2e29 d33d
00000030: 20d9 49be 4afd a4bd 7302 913d f352 44bd
00000040: 2b6e c23d 95bb d7bc f0a8 063b 0550 7f3c
00000050: 25d2 a13d 3976 a73c 5c88 d9bd c5f2 42bc
00000060: 4da7 d9bd e885 93bd 5421 e53d cc1a ae3d
00000070: cfb6 b83d 9cb6 3fbe 8347 d63d b1c7 9e3d
00000080: 13b8 173e 34b9 5c3d 3d8b 9d3d 683b 983d
00000090: 6b3f 90bc b5bf 963d a605 15bc 867a efbc
000000a0: 276c cb3d 1437 f83d afa8 c13e 035a 19bf
000000b0: 4453 00be 2423 c53c ec32 46bd b035 44be
000000c0: 3fdf 9d3d 67e3 51be 31a8 c93d ec23 82bd
000000d0: cdef 2e3d 011d 343c 3a8e c33c 02e3 003e
000000e0: 9479 c9bd 0f9f d9bd f83c a5bd 602f 14bd
000000f0: 5992 dabe 3ef6 50bd 2922 1bbe aa3e ab3d
00000100: 5d91 ab3d edf7 02be 0dda ba3d 3681 493e
00000110: 28d4 0f3c cfb8 f0bc fd11 963d 7705 8e3d
00000120: 01c5 73be 5723 57bd 4ddb b8bc d57f 0cbb
00000130: 2247 b9bc 3636 943c ac05 133d 4d7c 963c
00000140: 014c 943c 6a9c 4bbe 3e74 84bc ee02 5ebc
00000150: f800 89bd 08e3 103d 3db2 923d 4aff a13d
00000160: a838 0cbd 8e08 f0bc 3542 e63a 19ee bbbd
00000170: 8c3c d83d 1564 0abd df9c abbc b1ac 98bd
00000180: 8866 c53d 313c 663c c0d4 ebbd eb13 71bd
00000190: 1dbd 7bbe eebc 3cbe c915 bc3c 8ba0 6dbe
000001a0: 2cdd 43bd 081b 43bd aa6b 58bd eaa9 7dbd
000001b0: 1865 a43d b696 123d 57f4 8a3c c0a1 07be
000001c0: 3032 dc3d 6722 5abd 5d40 b23d c6a6 003d
000001d0: 0488 19bd 3a77 b0bd 5cd1 cfbc 9051 8cbe
000001e0: 55a7 efbe ff69 393d 5789 b8bd 1c21 0dbd
000001f0: ee69 e5ba 9356 b53d a906 e1bc 489b a83d
00000200: 6ea4 943d 49e4 bbbd d0d2 fcbc b4f5 153c
00000210: 1385 a3bd 31ba be3c 3bdd 723c cd00 003d
00000220: 7e07 dd3c ad2b adbc bec7 64bd 63e0 c3bd
00000230: 7e9b 403d 711d 4cbb 6a2d 0d3d debd 66bd
00000240: c9cd a6bd 95b4 293d d6a5 ff3c 58a4 55bc
00000250: 323f 5c3d 468c bcbd df48 6cbd 43d6 a73c
00000260: a422 2abc 9d96 26bd e6bc 81bd 4b6f 52bd
00000270: f04c a6bd 01d5 13bd 941a c2bd d84a 773d
00000280: c1c6 803b 45d9 903d ceaa 023d c6a4 713d
00000290: a6c7 64bd 33f2 593d 4e47 96bd 9ceb 02bc
000002a0: 50f5 1d3d 4281 82bd 5dc7 eabc c769 a4bd
000002b0: 17c0 573c 05fc 4e3d c534 88bd 86bf c0bd
000002c0: 82f8 b4bd 98eb 41bc ea79 883d aad1 eabb
000002d0: dfdf f4bd 40e1 f7bc b1e3 a8bd f98c 813d
000002e0: 3916 603d d38b 5bbd 0e32 86bd 1617 5a3d
000002f0: 9592 423d 4229 473d 47db 2f3d b664 8e3c
00000300: 600b 00bd 7e35 143c cf8b 01bc 2b7d acbd
00000310: ca4f b9bd e2c1 c3bd c646 8d3d 2c5c 4b3d
00000320: 5367 673d ece8 a4bb f789 393d 526c f83c
00000330: bcef c4bd 228a 7e3d 7799 88bd 1265 05bd
00000340: f013 1a3d 6491 adbd b526 38bc 8702 83bd
00000350: 2a05 0d3d e690 94bd a615 d13c b6be ca3c
00000360: 62bc 083d 31b7 1d3d 62c5 55bd 32f8 253c
00000370: 9766 5e3d 2666 8dbd f702 67bd e803 94bd
00000380: e269 53bc f747 2cbd 4156 833d 1cb7 a3bd
00000390: d8ce c3bd c8f7 2dbd fb11 463b 5a3d 8cbc
000003a0: 38f1 153d ea72 8ebd b191 9b3d 8353 14bd
000003b0: aee9 d5bd 2ac3 d03d f4d3 6dbd e383 22bd
000003c0: 018d 483d 6eb3 a6bd 862c b13d 7b8f aabd
000003d0: ab45 963d 2f03 503c 245a 78bd 8618 b5bc
000003e0: 88e6 193c ad35 acbd 2a9e eaba 0ecb d8bc
000003f0: d6ad 09bc 7ed4 bcbd 82df eabd 3565 69bd

model.2.bias f4 [64]
-0.034621168 0.02863647 -0.11781611 0.14979699 0.124142885 0.048514567 0.100549765 0.31667888
0.1828584 -0.0004073347 0.21082419 -0.048685245 0.025508158 0.22979423 -0.036581956 0.034699515
-0.019262476 0.07375671 0.1898908 -0.09945419 -0.36522102 0.05966378 0.07305327 -0.040246073
-0.08318259 0.22120883 0.07829011 0.326153 -0.018118978 0.08989756 0.0024046097 0.018948011
0.1845743 0.015016582 -0.020255946 0.022087386 -0.12254872 -0.19179061 0.02576628 -0.17189515
-0.047120042 0.10792351 0.43812758 0.13094403 0.025468383 0.005230071 0.017213807 0.10888135
0.3055589 -0.221803 0.071818784 0.30898863 0.043546297 -0.04819533 -0.06507782 -0.07499156
0.1705351 0.08306957 0.14870347 0.2042781 -0.057778254 0.05951322 0.218778 0.3348051
00000000: edce 0dbd 0897 ea3c 9349 f1bd 6264 193e
00000010: a03e fe3d 36b7 463d 09ed cd3d bc23 a23e
00000020: 3b3f 3b3e 8a8f d5b9 4ce2 573e 2e6a 47bd
00000030: 7cf6 d03c 2e4f 6b3e f6d6 15bd 1421 0e3d
00000040: 57cc 9dbc c20d 973d bc72 423e a3ae cbbd
00000050: 40fe babe 0262 743d f49c 953d 11d9 24bd
00000060: a25b aabd 9184 623e 9156 a03d 87fd a63e
00000070: 406e 94bc 361c b83d a896 1d3b dc38 9b3c
00000080: 0c01 3d3e 1c08 763c ccef a5bc 9bf0 b43c
00000090: d3fa fabd c264 44be ce13 d33c 4805 30be
000000a0: f200 41bd 0007 dd3d 4252 e03e 3116 063e
000000b0: 12a3 d03c 0461 ab3b f803 8d3c 2ffd de3d
000000c0: 3772 9c3e 5320 63be ba15 933d c233 9e3e
000000d0: 9a5d 323d 7768 45bd 8547 85bd 2d95 99bd
000000e0: c1a0 2e3e 6120 aa3d b945 183e 472e 513e
000000f0: e4a8 6cbd 22c4 733d 5707 603e 936b ab3e

model.4.weight f4 [32, 64]
-0.084212996 -0.019190937 -0.0028468857 0.019807633 -0.10814903 -0.100767076 0.038298033 0.07504962
-0.013996574 -0.069401294 -0.023640761 0.084990874 -0.12442847 -0.069354214 -0.12545107 -0.12121113
0.021332607 -0.03273104 -0.016729122 0.066356584 -0.10783768 -0.06485139 -0.08237494 -0.06522179
0.09950958 0.05157785 -0.11347437 0.09954842 0.015537575 0.016404068 -0.031973034 -0.10653567
-0.036131993 0.011672035 -0.04602033 -0.01740261 -0.031941116 -0.029530337 -0.10252459 -0.11477884
-0.09123973 0.045544878 0.03994385 -0.08344189 -0.040299833 -0.06807844 -0.13029325 0.09365004
-0.10924507 -0.10257568 -0.11765306 -0.042519733 -0.035486892 0.034598842 -0.021736443 0.0684946
0.066975854 0.004197708 0.091693744 -0.0053176824 0.00851071 0.060771447 0.007927985 -0.12334557
-0.09295522 -0.0643634 -0.08154307 -0.095468335 0.024570618 0.0023946527 0.013752373 0.14062239
0.08482148 0.056035794 -0.09668233 -0.062476847 -0.08406056 -0.07280979 -0.18196543 0.037934344
0.12703422 0.06526903 0.06674678 0.1080237 0.06404454 -0.06120631 0.0034654741 0.22161947
-0.047840804 0.029066376 0.055758882 -0.02293651 0.07914262 0.042673018 -0.113920085 0.16151829
0.02659542 0.097794116 0.05608793 0.06310389 0.09843194 0.114320345 0.043876227 0.11128709
0.106750496 -0.1028597 0.03247883 0.12666044 0.14552256 -0.10415521 0.118202426 0.08933017
0.09315655 -0.10186653 0.0724609 0.063835986 0.0066897217 -0.01613564 -0.109487586 0.035763264
0.102039024 0.053796034 0.08921695 -0.073048666 0.06415179 -0.025374006 0.026985595 0.016160212
-0.03860377 -0.09122563 0.0031641398 0.07642323 0.094371215 -0.033851467 -0.10384589 0.09020657
-0.041637048 -0.07022706 -0.090908654 0.058211826 0.01729407 -0.03608545 -0.17234574 -0.15449858
0.019761527 -0.033416595 0.10605559 0.0033699763 0.14609298 -0.031696558 0.04348759 0.33340824
0.0057810545 -0.09237809 0.06777485 0.118414804 -0.106636964 0.11567782 -0.089359246 0.017271928
-0.012673416 -0.108792864 0.09455191 -0.029800447 0.17295626 0.041959107 -0.10286394 -0.13207278
-0.0016848181 -0.17744754 -0.086751714 0.12558928 0.13645275 -0.10578209 0.055773992 -0.08807008
0.061677705 0.05120925 -0.019483278 0.03494355 -0.09927582 0.13540576 -0.009503086 -0.016537724
0.044541463 0.07109278 0.0564318 0.039599907 0.021588799 0.17226106 0.11038274 0.19421276
0.047509093 -0.005383536 0.104749866 -0.03830845 0.044546973 -0.11166955 -0.11575925 0.042391554
0.045173354 0.0058595045 0.027152086 -0.1283324 0.09848878 -0.1464963 -0.12859607 0.08793302
0.11769852 0.037048385 -0.14342232 -0.09616838 -0.12528493 0.07088215 -0.07968327 0.09157858
-0.014731316 -0.03326694 -0.028924758 -0.080730826 0.032571193 -0.0626995 -0.011151552 -0.059716832
0.008814592 -0.08020035 0.0026992527 -0.11523434 0.00985117 -0.0928466 0.06117089 0.051774736
-0.023631796 -0.10340966 -1.1934636e-05 0.07149388 -0.032965858 0.09107233 0.014944879 -0.07038177
0.036198013 -0.019275088 -0.020635067 0.0637695 -0.06934337 -0.12032008 0.001107623 0.11336519
-0.03681105 -0.0050367867 -0.016292132 0.07023387 0.068470106 0.09469688 -0.037217513 -0.14120683
00000000: dd77 acbd 5036 9dbc d192 3abb 9e43 a23c
00000010: 3d7d ddbd f85e cebd 66de 1c3d 9db3 993d
00000020: e351 65bc 4422 8ebd 45aa c1bc b20f ae3d
00000030: 5bd4 febd 9509 8ebd 3f76 00be 8a3d f8bd
00000040: b8c1 ae3c fc10 06bd 830b 89bc f6e5 873d
00000050: 00da dcbd ced0 84bd 31b4 a8bd 0093 85bd
00000060: aecb cb3d 4c43 533d 4065 e8bd 0be0 cb3d
00000070: 5091 7e3c d361 863c 28f6 02bd 602f dabd
00000080: 24ff 13bd 103c 3f3c d07f 3cbd eb8f 8ebc
00000090: b0d4 02bd 9be9 f1bc 6af8 d1bd 2b11 ebbd
000000a0: e5db babd 448d 3a3d 2a9c 233d 95e3 aabd
000000b0: 7011 25bd b66c 8bbd 986b 05be 98cb bf3d
000000c0: e1bb dfbd 3313 d2bd 16f4 f0bd 2c29 2ebd
000000d0: b45a 11bd 84b7 0d3d a010 b2bc e646 8c3d
000000e0: a32a 893d ed8c 893b eec9 bb3d f43f aebb
000000f0: 8170 0b3c 7beb 783d 61e4 013c 9a9c fcbd
00000100: 4e5f bebd f5d0 83bd 0e00 a7bd e784 c3bd
00000110: 5248 c93c 9bef 1c3b a251 613c 51ff 0f3e
00000120: e2b6 ad3d ca85 653d 6301 c6bd b9e7 7fbd
00000130: f127 acbd 4d1d 95bd 2555 3abe 0b61 1b3d
00000140: 4215 023e c5ab 853d 89b2 883d 883b dd3d
00000150: c929 833d 78b3 7abd 021d 633b 37f0 623e
00000160: b8f4 43bd 9c1c ee3c 6d63 643d 59e5 bbbc
00000170: 8715 a23d e7c9 2e3d ef4e e9bd 0d65 253e
00000180: a3de d93c 4848 c83d 75bc 653d 9d3c 813d
00000190: af96 c93d c920 ea3d 8fb7 333d 7cea e33d
000001a0: 01a0 da3d 1ba8 d2bd 8608 053d 46b3 013e
000001b0: de03 153e 544f d5bd 1d14 f23d bcf2 b63d
000001c0: dcc8 be3d 669f d0bd 6166 943d 71bc 823d
000001d0: 7435 db3b e42e 84bc 073b e0bd 807c 123d
000001e0: d6f9 d03d 3b59 5c3d 60b7 b63d 8a9a 95bd
000001f0: 0462 833d 26dd cfbc e510 dd3c 6c62 843c
00000200: fd1e 1ebd 81d4 babd 755d 4f3b c883 9c3d
00000210: b245 c13d d6a7 0abd 27ad d4bd 39be b83d
00000220: 9c8b 2abd 34d3 8fbd 512e babd 866f 6e3d
00000230: 4bac 8d3c 56ce 13bd 677b 30be e034 1ebe
00000240: ede2 a13c d7df 08bd ac33 d93d d2da 5c3b
00000250: 6699 153e 40d4 01bd 0b20 323d 7cb4 aa3e
00000260: 006f bd3b b930 bdbd 8acd 8a3d 7683 f23d
00000270: 7b64 dabd 7ee8 ec3d fb01 b7bd dc7d 8d3c
00000280: 29a4 4fbc cbce debd 6fa4 c13d 1120 f4bc
00000290: 721b 313e 50dd 2b3d 54aa d2bd 163e 07be
000002a0: 1dd5 dcba cfb4 35be e2aa b1bd 7a9a 003e
000002b0: 45ba 0b3e 48a4 d8bd 4573 643d 165e b4bd
000002c0: c3a1 7c3d cac0 513d 659b 9fbc f820 0f3d
000002d0: 1f51 cbbd cfa7 0a3e d5b2 1bbc 1f7a 87bc
000002e0: 1c71 363d 1799 913d 0825 673d 8333 223d
000002f0: feda b03c 3465 303e 5910 e23d b6df 463e
00000300: e598 423d 6068 b0bb 1987 d63d 52e9 1cbd
00000310: e376 363d 01b3 e4bd 3013 edbd c4a2 2d3d
00000320: b207 393d 1601 c03b 0d6e de3c 9269 03be
00000330: 7cb4 c93d 2003 16be b0ae 03be 3a16 b43d
00000340: ec0b f13d 0cc0 173d 4ddd 12be edf3 c4bd
00000350: b14a 00be a92a 913d fb30 a3bd 8d8d bb3d
00000360: 9e5b 71bc ea42 08bd 9df3 ecbc 3456 a5bd
00000370: 5f69 053d 9868 80bd 00b5 36bc a399 74bd
00000380: 146b 103c 1540 a4bd f2e5 303b fbff ebbd
00000390: cd66 213c 5c26 bebd 548e 7a3d bf11 543d
000003a0: 7897 c1bc 72c8 d3bd df3a 48b7 626b 923d
000003b0: 3507 07bd 2184 ba3d 5edb 743c 5124 90bd
000003c0: 5e44 143d cae6 9dbc df0a a9bc 9599 823d
000003d0: e603 8ebd 606a f6bd a92d 913a 022c e83d
000003e0: 2fc7 16bd a10b a5bb 1477 85bc c6d6 8f3d
000003f0: 0e3a 8c3d 70f0 c13d 6471 18bd 8698 10be

model.4.bias f4 [32]
-0.1190338 0.027671374 0.14111583 -0.08962131 0.097006224 -0.043368805 -0.05720955 0.13312785
0.06499493 0.21749753 0.02619492 0.068439834 0.015667522 0.29847696 0.15474956 0.13138202
0.073149465 -0.10322587 -0.058812793 0.0030046673 0.005486009 -0.07484992 -0.01831014 0.10297189
0.107518874 0.07800734 -0.13618009 -0.12273881 -0.09661603 0.050044674 -0.4841986 0.06638685
00000000: fec7 f3bd 14af e23c ab80 103e 618b b7bd
00000010: 33ab c63d 7da3 31bd 9054 6abd ab52 083e
00000020: 101c 853d acb7 5e3e bb96 d63c 2f2a 8c3d
00000030: 2d59 803c f9d1 983e ab76 1e3e 0289 063e
00000040: 63cf 953d 1668 d3bd afe5 70bd f4e9 443b
00000050: fbc3 b33b ea4a 99bd 26ff 95bc ede2 d23d
00000060: db32 dc3d 50c2 9f3d cb72 0bbe 7c5e fbbd
00000070: a0de c5bd a5fb 4c3d e1e8 f7be d4f5 873d

model.6.weight f4 [1, 32]
0.02431659 0.021908326 0.095239595 -0.13025077 0.16034137 -0.097205825 -0.08382686 0.17553516
-0.09986486 0.123777404 0.054692503 -0.020921394 -0.101608224 -0.2532692 0.08310128 0.18315394
-0.1112253 -0.14377628 -0.09078579 -0.116083965 -0.004576089 -0.05309543 -0.22348961 -0.068436034
0.1000303 0.09434242 0.13006626 -0.2226209 -0.011425603 0.006710242 -0.34402326 -0.09403208
00000000: 9633 c73c 1779 b33c fa0c c33d 7560 05be
00000010: 8730 243e d913 c7bd 6bad abbd 7dbf 333e
00000020: f385 ccbd 027f fd3d 3f05 603d 5863 abbc
00000030: f917 d0bd 80ac 81be 0131 aa3d b58c 3b3e
00000040: 17ca e3bd 173a 13be e6ed b9bd 6ebd edbd
00000050: 04f3 95bb 987a 59bd 76da 64be 3128 8cbd
00000060: b0dc cc3d 9936 c13d 1730 053e bcf6 63be
00000070: 7432 3bbc 97e1 db3b d123 b0be e493 c0bd

exp_avg f4 [7, 4]
0.00072718447 3.9402286e-05 0.0005048613 0.00029131986 -0.00010744957 -0.0006274193 0.00029716615 -0.00021882348
-0.00021884416 0.0013402445 -0.001432448 0.00096622563 8.997243e-05 -0.000109861656 -0.00033070304 0.00053527765
-0.0003412468 0.00022651158 3.5773213e-05 6.3429325e-05 0.00016089069 7.100074e-05 -0.0007534409 0.0005171566
0.0007544333 0.00020001513 -0.0009295434 -0.00019210599
00000000: 86a0 3e3a e243 2538 ab58 043a 4abc 9839
00000010: 8c56 e1b8 6579 24ba f7cc 9b39 fb73 65b9
00000020: 8879 65b9 25ab af3a fbc0 bbba 4e4a 7d3a
00000030: 95af bc38 8765 e6b8 3662 adb9 e051 0c3a
00000040: 5fe9 b2b9 bd83 6d39 320b 1638 5c05 8538
00000050: c4b4 2839 3be6 9438 9082 45ba cb91 073a
00000060: 29c5 453a 27bb 5139 9aac 73ba 0f70 49b9

exp_avg_sq f4 [7, 4]
1.884013e-06 5.410896e-06 8.051137e-06 3.100287e-06 2.4555313e-06 7.010074e-06 1.5224202e-05 5.680536e-06
2.8554075e-06 9.647789e-06 2.7910157e-05 5.4072875e-06 7.0782545e-07 1.7968617e-06 2.8340646e-06 1.4950564e-06
7.5577657e-07 2.2532513e-06 5.7499883e-06 1.1822253e-06 1.7463991e-06 3.5942453e-06 1.1966198e-05 1.9540175e-06
9.896601e-07 2.937314e-06 3.5668263e-06 5.2291475e-06
00000000: 32de fc35 3e8f b536 5f13 0737 860e 5036
00000010: b5c9 2436 1438 eb36 736b 7f37 6f9b be36
00000020: 879f 3f36 f0dc 2137 9b20 ea37 3f70 b536
00000030: 6501 3e35 b32b f135 dc30 3e36 bfa9 c835
00000040: 92e0 4a35 9036 1736 06f0 c036 f4ac 9e35
00000050: d165 ea35 aa34 7136 6ec2 4837 c421 0336
00000060: 76d4 8435 ac1e 4536 9c5d 6f36 0976 af36

exp_avg f4 [7, 4]
0.0002581315 -0.000458901 0.00032175088 0.0002607325 0.00029043123 -4.806847e-05 0.00029522768 0.00039767774
2.2301487e-05 0.00033484018 -0.00026491462 0.00020803958 0.00022105685 0.00060356705 -0.0003641383 0.00056578184
0.0005714666 0.0003988086 0.0011668496 -6.078147e-05 7.788656e-05 0.00031579757 0.0003914113 0.0004844595
0.0001150461 -0.0010112853 9.0820446e-05 0.00021934067
00000000: d355 8739 a698 f0b9 acb0 a839 ecb2 8839
00000010: 0545 9839 209d 49b8 cac8 9a39 677f d039
00000020: 1414 bb37 7d8d af39 3de4 8ab9 3325 5a39
00000030: 7fcb 6739 b338 1e3a d1e9 beb9 fa50 143a
00000040: 79ce 153a 2f17 d139 faf0 983a 9bef 7eb8
00000050: 0757 a338 a291 a539 5636 cd39 0eff fd39
00000060: e844 f138 1b8d 84ba db76 be38 d0fe 6539

exp_avg_sq f4 [7, 4]
3.3700712e-06 1.8835757e-06 3.6990934e-06 2.504587e-06 7.6124643e-06 1.6311602e-06 2.1270023e-06 2.3201153e-06
3.1947511e-06 3.1214834e-06 2.0248845e-06 3.7076363e-06 2.5732782e-06 2.1254052e-06 2.4691522e-06 6.349493e-06
5.085932e-06 2.575539e-06 3.1113495e-06 2.8306042e-06 2.1326866e-06 2.1690025e-06 1.9647805e-06 2.1221542e-06
2.1940739e-06 4.6098417e-06 1.9382717e-06 2.292314e-06
00000000: 6229 6236 2bcf fc35 f13d 7836 7a14 2836
00000010: 926e ff36 3dee da35 9fbd 0e36 47b3 1b36
00000020: 6865 5636 ad7a 5136 40e3 0736 b5d0 7836
00000030: 95b0 2c36 2fa2 0e36 b6b3 2536 bb0d d536
00000040: d3a7 aa36 6cd7 2c36 94cc 5036 69f5 3d36
00000050: 471f 0f36 2e8f 1136 acda 0336 556a 0e36
00000060: e73d 1336 3dae 9a36 4113 0236 a8d5 1936

exp_avg f4 [6, 3]
0.002085476 -0.0018221398 -0.0010287432 0.00012199643 -0.00045749915 0.00015786813 0.00074515986 -0.0002911414
-0.0005739166 0.00052131497 -0.00019972038 6.4363394e-06 0.0007765268 -0.0019077897 8.24655e-05 -0.0007967563
0.0022153244 -0.0018902033
00000000: 7bac 083b ded4 eeba e5d6 86ba 56d8 ff38
00000010: 7fdc efb9 6789 2539 d556 433a 56a4 98b9
00000020: e472 16ba dba8 083a 086c 51b9 bcf7 d736
00000030: d58f 4b3a cd0e faba 54f1 ac38 69dd 50ba
00000040: fa2e 113b b3c0 f7ba

exp_avg_sq f4 [6, 3]
1.4883991e-05 3.5038473e-05 1.0776055e-05 6.1489536e-06 1.3597747e-05 4.141959e-06 1.33201e-05 2.3513865e-05
2.1417305e-05 1.5337051e-05 3.3182143e-05 8.909912e-06 2.143668e-05 4.203736e-05 3.5711484e-05 3.5685705e-05
5.1920713e-05 8.117838e-06
00000000: 41b6 7937 46f6 1238 ceca 3437 1c53 ce36
00000010: e121 6437 28fb 8a36 6579 5f37 a43f c537
00000020: 50a9 b337 11a8 8037 0e2d 0b38 c87b 1537
00000030: ebd2 b337 4651 3038 eac8 1538 3cad 1538
00000040: 71c5 5938 d931 0837

exp_avg f4 [6, 3]
0.00012904707 9.1516784e-05 0.00011246588 0.00013838496 -0.00065002835 -0.00065162574 -0.00032089278 0.00045183036
0.000109330875 0.0005809913 -0.00051899685 -0.00017560994 0.00046625128 0.00022787813 0.00023058878 0.0011773854
-0.0005082817 -0.00028664575
00000000: cf50 0739 b3ec bf38 a9db eb38 6e1b 1139
00000010: aa66 2aba ddd1 2aba 803d a8b9 a5e3 ec39
00000020: 9148 e538 ab4d 183a 4a0d 08ba ef23 38b9
00000030: 3073 f439 92f2 6e39 34ca 7139 8052 9a3a
00000040: 353e 05ba f148 96b9

exp_avg_sq f4 [6, 3]
2.6167418e-06 1.9517142e-06 2.1833482e-06 3.823835e-06 3.5006556e-06 3.4270283e-06 3.7646687e-06 4.446597e-06
1.8292114e-06 3.6912022e-06 2.650587e-06 1.5283651e-06 3.3584627e-06 4.4380668e-06 1.9141949e-06 7.175623e-06
6.1662186e-06 4.572026e-06
00000000: 489b 2f36 32fa 0236 a385 1236 7e4e 8036
00000010: ceec 6a36 e6fb 6536 84a4 7c36 fa33 9536
00000020: 3a83 f535 5fb6 7736 bde0 3136 3a22 cd35
00000030: f361 6136 b4ea 9436 9e75 0036 22c6 f036
00000040: 6ae7 ce36 6769 9936

exp_avg f4 [4, 2]
0.0012759649 -0.00013023008 -0.00012321847 0.0006551039 0.0035925934 -0.0015116871 0.0015420511 -0.0022698403
00000000: 473e a73a 5f8e 08b9 3534 01b9 47bb 2b3a
00000010: b771 6b3b cd23 c6ba a61e ca3a 9ac1 14bb

exp_avg_sq f4 [4, 2]
0.00014656229 3.3336033e-05 0.00014147906 3.5133136e-05 0.00014282357 4.2147814e-05 0.00012368539 3.3007484e-05
00000000: 84ae 1939 4bd2 0b38 ff59 1439 eb5b 1338
00000010: e9c2 1539 dfc7 3038 8bb1 0139 8471 0a38

exp_avg f4 [8, 4]
-0.00018455488 -0.0001273371 -0.0010214255 0.00092447293 -1.0602167e-05 -0.00026456694 0.0008800869 -0.0013747794
-0.00012163384 4.837385e-05 -0.00012396366 -0.00014690853 -0.0004685377 -0.00037247507 0.0010195526 0.00065609533
0.0002246313 -0.0004274283 -0.0019946543 -0.0024646153 -0.0007524938 -7.966476e-05 0.0018202708 0.00026787005
0.00020724515 -2.3832838e-05 -0.00050514576 0.00025417705 -0.0012659748 -0.0010794245 0.0015340245 -9.90576e-05
00000000: 1385 41b9 cb85 05b9 5ae1 85ba 5458 723a
00000010: f6df 31b7 93b5 8ab9 a2b5 663a f131 b4ba
00000020: ac15 ffb8 07e5 4a38 3efc 01b9 750b 1ab9
00000030: 11a6 f5b9 c248 c3b9 82a2 853a d0fd 2b3a
00000040: 018b 6b39 7518 e0b9 bfb8 02bb 6285 21bb
00000050: 0143 45ba b111 a7b8 2796 ee3a e970 8c39
00000060: f24f 5939 a1ec c7b7 c26b 04ba 1143 8539
00000070: 11ef a5ba 7a7b 8dba 5211 c93a 25bd cfb8

exp_avg_sq f4 [8, 4]
2.656512e-06 3.5603446e-06 2.01458e-05 4.2585198e-06 7.0756614e-06 3.3583578e-06 5.1125284e-05 2.6634994e-05
5.302388e-06 6.2465588e-06 6.8771624e-05 9.146832e-06 1.8714216e-05 1.4879335e-05 7.304911e-05 3.0536565e-05
2.144233e-05 1.3744e-05 0.00017395492 8.407547e-05 1.06984735e-05 5.880364e-06 3.2913864e-05 1.2921002e-05
4.7465585e-07 5.8409455e-07 3.2571454e-06 1.9314007e-06 2.5923076e-05 2.593938e-05 9.732086e-05 2.4796198e-05
00000000: 8746 3236 41ee 6e36 c7fe a837 68e4 8e36
00000010: 786b ed36 2660 6136 5b6f 5638 376e df37
00000020: 2beb b136 8899 d136 7c39 9038 5875 1937
00000030: 79fc 9c37 42a2 7937 f131 9938 6314 0038
00000040: 0edf b337 0896 6637 ab67 3639 ad51 b038
00000050: 987d 3337 f14f c536 fe0c 0a38 48c7 5837
00000060: 34d4 fe34 acca 1c35 5595 5a36 369d 0136
00000070: 6275 d937 6598 d937 bd18 cc38 6e01 d037

exp_avg f4 [3, 2]
-0.001057837 5.672166e-05 -0.001917055 0.00048915396 -0.0015982602 -0.00044736222
00000000: 1fa7 8aba 6be8 6d38 b145 fbba 913a 003a
00000010: b77c d1ba f18b eab9

exp_avg_sq f4 [3, 2]
1.9247316e-05 4.6783753e-06 2.6087604e-05 9.089165e-06 1.0963417e-05 1.3416112e-05
00000000: 4c75 a137 f0fa 9c36 b4d6 da37 ab7d 1837
00000010: 84ef 3737 c315 6137

exp_avg f4 [7, 4]
9.1143804e-05 -0.0004193614 0.00043256456 0.0006042271 0.00014781892 -0.00011622023 0.00030793593 0.00036315547
0.0013935048 -0.0011261856 0.0026215012 0.0028093685 -0.00068151084 -1.786136e-05 -0.00048094895 -0.00026093674
0.001454733 -0.0010132138 0.0010231364 0.002432772 0.00058428315 -3.8262286e-05 0.0009002344 0.0009811617
-0.0002963432 0.00093465723 -0.0013803595 -0.0018853833
00000000: 7524 bf38 bcdd dbb9 d5c9 e239 ff64 1e3a
00000010: d7ff 1a39 43bb f3b8 7672 a139 e765 be39
00000020: 43a6 b63a 859c 93ba 7ecd 2b3b 621d 383b
00000030: 6ba7 32ba fbd4 95b7 e027 fcb9 56ce 88b9
00000040: bdac be3a d0cd 84ba c31a 863a 246f 1f3b
00000050: 942a 193a d17b 20b8 b5fd 6b3a 539a 803a
00000060: 835e 9bb9 c903 753a 2eed b4ba f71e f7ba

exp_avg_sq f4 [7, 4]
8.29887e-06 1.6631067e-05 2.6893884e-05 4.595102e-05 4.368875e-06 7.673273e-06 1.5805756e-05 2.163313e-05
9.834874e-06 1.5194087e-05 3.7467555e-05 4.511863e-05 1.8307333e-05 1.20341065e-05 2.0234635e-05 2.8898572e-05
8.933499e-06 2.0798756e-05 4.7408732e-05 6.214386e-05 1.0846887e-05 1.5638898e-05 3.213298e-05 4.6033503e-05
4.2867355e-06 8.088216e-06 1.8489667e-05 2.572342e-05
00000000: 603b 0b37 f282 8b37 2d9a e137 88bb 4038
00000010: 5a98 9236 75bc 0037 9a96 8437 cb78 b537
00000020: 7600 2537 1bea 7e37 7b26 1d38 c33d 3d38
00000030: b392 9937 18e6 4937 8cbd a937 366b f237
00000040: 16e1 1537 fd78 ae37 bdd8 4638 3b53 8238
00000050: 06fb 3537 4730 8337 86c6 0638 1914 4138
00000060: c7d6 8f36 a0b2 0737 421a 9b37 a0c8 d737

exp_avg f4 [6, 3]
-0.0016431058 0.0005059907 -0.0022254474 -0.002327176 0.00044925688 -0.00163301 -0.002086482 8.794832e-05
0.0006413799 -0.0031755886 -0.0011942302 -0.0019089475 0.0024891205 -0.00071457884 0.0023546198 -0.0021686344
0.00096201693 -0.0011195635
00000000: 7b5d d7ba 76a4 043a d0d8 11bb 8983 18bb
00000010: 3d8a eb39 b90a d6ba 5cbd 08bb e570 b838
00000020: 4722 283a 891d 50bb b787 9cba a635 faba
00000030: 8320 233b 9352 3bba f74f 1a3b a61f 0ebb
00000040: dd2f 7c3a 51be 92ba

exp_avg_sq f4 [6, 3]
0.00012226857 1.0431592e-05 0.00025450002 6.1219325e-05 5.189728e-06 0.00013034062 0.00012558533 1.1217169e-05
0.0001613391 0.000115362214 5.997721e-06 0.00024235244 0.00015705255 9.551953e-06 0.00029005343 5.0557315e-05
1.1665364e-05 8.0573715e-05
00000000: 3835 0039 5903 2f37 6a6e 8539 e062 8038
00000010: 6d23 ae36 0bac 0839 8eaf 0339 6031 3c37
00000020: 232d 2939 9eee f138 0840 c936 fd1f 7e39
00000030: 79ae 2439 5341 2037 5012 9839 810d 5438
00000040: 5bb6 4337 aff9 a838

exp_avg f4 [6, 3]
0.0015793288 -0.002539749 -0.004105271 -0.00061659975 -0.00043559092 -0.00023385158 0.00028035932 -0.00016881512
0.00022070996 -0.0026976904 0.0035615508 0.0043127947 -0.0012882942 0.0012234903 0.0009088936 0.003372293
-0.006295523 -0.009428368
00000000: 7b01 cf3a eb71 26bb 8285 86bb 4fa3 21ba
00000010: 0660 e4b9 0e36 75b9 31fd 9239 f703 31b9
00000020: 616e 6739 bccb 30bb e868 693b 5852 8d3b
00000030: fbdb a8ba 865d a03a d142 6e3a b001 5d3b
00000040: ad4a cebb 7179 1abc

exp_avg_sq f4 [6, 3]
3.668763e-05 6.10485e-05 0.00012998837 4.135334e-05 6.3915344e-05 0.00011953597 3.5202604e-05 4.69833e-05
9.736661e-05 4.9814098e-05 7.021271e-05 0.00014676835 4.8641024e-05 7.1166585e-05 0.00013303547 4.7933874e-05
8.312891e-05 0.00015254873
00000000: 0be1 1938 2a07 8038 7d4d 0839 d072 2d38
00000010: 4a0a 8638 63af fa38 82a6 1338 ef0f 4538
00000020: 4d31 cc38 7bef 5038 293f 9338 d4e5 1939
00000030: e703 4c38 453f 9538 707f 0b39 9b0c 4938
00000040: 7e55 ae38 7df5 1f39

exp_avg f4 [4, 2]
-0.0059326114 -0.0044214884 -0.003671137 -0.0037314834 0.000611707 -0.00042297167 0.00229639 0.0023896904
00000000: 5a66 c2bb 22e2 90bb 7597 70bb e78b 74bb
00000010: f65a 203a 4cc2 ddb9 087f 163b 5a9c 1c3b

exp_avg_sq f4 [4, 2]
0.00023440982 0.00017370292 0.00018221041 0.00012889954 0.00020365765 0.00012785388 0.00015144747 0.00010863689
00000000: e8cb 7539 0624 3639 bc0f 3f39 3529 0739
00000010: ef8c 5539 8410 0639 dfcd 1e39 fcd3 e338

exp_avg f4 [5, 3]
-0.000531198 0.00045037767 0.0001596686 -1.0508415e-05 0.00038552933 -0.00010676292 -0.0006411167 0.0003185991
2.709316e-05 -0.0016002909 0.00048719067 0.0010111837 -0.0010446825 0.00017753645 0.0004387944
00000000: 1840 0bba ab20 ec39 b76c 2739 4c4d 30b7
00000010: df20 ca39 e8e5 dfb8 9d10 28ba a609 a739
00000020: 1e46 e337 dac0 d1ba a06d ff39 b289 843a
00000030: baed 88ba 1429 3a39 fd0d e639

exp_avg_sq f4 [5, 3]
8.417435e-06 6.5798495e-06 5.5001906e-06 7.6265446e-06 3.5010416e-06 3.834219e-06 1.5994172e-05 2.180031e-05
7.4457944e-06 3.433833e-05 1.5196467e-05 1.6213662e-05 3.3449567e-05 1.3745032e-05 2.7390965e-05
00000000: 9c38 0d37 7ac8 dc36 478e b836 85e7 ff36
00000010: 70f3 6a36 b1a7 8036 392b 8637 cfdf b637
00000020: e3d6 f936 8006 1038 54f4 7e37 9302 8837
00000030: 334c 0c38 779a 6637 a6c5 e537

exp_avg f4 [128, 42]
0.00047153432 0.00094767025 -0.00012514573 -0.0005339751 -0.00042137236 -0.0005026267 0.00051639363 -9.1816364e-05
-0.00037687024 0.0006413386 -0.00054487877 0.00014806938 -0.0005019444 -0.0013623087 -0.0002451181 -0.001326161
-0.00074113085 -0.0002625997 -9.8665085e-05 -0.0004313124 0.0004828182 0.002292377 -0.00028547712 0.000145024
0.0012809415 -0.0005242459 -2.126754e-06 0.00037485606 -0.00012296432 -0.00035560338 -0.00056345447 -0.0001491578
0.00026023458 -0.0007183163 0.0007601299 0.0007009801 0.00052586966 0.01578372 0.024712337 0.008865147
0.0004274514 0.00013058473 0.0004501451 -0.00016821016 -0.0002903167 0.0018223688 0.0018239671 -0.0010504996
0.0002519116 -0.00040931406 -0.0003942496 -0.00040290842 0.0014357518 0.0001749816 -1.8755143e-05 0.0014904878
-0.0013562663 -0.000114394454 -8.93892e-06 2.80347e-05 -0.0005724187 -0.00047441383 -0.000685726 -0.002834792
0.0014332932 0.0015576734 -0.0011492688 -0.0006774919 -0.0005605845 -0.0005098146 0.0011513779 0.0005157995
0.0010841145 0.0011937962 0.00096816337 0.00036885255 -0.001401998 -0.0010722167 -0.00093112077 -0.020707238
-0.044338092 -0.01771358 -0.0006062778 -4.825619e-05 1.5023282e-05 0.00088227616 -0.0003036964 0.0012047671
0.0006385643 -0.001069543 0.0010439142 -3.5009086e-06 9.213288e-05 0.00022226456 0.0004683546 0.00030608178
-0.00014919639 -0.00033430455 -0.00076269184 -0.0012004698 0.00030758616 -0.0009777577 -0.00013069829 0.00016604879
-0.000522005 -0.0009222453 0.00018840193 0.0001629666 0.0003231993 -0.00082915265 0.00047339304 -0.000104069426
-0.00040077904 5.1032516e-06 -8.0667225e-05 0.0003769087 0.000795502 -0.0007063834 -0.00057697826 -0.00069302344
-0.00015199085 -0.0077790725 0.0046820845 0.003934164 0.00014251744 4.9214286e-05 -0.0007982737 0.0011204107
-0.00017265072 -0.0011562357 0.0015489359 -0.0007744926 -0.002166015 0.0035842024 0.0013302299 -0.0002680512
-0.0008360494 0.0006746528 -0.0018984252 -0.0079702325 0.004276933 -0.0034501324 -0.0059185303 -0.0024219356
0.0015633914 -0.0009982543 -0.0015535944 0.0018697083 2.0462247e-05 0.0007034036 0.009504684 -0.000340565
-0.0012249984 0.0017738795 -0.002629617 0.0006981717 -0.0028485744 -0.0042995205 -0.0016875919 -0.004632936
-0.0010472283 0.003016279 0.002550915 0.018702032 0.25517553 0.049716674 0.0012267135 0.00068806787
0.0013115343 0.00028414276 -0.001744191 0.0006150859 0.0013404407 -0.0010640821 -1.00071775e-05 -0.00068873493
-0.0010230928 0.0003408968 0.0006658631 -0.00022194334 0.00014205225 -0.00056295196 -0.0003938869 -0.00091931917
-0.00019271833 -0.0006442305 0.0003200508 -0.00076928496 0.0002725482 -0.00077990716 0.0013704293 0.00094459177
0.0007410885 -0.0009974563 -0.000538271 1.946438e-05 0.00026662342 0.00023470707 -1.8496692e-05 0.00012996681
0.0002822226 -0.00026808053 4.89275e-05 -0.0009045165 -0.00050992117 0.007528085 0.025867501 0.004770887
-0.00022184482 0.00016232806 -0.00044510994 0.00056562346 -0.00068855495 -0.0004087188 -0.0010168833 -0.00040593362
-0.00025940198 0.00040493862 -2.0500942e-05 0.0013092392 -0.0012167742 -0.00025658825 -0.0003872105 -0.001291473
-0.0007075917 -0.0008538081 -0.0011872464 0.0007151507 -0.00056782365 -0.00080094876 0.0008787075 0.002419564
-0.00020599525 -0.00017620822 -0.00023236443 -0.00038081108 0.00015435915 0.00025118832 0.00010264381 -0.0006637786
-0.0002754665 0.00022795548 0.0004962962 -0.00024156076 0.00043389425 0.00045829083 -1.7948127e-05 0.014877176
-0.026098285 -0.0018626506 0.00043247815 0.00022845741 0.00016655693 0.0001945014 -0.0004990556 0.00040823553
00000000: 4438 f739 136d 783a 8d39 03b9 76fa 0bba
00000010: a4eb dcb9 b5c2 03ba 975e 073a 898d c0b8
00000020: ab96 c5b9 811f 283a 32d6 0eba 1243 1b39
00000030: eb94 03ba 7f8f b2ba 3283 80b9 94d2 adba
00000040: 7348 42ba 89ad 89b9 6aea ceb8 c521 e2b9
00000050: c322 fd39 b43b 163b 17ac 95b9 9511 1839
00000060: 44e5 a73a 8c6d 09ba 5bb9 0eb6 5488 c439
00000070: fcef 00b9 4770 bab9 cab4 13ba 3e67 1cb9
00000080: 1870 8839 644d 3cba 7443 473a fac1 373a
00000090: 84da 093a dc4c 813c 8771 ca3c 1f3f 113c
000000a0: 8e1b e039 92ed 0839 7401 ec39 9261 30b9
000000b0: a635 98b9 8ddc ee3a 2e12 ef3a ebb0 89ba
000000c0: 0113 8439 3499 d6b9 49b3 ceb9 743d d3b9
000000d0: d62f bc3a 447b 3739 5d54 9db7 795c c33a
000000e0: bfc4 b1ba 0ee7 efb8 5ef8 15b7 0f2c eb37
000000f0: 5e0e 16ba bfba f8b9 4bc2 33ba ebc7 39bb
00000100: 57dd bb3a d92a cc3a 10a3 96ba b699 31ba
00000110: 30f4 12ba 14a5 05ba d5e9 963a b836 073a
00000120: d918 8e3a 2779 9c3a 58cc 7d3a 8d62 c139
00000130: 3fc3 b7ba 9f89 8cba 7516 74ba 3aa2 a9bc
00000140: dc9b 35bd 121c 91bc 9dee 1eba b166 4ab8
00000150: 810c 7c37 8d48 673a 7139 9fb9 47e9 9d3a
00000160: 5365 273a e82f 8cba f3d3 883a 27f1 6ab6
00000170: 7737 c138 b00f 6939 7e8d f539 9a79 a039
00000180: 9a71 1cb9 9945 afb9 62ef 47ba 1559 9dba
00000190: 8443 a139 1b28 80ba 0e0c 09b9 621d 2e39
000001a0: 2ad7 08ba d6c2 71ba c28d 4539 03e2 2a39
000001b0: 1373 a939 7e5b 59ba bd31 f839 d93f dab8
000001c0: a71f d2b9 993c ab36 e32b a9b8 d49b c539
000001d0: 3c89 503a 962c 39ba 5b40 17ba 04ac 35ba
000001e0: bc5f 1fb9 97e7 febb 2c6c 993b 29ea 803b
000001f0: bc70 1539 706b 4e38 3e43 51ba bfda 923a
00000200: 9309 35b9 d58c 97ba aa05 cb3a 5207 4bba
00000210: b4f3 0dbb f0e4 6a3b 1c5b ae3a 3989 8cb9
00000220: 532a 5bba 2fdb 303a 94d4 f8ba 9495 02bc
00000230: 8425 8c3b 9e1b 62bb 3bf0 c1bb 56b9 1ebb
00000240: b6ea cc3a dbd7 82ba faa1 cbba 0011 f53a
00000250: 57a6 ab37 9e64 383a 89b9 1b3c dc8d b2b9
00000260: 2090 a0ba 8581 e83a a755 2cbb 8205 373a
00000270: 26af 3abb fee2 8cbb 3032 ddba e2cf 97bb
00000280: 2743 89ba c4ac 453b 402d 273b 0135 993c
00000290: 5ea6 823e b6a3 4b3d adc9 a03a 745f 343a
000002a0: cae7 ab3a fff8 9439 579d e4ba b73d 213a
000002b0: bab1 af3a ac78 8bba 80e4 27b7 388c 34ba
000002c0: 4c19 86ba 65ba b239 518d 2e3a 76b9 68b9
000002d0: dcf3 1439 1193 13ba 9b82 ceb9 77fe 70ba
000002e0: 6f14 4ab9 94e1 28ba 7ecc a739 d7a9 49ba
000002f0: cde4 8e39 af72 4cba fa9f b33a 7b9e 773a
00000300: 9b45 423a 14bd 82ba c11a 0dba 7047 a337
00000310: 97c9 8b39 b31b 7639 5829 9bb7 b347 0839
00000320: 47f7 9339 298d 8cb9 8137 4d38 131d 6dba
00000330: 3bac 05ba 27ae f63b 15e8 d33c 1a55 9c3b
00000340: 049f 68b9 9b36 2a39 a55d e9b9 5946 143a
00000350: 2480 34ba 4f49 d6b9 f148 85ba 7dd3 d4b9
00000360: 5800 88b9 f14d d439 70f9 abb7 c79a ab3a
00000370: 2b7c 9fba b186 86b9 8302 cbb9 a546 a9ba
00000380: ad7d 39ba 17d2 5fba 619d 9bba f378 3b3a
00000390: 00da 14ba c3f6 51ba 1059 663a 8c91 1e3b
000003a0: 6e00 58b9 89c4 38b9 daa6 73b9 99a7 c7b9
000003b0: 78db 2139 edb1 8339 7a42 d738 6e01 2eba
000003c0: 7d6c 90b9 5507 6f39 e019 023a 794b 7db9
000003d0: 4d7c e339 c146 f039 4f8f 96b7 66bf 733c
000003e0: 12cc d5bc 2f24 f4ba 3cbe e239 128e 6f39
000003f0: c9a5 2e39 12f3 4b39 0ed3 02ba 7208 d639
