model_Adam_128Relu_val_Huber_WD.pth (torch, 218054 bytes, 57 tensors)

embeddings.0.weight f4 [7, 4]
-0.175708 1.1032873 -0.3117458 0.46548182 -0.32466736 -0.70712805 0.011886668 -1.2184551
-0.3368755 -0.5680499 1.424136 -0.3635839 0.38724554 0.16382146 -0.44628182 -1.0660578
-0.80726796 -0.29862416 -0.33817068 -0.6917635 0.78527844 1.0830542 0.112177506 -0.33928454
-0.050681558 0.9710032 -0.38490117 0.44235462
00000000: ccec 33be 8538 8d3f 259d 9fbe a253 ee3e
00000010: cd3a a6be 5806 35bf 4dc0 423c 56f6 9bbf
00000020: f27a acbe b86b 11bf 174a b63f ab27 babe
00000030: 0c45 c63e d0c0 273e 0d7f e4be 9574 88bf
00000040: 1da9 4ebf 44e5 98be b524 adbe 6a17 31bf
00000050: 0208 493f 85a1 8a3f 52bd e53d b4b6 adbe
00000060: 7797 4fbd aa93 783f c411 c5be 4e7c e23e

embeddings.1.weight f4 [7, 4]
0.37095377 -0.78770876 -0.07014831 -0.62485266 0.10820591 0.36398596 -0.6440855 -0.98893666
1.1482433 0.49850327 1.083841 0.32225746 -0.25286642 0.56194514 1.2023165 -0.8026442
-0.3488347 -1.0730268 0.16686332 0.4474912 0.40893713 -0.3727549 0.6494968 -0.10442319
0.7199154 -0.112624004 -0.80332184 0.7069866
00000000: a7ed bd3e 48a7 49bf eba9 8fbd 58f6 1fbf
00000010: 0f9b dd3d 5e5c ba3e cae2 24bf f42a 7dbf
00000020: a3f9 923f d23b ff3e 4dbb 8a3f eefe a43e
00000030: b577 81be a3db 0f3f 82e5 993f 177a 4dbf
00000040: 769a b2be f158 89bf 38de 2a3e 911d e53e
00000050: 3560 d13e bbd9 bebe 6c45 263f d3db d5bd
00000060: 604c 383f 6aa7 e6bd 80a6 4dbf 13fd 343f

embeddings.2.weight f4 [6, 3]
-0.22288659 -0.48776245 -0.40117735 -1.536965 0.3805558 0.8123486 -0.2760135 -0.24756919
-0.9942409 -0.9169269 0.2828591 0.6674494 -0.41501924 -1.1326009 0.23434362 -1.3371996
0.9784611 -0.67095846
00000000: 623c 64be 00bc f9be 1e67 cdbe 45bb c4bf
00000010: 36d8 c23e 14f6 4f3f a451 8dbe c782 7dbe
00000020: 9286 7ebf b9bb 6abf e8d2 903e f7dd 2a3f
00000030: 677d d4be 11f9 90bf c6f7 6f3e 5b29 abbf
00000040: 6d7c 7a3f efc3 2bbf

embeddings.3.weight f4 [6, 3]
-1.4413689 0.82505506 -0.52365017 0.34918052 1.0019128 0.47809267 0.29371864 0.7971024
-0.8635116 0.0817625 0.5732344 -0.4840298 0.5051373 0.56922024 -0.021057427 -0.69385
0.94666 1.1925818
00000000: c77e b8bf cf36 533f f00d 06bf cac7 b23e
00000010: ae3e 803f 90c8 f43e 4a62 963e e70e 4c3f
00000020: 190f 5dbf 1973 a73d 7dbf 123f c1d2 f7be
00000030: ae50 013f 6bb8 113f a080 acbc 27a0 31bf
00000040: 4f58 723f 85a6 983f

embeddings.4.weight f4 [4, 2]
-0.40583715 0.9648714 0.9081127 0.058773767 0.9423882 -0.71599543 -0.97939986 0.2986805
00000000: e3c9 cfbe d001 773f 137a 683f c3bc 703d
00000010: 5a40 713f 7a4b 37bf f3b9 7abf a7ec 983e

embeddings.5.weight f4 [8, 4]
0.42962366 0.91012776 -0.8798217 0.2616982 -0.3016171 -0.45523152 -0.97637665 1.014652
1.2088839 -0.8953091 -0.45238397 -0.06925131 0.27294856 -1.0261796 -0.70439047 0.94356495
-0.28558835 -0.9548936 1.0785552 -0.17529479 0.9568691 -1.2535598 -0.094875075 -0.17682402
0.5708841 0.5035267 0.34049892 -0.1414798 -1.5719529 0.48820978 -0.1574747 -1.8038807
00000000: a2f7 db3e 22fe 683f ff3b 61bf 4efd 853e
00000010: 8e6d 9abe 1b14 e9be d2f3 79bf 1ee0 813f
00000020: b5bc 9a3f fa32 65bf df9e e7be a1d3 8dbd
00000030: eabf 8b3e da59 83bf ef52 34bf 798d 713f
00000040: a338 92be e873 74bf 190e 8a3f 7a80 33be
00000050: 60f5 743f a674 a0bf dd4d c2bd 5b11 35be
00000060: 7625 123f 20e7 003f e055 ae3e 15e0 10be
00000070: c135 c9bf a2f6 f93e 0c41 21be 90e5 e6bf

embeddings.6.weight f4 [3, 2]
0.7983378 -0.8426287 0.006133224 -0.90894586 -0.6657369 -0.94546634
00000000: de5f 4c3f 84b6 57bf 36f9 c83b adb0 68bf
00000010: bc6d 2abf 150a 72bf

embeddings.7.weight f4 [7, 4]
0.014946398 -0.83691984 0.48194817 -0.5208041 -0.17355293 -0.7786478 -0.58947664 -0.27965188
-0.87527126 0.711884 0.46372226 -1.4153836 -1.7102772 -0.5550914 -0.76166606 0.5936268
0.33227625 0.12562677 -0.8369902 -1.34537 -1.6763859 -0.78335214 -0.5904106 0.568282
0.010949649 -1.0997237 0.35453287 -0.35854727
00000000: bde1 743c 6140 56bf e9c1 f63e 6b53 05bf
00000010: dcb7 31be 7655 47bf f1e7 16bf 882e 8fbe
00000020: c711 60bf 083e 363f 016d ed3e 4a2b b5bf
00000030: 5dea dabf 781a 0ebf 8cfc 42bf edf7 173f
00000040: 1d20 aa3e 4ea4 003e fd44 56bf 1635 acbf
00000050: d093 d6bf c489 48bf 2625 17bf ee7a 113f
00000060: 2866 333c bfc3 8cbf 5585 b53e 8293 b7be

embeddings.8.weight f4 [6, 3]
0.23651183 0.85530967 -0.14324033 -0.5954813 0.2808507 -0.9315854 -1.2529311 0.24487342
-0.6330087 0.39900905 0.34392822 -0.52961594 -0.87449247 1.1608764 0.4545352 0.44854552
1.9705652 -0.17194803
00000000: 2830 723e 93f5 5a3f 98ad 12be 7671 18bf
00000010: aacb 8f3e 617c 6ebf 0c60 a0bf 19c0 7a3e
00000020: dc0c 22bf ea4a cc3e 5c17 b03e e994 07bf
00000030: bdde 5fbf 9997 943f d6b8 e83e c2a7 e53e
00000040: 7b3b fc3f 2513 30be

embeddings.9.weight f4 [6, 3]
-0.6097349 -0.20677039 1.0718229 -0.10069419 -1.3497757 0.4764406 0.22357899 -1.0173819
-1.0548191 0.87924314 -0.6905372 -0.044644713 0.0008587428 1.2300884 0.35298106 0.095189884
0.54425055 1.092307
00000000: 9617 1cbf 9ebb 53be 7e31 893f c138 cebd
00000010: 73c5 acbf 06f0 f33e e4f1 643e 9239 82bf
00000020: 5004 87bf 1416 613f 0cc7 30bf 60dd 36bd
00000030: 411d 613a 8973 9d3f efb9 b43e eaf2 c23d
00000040: 0154 0b3f b7d0 8b3f

embeddings.10.weight f4 [4, 2]
0.08758756 -0.82355785 -1.315392 -0.8136032 -1.4541799 0.03755407 -0.15830106 0.479429
00000000: 1b61 b33d b0d4 52bf c45e a8bf 4d48 50bf
00000010: 9122 babf 4cd2 193d ac19 22be b877 f53e

embeddings.11.weight f4 [5, 3]
-0.095431894 -1.3846087 0.7321325 0.2231256 -0.35748485 1.0578101 2.5873578 0.18136714
0.45917806 0.5553185 -1.0625292 -0.5166697 1.0264785 -0.58070034 1.1841465
00000000: cc71 c3bd dc3a b1bf 096d 3b3f 0a7b 643e
00000010: 4108 b7be 5266 873f 4597 2540 4fb8 393e
00000020: 6319 eb3e 5a29 0e3f f500 88bf 7744 04bf
00000030: a663 833f c7a8 14bf 1d92 973f

model.0.weight f4 [128, 42]
0.06342982 -0.021859867 0.11466601 -0.024699705 -0.06531278 0.119991705 -0.020946398 0.07367847
-0.0888953 0.08171392 0.0041833594 0.09478333 -0.013793269 -0.02956222 -0.046603873 -0.015059004
-0.06670795 0.058816835 -0.072990514 -0.042254712 -0.08137034 6.688733e-05 0.031334486 0.033088177
-0.14210157 0.020490509 0.088002026 0.14836776 0.05324592 0.083870314 -0.046213403 -0.17214082
0.042595226 0.1328283 -0.058744863 0.016545111 0.16478059 -0.016462635 -0.0550035 0.028429203
-0.063530214 0.045044415 -0.04622844 -0.11371376 -0.030695923 0.21688351 -0.0955626 -0.022813242
0.0695187 -0.07419881 0.10945443 0.17904368 -0.016604904 0.09049388 -0.012407681 -0.09800864
-0.044824954 0.07480045 -0.019910697 0.017060906 -0.25107262 0.017121015 0.11412302 0.16028725
0.08820387 0.19055167 0.256128 0.10022973 -0.08933299 -0.19210085 0.20282248 0.009933266
0.1382719 -0.08184341 0.08066279 0.032786712 -0.08642156 0.17777969 0.098138876 -0.16342862
0.11249263 -0.092501745 -0.068647966 -0.11344367 -0.110164404 0.1959257 -0.029191919 0.13606867
-0.014553102 -0.010986091 0.04365163 -0.08687721 -0.24377212 -0.22042929 0.110524945 -0.31830943
0.31322506 0.10005977 -0.10920799 -0.09457222 -0.146728 -0.122558594 0.04742494 -0.27602574
0.11154719 -0.38843262 -0.1800597 -0.13057083 -0.1429418 -0.08970689 -0.21017992 0.2524977
-0.19533332 0.0047267773 -0.038178135 0.1367036 -0.050759822 0.11745108 0.22790109 -0.40820354
-0.013042233 0.0047222027 -0.010606731 -0.07103724 0.14477018 0.009223618 -0.051156167 -0.056812093
-0.074505344 -0.10414919 -0.13646749 0.05339308 0.13746917 -0.23119798 -0.11367676 0.025145734
0.016632993 0.015865222 -0.026047183 0.11048011 0.16645132 0.005679955 -0.32991102 0.11530805
-0.18959808 -0.121245846 0.076617055 -0.037887555 -0.15978913 0.054554302 0.09320185 -0.050757125
-0.07341784 -0.14307582 -0.019546298 0.097669266 0.109254934 -0.002775274 -0.09897882 -0.002584953
0.13418543 0.12588933 0.19737518 0.08679545 -0.0796413 -0.035545256 0.04917745 0.09966236
-0.15074827 -0.03525503 0.15746488 -0.1620065 -0.054887857 0.16652854 0.22401921 -0.21908359
0.058228448 -0.1330734 0.17551918 0.057961673 0.14485398 0.0054240227 -0.11296309 0.1983585
-0.12096908 0.028803729 0.18370366 0.094387844 0.21011882 -0.15608537 -0.2893413 -0.025698334
-0.22409411 -0.029906735 0.16467352 -0.10595508 -0.066731215 0.068764366 -0.033909377 -0.08902169
0.12277591 -0.023082238 -0.003435326 -0.19852208 -0.13080786 0.024018502 -0.029982777 0.07601934
-0.116257995 -0.063316934 0.14531353 0.082430914 0.2518291 0.28175676 0.09143888 -0.19933021
0.25496635 0.1285448 0.30850506 0.0054341713 -0.024985733 0.05351963 -0.19690126 -0.2175281
-0.22114184 -0.06147847 -0.039842978 0.046345063 -0.039449304 0.036535814 0.061534993 0.09037686
-0.037556805 0.104135424 0.058746964 0.27604738 -0.097582206 -0.22104847 0.35498828 0.03492077
-0.15415312 -0.009049862 0.04336346 0.023614828 -0.16651598 0.14726798 -0.21600994 0.017344069
0.05445207 -0.09091661 0.084428474 0.01956895 0.01947629 -0.04912031 0.27265692 0.033451732
00000000: 7ee7 813d 7713 b3bc 03d6 ea3d 0957 cabc
00000010: b5c2 85bd 36be f53d c897 abbc bde4 963d
00000020: bd0e b6bd a159 a73d 9014 893b c31d c23d
00000030: 2afd 61bc 782c f2bc b4e3 3ebd 0aba 76bc
00000040: 2d9e 88bd ece9 703d 0d7c 95bd 4713 2dbd
00000050: 7ea5 a6bd dd45 8c38 9758 003d 7887 073d
00000060: 1383 11be b6db a73c 683a b43d b8ed 173e
00000070: 6518 5a3d 33c4 ab3d 444a 3dbd af45 30be
00000080: 5578 2e3d 2404 083e 749e 70bd 9d89 873c
00000090: 3ebc 283e a6dc 86bc 5a4b 61bd 5ce4 e83c
000000a0: 211c 82bd 7e80 383d 085a 3dbd c3e2 e8bd
000000b0: 0476 fbbc b616 5e3e 53b6 c3bd d6e2 babc
000000c0: d25f 8e3d 8cf5 97bd a529 e03d 3a57 373e
000000d0: 0207 88bc db54 b93d 9649 4bbc c1b8 c8bd
000000e0: 5f9a 37bd fa30 993d c21b a3bc 50c3 8b3c
000000f0: 978c 80be 5f41 8c3c 54b9 e93d 5722 243e
00000100: 3ba4 b43d fa1f 433e 3623 833e 3f45 cd3d
00000110: 37f4 b6bd 16b6 44be b2b0 4f3e 23bf 223c
00000120: 2697 0d3e 859d a7bd 8832 a53d 5c4b 063d
00000130: c9fd b0bd e10b 363e 09fd c83d d559 27be
00000140: 8962 e63d 8e71 bdbd 4e97 8cbd 2855 e8bd
00000150: e09d e1bd bfa0 483e e423 efbc 9655 0b3e
00000160: 2270 6ebc 01ff 33bc 0dcc 323d aeec b1bd
00000170: 669f 79be 37b8 61be e75a e23d 74f9 a2be
00000180: 095f a03e 23ec cc3d 70a8 dfbd 15af c1bd
00000190: dd3f 16be 0000 fbbd a740 423d 3f53 8dbe
000001a0: da72 e43d a4e0 c6be 9261 38be 5cb4 05be
000001b0: 565f 12be 3fb8 b7bd 6839 57be 6147 813e
000001c0: 7505 48be 15e3 9a3b ad60 1cbd 07fc 0b3e
000001d0: 88e9 4fbd 318a f03d e75e 693e 0e00 d1be
000001e0: 17af 55bc b5bc 9a3b dbc7 2dbc f97b 91bd
000001f0: a23e 143e a81e 173c 2189 51bd ccb3 68bd
00000200: 4296 98bd 2c4c d5bd 22be 0bbe b4b2 5a3d
00000210: b8c4 0c3e 2abf 6cbe 5ccf e8bd 6dfe cd3c
00000220: ea41 883c c8f7 813c e760 d5bc 6543 e23d
00000230: 3772 2a3e ea1e ba3b 19ea a8be a026 ec3d
00000240: 0026 42be be4f f8bd 67e9 9c3d fb2f 1bbd
00000250: c39f 23be 5574 5f3d 9de0 be3d b4e6 4fbd
00000260: 185c 96bd 7882 12be 8f1f a0bc d306 c83d
00000270: 0dc1 df3d 5fe1 35bb 68b5 cabd 5168 29bb
00000280: e867 093e 22e9 003e b81c 4a3e d0c1 b13d
00000290: fa1a a3bd e797 11bd 4b6e 493d c81b cc3d
000002a0: c15d 1abe 9467 10bd 793e 213e 08e5 25be
000002b0: 17d2 60bd 7586 2a3e 4b65 653e 7357 60be
000002c0: f480 6e3d 6544 08be 4dbb 333e 3869 6d3d
000002d0: 9a54 143e 00bc b13b 3159 e7bd 7e1e 4b3e
000002e0: a3be f7bd ccf5 eb3c d01c 3c3e 6a4e c13d
000002f0: 6329 573e d8d4 1fbe 8b24 94be 5085 d2bc
00000300: ed78 65be f8fe f4bc 2da0 283e fafe d8bd
00000310: 60aa 88bd 55d4 8c3d 8fe4 0abd 0151 b6bd
00000320: f071 fb3d f616 bdbc 3523 61bb 5f49 4bbe
00000330: 7ff2 05be 73c2 c43c 719e f5bc 07b0 9b3d
00000340: ac18 eebd 4fac 81bd 12cd 143e 8ad1 a83d
00000350: beef 803e 6c42 903e 4f44 bb3d 381d 4cbe
00000360: f38a 823e 40a1 033e 60f4 9d3e 2211 b23b
00000370: e1ae ccbc 6637 5b3d 7ca0 49be b0bf 5ebe
00000380: 0273 62be d9d0 7bbd 6432 23bd 52d4 3d3d
00000390: 9895 21bd 94a6 153d 1e0c 7c3d 8117 b93d
000003a0: 2ad5 19bd f444 d53d a8a0 703d 1556 8d3e
000003b0: 2ed9 c7bd 885a 62be 06c1 b53e 1509 0f3d
000003c0: 51da 1dbe df45 14bc e29d 313d e273 c13c
000003d0: 2a83 2abe 6bcd 163e b631 5dbe 2615 8e3c
000003e0: 2209 5f3d 7d32 babd d6e8 ac3d 104f a03c
000003f0: be8c 9f3c 6132 49bd b099 8b3e af04 093d

model.0.bias f4 [128]
0.03622806 -0.28191522 0.3023846 0.039026562 0.27591336 -0.23911513 -0.016232252 -0.31776044
-0.28117546 0.04743443 0.28543097 -0.026851363 -0.05871755 0.036610924 -0.058215443 0.001490408
0.37645838 -0.29286227 -0.02119937 0.08550362 0.3356528 -0.21404067 0.28799632 0.08170491
0.2687546 0.110187925 -0.05912307 0.0032724508 0.28450012 -0.12457466 0.4259795 0.16451998
0.021823445 0.20822038 0.21383937 0.04289854 -0.024326928 0.19922638 0.25262916 -0.21163915
0.005512788 -0.13082184 0.07531952 -0.039130136 0.05916432 -0.2773173 -0.27264148 -0.007946562
-0.18788975 -0.0133287525 -0.028971339 -0.37332112 -0.096405156 -0.010737968 0.2167101 8.02915e-40
0.0007017683 0.23391064 0.087217346 -0.3158457 -0.02195429 -0.29657924 -0.004646742 0.3489215
0.023084186 0.0503478 0.22588956 0.22100672 -0.29874137 -0.16202192 0.14156605 -0.0955788
0.42916054 0.24479493 0.017938 -0.2988063 -0.0045803073 -0.16073506 0.1430965 0.26638433
0.21322979 0.27935484 0.074072696 -0.4208874 0.09135566 -0.2804562 -3.9329808e-07 -0.025747178
0.057626393 0.07790488 -0.021881064 -0.045177303 -0.233127 -0.00689873 0.110553354 0.023860212
0.008510416 0.22546542 0.31553555 0.105732314 0.038568098 0.11258669 0.03456208 -0.40918767
-0.17841594 -0.24584639 0.1725102 -0.1767819 0.020283341 0.07738765 0.15528357 -0.33430994
-0.09319605 0.3280607 0.28527915 -0.038680475 0.01964826 -0.006753742 -0.11017736 0.12288376
-0.07516643 -0.030216794 0.091916405 -0.1373437 0.10613996 -0.049971215 0.26091817 0.15759131
00000000: e063 143d 3157 90be 27d2 9a3e 51da 1f3d
00000010: 8444 8d3e 99da 74be 80f9 84bc 7fb1 a2be
00000020: 3bf6 8fbe 9b4a 423d 0224 923e 64f7 dbbc
00000030: d081 70bd 56f5 153d 5173 6ebd cb59 c33a
00000040: 27bf c03e 0bf2 95be 4daa adbc 861c af3d
00000050: afda ab3e 7a2d 5bbe 4174 933e e754 a73d
00000060: 349a 893e 35aa e13d 082b 72bd 9d76 563b
00000070: 00aa 913e 0021 ffbd fc19 da3e ed77 283e
00000080: 15c7 b23c b937 553e b5f8 5a3e 61b6 2f3d
00000090: 4449 c7bc 0002 4c3e 9c58 813e efb7 58be
000000a0: 9ea4 b43b 29f6 05be 1f41 9a3d ec46 20bd
000000b0: 4956 723d 88fc 8dbe aa97 8bbe 4c32 02bc
000000c0: 2c66 40be d760 5abc 4d55 edbc f223 bfbe
000000d0: 1170 c5bd 4dee 2fbc 41e9 5d3e 33be 0800
000000e0: e0f6 373a 4586 6f3e 029f b23d 87b6 a1be
000000f0: 7cd9 b3bc 3cd9 97be b243 98bb d7a5 b23e
00000100: 0c1b bd3c 7f39 4e3d 984f 673e 964f 623e
00000110: a1f4 98be 13e9 25be b1f6 103e d1be c3bd
00000120: eeba db3e 86ab 7a3e b6f2 923c 24fd 98be
00000130: 6716 96bb bb97 24be e487 123e 8763 883e
00000140: e958 5a3e 9907 8f3e 6db3 973d 8e7e d7be
00000150: ad18 bb3d f497 8fbe 7a26 d3b4 bfeb d2bc
00000160: a709 6c3d 988c 9f3d eb3f b3bc d60b 39bd
00000170: d8b8 6ebe be0e e2bb cc69 e23d 7e76 c33c
00000180: 466f 0b3c 68e0 663e e08d a13e 2f8a d83d
00000190: 95f9 1d3d da93 e63d f890 0d3d 0c81 d1be
000001a0: abb2 36be 28bf 7bbe 84a6 303e 5006 35be
000001b0: 4029 a63c 6b7d 9e3d a802 1f3e ac2a abbe
000001c0: 92dd bebd 92f7 a73e 1c10 923e 6b6f 1ebd
000001d0: 63f5 a03c 7f4e ddbb aba4 e1bd 7baa fb3d
000001e0: dbf0 99bd 3689 f7bc ab3e bc3d d4a3 0cbe
000001f0: e85f d93d 9eae 4cbd 1197 853e 9e5f 213e

model.2.weight f4 [64, 128]
1.19201e-39 -1.4482698e-17 2.382252e-39 -3.424074e-39 2.0643093e-33 -1.4839252e-20 -5.783604e-12 -7.0903385e-13
-1.846767e-11 2.561502e-39 6.634094e-39 -2.6736415e-11 -3.9241524e-17 7.31029e-13 -5.216347e-14 3.913901e-39
2.569155e-39 1.626825e-39 6.363428e-39 -1.295059e-39 -9.679409e-14 -1.1135563e-20 1.040823e-39 -2.250455e-39
-7.9567956e-16 4.702894e-39 9.29966e-40 3.4770065e-11 -1.710896e-39 1.27161e-40 -3.110319e-39 5.665556e-39
4.05851e-40 6.909017e-39 1.872464e-39 -6.3074997e-12 -7.357515e-31 -1.4920351e-34 1.1838142e-18 -1.66594e-39
-1.610594e-39 -8.95016e-40 -4.747051e-39 2.2892522e-13 -3.569388e-14 1.0029915e-17 -2.944422e-39 -5.4594895e-11
-5.720264e-39 -8.51816e-40 -3.772801e-14 -2.760774e-39 -3.367195e-39 -3.85765e-40 -5.2098777e-13 -3.432769e-39
-4.096566e-09 5.688739e-39 -3.95032e-39 -1.3328238e-19 -9.499516e-17 5.0724555e-17 -4.1448365e-09 2.648832e-39
6.45969e-40 8.916834e-33 -1.73154e-40 2.823569e-39 1.6531752e-37 -2.79403e-39 -1.2551056e-12 4.582812e-24
4.2524135e-18 -2.120857e-39 -6.996872e-39 -3.1222087e-11 4.839412e-39 -6.6573876e-15 -3.5302552e-09 -2.897295e-39
-4.25026e-40 -4.1333516e-37 -1.8704032e-26 -3.2481753e-09 3.40182e-40 -1.2711661e-27 -4.586395e-39 2.846575e-39
4.40626e-40 5.004838e-39 -2.2602329e-14 2.602283e-39 -1.4635468e-34 7.59263e-40 -1.177475e-39 -3.9445e-39
-1.90181e-40 -2.342516e-39 -7.49915e-40 3.82714e-40 -3.3223e-39 -5.643582e-39 -2.63274e-39 -3.134926e-39
2.001574e-11 -1.235349e-23 2.655456e-39 -7.1313093e-17 -1.591232e-39 -1.228958e-39 -6.5168086e-11 1.5842805e-09
-6.174573e-14 -1.3291322e-10 -7.2819236e-20 -1.759353e-39 4.733693e-39 -3.030082e-39 1.401587e-39 -3.216471e-14
2.115309e-39 6.11078e-40 -1.990144e-39 -2.0470307e-22 -2.8724074e-09 -2.987585e-39 -1.2624058e-28 -3.902383e-34
-1.785254e-39 -1.8497494e-18 -2.7741e-40 -1.81448e-39 5.621525e-39 -9.87565e-40 -3.8054792e-24 -6.32633e-40
-1.10346014e-14 4.231753e-39 -1.78589e-39 -2.4879337e-38 -2.814792e-39 -5.560584e-38 -9.10267e-40 7.59163e-40
-1.062435e-39 -5.856891e-39 3.092903e-39 -7.5428e-40 -1.4947568e-15 -6.4195377e-34 1.15344e-39 -8.786e-40
-1.3232485e-26 -1.428081e-39 -1.548176e-39 -1.2586872e-14 -1.630898e-39 -1.026165e-39 5.434873e-39 1.25062e-40
2.910135e-39 -6.17643e-39 -2.131099e-39 -3.6600328e-19 -1.560038e-39 2.630771e-39 -3.9756815e-32 -6.08556e-40
-5.588503e-39 -1.463467e-39 -1.630936e-39 -7.235743e-23 -3.754101e-17 -1.394871e-39 2.254926e-39 1.0380573e-34
7.12595e-40 -2.447749e-39 -1.5124685e-14 3.385276e-39 4.41364e-39 -5.146133e-38 -1.168643e-15 3.947657e-39
-9.630623e-12 1.610145e-39 -2.548463e-39 -1.906685e-39 -2.018516e-39 -1.207504e-39 -1.2133307e-13 2.766879e-39
3.594719e-39 2.0369683e-35 -3.948332e-39 1.911045e-39 -1.563155e-39 -2.82772e-39 -2.7203484e-15 3.939197e-39
-4.4455586e-25 1.613444e-39 1.23578e-39 -3.7885942e-27 2.755822e-39 -1.9505039e-23 -1.08910065e-14 1.96728e-39
-1.202018e-39 1.231111e-39 -2.250662e-39 -1.3173938e-12 -1.543953e-39 -1.844322e-39 2.233528e-39 -2.252097e-39
3.49806e-40 3.6907298e-38 -6.37362e-40 4.189442e-39 -1.860728e-39 1.550563e-39 -6.494113e-39 -5.010515e-39
5.156003e-39 -3.177987e-39 -1.714172e-39 5.128532e-39 1.310437e-39 6.086485e-39 6.57632e-40 2.2955e-40
-9.726837e-20 -1.48905e-39 -5.325744e-39 2.326726e-39 1.408777e-39 -6.1148e-39 -1.8719706e-15 -1.1426342e-19
-1.870899e-39 -6.6228335e-11 -2.17665e-39 3.947489e-39 -5.090276e-39 -6.42029e-39 -1.18335e-39 -3.0109708e-27
4.111404e-39 4.612793e-39 1.364825e-39 2.710703e-39 -1.0499631e-11 -2.990096e-39 -1.47421e-39 2.134797e-39
00000000: d7fa 0c00 4e94 85a3 c0f0 1900 ed48 2580
00000010: 017f 2b09 1c27 8c9e 137e cbac 4693 47ab
00000020: 7f71 a2ad 6de4 1b00 283d 4800 0e2d ebad
00000030: 37f8 34a4 31c4 4d2b 63ec 6aa9 5d9e 2a00
00000040: c2f9 1b00 edb6 1100 a64a 4500 191a 0e80
00000050: fef5 d9a9 4758 529e 6455 0b00 5a81 1880
00000060: ca56 65a6 c135 3300 5e20 0a00 9deb 182e
00000070: 48a1 1280 7962 0100 4ede 2180 44b1 3d00
00000080: 596b 0400 873b 4b00 ab63 1400 e8ec ddac
00000090: d8c3 6e8d 5353 4687 3cb3 ae21 f723 1280
000000a0: ae89 1180 f1be 0980 d9b0 3380 9adf 802a
000000b0: 3ec0 20a9 ef04 3923 da0f 2080 631c 70ae
000000c0: c549 3e80 8446 0980 6fe9 29a9 ea0f 1e80
000000d0: 5faa 2480 5b33 0480 20a5 12ab 2a61 2580
000000e0: c7c1 8cb1 e4f1 3d00 e303 2b80 215a 1da0
000000f0: 3f0b dba4 fcec 6924 5e6a 8eb1 ded7 1c00
00000100: b308 0700 0632 390a afe2 0180 f6be 1e00
00000110: c004 6102 9e6c 1e80 f2a3 b0ab f949 b118
00000120: e9e2 9c22 1618 1780 6f30 4c80 f250 09ae
00000130: 50b2 3400 90db efa7 e898 72b1 7b8c 1f80
00000140: cda0 0480 92a6 0c83 5b3c b994 8136 5fb1
00000150: 4ab4 0300 9f6c c992 01f1 3180 18ff 1e00
00000160: 49cc 0400 747f 3600 6c95 cba8 1b56 1c00
00000170: eb89 4287 8444 0800 52d2 0c80 a9f3 2a80
00000180: 2612 0280 fb81 1980 752a 0880 da2a 0400
00000190: 392d 2480 0374 3d80 02ab 1c80 e622 2280
000001a0: 710f b02d 85f3 6e99 55ea 1c00 d26f a4a4
000001b0: b553 1180 d661 0d80 5f4e 8fae eabd d930
000001c0: fd09 8ba9 bf23 12af 87f0 ab9f 5c28 1380
000001d0: 9c8b 3300 a3fe 2080 0e43 0f00 63db 10a9
000001e0: 9f08 1700 70a7 0600 b6ab 1580 8878 779b
000001f0: ed63 45b1 2c88 2080 6907 2091 cead 0188
00000200: 9070 1380 c77c 08a2 4e05 0380 08c2 1380
00000210: 8636 3d00 eec0 0a80 a437 9398 86e3 0680
00000220: 1ec8 46a8 6814 2e00 5672 1380 bc74 0781
00000230: 7fa6 1e80 9d5f 9781 74e9 0980 3d44 0800
00000240: a391 0b80 a1c6 3f80 c1ad 2100 a036 0880
00000250: cb6a d7a6 6353 5588 528f 0c00 2e91 0980
00000260: 560c 8394 e98c 0f80 afdb 1080 b4be 62a8
00000270: 48c2 1180 882c 0b80 372e 3b00 9f5c 0100
00000280: 46b0 1f00 6041 4380 a334 1780 da0c d8a0
00000290: c0fc 1080 85a5 1c00 df6d 4e8b 68a0 0680
000002a0: 79da 3c80 8def 0f80 63c2 1180 14f3 ae9a
000002b0: 9a20 2da4 5530 0f80 d18d 1800 42fb 0907
000002c0: 6dc2 0700 54a7 1a80 263b 88a8 c6dc 2400
000002d0: 6f0f 3000 5017 8c81 516b a8a6 76fc 2a00
000002e0: 786c 29ad 6e88 1100 14c0 1b80 10c3 1480
000002f0: cdfa 1580 0826 0d80 e09b 08aa ef20 1e00
00000300: 9d24 2700 8d9b d805 58fe 2a80 37cf 1400
00000310: 7105 1180 88ca 1e80 9205 44a7 e1e4 2a00
00000320: 5895 0997 a091 1100 da74 0d00 e914 9693
00000330: 1c02 1e00 23a4 bc99 e731 44a8 fa6b 1500
00000340: bd16 0d80 d667 0d00 ee81 1880 1d68 b9ab
00000350: eacf 1080 3815 1480 2b52 1800 ee85 1880
00000360: 1ecf 0300 44f1 4801 b5f0 0680 769e 2d00
00000370: f442 1480 57e2 1000 f2b6 4680 478f 3680
00000380: d724 3800 ef9a 2280 6aaa 1280 43d8 3700
00000390: f744 0e00 a546 4200 3629 0700 e47f 0200
000003a0: 1fab e59f de36 1080 02fe 3980 f755 1900
000003b0: 1957 0f00 9395 4280 c3e3 06a7 00e6 06a0
000003c0: 4e5f 1480 3da3 91ae 9db3 1780 fefb 2a00
000003d0: 9e6d 3780 28e9 4580 b3e2 0c80 be8d 6e93
000003e0: ecc4 2c00 973a 3200 94dc 0e00 5684 1d00
000003f0: 22b6 38ad 2c8f 2080 7f0d 1080 f23e 1700

model.2.bias f4 [64]
-6.667555e-39 1.258841e-39 0.005690253 -0.16899547 -3.2841228e-37 -0.0032796108 -0.011512347 -0.00031362948
-0.004662754 -8.26702e-05 -0.4252661 0.18563764 0.25734028 0.24875872 0.048484825 0.012182906
-9.609446e-09 0.031663958 -0.00030372012 0.15193337 0.06572528 -0.007385288 0.52315676 0.30610684
0.13312909 -0.2887466 -0.011052758 -0.116814665 0.26148283 -0.042545546 -2.025853e-39 0.26601982
0.23338531 0.001334301 0.030736908 0.055333175 0.14573427 0.07863571 -2.6130333e-24 0.22668417
-0.050805386 -2.322172e-39 -9.48689e-40 -0.113372356 0.009225441 -1.6168181e-08 1.9831989e-31 -2.832883e-39
-0.015102737 -7.5272746e-06 0.13981722 0.109465286 0.15109372 -1.932497e-08 -0.004537073 -9.85794e-40
0.08851981 -0.054730102 0.23797612 -0.0020820037 -0.17260858 0.030809425 -1.4516499e-37 0.15562518
00000000: 6e9a 4880 23b5 0d00 4d75 ba3b 260d 2dbe
00000010: 7d81 df82 bdee 56bb 489e 3cbc a36e a4b9
00000020: 04ca 98bb 3a5f adb8 7abc d9be cb17 3e3e
00000030: 1bc2 833e 9bba 7e3e 0698 463d d09a 473c
00000040: ca16 25b2 11b2 013d a03c 9fb9 6c94 1b3e
00000050: fa9a 863d 4900 f2bb 9aed 053f 09ba 9c3e
00000060: fe52 083e 98d6 93be a116 35bc 873c efbd
00000070: 14e1 853e 3d44 2ebd 410f 1680 c033 883e
00000080: 8ffc 6e3e b6e3 ae3a f8cb fb3c 0aa5 623d
00000090: 5d3b 153e c20b a13d 752c 4a98 e51f 683e
000000a0: 4f19 50bd 4549 1980 8f54 0a80 c42f e8bd
000000b0: 4e26 173c 35e2 8ab2 8bb7 800c edd8 1e80
000000c0: 7871 77bc cc92 fcb6 3f2c 0f3e 562f e03d
000000d0: 50b8 1a3e 0f00 a6b2 baab 94bb febb 0a80
000000e0: e049 b53d ac2c 60bd 03b0 733e 3a72 08bb
000000f0: 4ec0 30be 0c64 fc3c 9e96 4582 355c 1f3e

model.4.weight f4 [32, 64]
-5.1648082e-17 -8.49938e-40 -0.20582806 0.004593139 -6.063103e-39 0.0020269584 -0.29472858 -3.8799262e-05
-0.00013459721 0.0003711475 0.04966714 -0.13321477 0.098364525 0.1300256 0.049755502 0.04218158
-2.2223692e-18 -0.051928733 0.0029945977 0.01480421 -0.0658958 0.055361927 -0.012177993 0.23073728
0.0031366125 -0.05168789 0.010886513 0.020398207 -0.019064024 -0.014529847 -3.7482747e-10 0.04575104
0.13467994 0.015230605 0.063998304 -0.037328772 0.0060042813 -0.09064072 -1.0418168e-05 0.13520452
0.03676854 3.9036556e-13 -4.873176e-11 -0.012094373 0.00452672 -8.085969e-11 3.10753e-40 -2.323689e-37
0.004754594 -2.3883257e-07 -0.22146994 0.09453398 0.0547884 -1.2388328e-14 -0.00091465213 -8.4191e-41
0.14025022 -0.10447663 0.061455585 0.1232166 0.1403905 -0.07028008 3.802217e-39 0.038263965
3.4503904e-05 1.4631677e-27 0.09003444 -0.04833342 5.775454e-19 -0.0027439871 0.015573959 -1.5904595e-07
-0.00037632196 -0.00046367163 -1.0735197 0.023874367 0.071171045 0.1425384 -0.0066136597 -0.15666947
-1.1513813e-08 -0.055848334 -0.0181294 4.1247025e-05 0.0759572 -0.10771297 0.038395796 0.09359751
-0.08398632 -0.12037879 0.08297276 -0.0019964518 0.038399413 -0.058911104 0.00037850536 0.09545157
0.10645768 -0.0063836314 -0.117061794 0.054904763 0.1262895 0.22566962 0.0007108168 0.064481385
-0.16494665 -2.5448127e-05 0.000111646295 -4.2862317e-05 -0.07173995 0.00036608006 2.1291384e-14 -1.2561997e-08
-0.024878623 5.461661e-07 0.10106398 0.11216684 0.106685966 8.734125e-05 -0.00023956649 3.22956e-40
0.03590059 0.05222831 0.043994494 -0.08577291 -0.02017161 0.04081693 3.1472038e-34 -0.033179056
-7.1299734e-16 3.651452e-39 -0.07360726 -0.049944513 5.667989e-39 1.1881743e-16 -0.09577887 -2.6993664e-06
8.625107e-10 -2.471852e-05 0.07213077 -0.08197815 -0.014462487 -0.01578056 -0.04645214 -0.0110070985
2.2747171e-24 0.054449987 2.1337608e-07 0.0066780625 -0.0085051665 1.1505402e-11 0.032835685 -0.035553478
-0.009051935 -0.075567275 0.14519504 0.06783609 -0.011294134 -0.031748645 -1.6927953e-19 -0.093444645
-0.17571524 0.008843627 -0.021462534 -0.028103562 0.005747017 -0.0139730545 -2.2228225e-19 0.00449157
-0.023068488 1.7347655e-22 -8.086655e-33 0.025490375 0.008625915 1.8555314e-12 -4.855566e-39 3.996884e-39
0.0013954123 9.400429e-08 -0.019044219 0.038753636 -0.041509945 -6.7237e-41 -2.2850843e-14 2.563722e-39
0.0556088 -0.011348311 0.012421672 -0.101408064 0.062732756 -0.113220386 1.693329e-39 0.19303425
1.3526241e-10 2.224997e-39 0.08218779 -0.09537726 7.5075877e-37 -0.006682924 0.028687017 0.0003494369
-0.00033312602 -8.282126e-05 -0.890296 0.044162534 0.06476164 0.10973636 -0.0931902 -0.09009303
3.6740246e-09 -0.015777264 -0.00773306 0.03568008 -0.08161968 -0.05996517 0.17135176 0.12127792
0.023262355 -0.106487 0.061795726 -0.00071565836 0.015654331 -0.03209149 1.6417904e-06 0.10225054
0.0020166312 -0.02640734 0.043661952 0.09643516 0.045906126 0.13787825 4.411707e-05 0.08568873
-0.047501847 -1.2841959e-08 7.49138e-07 -0.0012285252 0.0667078 3.3882494e-05 -3.7289216e-30 -8.680743e-17
-0.000822427 1.1621432e-06 0.058189005 0.05394686 0.080005355 1.1660046e-06 0.0002719939 -3.075227e-39
0.060916107 0.06447923 0.0064808507 -0.12386289 0.069933884 0.051597048 7.10213e-40 0.083671294
00000000: 4b2f 6ea4 4841 0980 97c4 52be 0b82 963b
00000010: 7705 4280 b8d6 043b aae6 96be 64bc 22b8
00000020: aa22 0db9 9396 c239 c56f 4b3d 7469 08be
00000030: 5773 c93d 6e25 053e 6dcc 4b3d 98c6 2c3d
00000040: 5efb 23a2 39b3 54bd 0341 443b 5b8d 723c
00000050: 61f4 86bd 30c3 623d 3486 47bc 6546 6c3e
00000060: a08f 4d3b aeb6 53bd 585d 323c 241a a73c
00000070: 282c 9cbc 980e 6ebc 4710 ceaf 7165 3b3d
00000080: 8ae9 093e ca89 793c 8b11 833d 0ee6 18bd
00000090: 90bf c43b d8a1 b9bd b1c9 2eb7 0e73 0a3e
000000a0: 9c9a 163d 9bc1 db2a 1653 56ae 7a27 46bc
000000b0: e154 943b f5cf b1ae 4162 0300 5f24 9e82
000000c0: 6dcc 9b3b e638 80b4 04c9 62be 089b c13d
000000d0: cd69 603d 142b 5fa8 44c5 6fba b1ea 0080
000000e0: c19d 0f3e d8f7 d5bd dab8 7b3d fc58 fc3d
000000f0: 87c2 0f3e 01ef 8fbd 0967 2900 adba 1c3d
00000100: 49b8 1038 22d9 e712 fa63 b83d 44f9 45bd
00000110: 1976 2a21 77d4 33bb eb29 7f3c 38c6 2ab4
00000120: 144d c5b9 f418 f3b9 1869 89bf 2d94 c33c
00000130: 20c2 913d 96f5 113e 66b7 d8bb f66d 20be
00000140: 49ce 45b2 39c1 64bd 1c84 94bc a800 2d38
00000150: 738f 9b3d 9e98 dcbd e944 1d3d 0db0 bf3d
00000160: 0501 acbd 2889 f6bd 9fed a93d e7d6 02bb
00000170: b448 1d3d c54c 71bd 2172 c639 1d7c c33d
00000180: 7c06 da3d c82d d1bb 18be efbd d1e3 603d
00000190: 0952 013e f015 673e 1c56 3a3a d10e 843d
000001a0: c6e7 28be 7079 d5b7 a623 ea38 10c7 33b8
000001b0: 65ec 92bd 6fee bf39 97c6 bf28 3fd0 57b2
000001c0: 41ce cbbc 409c 1235 a2fa ce3d bab7 e53d
000001d0: 2c7e da3d fa2a b738 2434 7bb9 4584 0300
000001e0: 7f0c 133d 5aed 553d 9233 343d b5a9 afbd
000001f0: ef3e a5bc a72f 273d e62a d107 c3e6 07bd
00000200: eb81 4da6 c3c2 2700 67bf 96bd 9e92 4cbd
00000210: 0cb8 3d00 b7fc 0825 b627 c4bd c326 35b6
00000220: cb15 6d30 9e5a cfb7 4cb9 933d 29e4 a7bd
00000230: 11f4 6cbc 3c46 81bc 9944 3ebd 1e57 34bc
00000240: 6aff 2f18 f306 5f3d 5f1c 6534 a6d3 da3b
00000250: 4159 0bbc b967 4a2d b67e 063d 86a0 11bd
00000260: 914e 14bc 04c3 9abd 02ae 143e a6ed 8a3d
00000270: 080b 39bc de0a 02bd 99d9 47a0 e85f bfbd
00000280: b2ee 33be dce4 103c 32d2 afbc 7139 e6bc
00000290: 7951 bc3b 3def 64bc 5836 83a0 052e 933b
000002a0: 20fa bcbc 64b8 511b 08f4 278a 31d1 d03c
000002b0: b653 0d3c 4892 022c 58df 3480 b085 2b00
000002c0: 44e6 b63a 68df c933 9f02 9cbc 22bc 1e3d
000002d0: 5506 2abd 6ebb 0080 75d2 cda8 9dea 1b00
000002e0: 0ec6 633d 44ee 39bc 4584 4b3c 08af cfbd
000002f0: 087a 803d 17e0 e7bd 5070 1200 c5aa 453e
00000300: fcb8 142f 633a 1800 1252 a83d 2755 c3bd
00000310: 5078 7f03 6efc dabb 0901 eb3c a034 b739
00000320: 6ba7 aeb9 53b0 adb8 70ea 63bf c6e3 343d
00000330: c0a1 843d 75bd e03d 81da bebd b282 b8bd
00000340: 207a 7c31 523f 81bc 9c65 fdbb 4725 123d
00000350: 3828 a7bd 0a9e 75bd d676 2f3e 8f60 f83d
00000360: b290 be3c db15 dabd 841d 7d3d 059b 3bba
00000370: 833d 803c 5e72 03bd 7d5b dc35 bb68 d13d
00000380: 7529 043b 3554 d8bc e0d6 323d cc7f c53d
00000390: 1008 3c3d f52f 0d3e 580a 3938 937d af3d
000003a0: 4c91 42bd 889f 5cb2 5f18 4935 7706 a1ba
000003b0: 199e 883d 0d1d 0e38 5643 978e 102a c8a4
000003c0: 2498 57ba f0fa 9b35 9857 6e3d 62f7 5c3d
000003d0: d9d9 a33d 9d7f 9c35 679a 8e39 7b7c 2180
000003e0: 2b83 793d b00d 843d 515d d43b d4ab fdbd
000003f0: 7f39 8f3d 6d57 533d c9bb 0700 db5b ab3d

model.4.bias f4 [32]
-0.23602825 0.25318816 -0.07149416 0.14646617 0.23663792 -0.18959835 0.118362874 -2.6512145e-37
-0.00031356406 0.20499405 -0.04369578 -2.404836e-39 0.06401537 0.16124123 0.1354327 0.16070497
0.02104798 -0.07096414 9.73545e-06 -2.7981514e-07 0.044158995 -3.062168e-05 -0.016510805 0.19520639
-2.9299214e-38 -1.3064988e-24 1.438831e-39 -0.16618937 -0.17260195 0.34703726 0.09699264 -0.029766556
00000000: 64b1 71be e1a1 813e 886b 92bd 3afb 153e
00000010: 3651 723e 1226 42be 3c68 f23d ac6e b482
00000020: db65 a4b9 f6e9 513e 59fa 32bd b42f 1a80
00000030: 7e1a 833d 6c1c 253e dfae 0a3e d88f 243e
00000040: d06c ac3c a655 91bd 7055 2337 8039 96b4
00000050: 10e0 343d c76f 00b8 ab41 87bc 2fe4 473e
00000060: 2585 1f81 c02b ca97 e0aa 0f00 8c2d 2abe
00000070: 91be 30be deae b13e 14a4 c63d fed8 f3bc

model.6.weight f4 [1, 32]
-0.16240014 0.30805305 -0.068437 0.17114852 0.17537856 0.29348332 0.14412712 -2.7962693e-05
0.0033686147 0.18485588 -0.0896607 7.5877742e-06 0.06659132 0.16084537 0.062501475 0.14658947
0.11045186 0.13674824 -0.005411246 -0.014110186 0.09112444 8.700953e-06 -0.012792857 0.11238456
-1.06130244e-07 0.0024972355 2.3238935e-17 -0.25646254 -0.3369485 0.2862498 0.13655528 0.4278833
00000000: 394c 26be 21b9 9d3e b328 8cbd 8f41 2f3e
00000010: 7096 333e 7243 963e 0f96 133e 6d91 eab7
00000020: fac3 5c3b dc4a 3d3e 07a0 b7bd 7c9a fe36
00000030: 0861 883d a6b4 243e c600 803d 8d1b 163e
00000040: 9634 e23d bb07 0c3e d250 b1bb 692e 67bc
00000050: 739f ba3d 4ffa 1137 2299 51bc e029 e63d
00000060: b8e9 e3b3 a9a8 233b 6257 d623 0f4f 83be
00000070: 8484 acbe 558f 923e 26d5 0b3e 8513 db3e

exp_avg f4 [7, 4]
-5.4719956e-05 0.00030940791 0.00018070938 -0.000902435 -0.00029104398 0.00011881255 -0.00024680697 -0.00018199589
0.00029808783 -0.00027583292 -0.0005217327 0.0003698395 0.00020756519 -0.00029728664 -0.00027295263 0.00030187244
0.00010506643 -0.00047307074 0.00047807826 0.0008631092 4.2600175e-05 0.0002504898 -9.993727e-05 -0.00015831884
0.00013802892 0.00014163325 -0.0001969079 0.00018061118
00000000: 1b83 65b8 0738 a239 ce7c 3d39 6391 6cba
00000010: 4397 98b9 012b f938 df65 81b9 26d6 3eb9
00000020: ac48 9c39 ab9d 90b9 e4c4 08ba 04e7 c139
00000030: dba5 5939 23dd 9bb9 151b 8fb9 a244 9e39
00000040: 1c57 dc38 7b06 f8b9 94a6 fa39 4742 623a
00000050: 97ad 3238 2c54 8339 6a95 d1b8 6402 26b9
00000060: dbbb 1039 6383 1439 1079 4eb9 7262 3d39

exp_avg_sq f4 [7, 4]
2.9578966e-06 7.718361e-06 2.5674137e-06 3.7405214e-06 3.1795935e-06 3.2311616e-06 4.56572e-06 5.4650336e-06
3.199862e-06 3.59425e-06 7.531404e-06 4.6266027e-06 4.4405493e-07 1.395559e-06 1.1550699e-06 1.6884486e-06
1.9605548e-06 2.4993979e-06 2.6487603e-06 2.3672362e-06 1.0936417e-06 3.5698733e-06 1.8677642e-06 2.240762e-06
1.1296293e-06 3.8997937e-06 1.2669592e-06 1.8119832e-06
00000000: 4780 4636 1c7e 0137 d54b 2c36 ab05 7b36
00000010: 0061 5536 efd6 5836 3c33 9936 4860 b736
00000020: 36bd 5636 bf34 7136 45b6 fc36 373e 9b36
00000030: 7266 ee34 0b4f bb35 e607 9b35 a79e e235
00000040: 1392 0336 54bb 2736 5bc1 3136 cfdc 1e36
00000050: 3ec9 9235 f591 6f36 e4af fa35 ff5f 1636
00000060: c49d 9735 f9da 8236 630c aa35 4533 f335

exp_avg f4 [7, 4]
-0.0003130553 0.00027607233 0.00043658388 -6.859366e-05 0.00015650487 6.7774665e-05 0.00026550665 2.4294866e-05
-0.00044550135 0.00026420451 -0.00039896247 0.00028799623 -0.0002745775 -5.8494134e-06 5.0287763e-05 0.00027968004
0.0001533086 -0.00041634787 1.31720835e-05 -3.2529566e-05 4.3070424e-05 0.00019949004 0.00046053482 -0.00039874244
-1.38345795e-05 0.00018637997 0.0006254003 -0.0002241536
00000000: 9221 a4b9 cdbd 9039 4ce5 e439 f1d9 8fb8
00000010: 751b 2439 3f22 8e38 b333 8b39 d4cc cb37
00000020: 2e92 e9b9 ee84 8a39 d62b d1b9 33fe 9639
00000030: 2bf5 8fb9 1446 c4b6 13ec 5238 05a2 9239
00000040: 77c1 2039 4449 dab9 abfd 5c37 5b70 08b8
00000050: 84a6 3438 332e 5139 f073 f139 4e0e d1b9
00000060: 111b 68b7 fe6e 4339 e7f1 233a c60a 6bb9

exp_avg_sq f4 [7, 4]
9.98097e-07 1.793193e-06 1.4088097e-06 1.4482544e-06 1.0549986e-06 1.6830612e-06 1.256668e-06 1.2079493e-06
1.9758106e-06 1.0848281e-06 2.2012025e-06 1.1469414e-06 1.6169741e-06 6.9624895e-07 2.117395e-06 2.1066096e-06
2.0452596e-06 4.3334826e-06 1.5521242e-06 1.2849852e-06 1.5620308e-06 8.7840976e-07 1.5773062e-06 1.596766e-06
1.3982645e-06 1.9552847e-06 1.4904006e-06 8.4312177e-07
00000000: 5af6 8535 a4ad f035 5516 bd35 a461 c235
00000010: 7a99 8d35 8be5 e135 c9aa a835 d220 a235
00000020: 2b98 0436 699a 9135 5fb8 1336 9bf0 9935
00000030: cf06 d935 dde5 3a35 9218 0e36 475f 0d36
00000040: 4b41 0936 5568 9136 9552 d035 c177 ac35
00000050: f8a6 d135 dccb 6b35 d4b3 d335 7650 d635
00000060: 01ac bb35 8937 0336 c609 c835 e352 6235

exp_avg f4 [6, 3]
-0.00039421287 -0.00039025125 -0.0010872321 0.00014065576 0.0002219792 0.00030345554 0.00082015584 0.0005882955
0.00014923366 0.001257476 0.00012512073 0.0008875522 -0.0013441377 0.0005180327 -0.00063358265 0.00072395924
0.00036192115 0.00046695373
00000000: 5bae ceb9 a39a ccb9 7581 8eba fe7c 1339
00000010: 16c3 6839 1d19 9f39 baff 563a d837 1a3a
00000020: 9b7b 1c39 e5d1 a43a d732 0339 9faa 683a
00000030: c72d b0ba 96cc 073a 0317 26ba 15c8 3d3a
00000040: 3cc0 bd39 78d1 f439

exp_avg_sq f4 [6, 3]
1.875056e-05 3.3798074e-06 5.985156e-06 7.4910695e-06 1.347807e-06 2.0882924e-06 1.5423544e-05 6.481342e-06
7.559823e-06 2.1032303e-05 4.2755314e-06 5.095101e-06 2.900316e-05 1.4271876e-05 9.354583e-06 1.6154545e-05
1.5653274e-06 1.0586163e-05
00000000: 854a 9d37 a6d0 6236 19d4 c836 cc5b fb36
00000010: 4ce6 b435 9724 0c36 cf61 8137 4e7a d936
00000020: 63aa fd36 876e b037 8976 8f36 96f6 aa36
00000030: d04b f337 3e71 6f37 a1f1 1c37 9f83 8737
00000040: 3d18 d235 399b 3137

exp_avg f4 [6, 3]
6.647741e-05 -0.00084226247 0.00018299195 -0.0003102544 -0.00082606316 -0.00061944436 -0.00041706843 -0.00018150621
0.00018591931 3.5406083e-05 0.00034976157 -0.00019568812 -0.00025352908 4.221841e-05 -6.7128145e-05 5.686636e-05
0.00079377746 -5.5738754e-05
00000000: ca69 8b38 47cb 5cba 87e1 3f39 a4a9 a2b9
00000010: 298c 58ba 3562 22ba faa9 dab9 b452 3eb9
00000020: 56f3 4239 fe80 1438 3460 b739 a131 4db9
00000030: 19ec 84b9 ac13 3138 26c7 8cb8 ca83 6e38
00000040: 8115 503a 08c9 69b8

exp_avg_sq f4 [6, 3]
8.4485606e-07 1.0175239e-05 1.0116612e-06 1.6402616e-06 1.4164719e-05 1.134238e-06 1.7073618e-06 1.0653757e-05
1.6697427e-06 1.3788018e-06 7.848968e-06 1.1432624e-06 1.7217005e-06 7.4315567e-06 1.0577687e-06 1.9685588e-06
2.6772435e-05 2.688607e-06
00000000: 11ca 6235 52b6 2a37 6ac8 8735 f626 dc35
00000010: 01a5 6d37 1f3c 9835 8128 e535 8abd 3237
00000020: ec1b e035 450f b935 10af 0337 3272 9935
00000030: 2e15 e735 965c f936 a8f8 8d35 951b 0436
00000040: 5e95 e037 eb6d 3436

exp_avg f4 [4, 2]
0.00010640706 -0.00020005151 -0.0002372768 6.911791e-05 0.0006805504 -8.713254e-05 0.0004123729 -0.0001343634
00000000: db26 df38 ebc4 51b9 82cd 78b9 65f3 9038
00000010: f766 323a edba b6b8 c133 d839 e7e3 0cb9

exp_avg_sq f4 [4, 2]
3.5911069e-06 2.8234704e-06 6.1617125e-06 2.1298108e-06 6.653917e-06 1.8723932e-06 2.9142254e-06 2.0415903e-06
00000000: bffe 7036 da7a 3d36 b5c0 ce36 dfed 0e36
00000010: b644 df36 f14e fb35 0392 4336 4102 0936

exp_avg f4 [8, 4]
-5.619192e-05 0.00023005978 1.6466403e-05 0.0002252114 -6.9870024e-05 -0.00036299846 0.0005583647 0.0001725972
0.00027627306 -0.00015634141 -9.2091366e-05 -0.000242318 -0.0006394383 0.00034050524 -0.00012185368 0.0008763882
-0.0002681811 0.0012327915 -0.0014417642 -0.00040326794 -0.0005895138 0.00039962342 0.00033189636 0.00037123336
-5.4416552e-05 -2.105815e-05 -0.00014046338 -2.18448e-05 -0.00069090206 0.00085698237 7.4298776e-05 -0.0006148133
00000000: 9daf 6bb8 343c 7139 5521 8a37 ba26 6c39
00000010: 2f87 92b8 d450 beb9 395f 123a 35fb 3439
00000020: bed8 9039 94ef 23b9 2d21 c1b8 be16 7eb9
00000030: fa9f 27ba d785 b239 b28b ffb8 6bbd 653a
00000040: a89a 8cb9 9e95 a13a 94f9 bcba b56d d3b9
00000050: 9a89 1aba 8c84 d139 6002 ae39 19a2 c239
00000060: 543d 64b8 08a6 b0b7 5a49 13b9 5a3f b7b7
00000070: a71d 35ba 1da7 603a dad0 9b38 6c2b 21ba

exp_avg_sq f4 [8, 4]
2.0676384e-06 9.0071933e-07 1.0292551e-06 1.1140831e-06 3.0796882e-06 2.8750999e-06 3.102549e-06 2.205686e-06
7.941478e-06 2.1831277e-06 1.2910219e-06 2.9374032e-06 6.3907514e-06 4.8319157e-06 4.1370463e-06 3.2056923e-06
9.257045e-06 8.933669e-06 9.962599e-06 9.017094e-06 5.1003535e-06 1.5081121e-06 1.7562837e-06 1.82532e-06
8.214032e-07 1.5073364e-07 5.271003e-07 1.4620873e-07 1.0147594e-05 6.601913e-06 5.6871722e-06 9.599958e-06
00000000: c2c1 0a36 f6c8 7135 f024 8a35 9b87 9535
00000010: a4ac 4e36 d7f1 4036 6335 5036 6605 1436
00000020: 633c 0537 d981 1236 2d47 ad35 3420 4536
00000030: 2370 d636 d721 a236 f5d0 8a36 6021 5736
00000040: b54e 1b37 d1e1 1537 0925 2737 2048 1737
00000050: b423 ab36 566a ca35 73b9 eb35 85fd f435
00000060: 667e 5c35 59d9 2134 0f7e 0d35 8dfd 1c34
00000070: 963f 2a37 0086 dd36 70d4 be36 810f 2137

exp_avg f4 [3, 2]
-0.00020477068 -0.00081558066 -5.7465695e-05 0.002057622 -0.00052873325 0.0024662341
00000000: b6b7 56b9 b1cc 55ba 5207 71b8 2bd9 063b
00000010: b09a 0aba 8ba0 213b

exp_avg_sq f4 [3, 2]
1.4023675e-06 0.00012061952 1.6680833e-06 0.0001786448 1.6977777e-06 0.00019726029
00000000: fb38 bc35 1df5 fc38 e8e2 df35 9952 3b39
00000010: 33df e335 a8d7 4e39

exp_avg f4 [7, 4]
-0.00013670565 -0.00052242377 -3.124158e-05 -0.00042753675 -0.00017295305 7.234278e-05 -6.48793e-05 5.0395676e-05
0.00028759096 -7.112215e-05 0.00023709246 0.00025434582 0.0018762043 0.0019557737 0.0004473044 0.0024031152
-0.0003843885 0.00046817222 -0.00012652924 -0.0004788219 -0.00023856173 -0.00018578867 -0.0005955164 -0.0008966572
-0.0005496869 0.00054739945 8.943638e-05 0.0005669397
00000000: a558 0fb9 44f3 08ba 6409 03b8 0327 e0b9
00000010: bb5a 35b9 bcb6 9738 cf0f 88b8 f25f 5338
00000020: cec7 9639 6a27 95b8 069c 7839 b859 8539
00000030: f8ea f53a 702c 003b 2e84 ea39 957d 1d3b
00000040: c087 c9b9 0375 f539 efac 04b9 630a fbb9
00000050: 6d26 7ab9 44d0 42b9 6e1c 1cba a50d 6bba
00000060: dd18 10ba 5b7f 0f3a ca8f bb38 ae9e 143a

exp_avg_sq f4 [7, 4]
7.2096227e-06 2.056428e-05 2.863436e-06 2.2636204e-05 6.9001558e-06 1.4612445e-05 3.757779e-06 1.6098451e-05
1.578618e-05 1.8701072e-05 3.7529617e-06 3.1927008e-05 1.3586405e-05 1.7851586e-05 3.3518265e-06 2.289917e-05
1.50327005e-05 2.6685737e-05 6.222884e-06 4.6452482e-05 1.2252858e-05 2.089735e-05 4.3819928e-06 2.2096063e-05
5.690415e-06 1.8737526e-05 1.974039e-06 1.7449942e-05
00000000: 30ea f136 7481 ac37 7529 4036 e1e2 bd37
00000010: e387 e736 f927 7537 272e 7c36 290b 8737
00000020: 906c 8437 3fe0 9c37 64db 7b36 5de9 0538
00000030: 2af1 6337 fdbf 9537 f1ef 6036 9817 c037
00000040: f534 7c37 2fdb df37 2bce d036 f9d5 4238
00000050: a091 4d37 b84c af37 0809 9336 ef5a b937
00000060: 4bf0 be36 882e 9d37 bb79 0436 7761 9237

exp_avg f4 [6, 3]
-0.00062759075 -0.0009407928 -7.1079725e-05 0.0005219691 -3.5893156e-06 -0.00042468178 -9.381058e-05 0.00033270876
-0.0002736802 -0.00034845073 0.00040840887 -0.001146262 -0.00021212576 -0.0012442458 0.0007185094 2.595263e-05
0.00015602389 -0.0005192826
00000000: e784 24ba 899f 76ba a310 95b8 c1d4 083a
00000010: f9df 70b6 d3a7 deb9 2cbc c4b8 6a6f ae39
00000020: bc7c 8fb9 44b0 b6b9 b61f d639 2c3e 96ba
00000030: 136e 5eb9 f615 a3ba 595a 3c3a d9b4 d937
00000040: 589a 2339 7720 08ba

exp_avg_sq f4 [6, 3]
5.421415e-06 2.123581e-05 5.3821474e-05 3.454986e-06 7.1633626e-06 1.8132117e-05 1.1512534e-05 1.5358031e-05
3.062397e-05 3.356029e-06 1.3971556e-05 4.222622e-05 1.2681707e-05 2.6286747e-05 5.649632e-05 3.5029168e-06
1.7543365e-05 1.0703284e-05
00000000: 9ae9 b536 8e23 b237 5ebe 6138 35dc 6736
00000010: d15c f036 6d1a 9837 f525 4137 1fd5 8037
00000020: 3d72 0038 2438 6136 6067 6a37 0f1c 3138
00000030: 84c3 5437 5c82 dc37 76f6 6c38 a713 6b36
00000040: 172a 9337 4192 3337

exp_avg f4 [6, 3]
7.0162736e-05 -6.019411e-05 -0.00017392449 0.0002757506 -0.0005283404 -0.00014515709 0.00036455254 6.948715e-05
-2.7855769e-05 0.00024444834 0.00017908623 0.00013538617 -0.00023643296 -0.0008442157 -0.00051891594 -6.4733795e-05
-0.00059510034 -0.00050048943
00000000: 5524 9338 ef78 7cb8 805f 36b9 9e92 9039
00000010: 5380 0aba 4f35 18b9 6a21 bf39 a1b9 9138
00000020: cfab e9b7 4d29 8039 18c9 3b39 73f6 0d39
00000030: fdea 77b9 5b4e 5dba dc07 08ba b1c1 87b8
00000040: 8200 1cba 4733 03ba

exp_avg_sq f4 [6, 3]
9.818297e-07 1.4258053e-06 4.493426e-06 1.7141666e-06 1.9977385e-06 1.5590313e-06 2.3453924e-06 2.441025e-06
7.021428e-07 1.9175304e-06 2.1060384e-06 1.6678347e-06 1.1255581e-06 1.5849278e-06 2.6484254e-06 1.3656916e-06
1.2946771e-06 3.756161e-06
00000000: 69c7 8335 4c5e bf35 3cc6 9636 5112 e635
00000010: e310 0636 e83f d135 8965 1d36 7dd0 2336
00000020: e37a 3c35 ecae 0036 7755 0d36 5dda df35
00000030: e211 9735 b4b9 d435 9abb 3136 ce4c b735
00000040: c4c4 ad35 5b12 7c36

exp_avg f4 [4, 2]
6.961089e-05 0.0003403079 -0.000110533336 0.0002396617 -8.503944e-05 0.00021687198 -0.00026834803 0.00033313455
00000000: 10fc 9138 5a6b b239 22ce e7b8 b34d 7b39
00000010: 3457 b2b8 2168 6339 10b1 8cb9 90a8 ae39

exp_avg_sq f4 [4, 2]
1.1411635e-06 3.0818978e-06 1.2089381e-06 2.92033e-06 1.5259014e-06 2.5800737e-06 1.0898538e-06 1.9259867e-06
00000000: 142a 9935 9ad2 4e36 cc42 a235 e3fa 4336
00000010: 93cd cc35 5425 2d36 1747 9235 3340 0136

exp_avg f4 [5, 3]
5.6986268e-05 -0.00055335986 0.00022676472 0.0002776364 -0.000444892 0.0013905113 -0.00047232484 0.00082585844
5.1207917e-05 0.00080155337 -0.0008115108 0.00084378175 0.00023206793 0.00027495806 0.00034949073
00000000: 8a04 6f38 5a0f 11ba b1c7 6d39 ba8f 9139
00000010: 6540 e9b9 d141 b63a 5ea2 f7b9 6c7e 583a
00000020: 15c8 5638 561f 523a 91bb 54ba 3c31 5d3a
00000030: 4357 7339 3f28 9039 da3b b739

exp_avg_sq f4 [5, 3]
4.008394e-06 2.5535343e-05 5.555508e-06 4.783855e-06 2.7455313e-05 9.457292e-06 1.5993359e-05 3.2867345e-05
1.0937261e-05 1.34459715e-05 6.041574e-05 2.298225e-05 2.1982418e-05 7.5990334e-05 2.3479994e-05
00000000: d87f 8636 bb34 d637 7369 ba36 0085 a036
00000010: d64f e637 c3aa 1e37 7a29 8637 0bdb 0938
00000020: 2e7f 3737 0296 6137 e866 7d38 02ca c037
00000030: e266 b837 005d 9f38 e7f6 c437

exp_avg f4 [128, 42]
-3.0884921e-06 3.5391262e-05 1.5255356e-05 3.8401784e-05 -2.0259697e-05 4.290252e-05 7.611045e-05 -2.4214796e-05
-1.9665837e-05 1.9334062e-05 -4.7806083e-05 1.858116e-05 2.936597e-05 2.163021e-05 2.3733826e-05 -6.4285945e-05
-3.9207243e-05 5.7549532e-05 -9.902445e-06 -5.165389e-05 2.093865e-05 -2.1005106e-05 -8.084908e-05 2.252e-05
1.2039641e-05 -2.7112649e-06 2.5591868e-05 7.31509e-05 1.7880231e-05 8.146311e-06 -2.9426205e-06 -2.0788173e-05
-6.402633e-05 2.924394e-05 1.858829e-05 -2.1713315e-05 2.7381355e-05 0.0010813392 0.00022493012 -7.118839e-05
2.363285e-06 1.3908635e-05 5.339385e-05 3.970655e-05 0.00014925723 -9.335756e-05 0.0001758504 0.00026689455
-1.1500175e-05 7.8915844e-05 -0.00029961302 0.00012538143 4.221388e-05 -0.00042520527 0.000152177 8.374606e-05
-7.182244e-06 4.9927356e-05 0.00018672018 -6.5663144e-06 -0.00047295305 0.0001713867 3.8419235e-05 -0.00017291526
0.00016947644 0.00010423964 -0.0001500215 -0.0003581714 -0.00020293822 0.00032497212 0.0002515853 5.975008e-06
0.00025336727 0.00023631337 0.00012731134 0.00016585978 0.0001864565 -0.00016488474 0.00040162855 -0.0016302067
0.005388817 0.0020565672 9.773803e-05 0.00026737683 0.00035177308 0.00047251128 -5.277675e-05 0.00042680858
-0.00096399523 -0.0014327877 -0.0008030248 0.00079136895 0.000854061 -0.0007887946 -0.0003801892 -9.789253e-05
-0.00035540422 0.00050742005 -0.0007360664 0.00025164417 -0.0010758503 0.0008694268 0.0012266859 -0.0021082105
0.0006272252 0.00034232295 0.0019204312 0.00030679916 0.00014121897 -0.0011324966 0.00013860423 -0.00035782438
-0.00030788465 -0.0007030686 0.00088598067 -0.00024522448 0.0013938724 -0.00035352205 -0.0015515436 -0.00054286
-0.00062470365 0.004891246 -0.008554254 0.005761001 0.00035593964 -0.0006984519 -0.00011336363 -4.924859e-05
-6.91733e-05 -4.3794684e-05 -0.00010547656 -0.00015523851 -7.716107e-05 -2.7620861e-05 2.001874e-05 -0.00028522365
-4.506904e-05 4.3936983e-05 6.107074e-05 -9.7594486e-05 7.6526194e-05 -0.00011573445 -0.00030805732 0.0003716984
-0.00012831716 -0.00034621492 8.648523e-05 -0.000108910404 -8.211425e-06 -3.285652e-05 -2.7797301e-05 -0.000109892804
-0.0002854849 5.587617e-05 -0.00013212048 -0.00017854194 8.9891175e-05 0.00033387562 -0.0003033205 5.963034e-05
0.000203298 -3.416309e-05 0.00013978267 0.0017711797 0.0010555936 0.0033330952 0.00021409788 3.3010532e-05
0.0001198416 0.00020995889 -8.7893466e-05 0.00038630655 -0.00023927385 -0.00035140125 -0.0005947139 7.323836e-05
0.00030475808 -0.00013827682 -5.390209e-05 0.00019060173 -0.00032564465 0.0002504596 4.1048246e-05 -0.00020498112
-0.00036025574 0.0009176771 -0.00068762363 -0.00042091805 9.698514e-05 0.00038699832 0.0007112235 0.00019239294
-0.00020182387 -6.305678e-05 -2.7449258e-05 -0.00038875194 3.9641072e-05 -9.842958e-05 -0.0002894522 0.00017828884
0.00032321794 -2.4492503e-05 -0.00011992458 0.00022797546 -0.00016343061 -0.0065748603 -0.0036365963 -0.00025567104
-0.00019411887 5.8760987e-05 1.800274e-05 0.00010038459 0.00016508106 0.0002181462 3.6147172e-05 -2.3454208e-05
-3.1038722e-05 -6.840727e-05 3.043022e-05 0.0003111785 -0.00016483963 0.00012024866 -0.00010198579 -5.3885946e-05
0.00023057385 -0.00022173549 0.00017214958 0.00047193305 -0.0007151511 -0.00014518027 0.00024753716 0.00013451527
0.00039081616 0.00030192896 -1.4765763e-05 -0.0003189366 -0.00017825954 5.699577e-05 0.00036047312 -4.6940454e-06
9.244909e-05 0.0001844181 0.00057903206 0.00010134185 6.581757e-07 0.00021968252 0.00022876667 -0.008215774
-0.005831952 0.003455561 -0.00020566386 0.00017954096 -9.1597736e-05 -0.00023680695 8.628873e-05 -6.4039894e-05
00000000: e443 4fb6 1471 1438 41f1 7f37 9a11 2138
00000010: 5ef3 a9b7 3bf2 3338 7d9d 9f38 e120 cbb7
00000020: 10f8 a4b7 952f a237 6483 48b8 bdde 9b37
00000030: f156 f637 8672 b537 0118 c737 41d1 86b8
00000040: 7572 24b8 5761 7138 ad22 26b7 f1a6 58b8
00000050: 69a5 af37 1f34 b0b7 858d a9b8 55e9 bc37
00000060: ddfd 4937 2df3 35b6 1eae d637 9768 9938
00000070: 81fd 9537 24ac 0837 d679 45b6 4362 aeb7
00000080: e045 86b8 e250 f537 0cee 9b37 fd24 b6b7
00000090: 03b1 e537 b9bb 8d3a 38db 6b39 fa4a 95b8
000000a0: ed98 1e36 2259 6937 36f3 5f38 958a 2638
000000b0: ef81 1c39 f5c8 c3b8 7b64 3839 fbed 8b39
000000c0: e0f0 40b7 9f7f a538 6115 9db9 d278 0339
000000d0: cf0e 3138 16ee deb9 b491 1f39 d3a0 af38
000000e0: 02ff f0b6 1769 5138 51ca 4339 3654 dcb6
000000f0: aff6 f7b9 44b6 3339 5724 2138 9650 35b9
00000100: 7cb5 3139 3b9b da38 174f 1db9 f4c8 bbb9
00000110: d0cb 54b9 0561 aa39 35e7 8339 ee7c c836
00000120: 61d6 8439 e3ca 7739 e17e 0539 a5ea 2d39
00000130: 8983 4339 e9e4 2cb9 ac91 d239 a9ac d5ba
00000140: ac94 b03b 79c7 063b b5f8 cc38 b62e 8c39
00000150: 2f6e b839 64bb f739 9b5c 5db8 47c5 df39
00000160: a0b4 7cba 61cc bbba 1582 52ba df73 4f3a
00000170: 10e3 5f3a 1cc7 4eba 2154 c7b9 a74b cdb8
00000180: 8c55 bab9 6204 053a 94f4 40ba 1cef 8339
00000190: 8c03 8dba 3fea 633a c0c8 a03a e729 0abb
000001a0: 5f6c 243a cf79 b339 fab6 fb3a e3d9 a039
000001b0: 2e14 1439 4870 94ba 4a56 1139 609a bbb9
000001c0: 946b a1b9 234e 38ba 2841 683a 7991 80b9
000001d0: 99b2 b63a ed58 b9b9 2a5d cbba b84e 0eba
000001e0: 27c3 23ba bf46 a03b 2427 0cbc c7c6 bc3b
000001f0: 699d ba39 5018 37ba a3bd edb8 4590 4eb8
00000200: 2211 91b8 2fb0 37b8 4c33 ddb8 85c7 22b9
00000210: 89d1 a1b8 59b3 e7b7 ebed a737 128a 95b9
00000220: 8308 3db8 fa48 3838 1b13 8038 a4ab ccb8
00000230: b07c a038 76b6 f2b8 c182 a1b9 84e0 c239
00000240: e08c 06b9 2e84 b5b9 685f b538 d466 e4b8
00000250: cdc3 09b7 6bcf 09b8 402e e9b7 4076 e6b8
00000260: 22ad 95b9 955c 6a38 d289 0ab9 fd36 3bb9
00000270: f583 bc38 070c af39 fd06 9fb9 971b 7a38
00000280: 642c 5539 574a 0fb8 a092 1239 ee26 e83a
00000290: d85b 8a3a 0f70 5a3b 767f 6039 ca74 0a38
000002a0: 7853 fb38 6928 5c39 7253 b8b8 3089 ca39
000002b0: 96e5 7ab9 473c b8b9 93e6 1bba 8c97 9938
000002c0: f0c7 9f39 67fe 10b9 ee14 62b8 43dc 4739
000002d0: 49bb aab9 1e50 8339 382b 2c38 33f0 56b9
000002e0: b5e0 bcb9 4590 703a a441 34ba aaae dcb9
000002f0: 8064 cb38 09e6 ca39 6771 3a3a 16bd 4939
00000300: afa0 53b9 5a3d 84b8 d542 e6b7 67d1 cbb9
00000310: 4744 2638 fa6b ceb8 9ec1 97b9 0cf3 3a39
00000320: 9475 a939 4075 cdb7 0580 fbb8 b20c 6f39
00000330: 925e 2bb9 ed71 d7bb f653 6ebb 960b 86b9
00000340: 638c 4bb9 2176 7638 9704 9737 9185 d238
00000350: 9c19 2d39 2dbe 6439 bb9c 1738 87bf c4b7
00000360: 932f 02b8 e075 8fb8 6644 ff37 ac25 a339
00000370: cdd8 2cb9 022e fc38 34e1 d5b8 9803 62b8
00000380: 32c6 7139 ab81 68b9 0d83 3439 c86d f739
00000390: fa78 3bba 883b 18b9 e0c7 8139 ab0c 0d39
000003a0: 75e6 cc39 384c 9e39 78ba 77b7 f236 a7b9
000003b0: 2eeb 3ab9 be0e 6f38 e2fd bc39 8b81 9db6
000003c0: 3ae1 c138 5b60 4139 2fca 173a 7e87 d438
000003d0: 7dad 3035 945a 6639 16e1 6f39 749b 06bc
000003e0: f619 bfbb b176 623b 79a7 57b9 2943 3c39
000003f0: 2918 c0b8 624f 78b9 e9f5 b438 284d 86b8
