model_save_Adam2.pth (torch, 38130 bytes, 19 tensors)

embeddings.0.weight f4 [7, 4]
0.5682895 0.1475245 0.97181875 -0.45467114 -0.94976676 -0.66333795 0.2503569 0.80606604
0.7904327 -1.1538447 2.506003 -0.28815064 1.606083 0.8215412 0.77463907 -0.12895118
0.89779913 1.2161393 -1.0093023 -1.3438569 -1.1011044 -0.67054904 0.8647338 0.6030181
-0.15495895 0.6866566 1.5882195 -0.07238956
00000000: 6c7b 113f aa10 173e 1dc9 783f a8ca e8be
00000010: ea23 73bf 84d0 29bf c82e 803e 585a 4e3f
00000020: cc59 4a3f 2fb1 93bf 5a62 2040 7b88 93be
00000030: 2194 cd3f 8650 523f bf4e 463f c70b 04be
00000040: 2ad6 653f 74aa 9b3f d130 81bf 8103 acbf
00000050: fdf0 8cbf 1aa9 2bbf 325f 5d3f 655f 1a3f
00000060: 8fad 1ebe bac8 2f3f c74a cb3f fa40 94bd

embeddings.1.weight f4 [7, 4]
-0.9385532 -1.1729864 -1.1871301 -0.25225013 1.3416257 -0.7329136 -0.5928037 0.6269127
0.47637388 -2.4950426 -0.93895507 0.014623661 -0.9177193 -0.15621118 -1.2233162 1.0821966
-1.2689074 -0.6868644 0.46051082 1.3950026 0.7403828 -0.54751617 0.90903574 0.4492457
-1.6347474 1.3317989 0.98566556 -1.1020207
00000000: 0645 70bf 6b24 96bf e1f3 97bf ee26 81be
00000010: 64ba ab3f 3aa0 3bbf fcc1 17bf 5a7d 203f
00000020: 47e7 f33e c7ae 1fc0 5c5f 70bf 1498 6f3c
00000030: a7ef 6abf d3f5 1fbe a095 9cbf 6b85 8a3f
00000040: 8f6b a2bf 58d6 2fbf 13c8 eb3e 728f b23f
00000050: ba89 3d3f 052a 0cbf 91b6 683f 8803 e63e
00000060: 673f d1bf 6378 aa3f 9454 7c3f 040f 8dbf

embeddings.2.weight f4 [6, 3]
0.27034003 -3.9189732 -0.49080506 0.3074175 -0.50503516 -0.1937024 0.69511175 -0.15808928
-0.35562602 1.6444249 -0.87962145 1.5571343 0.33172464 0.8194829 -0.554701 -1.0283233
0.6193712 -0.95472574
00000000: 026a 8a3e 75d0 7ac0 cd4a fbbe d465 9d3e
00000010: fc49 01bf ec59 46be d8f2 313f 28e2 21be
00000020: 9d14 b6be 847c d23f df2e 61bf 2d50 c73f
00000030: d0d7 a93e a2c9 513f e200 0ebf 19a0 83bf
00000040: 1c8f 1e3f e868 74bf

embeddings.3.weight f4 [6, 3]
-0.45377958 0.06936143 0.66962886 -1.1949075 0.49205917 1.9521401 1.0821849 0.038420852
1.9267731 0.25956914 1.5868955 0.7028222 -0.8557965 -0.050756484 0.4010482 1.4328806
-0.9126058 0.52463627
00000000: cc55 e8be 5e0d 8e3d cc6c 2b3f bbf2 98bf
00000010: 2eef fb3e badf f93f 0985 8a3f 2f5f 1d3d
00000020: 80a0 f63f 3fe6 843e 641f cb3f 28ec 333f
00000030: 7b15 5bbf 08e6 4fbd 3156 cd3e a268 b73f
00000040: 89a0 69bf 904e 063f

embeddings.4.weight f4 [4, 2]
-0.99670035 1.8994287 1.0870953 1.3977823 0.036869094 0.6062421 1.4128227 -0.37487838
00000000: c127 7fbf 7b20 f33f f025 8b3f 88ea b23f
00000010: 0c04 173d af32 1b3f 60d7 b43f 0ff0 bfbe

embeddings.5.weight f4 [8, 4]
0.12193192 -0.36721748 -0.50645596 -0.3542583 -0.9651792 -0.8882784 1.0713108 -0.69173086
1.3806944 -3.1827297 -0.481207 0.47411653 1.2258389 0.027444232 0.08656513 0.59513843
2.4151592 1.3297608 0.9916783 2.5528111 -0.9892378 0.929298 0.71698755 -0.11004411
-0.25357673 -0.27633035 0.03290989 -0.3118125 -0.21722367 -0.15137573 0.10853816 0.803088
00000000: 71b7 f93d ee03 bcbe 19a7 01bf 5861 b5be
00000010: fc15 77bf 3766 63bf b620 893f 4615 31bf
00000020: 98ba b03f d8b1 4bc0 c460 f6be 67bf f23e
00000030: 4ae8 9c3f bad2 e03c 0f49 b13d fe5a 183f
00000040: f891 1a40 9a35 aa3f a1de 7d3f 4261 2340
00000050: b03e 7dbf 79e6 6d3f 7f8c 373f ce5e e1bd
00000060: cfd4 81be 2c7b 8dbe 85cc 063d e3a5 9fbe
00000070: e26f 5ebe 3d02 1bbe 4149 de3d 2d97 4d3f

embeddings.6.weight f4 [3, 2]
-0.7274826 0.16589187 0.43133467 0.14427349 0.7541591 0.9547071
00000000: 4d3c 3abf 8fdf 293e e6d7 dc3e 6ebc 133e
00000010: 9210 413f af67 743f

embeddings.7.weight f4 [7, 4]
-0.8223848 -1.664705 0.7085433 -0.18857886 0.4023106 -0.8760484 0.43972802 -0.81941503
0.67478704 -1.0886207 0.87708724 0.77022445 -2.7271435 0.060547315 1.4240195 0.41717446
0.8304444 -0.3287339 0.5117009 -0.14961646 -1.1643515 -0.79298395 -0.04500872 1.1461589
-1.2254995 0.8815298 -0.15110193 1.3711962
00000000: cf87 52bf 0e15 d5bf 1863 353f d11a 41be
00000010: a8fb cd3e b544 60bf 0824 e13e 2fc5 51bf
00000020: d8be 2c3f ec57 8bbf ca88 603f 6e2d 453f
00000030: 8589 2ec0 7600 783d 4546 b63f e497 d53e
00000040: 0198 543f cf4f a8be d5fe 023f 0f35 19be
00000050: 7809 95bf ff00 4bbf 105b 38bd 56b5 923f
00000060: 2bdd 9cbf f0ab 613f 77ba 1abe 5b83 af3f

embeddings.8.weight f4 [6, 3]
0.7319909 0.42201483 -0.19560407 0.75568855 -0.08430568 -0.51702046 0.35968336 -0.5839213
0.8758964 -0.80858505 -0.09587598 -0.3462301 -1.1613858 -1.2357776 -2.4903016 -1.2168427
0.9531414 0.8870676
00000000: c163 3b3f 5412 d83e 6f4c 48be ce74 413f
00000010: 75a8 acbd 745b 04bf 6b28 b83e de7b 15bf
00000020: bf3a 603f 6eff 4ebf a05a c4bd 1245 b1be
00000030: 4aa8 94bf f62d 9ebf 1a61 1fc0 80c1 9bbf
00000040: 1301 743f dd16 633f

embeddings.9.weight f4 [6, 3]
0.71321243 0.6106049 0.9387584 -0.1104281 -2.052633 1.453008 -2.1960185 2.01434
0.34892768 -0.4747438 0.2305127 2.9982994 2.1212664 0.82689154 0.67109346 0.06457511
1.2716854 -2.0718274
00000000: 1795 363f 9a50 1c3f 7852 703f 2128 e2bd
00000010: 575e 03c0 2bfc b93f 918b 0cc0 f2ea 0040
00000020: a6a6 b23e 9f11 f3be 850b 6c3e 23e4 3f40
00000030: d4c2 0740 2aaf 533f c8cc 2b3f f53f 843d
00000040: 96c6 a23f d298 04c0

embeddings.10.weight f4 [4, 2]
1.8748305 1.5464138 0.08070508 0.28522497 2.1265564 -1.2333732 -0.11387967 -0.032501504
00000000: 72fa ef3f e3f0 c53f b448 a53d 0209 923e
00000010: 8019 0840 2cdf 9dbf bf39 e9bd 4c20 05bd

embeddings.11.weight f4 [5, 3]
1.0505306 1.4928874 1.142766 -1.5886093 -1.2967893 1.3983384 2.4959948 -0.4502023
0.42147648 -0.3987188 1.4267502 -1.1074163 1.7639012 -0.5639802 0.22519813
00000000: c977 863f ef16 bf3f 2846 923f 8d57 cbbf
00000010: 31fd a5bf c1fc b23f 61be 1f40 ea80 e6be
00000020: c4cb d73e df24 ccbe c09f b63f d1bf 8dbf
00000030: 84c7 e13f 0261 10bf 579a 663e

model.0.weight f4 [64, 42]
0.008366247 0.15775467 -0.12723915 0.043577567 0.12329114 0.19216494 0.09601405 -0.026387626
0.11455592 -0.005061338 0.12236121 -0.07525453 -0.09966803 0.025543012 -0.0028643599 -0.1355772
0.015730128 0.14515509 0.12243199 -0.11311624 -0.069788046 -0.0221484 -0.057920065 0.047719687
-0.040787023 -0.15824538 0.12975548 -0.060134955 0.10058984 -0.0003362321 0.15860945 -0.047025487
-0.051375527 0.10696031 0.06863652 -0.047653206 0.09272178 0.10073859 0.06825593 0.10690523
-0.037701435 -0.049824167 -0.12571047 -0.015045894 -0.028532328 0.08219933 0.07344335 0.0450593
-0.05323217 0.091405615 -0.09389926 -0.016779656 -0.11401636 -0.095996805 -0.10823767 -0.049172718
-0.023400813 0.010694221 -0.09501723 0.1813264 0.103010185 -0.037221085 -0.15419395 -0.15817392
-0.07519446 -0.07666107 -0.017020887 -0.04507445 -0.09446159 -0.14342457 -0.07417939 -0.06025111
-0.1271989 0.056397777 -0.093680836 0.04100232 -0.17830715 -0.1182685 -0.14614636 0.17728618
0.07277256 -0.04873278 -0.08724632 -0.14752881 0.110285155 -0.017350728 -0.0074448674 -0.0067394506
-0.14733264 0.095371135 0.05722449 0.0024949347 -0.10720405 0.013184966 0.12713788 0.14600122
0.038072847 -0.07813381 0.15337361 0.1247261 0.06804366 -0.06582914 -0.08001496 0.036378257
0.081557736 -0.071379825 -0.031207822 -0.07364577 0.053399444 -0.11278274 -0.15002635 0.1326086
-0.01574292 0.12705593 -0.007464746 -0.08930576 0.015564684 -0.05053532 0.15303342 0.06648597
0.12734681 -0.08283244 -0.130868 -0.08649663 -0.018181568 -0.034631856 0.11203161 -0.12066316
0.13476464 -0.018393487 0.10563824 0.13798094 -0.07065868 -0.017609032 0.05437435 -0.15718527
-0.056633525 0.06086236 0.071033195 0.14780453 -0.06790383 -0.0007741879 0.10374253 -0.061593708
0.024573045 0.00998106 -0.046888318 -0.0070074946 -0.14192995 0.11966645 -0.060937982 0.101212114
0.00697163 -0.011480819 -0.013968785 -0.0022538519 -0.14353079 -0.06891821 -0.090459056 0.12827651
0.09603727 0.024831703 0.058817327 0.11935624 0.023056 -0.02641767 0.11512037 0.13889487
0.017391555 0.15230088 0.012121812 -0.05167443 -0.018338267 0.051937345 -0.060999323 -0.007715834
-0.017573716 0.101598926 -0.07623646 -0.092565954 -0.093970545 0.17860787 0.10082109 0.19148336
0.16449429 -0.09744825 0.13244434 0.098058395 0.06393346 0.17831254 -0.12625991 -0.13738537
0.14203088 -0.0068817134 -0.17421952 0.1333244 -0.09711479 0.063698255 0.14237873 0.091349825
0.14973807 0.05803501 0.21655099 -0.06959298 0.043804824 -0.12070659 -0.0048724273 0.006172067
0.14153089 0.1891569 -0.07151755 0.04081061 0.03492625 -0.15535207 -0.11569136 -0.06322324
-0.044572886 0.15119387 -0.0137531785 0.0981137 -0.1250766 -0.0024499467 -0.038642436 -0.08676731
-0.107935876 0.034439817 -0.015791085 -0.065314196 -0.0629735 0.117408946 0.14819692 0.090260714
-0.07667863 -0.013753707 0.14000298 0.102039255 0.04050408 0.119730875 0.008901979 0.008765156
0.09109966 -0.014570049 0.048853617 0.0028270374 0.13869469 -0.08341743 0.10086289 -0.09017817
0.019118816 -0.10250827 0.075939015 0.14508344 -0.10119273 0.03943095 -0.11663949 0.031530526
00000000: 9512 093c 718a 213e fb4a 02be 647e 323d
00000010: 1180 fc3d e3c6 443e 04a3 c43d dd2a d8bc
00000020: 4b9c ea3d 95d9 a5bb 8498 fa3d 0c1f 9abd
00000030: c11e ccbd 943f d13c fcb7 3bbb c0d4 0abe
00000040: 78dc 803c 89a3 143e a0bd fa3d 7da9 e7bd
00000050: 09ed 8ebd 9070 b5bc 973d 6dbd b875 433d
00000060: 4b10 27bd 140b 22be 9fde 043e 1250 76bd
00000070: 0c02 ce3d 4f48 b0b9 846a 223e cc9d 40bd
00000080: 256f 52bd 020e db3d 4e91 8c3d 0230 43bd
00000090: ebe4 bd3d 0950 ce3d c4c9 8b3d 21f1 da3d
000000a0: d26c 1abd 6d14 4cbd 3fba 00be 0e83 76bc
000000b0: a1bc e9bc 1f58 a83d 7869 963d 1a90 383d
000000c0: fa09 5abd de32 bb3d 414e c0bd 7d75 89bc
000000d0: 6981 e9bd f999 c4bd b6ab ddbd 5569 49bd
000000e0: 10b3 bfbc d036 2f3c 6598 c2bd a1ad 393e
000000f0: 01f7 d23d 2375 18bd 05e5 1dbe 58f8 21be
00000100: 8eff 99bd 7b00 9dbd 636f 8bbc fd9f 38bd
00000110: 1475 c1bd e4dd 12be 5deb 97bd dec9 76bd
00000120: 6e40 02be 5b01 673d bddb bfbd 0cf2 273d
00000130: 2696 36be c136 f2bd 64a7 15be 828a 353e
00000140: c809 953d 069c 47bd 33ae b2bd cb11 17be
00000150: 2fdd e13d 1d23 8ebc 13f4 f3bb 9cd6 dcbb
00000160: 5ede 16be f151 c33d 3a64 6a3d 0f82 233b
00000170: cc8d dbbd c105 583c 6f30 023e 5881 153e
00000180: 46f2 1b3d 9e04 a0bd f90d 1d3e 6670 ff3d
00000190: 795a 8b3d 6ed1 86bd e2de a3bd 5e01 153d
000001a0: be07 a73d 962f 92bd 8ca7 ffbc 98d3 96bd
000001b0: 60b9 5a3d a3fa e6bd 82a0 19be 8dca 073e
000001c0: 4cf7 80bc f31a 023e d49a f4bb f0e5 b6bd
000001d0: 0403 7f3c 20fe 4ebd cbb4 1c3e cc29 883d
000001e0: 3467 023e 0ea4 a9bd 4302 06be 2525 b1bd
000001f0: 83f1 94bc 22da 0dbd d470 e53d 3f1e f7bd
00000200: beff 093e f0ad 96bc dd58 d83d e04a 0d3e
00000210: 7fb5 90bd d140 90bc a3b7 5e3d 2df5 20be
00000220: 8ef8 67bd cf4a 793d da79 913d 125a 173e
00000230: 2a11 8bbd dff2 4aba f776 d43d af49 7cbd
00000240: 694d c93c 9a87 233c f70d 40bd 209f e5bb
00000250: 1656 11be af13 f53d 1b9a 79bd 4c48 cf3d
00000260: 4572 e43b 0c1a 3cbc 55dd 64bc 5cb5 13bb
00000270: bcf9 12be fe24 8dbd 9942 b9bd eb5a 033e
00000280: 30af c43d db6b cb3c 70ea 703d 0b71 f43d
00000290: f0df bc3c df69 d8bc 3bc4 eb3d 753a 0e3e
000002a0: bc78 8e3c c3f4 1b3e 919a 463c 91a8 53bd
000002b0: 223a 96bc 41bc 543d 6dda 79bd 1bd5 fcbb
000002c0: c1f6 8fbc 1913 d03d dc21 9cbd 3893 bdbd
000002d0: a173 c0bd fbe4 363e 4a7b ce3d 3714 443e
000002e0: 3171 283e f392 c7bd 7d9f 073e d7d2 c83d
000002f0: 8cef 823d 9097 363e 474a 01be c0ae 0cbe
00000300: 8b70 113e ff7f e1bb 9a66 32be 3186 083e
00000310: 1ee4 c6bd 3b74 823d bbcb 113e 9e15 bb3d
00000320: f054 193e 1eb6 6d3d 8bbf 5d3e c486 8ebd
00000330: b06c 333d 0435 f7bd e2a8 9fbb 0d3f ca3b
00000340: 79ed 103e 59b2 413e cb77 92bd 0729 273d
00000350: d40e 0f3d 9d14 1fbe 97ef ecbd 307b 81bd
00000360: 0f92 36bd 91d2 1a3e 0355 61bc d6ef c83d
00000370: 1514 00be 498f 20bb 8847 1ebd 0fb3 b1bd
00000380: 7c0d ddbd c410 0d3d 4e5c 81bc 73c3 85bd
00000390: 40f8 80bd 1a74 f03d efc0 173e 9cda b83d
000003a0: b009 9dbd 3a57 61bc f15c 0f3e f5f9 d03d
000003b0: 9be7 253d 7635 f53d 9bd9 113c bb9b 0f3c
000003c0: 7592 ba3d 37b7 6ebc bb1a 483d d145 393b
000003d0: fb05 0e3e c2d6 aabd 3491 ce3d 55af b8bd
000003e0: 109f 9c3c dbef d1bd ea85 9b3d c190 143e
000003f0: 223e cfbd 5982 213d afe0 eebd 2726 013d

model.0.bias f4 [64]
-0.10273872 -0.1619581 -0.1131033 -0.052050717 0.13229106 0.050021533 0.18747316 0.13444784
0.18108724 0.07720517 0.111849084 -0.12560228 0.14228329 -0.10093247 -0.085420296 0.05467562
0.10377247 -0.041649237 0.051927548 0.012846385 0.15556362 -0.057900157 0.053825207 -0.09606649
-0.0243861 0.01111641 -0.046761643 0.100261256 0.074420795 0.07464078 -0.1324749 0.031124227
-0.017470663 0.13322157 -0.113645025 -0.13939035 0.01788056 -0.10262459 0.052224837 -0.1140213
0.24446385 -0.12655231 0.15794276 -0.032069147 -0.06812223 0.11314375 0.0059325737 0.10339795
0.19428203 0.06347702 0.038663164 -0.07445167 -0.13960984 0.08515873 0.035594735 0.14386103
-0.16891444 -0.07816426 0.102253735 -0.06315581 -0.08873065 -0.10773992 0.049078822 -0.044436894
00000000: ae68 d2bd 58d8 25be b4a2 e7bd 2233 55bd
00000010: 4f77 073e 61e3 4c3d f7f8 3f3e b2ac 093e
00000020: ef6e 393e bf1d 9e3d 2211 e53d e29d 00be
00000030: b6b2 113e afb5 cebd d6f0 aebd 8bf3 5f3d
00000040: a986 d43d 6498 2abd fbb1 543d a579 523c
00000050: 124c 1f3e b728 6dbd d277 5c3d 82be c4bd
00000060: 5cc5 c7bc 9a21 363c 2389 3fbd c655 cd3d
00000070: ee69 983d 44dd 983d 80a7 07be 3cf8 fe3c
00000080: a31e 8fbc 3c6b 083e b9be e8bd 58bc 0ebe
00000090: 417a 923c d72c d2bd b6e9 553d 0084 e9bd
000000a0: bb54 7a3e ee96 01be bfbb 213e f05a 03bd
000000b0: ab83 8bbd e9b7 e73d 0966 c23b 4ec2 d33d
000000c0: def1 463e 3d00 823d 445d 1e3d 1e7a 98bd
000000d0: e2f5 0ebe b367 ae3d c9cb 113d 4e50 133e
000000e0: e8f7 2cbe 9514 a0bd 686a d13d d557 81bd
000000f0: 6ab8 b5bd bfa6 dcbd e006 493d 7603 36bd

model.2.weight f4 [48, 64]
0.055167936 0.11172929 -0.074235596 -0.02805911 -0.047627773 -0.034697007 -0.029023202 0.049166895
0.035282534 -0.12619537 -0.11573002 0.07900044 0.027845083 0.060836542 -0.07981666 0.011145216
0.0021941822 0.016272394 0.09844056 0.002430767 -0.07743788 -0.05003695 -0.116714105 -0.00765357
-0.116741166 -0.10038684 0.09916883 0.04512513 -0.005205089 0.081725545 -0.11137654 -0.06489779
0.11198966 0.08134883 -0.105678044 -0.08102389 -0.08678003 0.07261482 0.045038894 -0.0024561908
0.104531765 -0.05682298 0.10454265 0.061644245 0.002658559 -0.06932484 -0.082323074 -0.055064917
-0.0209568 0.05364162 -0.029428657 -0.06300149 -0.04238514 -0.0829716 0.030756202 -0.09942982
0.020429296 0.09377887 -0.09063716 -0.0913461 0.11642727 0.0029865354 -0.050408654 0.01794998
0.027192837 0.015489647 0.07144973 0.055121817 0.019067485 0.11580688 0.08076967 -0.12084872
-0.035756607 -0.05270659 -0.068590686 -0.07285978 -0.02491594 0.075083464 0.09025406 -0.09179556
0.08698619 -0.11672564 0.086099654 0.032274034 0.08053716 0.07673812 -0.06416382 0.015451343
-0.10817309 -0.10966445 -0.053654443 -0.08726575 0.12153891 0.019230949 0.004976468 -0.04019147
-0.06227688 -0.0369967 0.00023560014 0.07494924 0.10384924 0.097309425 -0.020025682 0.09875324
-0.073038734 -0.12216998 -0.10115609 -0.1040898 0.049881134 -0.11460242 0.10770157 -0.08244993
0.033919074 -0.07606008 0.08285472 -0.100606106 -0.111038186 0.0870001 -0.033384543 -0.11540102
-0.09246921 -0.10912631 -0.061534427 -0.0470321 -0.12040536 -0.05595542 -0.12328247 -0.09760371
0.048494164 0.001745349 -0.10670592 0.035675503 -0.035274245 0.07707255 -0.073856786 -0.07294098
-0.026887318 -0.07545215 -0.0031443674 0.019257909 0.100958 -0.083457865 -0.004805951 -0.044966515
0.07102167 0.07190047 0.058338482 -0.08828372 0.007817258 -0.021772655 0.02747218 0.004135464
-0.046869475 0.09707171 0.01738359 0.116538115 -0.11283665 0.027117765 -0.08148003 -0.0516421
0.10880863 -0.1293839 -0.033807 -0.017619174 -0.114285395 -0.08295295 -0.040079787 0.062701024
-0.047459166 0.010928467 0.10826732 -0.1265015 0.016223498 -0.012874469 -0.104369424 0.051354017
-0.11004374 0.010287209 0.07789492 0.08200721 -0.049947705 0.12153302 0.0041602384 0.043587267
0.07101769 -0.026004381 0.08545559 -0.028315606 0.057820156 0.07130453 0.009549804 0.09480895
0.03242213 -0.017682053 -0.08265542 -0.02163339 0.120811455 0.095205955 0.07032083 0.026977295
-0.043249667 0.10533927 0.11639583 0.0348883 0.103042066 0.08929782 0.009939779 -0.028834976
0.13986881 -0.05832645 -0.12186673 -0.068645835 0.06488143 0.073513895 -0.07859044 0.010503287
-0.045543086 -0.039032463 0.072645225 0.08755544 0.009055718 0.02470372 -0.07518024 -0.106589355
0.05740912 0.03160989 0.0283728 -0.006046171 -0.03475561 0.06461902 -0.06451839 -0.026296882
0.04883171 0.06332868 0.032825008 0.08623049 0.023821672 -0.0035224818 -0.052600753 0.122156665
-0.13076071 -0.08634473 0.07018595 0.093989044 0.038925182 -0.00096675585 -0.079025194 0.007337349
0.12397552 0.12893872 0.0020694463 0.04742401 0.0017716005 0.03049845 -0.1237625 -0.08442194
00000000: c6f7 613d 53d2 e43d d508 98bd 38dc e5bc
00000010: 5715 43bd 731e 0ebd 11c2 edbc 3a63 493d
00000020: 6b84 103d 5c39 01be dc03 edbd fcca a13d
00000030: 5f1b e43c bd2f 793d eb76 a3bd 6d9a 363c
00000040: 45cc 0f3b af4d 853c 349b c93d 814d 1f3b
00000050: c097 9ebd 8bf3 4cbd ce07 efbd ccca fabb
00000060: fe15 efbd 9e97 cdbd 0719 cb3d 21d5 383d
00000070: 748f aabb b95f a73d 6219 e4bd 22e9 84bd
00000080: d65a e53d 379a a63d bb6d d8bd daef a5bd
00000090: bab9 b1bd 14b7 943d b47a 383d 0bf8 20bb
000000a0: c014 d63d 37bf 68bd 751a d63d ad7e 7c3d
000000b0: 383b 2e3b 2ffa 8dbd 0099 a8bd c08b 61bd
000000c0: 98ad abbc 51b7 5b3d 5e14 f1bc ed06 81bd
000000d0: 0a9c 2dbd 04ed a9bd 6ef4 fb3c dda1 cbbd
000000e0: 575b a73c 230f c03d fa9f b9bd aa13 bbbd
000000f0: 6c71 ee3d c0b9 433b 4e79 4ebd d60b 933c
00000100: 83c3 de3c 4ac8 7d3c 3c54 923d 6ac7 613d
00000110: 6a33 9c3c 282c ed3d 926a a53d 897f f7bd
00000120: 8575 12bd dee2 57bd 4679 8cbd 8237 95bd
00000130: 831c ccbc 5cc5 993d 1fd7 b83d 50ff bbbd
00000140: d125 b23d da0d efbd 0455 b03d c731 043d
00000150: abf0 a43d e028 9d3d 5268 83bd a127 7d3c
00000160: da89 ddbd c197 e0bd c3c4 5bbd 63b8 b2bd
00000170: 64e9 f83d 398a 9d3c a411 a33b d09f 24bd
00000180: 0b16 7fbd da89 17bd 6e0b 7739 fd7e 993d
00000190: e9ae d43d 2a4a c73d e60c a4bc 243f ca3d
000001a0: 5595 95bd 4134 fabd ed2a cfbd 082d d5bd
000001b0: 2950 4c3d acb4 eabd a492 dc3d 82db a8bd
000001c0: baee 0a3d 63c5 9bbd bcaf a93d 930a cebd
000001d0: fd67 e3bd 1c2d b23d 3bbe 08bd 5f57 ecbd
000001e0: 7f60 bdbd 9d7d dfbd 860b 7cbd bba4 40bd
000001f0: 1697 f6bd 8331 65bd 857b fcbd 74e4 c7bd
00000200: d1a1 463d 32c4 e43a a288 dabd 7a20 123d
00000210: ba7b 10bd 37d8 9d3d 3a42 97bd 1562 95bd
00000220: cb42 dcbc a886 9abd bb11 4ebb c3c2 9d3c
00000230: 11c3 ce3d f5eb aabd 3d7b 9dbb cf2e 38bd
00000240: cf73 913d 8e40 933d 55f4 6e3d 18ce b4bd
00000250: f513 003c 915c b2bc 560d e13c c982 873b
00000260: 35fa 3fbd 88cd c63d 0868 8e3c 89ab ee3d
00000270: e716 e7bd 1326 de3c 01df a6bd ab86 53bd
00000280: 0fd7 de3d 377d 04be 3579 0abd 1656 90bc
00000290: 760e eabd 3ce3 a9bd b42a 24bd 6569 803d
000002a0: 8b64 42bd 500d 333c 42bb dd3d 9c89 01be
000002b0: 24e7 843c 70ef 52bc a3bf d5bd 9758 523d
000002c0: 9d5e e1bd af8b 283c 5f87 9f3d 65f3 a73d
000002d0: f795 4cbd 4ee6 f83d 9c52 883b 9088 323d
000002e0: b971 913d 2407 d5bc 5703 af3d 21f6 e7bc
000002f0: d4d4 6c3d 1c08 923d c876 1c3c 322b c23d
00000300: 11cd 043d f4d9 90bc 3f47 a9bd 8238 b1bc
00000310: ff6b f73d 57fb c23d 5e04 903d 7dff dc3c
00000320: 9026 31bd 1dbc d73d f060 ee3d 09e7 0e3d
00000330: b807 d33d c7e1 b63d 74da 223c 5437 ecbc
00000340: c539 0f3e b7e7 6ebd 4495 f9bd 3096 8cbd
00000350: 8ee0 843d 748e 963d 06f4 a0bd fb15 2c3c
00000360: 638b 3abd 81e0 1fbd 05c7 943d 4450 b33d
00000370: 6f5e 143c 755f ca3c 19f8 99bd 854b dabd
00000380: d325 6b3d 5f79 013d 136e e83c f51e c6bb
00000390: e65b 0ebd fa56 843d 3822 84bd 8f6c d7bc
000003a0: c203 483d 78b2 813d 8473 063d 9c99 b03d
000003b0: ab25 c33c 70d9 66bb e373 57bd 462d fa3d
000003c0: 23e6 05be 81d5 b0bd a7bd 8f3d 547d c03d
000003d0: 0370 1f3d e36d 7dba f6d7 a1bd 256e f03b
000003e0: e1e6 fd3d 8308 043e 8c9f 073b ae3f 423d
000003f0: 0c35 e83a e3d7 f93c 3277 fdbd 69e5 acbd

model.2.bias f4 [48]
0.009607883 -0.06904131 0.061088126 0.17555182 -0.030135239 -0.14497921 0.1467132 -0.018309098
0.063172325 0.100185566 0.038420197 -0.010531865 -0.042455774 -0.06857954 -0.10744158 0.08587143
0.0012626699 0.039208885 -0.078621596 -0.026424319 -0.17912154 0.15248707 0.019507444 0.09601864
-0.051821493 0.06493626 0.043893617 -0.113407806 -0.055169035 0.0126866875 0.16111097 -0.042908214
-0.015975581 -0.008087102 0.0052222316 0.10563645 0.07026557 -0.09768098 -0.064076 -0.08307196
0.025581615 0.028930534 0.08153789 0.03033809 0.08069598 0.12598181 0.22796421 0.017194714
00000000: 626a 1d3c 8865 8dbd 8b37 7a3d dbc3 333e
00000010: 2dde f6bc 6e75 14be fc3b 163e f6fc 95bc
00000020: 7e60 813d 172e cd3d 7f5e 1d3d d88d 2cbc
00000030: 1be6 2dbd 6e73 8cbd 550a dcbd 5cdd af3d
00000040: 2c80 a53a 7f99 203d 5c04 a1bd d077 d8bc
00000050: a36b 37be 9225 1c3e 13ce 9f3c 6ca5 c43d
00000060: c642 54bd 4dfd 843d cbc9 333d 5a42 e8bd
00000070: edf8 61bd d3db 4f3c 46fa 243e 86c0 2fbd
00000080: 39df 82bc c47f 04bc 411f ab3b ec57 d83d
00000090: 65e7 8f3d f70c c8bd 473a 83bd a221 aabd
000000a0: 8990 d13c baff ec3c 56fd a63d 9687 f83c
000000b0: ef43 a53d 6001 013e 736f 693e eedb 8c3c

model.4.weight f4 [32, 48]
0.09276656 0.092055574 -0.10420423 -0.07508702 -0.03558774 -0.08626785 -0.14308783 0.037594784
-0.012784292 -0.14492981 0.03026512 0.010849093 -0.04459873 0.10775014 0.03927368 0.09237433
0.10742341 -0.10031354 -0.13411555 -0.026235864 -0.053525165 0.087723374 -0.14389513 -0.087014414
0.05704318 0.05076644 -0.023659902 -0.073489785 -0.038717348 0.09995017 0.03977565 -0.12609449
0.02285337 -0.017653283 0.11326926 0.12147479 -0.117210016 0.128413 0.07649289 0.05321697
0.022633046 0.11734039 -0.10632011 -0.0049788407 -0.11321186 0.13170797 -0.12348842 -0.09740313
0.103643514 0.063251615 -0.12169798 0.18669496 0.0016343023 -0.030751228 0.15963486 -0.09656548
0.084319495 0.05628385 0.09697943 -0.11409547 -0.0749644 0.0059107943 -0.032040562 0.021445815
0.19839391 -0.05869682 -0.039203405 -0.041227084 0.012562827 0.13998617 0.007293013 0.048067454
0.07417299 0.13204306 0.09205483 0.03812238 -0.058369495 0.067774676 -0.052513566 -0.035574548
0.13828495 -0.03844317 0.1954359 0.017174821 0.1765778 0.005404109 -0.10018107 -0.09919911
-0.099539086 0.009645009 0.058684587 -0.06103485 -0.04091369 0.12339788 0.16462171 0.19323637
-0.035883322 -0.14389792 -0.007296984 0.08777461 -0.08352446 0.009727101 -0.06411731 0.058263868
0.102744214 -0.036897518 -0.097958654 0.057121687 0.113982745 0.038577806 0.04965847 -0.12851639
-0.012794085 0.009174286 -0.12934564 -0.119056284 -0.13287273 0.09656242 -0.0034429447 -0.011047965
-0.0910434 0.0809322 -0.03588941 0.063013084 0.056761608 -0.14023885 -0.038262427 0.040838256
0.05404878 -0.027303873 -0.056907997 -0.07989894 0.13973834 -0.10701846 0.09120453 0.025380854
-0.009177934 -0.06203693 -0.069481604 0.08756317 -0.13159177 -0.13553168 -0.09816645 -0.14099984
-0.1199508 0.09942344 0.016827837 0.065633684 0.036651663 -0.09735914 0.032594588 0.03721941
0.114503466 -0.047136344 -0.14700915 0.07216463 0.003962343 0.011917115 0.03773505 -0.04264401
-0.06081859 0.04778431 0.06883612 -0.006338457 -0.10651088 0.034381 -0.13218187 0.14929958
-0.09380547 0.074026525 -0.12749675 0.0034796637 -0.13831043 0.07565543 -0.0407861 0.034212288
0.029825807 0.14479594 -0.14136194 -0.041274924 0.098405756 -0.12699226 0.078121714 0.030243497
0.07695242 -0.11321181 -0.06222797 -0.0114053935 -0.084741436 -0.120634586 -0.10478799 0.12203338
-0.13859133 -0.023072276 -0.112549946 0.13644981 0.13531986 -0.057071548 -0.08426846 -0.09754825
-0.02348309 0.029715605 0.019135231 0.11496503 -0.061621457 0.10795418 -0.07604392 -0.009315022
0.10584295 0.08436858 0.033347644 0.07478138 0.04082997 0.070803136 0.053059176 -0.0050617675
0.008766406 0.10834531 0.101128705 0.020732753 0.074279875 -0.13646999 -0.042296905 -0.0821727
-0.11096444 -0.049761757 -0.037619144 -0.11841258 0.013417836 0.01465104 0.073549494 -0.027616117
0.05365459 0.033782635 0.022412524 0.1265077 0.0042185094 -0.026568752 0.12252418 0.074969485
-0.04066329 0.025704313 0.07194666 0.18758538 -0.10701116 0.023062695 0.050584458 -0.030546682
-0.013789283 0.034238994 0.13281338 -0.055940736 0.057513107 0.12521459 -0.08275312 0.101141915
00000000: 65fc bd3d a287 bc3d 0769 d5bd 39c7 99bd
00000010: 73c4 11bd 33ad b0bd 9e85 12be fdfc 193d
00000020: 3575 51bc 7b68 14be 8fee f73c 65c0 313c
00000030: 28ad 36bd 1bac dc3d 70dd 203d c12e bd3d
00000040: ce00 dc3d 2f71 cdbd 9655 09be 98ec d6bc
00000050: 343d 5bbd 50a8 b33d 3f59 13be 9d34 b2bd
00000060: 1ca6 693d 78f0 4f3d 69d2 c1bc d081 96bd
00000070: 1596 1ebd adb2 cc3d cbeb 223d ea1e 01be
00000080: fe36 bb3c 9e9d 90bc b7f9 e73d c6c7 f83d
00000090: ce0b f0bd b37e 033e 4ea8 9c3d 0afa 593d
000000a0: f068 b93c 2950 f03d 5cbe d9bd 8b25 a3bb
000000b0: 9fdb e7bd 74de 063e 7fe7 fcbd 4b7b c7bd
000000c0: 0d43 d43d 108a 813d ca3c f9bd f72c 3f3e
000000d0: 1636 d63a 00ea fbbc 5277 233e 1fc4 c5bd
000000e0: b3af ac3d e589 663d 279d c63d e3aa e9bd
000000f0: ef86 99bd 56af c13b f73c 03bd 22af af3c
00000100: c627 4b3e 146c 70bd c093 20bd bbdd 28bd
00000110: 51d4 4d3c 8958 0f3e 3afa ee3b 61e2 443d
00000120: 02e8 973d 4c36 073e 3e87 bc3d 3626 1c3d
00000130: da14 6fbd 73cd 8a3d 7718 57bd 9eb6 11bd
00000140: 929a 0d3e 9676 1dbd 5920 483e 36b2 8c3c
00000150: d0d0 343e f414 b13b bc2b cdbd e728 cbbd
00000160: 26db cbbd 1a06 1e3c 405f 703d aeff 79bd
00000170: 1d95 27bd 07b8 fc3d 9892 283e c1df 453e
00000180: 64fa 12bd fa59 13be 8a1b efbb 2dc3 b33d
00000190: df0e abbd 6b5e 1f3c f04f 83bd 18a6 6e3d
000001a0: 8f6b d23d da21 17bd 8c9e c8bd 6ef8 693d
000001b0: c96f e93d c303 1e3d ae66 4b3d cd99 03be
000001c0: 489e 51bc bf4f 163c 2f73 04be c8d3 f3bd
000001d0: ca0f 08be 85c2 c53d 07a3 61bb 8602 35bc
000001e0: f674 babd c8bf a53d c600 13bd 010d 813d
000001f0: dc7e 683d c69a 0fbe 10b9 1cbd 0446 273d
00000200: 4162 5d3d 5fac dfbc 5c18 69bd 0ea2 a3bd
00000210: 9117 0f3e 7f2c dbbd 71c9 ba3d 82eb cf3c
00000220: 0c5f 16bc 701a 7ebd 5f4c 8ebd 5254 b33d
00000230: febf 06be d1c8 0abe 7e0b c9bd 4362 10be
00000240: c4a8 f5bd 849e cb3d 88da 893c f46a 863d
00000250: 0e20 163d 3b64 c7bd e781 053d 6173 183d
00000260: cb80 ea3d 0a12 41bd 9189 16be 0dcb 933d
00000270: 8bd6 813b 0140 433c 1190 1a3d 7cab 2ebd
00000280: ea1c 79bd 7bb9 433d f4f9 8c3d d5b2 cfbb
00000290: 6022 dabd 17d3 0c3d af5a 07be fde1 183e
000002a0: 151d c0bd 389b 973d 828e 02be 120b 643b
000002b0: 40a1 0dbe 3cf1 9a3d 530f 27bd 2f22 0c3d
000002c0: 4055 f43c 6345 143e 2fc1 10be e50f 29bd
000002d0: f588 c93d 420a 02be 47fe 9f3d 36c1 f73c
000002e0: 3b99 9d3d 98db e7bd c2e2 7ebd b0dd 3abc
000002f0: eb8c adbd 440f f7bd 169b d6bd a3ec f93d
00000300: e3ea 0dbe 1202 bdbc 9680 e6bd 80b9 0b3e
00000310: 4a91 0a3e dbc3 69bd f194 acbd 60c7 c7bd
00000320: 9c5f c0bc 246e f33c 7dc1 9c3c c972 eb3d
00000330: c866 7cbd 1517 dd3d eabc 9bbd 099e 18bc
00000340: 30c4 d83d 6fc9 ac3d 8a97 083d fb26 993d
00000350: 543d 273d 3c01 913d 9454 593d 2fdd a5bb
00000360: f9a0 0f3c 25e4 dd3d 911c cf3d bcd7 a93c
00000370: 0c20 983d cabe 0bbe 853f 2dbd 294a a8bd
00000380: 5341 e3bd fcd2 4bbd 8816 1abd 4b82 f2bd
00000390: 7cd6 5b3c ea0a 703c 1ea1 963d 323b e2bc
000003a0: eac4 5b3d a95f 0a3d 789a b73c 3c8b 013e
000003b0: 6c3b 8a3b b6a6 d9bc f5ed fa3d 9a89 993d
000003c0: 8d8e 26bd da91 d23c c558 933d 6216 403e
000003d0: ab28 dbbd faed bc3c a631 4f3d 093d fabc
000003e0: 72ec 61bc 303e 0c3d 3b00 083e 1d22 65bd
000003f0: dd92 6b3d 4138 003e 787a a9bd 7e23 cf3d

model.4.bias f4 [32]
-0.039933793 0.17622645 0.012038387 -0.028248034 0.031909667 0.07805248 0.37243629 0.16866939
-0.086283416 -0.11429406 -0.035476487 -0.15524596 0.12450808 0.037665557 -0.029600775 -0.1404665
-0.0372707 -0.11219644 0.110374086 0.068725064 -0.17502686 0.11132405 0.2031492 -0.04145247
0.10071333 -0.09860536 -0.08127984 -0.09085915 0.069215156 0.020121595 -0.18375252 0.08846277
00000000: 9e91 23bd b574 343e a83c 453c 6c68 e7bc
00000010: b6b3 023d fbd9 9f3d f8af be3e abb7 2c3e
00000020: 5cb5 b0bd 0113 eabd cb4f 11bd ccf8 1ebe
00000030: 18fe fe3d 3347 1a3d 537d f2bc 73d6 0fbe
00000040: 29a9 18bd 3fc7 e5bd cf0b e23d babf 8c3d
00000050: 3e3a 33be ddfd e33d 5806 503e 11ca 29bd
00000060: ca42 ce3d 9bf1 c9bd 0b76 a6bd 5d14 babd
00000070: adc0 8d3d 0bd6 a43c 9f29 3cbe f82b b53d

model.6.weight f4 [1, 32]
-0.07260413 0.4509206 -0.1681097 0.14020288 0.08425322 0.2610876 0.6173519 0.10115646
-0.1384843 0.10407728 -0.1313988 -0.25335938 0.18195386 -0.09259578 -0.04271715 -0.026340581
-0.15036939 -0.050002676 -0.008230077 0.22617577 -0.3530538 0.34844682 0.17241561 -0.1581025
-0.08357911 0.053189564 0.10209817 -0.08297591 -0.08873526 -0.12374766 -0.3117372 0.3117825
00000000: 79b1 94bd 11df e63e f324 2cbe 5891 0f3e
00000010: f48c ac3d 46ad 853e c60a 1e3f 1e2b cf3d
00000020: d4ce 0dbe 7826 d53d 688d 06be 52b8 81be
00000030: 1d52 3a3e dba2 bdbd 2ef8 2ebd 34c8 d7bc
00000040: 6ffa 19be 9bcf 4cbd 72d7 06bc 9f9a 673e
00000050: 78c3 b4be 9f67 b23e b88d 303e 9fe5 21be
00000060: 862b abbd 4ddd 593d d818 d13d 46ef a9bd
00000070: d5ba b5bd 6a6f fdbd 059c 9fbe f5a1 9f3e
