model_checkpoint.pth (torch, 82666 bytes, 51 tensors)

embeddings.0.weight f4 [7, 4]
000000 98 c7 15 3e 09 80 aa 3e 11 d5 0d 3f 5c b0 43 3d
       0.1462692 0.33300808 0.5540324 0.04777561
000010 6d 41 ba 3f 40 45 a5 3f d5 05 1f bf 18 b7 60 3e
       1.4551216 1.2911758 -0.62118274 0.21944845
000020 6b 57 64 bf bc da f8 3e 3a 6e 81 3d 4d 20 78 bf
       -0.8919589 0.4860438 0.06319852 -0.9692429
000030 8d cd b8 bf 81 82 f3 3e 43 cd 2a 3f 22 83 62 3f
       -1.4437729 0.47560504 0.66719455 0.8848134
000040 b6 19 78 bf d8 30 81 3f 1b 98 21 bf 05 98 5a 3e
       -0.9691423 1.0093031 -0.6312272 0.21347053
000050 bf 0a be 3f 08 bd 05 3e 75 cc 95 3e da 78 33 3e
       1.484703 0.13060391 0.2925755 0.1752657
000060 0f 24 f2 3e e7 00 d6 be b1 18 b3 bf a3 40 f3 3f
       0.47293136 -0.41797563 -1.399191 1.90041

embeddings.1.weight f4 [7, 4]
000000 e1 42 4b bf 76 06 bd bc 50 9a 80 3d d2 66 c8 be
       -0.79398924 -0.02307437 0.06279433 -0.39140946
000010 7c be 2f 3f 9d 94 d2 3d eb c1 42 3f 62 2d a3 be
       0.6865003 0.10282252 0.76077145 -0.31870562
000020 0c b5 c8 3e 76 63 05 bf e8 33 c1 3f ff 27 b0 3f
       0.39200628 -0.5210489 1.5093966 1.3762206
000030 4b cd 38 3f 94 c5 a5 bf cb 25 35 3f a8 81 92 3e
       0.7218825 -1.2950921 0.7076079 0.28614545
000040 ff 89 a8 3f 8d 0b 36 bf 0e 5b a0 3c 3f c4 77 bf
       1.3167113 -0.71111375 0.019574668 -0.9678382
000050 7b 06 64 3f e3 1d f5 be 0b 0d ef 3e 54 ca 0f 3f
       0.8907239 -0.47874364 0.46689638 0.56168103
000060 3d 74 8c 3f 17 5e 94 3e 8e 5b 55 3e 2c c0 46 bf
       1.0972973 0.28978035 0.20835707 -0.7763698

embeddings.2.weight f4 [6, 3]
000000 fd a4 02 3f 4e 3f 43 3f 52 9a 92 bf 6d 99 bc bf
       0.51033 0.7626847 -1.1453345 -1.4734322
000010 6a d4 75 3f e3 72 bb 3f 0c 3a b3 bf a5 25 eb 3e
       0.96027243 1.4644436 -1.400209 0.45927158
000020 91 2c 52 bf 02 7b 9a be 71 02 8f be 97 ed 75 3f
       -0.8209925 -0.30171973 -0.2793155 0.9606566
000030 36 37 4e be 50 68 0d bf 2f 7a 3f be 08 ea 5d bf
       -0.20138249 -0.55237293 -0.18698953 -0.8668523
000040 28 f3 33 bf d7 ad 71 bf
       -0.702929 -0.94405884

embeddings.3.weight f4 [6, 3]
000000 6e 70 1b c0 d4 52 86 bd 7b bf a0 bf 77 f9 ff 3e
       -2.4287372 -0.06558767 -1.2558435 0.49995014
000010 e4 04 db bf ef d0 46 bf 82 c2 b3 3f ef 26 52 bf
       -1.7110868 -0.7766256 1.4043734 -0.8209066
000020 ee 9d d3 bf ed 8b 11 be 40 52 f6 bf d6 6c ca 3f
       -1.6532571 -0.14213534 -1.9243851 1.5814464
000030 45 80 d7 be 9d 2a 87 3d 74 63 68 bf 26 4b 97 bf
       -0.4209005 0.06599925 -0.90776753 -1.1819808
000040 54 6f 5e be 8c 10 d6 bf
       -0.21722156 -1.67238

embeddings.4.weight f4 [4, 2]
000000 fe fa f8 be eb 6f c3 3e 14 66 ca be 2c 94 08 bf
       -0.48628992 0.38171324 -0.39531004 -0.5335109
000010 15 90 82 3f 9c 23 a8 3d 35 3f 38 be 33 e0 b6 3f
       1.020022 0.08209917 -0.17992862 1.428717

embeddings.5.weight f4 [8, 4]
000000 47 f7 26 3f 7e 6f 1c be 12 fc 84 bf 52 9b 65 3f
       0.65221065 -0.15276906 -1.0389426 0.89690125
000010 56 af 35 40 33 95 d9 3f 80 bb 34 bf 9d 01 a6 3f
       2.8388267 1.6998657 -0.705986 1.2969242
000020 bd ff 5a 3f 9d 52 c1 3f 88 15 a6 3e e6 23 83 3f
       0.85546476 1.5103337 0.32438302 1.024533
000030 30 a4 ab bf e9 c8 0b 3f c8 23 49 bf e4 c7 21 bf
       -1.3409481 0.5460344 -0.7857022 -0.63195634
000040 42 6a f5 bd 2a 6f 21 bf a1 40 ab 3f b5 93 9b bf
       -0.11983158 -0.6306025 1.3379098 -1.2154452
000050 f2 6f b3 bf e3 51 b8 3f a5 66 0c 3f 14 5b bb 3e
       -1.4018538 1.439999 0.54844123 0.36592925
000060 ef 9e ed 3f 35 b0 05 be 3e 65 90 bf bf eb c6 be
       1.8564128 -0.13055499 -1.1280897 -0.38851735
000070 de 5e d2 3d 48 b7 58 be 39 27 c9 3f 07 ef 1b 3f
       0.10272001 -0.21163666 1.5715095 0.609116

embeddings.6.weight f4 [3, 2]
000000 04 14 a6 3d 57 e4 3b bf 5f 94 89 bf 1a af 86 3d
       0.081092864 -0.73395294 -1.0748404 0.06576367
000010 cc ed 69 bf 00 25 54 bf
       -0.91378474 -0.8286896

embeddings.7.weight f4 [7, 4]
000000 2c 10 01 40 d9 9c 96 3f ab f1 22 be 62 aa 4c bf
       2.016612 1.1766616 -0.15912502 -0.79947484
000010 45 76 70 3f 2a a0 4b 3f 51 4e 8e bf 6d 56 02 3f
       0.93930465 0.79541266 -1.111765 0.50913125
000020 e9 05 2a 3f bf 3d 69 3f d3 b7 e4 3f 7c 41 40 be
       0.6641527 0.9110984 1.7868599 -0.1877498
000030 a1 02 5c bf 0c f0 de bd 78 9e 09 3f 4b 0d d5 3e
       -0.8594151 -0.10885629 0.5375743 0.41611704
000040 5d 12 2e bf c6 21 e2 3f 3b a5 eb be b4 ef 84 bd
       -0.6799677 1.7666557 -0.46024498 -0.06491032
000050 22 d0 94 be b8 b4 ef 3e a1 40 df be 74 0c b4 bf
       -0.29065043 0.46817565 -0.43603995 -1.40663
000060 3c 12 d2 3c ac f8 8e bf 0d 85 10 3c a9 16 5b be
       0.02564346 -1.1169639 0.008820784 -0.21395363

embeddings.8.weight f4 [6, 3]
000000 40 7a ca be 08 56 9a bd 72 5e 6f bf 97 41 79 3e
       -0.39546394 -0.075359404 -0.9350349 0.24341427
000010 bf 2c 4c 3f dc 13 a7 bf a6 62 68 3f b6 ee 35 bf
       0.7975578 -1.3052936 0.90775526 -0.7106737
000020 83 88 98 3f e7 ab 0a bf d2 67 1e 3f ea 85 81 3f
       1.191666 -0.5416855 0.6187717 1.0118992
000030 79 a7 84 bf ab ac 68 3f 34 8e 2b 3f a4 62 0b 3f
       -1.0363609 0.9088847 0.6701386 0.5444739
000040 48 6d 53 3f 89 72 16 40
       0.82588625 2.3507407

embeddings.9.weight f4 [6, 3]
000000 68 01 b5 3f 68 ec 20 3f 86 53 11 bf 6e bc 4e 3f
       1.4141054 0.6286073 -0.5676807 0.8075627
000010 1e bf 37 3e e9 45 27 3e 68 c0 8f be 01 06 c7 3e
       0.17943999 0.16335262 -0.28076482 0.38871768
000020 62 76 b8 bf 77 72 1c 3f 2a 55 99 3e fd 9e 94 3f
       -1.4411128 0.6111216 0.29947788 1.1611019
000030 29 24 7e be fb a3 e8 3f 9a de 85 3f 82 39 be bf
       -0.24818482 1.8175043 1.0458558 -1.48613
000040 3e 30 08 c0 af 9c ff bf
       -2.1279445 -1.9969691

embeddings.10.weight f4 [4, 2]
000000 fb f3 2c bf 78 fe 47 3f 2c eb 87 bd 52 b0 9b bf
       -0.67559785 0.78122663 -0.06636652 -1.2163184
000010 11 ae a1 be e5 51 b0 3f 6d 3d 42 3c 69 c8 3b be
       -0.31578115 1.3774992 0.011855465 -0.18338169

embeddings.11.weight f4 [8, 4]
000000 2c 22 b3 3d 12 00 5c 3d 7b de b7 3f e7 18 aa bf
       0.08746752 0.053711005 1.4364771 -1.328885
000010 5e 34 40 3d 31 11 9e bf cc 22 fe 3e 78 16 cf bf
       0.04692494 -1.2348996 0.49635923 -1.6178732
000020 76 26 f1 be 89 94 22 3f 66 2a 94 be e5 f4 e7 be
       -0.47099656 0.63507897 -0.28938597 -0.45304027
000030 3f 69 ab 3e 00 9c 40 c0 38 a3 99 bf 49 6f a1 3f
       0.33478734 -3.0095215 -1.2002935 1.2612087
000040 5e 0b 82 3f 35 67 78 bf 5d 81 09 bf a1 8e ca 3e
       1.0159719 -0.9703248 -0.5371302 0.39561942
000050 e0 2d 8b bf 7f 40 c8 3e 8f 5e 8b bf 51 32 d3 3f
       -1.0873375 0.39111707 -1.0888232 1.649973
000060 f7 a0 bb 3f 50 c7 ff bf cf f9 8a 3f ee 4b 63 3f
       1.4658498 -1.99827 1.0857486 0.88787735
000070 25 d5 17 3f ea e4 a5 3f 17 b3 a8 be 0e 69 46 3f
       0.5930961 1.2960484 -0.32949135 0.7750405

model.0.weight f4 [64, 43]
000000 c0 96 04 bd 75 34 60 3e 22 24 54 bc 45 a7 c3 bd
       -0.03237033 0.21895011 -0.012948068 -0.095533885
000010 c3 12 ca bb 4c 62 69 bd e1 90 59 3e e9 84 ef 3b
       -0.0061667874 -0.05697851 0.21246673 0.0073095453
000020 f0 fc 6d be 23 ad c6 3d 65 2f be bc 61 0e 8e 3d
       -0.23241019 0.09700992 -0.023215959 0.06936336
000030 5e 52 df bd e5 a7 28 3e 88 7e c0 3d 5b 7c ab bd
       -0.10904382 0.16470297 0.09399134 -0.08373328
000040 a7 8f 03 bd e3 e5 f1 3d 49 dd 2e bc 34 3e 84 3d
       -0.03211942 0.118114255 -0.010672876 0.06457177
000050 50 4e 35 be cf e2 17 bd 17 bb 29 3e 03 14 00 3d
       -0.17705655 -0.037081536 0.16575275 0.031269085
000060 a2 01 96 3e 3a 8a d6 bd 15 ef 80 bd e6 96 ac 3d
       0.2929812 -0.104755834 -0.06295601 0.08427219
000070 58 c4 bf bd 58 28 09 3e 41 5b d6 3b 0b e7 54 3e
       -0.093636215 0.13394296 0.00654164 0.20791261
000080 df 52 d8 3d 44 27 a9 3d d9 01 2b 3d a8 e6 09 be
       0.105626814 0.082594424 0.04174981 -0.13466895
000090 5d 22 32 bd 37 93 1f 3e 79 57 0b be 0f 36 45 3d
       -0.043489803 0.15583502 -0.13607587 0.048147257
0000a0 eb 8c 03 bd 18 a9 88 3d 57 7f 4c 3d df 24 2f 3e
       -0.03211681 0.06672877 0.04992613 0.17103909
0000b0 ef 0e db 3d 1a f6 3c bc 1d f3 2a 3d de f7 aa bc
       0.10696208 -0.011533285 0.041735757 -0.020870145
0000c0 f9 d3 a9 3d 45 51 55 bd 9f 08 47 be 5a fc 11 bd
       0.08292384 -0.052079458 -0.19436882 -0.03564105
0000d0 30 51 80 bd 27 42 1a bd 10 ba 9d bc 1f fb 05 3e
       -0.06265485 -0.037660744 -0.01925376 0.13084076
0000e0 f2 ea fb 3d 96 32 a8 bd 35 6b 99 bd 33 05 fd 3d
       0.12300672 -0.082127735 -0.07491151 0.12354507
0000f0 5a bd 01 3e 3f 14 48 be 64 df 8b bd f4 38 5a 3d
       0.12669888 -0.19538973 -0.06829718 0.05327697
000100 5a 5f ef 3d 0e 7b 00 bd ee 6b 8c bc bc d1 aa bc
       0.11688109 -0.031367354 -0.017141309 -0.020851962
000110 61 e1 35 be de 76 2b 3d 1f e7 46 3c 41 ec 88 3d
       -0.17761756 0.041861407 0.0121400645 0.06685687
000120 c8 12 9e bd 27 25 01 be 78 0a ec 3d 35 58 fd 3b
       -0.07718426 -0.12611829 0.11525434 0.0077314624
000130 e7 eb 23 3e 5a d2 f9 3c 7b 25 07 be 69 72 5b 3c
       0.16007958 0.030495811 -0.13197891 0.013393977
000140 36 42 de ba 83 bc 10 3e 2d fe c2 3c ae bc 9d bc
       -0.0016956988 0.14134412 0.023802841 -0.019255009
000150 e0 37 38 be 24 67 e7 3c cb 7e bd bc f7 40 49 3d
       -0.17990065 0.028247423 -0.023131749 0.04913422
000160 ac 2d 86 bd 8d be 89 3e b8 af 87 3e 77 ab 1c bd
       -0.0655168 0.2690319 0.2650125 -0.03824946
000170 22 24 b0 3d c6 23 31 3d e5 b7 b4 bd 8d b6 4a be
       0.08600642 0.043247007 -0.088241376 -0.197962
000180 c1 aa 4b 3e 79 e7 f5 bd 40 c7 a6 bc 75 d5 61 bc
       0.19889356 -0.120070405 -0.020358682 -0.013783802
000190 7e df 08 bd 44 6d 02 3e 29 af 9c 3b 37 ac ed bd
       -0.033416264 0.12736994 0.004781623 -0.11605113
0001a0 68 8b 0e 3e 6d b9 1d be 86 8d e3 bd d4 3d 1f bc
       0.13920367 -0.15402766 -0.11110978 -0.009719331
0001b0 b4 c9 6a be b8 9c 96 3d dc 07 49 bb ae 0d 3c 3e
       -0.22928506 0.073541105 -0.003067485 0.18364593
0001c0 ee 62 c0 bd 89 48 35 bd 87 02 c4 3d b0 e0 54 bd
       -0.09393869 -0.044258628 0.095707946 -0.05197209
0001d0 3d 67 d1 bd ea 1e a4 3d 7b 11 e3 3d 70 5b 08 3d
       -0.10224769 0.08013709 0.110873185 0.033290327
0001e0 55 4f 03 bd 98 37 51 be 72 e0 23 be 39 68 18 3e
       -0.03205808 -0.20431364 -0.16003588 0.14883508
0001f0 77 7f 05 be 88 0e 13 bc de 47 01 3e f4 27 f7 3c
       -0.13036905 -0.0089756325 0.12625071 0.030170418
000200 9e 62 9c bd b8 fe 8a bd aa 9a e5 bd b1 8c 15 3e
       -0.07635997 -0.06786865 -0.112111405 0.14604451
000210 a5 e3 0c 3e 0c b3 42 3e 28 44 0c bc e6 09 95 bd
       0.13758714 0.19013613 -0.008561172 -0.072772786
000220 d5 c9 02 bd f9 dc 51 bd 95 07 38 bd 9e 48 4f bd
       -0.031930763 -0.051236127 -0.044929106 -0.050606363
000230 57 d6 28 be 2e ce 91 3c 3c 9f 06 bd 16 72 de bd
       -0.16488014 0.01779851 -0.0328667 -0.10861604
000240 eb e0 89 3e 39 01 22 bd 4d f4 33 be c9 21 78 3d
       0.2692941 -0.039551947 -0.17573662 0.060579095
000250 57 4c 29 be b4 94 9c bd 29 b2 87 3e d7 d4 a2 3d
       -0.16533028 -0.0764555 0.26503113 0.07950752
000260 87 2d 51 3d 9a 16 86 3a 02 b2 e3 3d f6 0a 0b bc
       0.05106881 0.0010230124 0.11117937 -0.0084865
000270 65 b2 38 be fa e7 81 3d 8a 7c ee bd 42 9b 13 3d
       -0.18036802 0.06343074 -0.11644848 0.036036737
000280 70 3c cc bd c0 e3 c7 bd f2 01 dd 3d 9c a9 e6 bc
       -0.09972465 -0.09760237 0.10791387 -0.028157048
000290 c5 03 99 3e a8 e4 0f 3d 35 67 6a 3d c1 c8 bd 3d
       0.29885688 0.035130173 0.057227332 0.092668064
0002a0 44 bb 14 be a0 e0 48 bd 1d 18 af bd 64 73 96 3e
       -0.14524561 -0.049042344 -0.08549521 0.2938491
0002b0 6e 20 79 bd ea 84 c9 bd ac 77 28 3e 9b cc 77 bd
       -0.060821943 -0.098398045 0.16451901 -0.06049786
0002c0 9c bc c7 bd 61 e6 fb bd 08 8a 33 bd b4 aa e6 bd
       -0.09752771 -0.12299801 -0.04383281 -0.11263028
0002d0 b5 ec 79 bc d1 06 71 3c 29 7a 4c 3e 1f 64 29 bd
       -0.015254189 0.014711098 0.19968475 -0.04135525
0002e0 58 04 06 3e 8a 6e 87 bd f3 2b 6e bd 66 c0 10 bc
       0.13087595 -0.066128805 -0.058147382 -0.008834934
0002f0 25 29 00 be ad ab bd 3d 5a d5 3d be 55 21 ff bd
       -0.12515695 0.0926126 -0.18538418 -0.124575295
000300 2e b7 c4 3d 5a a4 7a bd ff d0 ed 3b cf 60 a8 bd
       0.09605251 -0.061191894 0.0072575803 -0.0822159
000310 b3 b1 11 bc df 2b 12 3e 3e 23 92 bd 85 21 ee 3d
       -0.008892464 0.14274548 -0.07135628 0.11627487
000320 18 af 82 3c cd 4a 3a 3e fd 31 cf 3d ce 50 1e 3e
       0.015952632 0.18192597 0.101169564 0.15460512
000330 fd e8 d4 3c 3d ce 61 be 3d b6 e2 ba ec ef a6 bd
       0.025990004 -0.2205133 -0.0017296743 -0.0815123
000340 4c eb 00 3e 01 a8 31 bd ad 30 d5 bc 59 0a 84 bd
       0.12589759 -0.04337311 -0.026024187 -0.06447286
000350 79 ed af 3d e5 70 98 bd f4 4d 1f 3d db 1b 12 be
       0.08590216 -0.07443408 0.0388927 -0.14268439
000360 e8 da ae bd f4 16 82 bd a4 18 41 3c 61 0f f8 bd
       -0.08537847 -0.06352034 0.01178566 -0.12112308
000370 7f 0a cd bd ee 53 5d 3a 88 33 d3 3d df 97 dc 3d
       -0.100117676 0.00084429875 0.10312563 0.107711546
000380 f3 51 cd 3c 1d 2b df bc 1f b7 a5 3c 64 8f 9b 3d
       0.02506349 -0.027242238 0.02022892 0.07595709
000390 83 19 17 3d 20 8d 2d 3d 84 90 22 3d 3a bd 81 bd
       0.036889564 0.042370915 0.039688602 -0.0633492
0003a0 90 6e 3a bd 48 34 90 bc fc 3f 15 3c 4a 53 84 3d
       -0.045515597 -0.017603055 0.009109493 0.06461199
0003b0 f8 a7 fe bd 2e b9 fb bd 96 71 f9 bd 9e 74 8d 3d
       -0.12434381 -0.122911796 -0.12179868 0.069070086
0003c0 59 1a f1 bc 45 4a d0 bd 41 1f d8 bd 91 db 15 3e
       -0.029431509 -0.10170416 -0.10552836 0.14634539
0003d0 f4 ad 86 bd 2a 4e 8a bd 14 0c f6 3d b0 f0 d6 3c
       -0.06576148 -0.0675319 0.120140225 0.026237816
0003e0 dc 98 0b bd 50 7c de bd 54 7a 32 bc 59 d1 ad bd
       -0.034081325 -0.108635545 -0.010893423 -0.084871955
0003f0 99 ae c8 3c 22 0c 1b be 71 7a a6 bd 2e 23 0e be
       0.024497317 -0.15141347 -0.081288226 -0.13880607

model.0.bias f4 [64]
000000 a0 49 7f 3e cb 2f 4b be 92 3e 4c bc 93 ef c0 3d
       0.2493043 -0.1984245 -0.01246609 0.09420695
000010 e4 1d ca 3d b8 8e 16 3e 06 b6 b5 3d f2 24 ae bd
       0.098689824 0.1470288 0.08872609 -0.085031405
000020 fa b4 26 be 94 e1 af bd 98 4b dc 3d 23 70 78 3e
       -0.16279975 -0.085879475 0.10756606 0.24261527
000030 8a b0 a6 3e a3 31 3f be 9f 27 8e 3d 6d 55 32 bd
       0.32556564 -0.18671279 0.06941151 -0.0435385
000040 2e a7 fc 3d cc 82 28 3d dd d6 78 3e 63 37 06 3e
       0.123365745 0.041140363 0.24300714 0.13107066
000050 cb b7 1f bd ab ea 51 3e 0b ae 44 be cd f8 51 3e
       -0.038993638 0.20499675 -0.19207017 0.20505066
000060 7a c6 d2 bb 89 9f a3 3d 17 e1 1b 3e 58 e2 7f 3b
       -0.0064323517 0.07989413 0.15222584 0.0039044823
000070 4f dc 2e 3d df 3d 82 3c 8d 0c 18 3e 7c 3a ba bd
       0.04269057 0.015898643 0.14848538 -0.09093186
000080 8c 4e 5e 3d 8b 59 17 3d c6 5e 00 3e 77 cc e8 3d
       0.054274127 0.03695063 0.12536153 0.113671236
000090 e9 1b b0 bd e8 84 1d bd 68 44 3c b9 93 14 46 3c
       -0.085990734 -0.038456827 -0.0001795456 0.012089866
0000a0 d0 f3 84 bc c1 ec ee 3d e6 2c 0a 3d fd 84 08 3e
       -0.01622954 0.11666251 0.033734225 0.13331981
0000b0 d1 88 6f 3d 58 21 48 3e 8b 1e 28 bd 8f bb ea bd
       0.058480088 0.1954397 -0.041044753 -0.11461555
0000c0 33 e9 5d bd 09 22 92 bb a3 7d 38 3e ac de 77 3e
       -0.054177474 -0.0044596237 0.18016677 0.24206036
0000d0 63 73 4d 3e da b4 26 3b 5f cd 35 bd cc 23 ec 3d
       0.20063548 0.0025437386 -0.04438531 0.11530265
0000e0 e7 b7 ec bc 9c 74 77 3e aa ba fe 3d 9a f7 08 be
       -0.028896285 0.24165577 0.12437947 -0.13375703
0000f0 d5 22 2d bd f0 60 0b be d1 5f 84 3d 1b 5a 35 3b
       -0.042269547 -0.13611197 0.06463588 0.0027672115

model.2.weight f4 [32, 64]
000000 69 0b f9 3d 88 5a d3 bd 65 fe 4c 3d de cd c0 3d
       0.121603794 -0.10320002 0.050047297 0.09414266
000010 7a 30 19 bb 00 be 02 3d 4e 34 e6 3d 65 68 54 3c
       -0.0023374842 0.03191948 0.11240445 0.012964343
000020 c3 be a5 bd 3e 5e 14 3e a8 b1 f6 3d 01 ac c8 bd
       -0.080930255 0.14489076 0.12045604 -0.09798432
000030 fb 6b 32 3e 51 82 e3 bb 77 6e ec bd c3 85 68 3e
       0.17424004 -0.006943025 -0.11544507 0.22707276
000040 0b c4 af bc 41 ac 29 3e 64 fa 6b 3d 5c 09 fa bd
       -0.021455785 0.16569616 0.057611838 -0.122088164
000050 a5 2c ca bb df 1f a3 bd 5b c0 99 bd 43 f0 e7 3c
       -0.006169873 -0.07965063 -0.07507392 0.028312808
000060 a6 35 03 bd d8 64 64 3e 93 86 c0 3d a1 9c 12 be
       -0.032033585 0.22304094 0.09400668 -0.14317562
000070 09 df 80 3c c3 e3 fe bc c4 d9 14 3d 3c fe 23 bd
       0.015731351 -0.031114465 0.03634049 -0.04003738
000080 66 92 ab bc c9 e6 68 bd 0b 31 b3 3d 60 1e eb 3d
       -0.020943832 -0.05686072 0.087495886 0.11480403
000090 af 17 bc 3d 57 34 e7 bc 76 87 e7 3d 11 83 39 3d
       0.09184205 -0.0282232 0.11305134 0.04529101
0000a0 4a 1b 94 bd d1 84 2f bd 23 14 fa 3d 11 3c 07 3d
       -0.072317675 -0.042851273 0.12210872 0.03301627
0000b0 21 fa 86 bc 55 7a 8c 3d d2 50 bb 3d 84 5e 05 3e
       -0.016476693 0.068592705 0.091462746 0.13024336
0000c0 df d1 c1 3d 0d ab ca 3d 3b 8d 12 bd 6f db 89 bd
       0.09463858 0.098959066 -0.03577922 -0.06731307
0000d0 56 11 1e 3d ca 7b 47 3b f0 45 55 3d 37 4b 81 bd
       0.03859075 0.0030438774 0.05206865 -0.06313174
0000e0 6b 67 eb bb 92 28 84 3c c6 56 6f 3d 06 5d 05 be
       -0.0071839592 0.016132627 0.058432363 -0.13023767
0000f0 a4 40 d1 bd bb 5a dd 3c 05 75 33 3e f0 cd 4e 3c
       -0.10217407 0.027020803 0.17525108 0.0126223415
000100 23 41 a9 bc 6c f1 7b bc b5 77 04 3e f3 ea 1b bb
       -0.020660942 -0.015377384 0.1293629 -0.0023791164
000110 fb 88 f8 bd 20 4b 62 3d de ba b9 3d 76 7a 10 bd
       -0.12135502 0.055247426 0.09068845 -0.035273038
000120 19 5f 2f bb ca 46 0c 3e 6f 68 7a ba 45 61 ef 3c
       -0.0026759563 0.13698879 -0.0009552305 0.029221186
000130 ac 5e 7f 3e e9 78 e9 3c 81 6d c2 bd 86 db fa 3d
       0.24938458 0.028500037 -0.094935425 0.12248902
000140 31 27 b1 3d 59 2b 9d 3c 9c c2 23 bd 06 47 91 3d
       0.08650053 0.019185709 -0.039980516 0.07093625
000150 b8 01 df bd da be ba 3d 99 0b 32 bd f4 0f 9d bd
       -0.10889 0.09118433 -0.04346809 -0.076690584
000160 79 7e 93 bc da f3 00 3e 9c 3f 84 bd 84 98 5e 3c
       -0.018004643 0.12593022 -0.06457445 0.013586167
000170 d4 dc 0b bc 68 f6 8e 3d 35 6b b1 bd 80 3e 32 3b
       -0.008536536 0.06980592 -0.08663026 0.0027197897
000180 3e 54 b3 b9 7e 29 95 3d e7 19 05 3e bd e5 9c bd
       -0.00034204306 0.07283305 0.12998162 -0.076610066
000190 16 68 ee 3d 3d 3f ef 3c 59 3d 4e 3d a7 1c 02 3e
       0.116409466 0.029204959 0.050351474 0.12706243
0001a0 85 27 e7 3d d4 93 82 bd af b9 08 3d 54 ac ea 3d
       0.112868346 -0.06375852 0.033380207 0.1145865
0001b0 06 5c 19 3e 26 72 d8 3d cd 4d 95 bd cf b6 ad bd
       0.1497651 0.10568647 -0.0729023 -0.084821336
0001c0 be e2 ef 3d a5 dc 93 bd 96 73 f0 3d 90 37 f6 3d
       0.117131695 -0.07219819 0.11740796 0.120223165
0001d0 bf 7e 7e 3d 73 8d ec bd 4c 69 dc 3d 4a 4c 9e 3d
       0.062132593 -0.11550417 0.10762271 0.07729395
0001e0 7d b3 11 bd 78 e2 c5 bd e6 d4 d3 3d 29 57 fc bd
       -0.035571564 -0.09662336 0.103433415 -0.12321312
0001f0 70 65 69 bd 25 5d 86 3a 49 57 38 3d 6c 1d b6 3d
       -0.056981504 0.0010251148 0.045005117 0.088923305
000200 eb 9c 16 3e d4 c8 35 bd 71 68 c1 3c ed 4b 61 3e
       0.14708297 -0.044380978 0.023609372 0.2200162
000210 b1 da b0 bd ae f8 be bd 51 ab 61 bd 7d 9b fc 3d
       -0.08635462 -0.09324776 -0.05509502 0.123343445
000220 79 75 9e 3c 01 a5 f2 3d cf 40 23 3d e1 41 c1 bd
       0.019343125 0.11847878 0.03985673 -0.094363935
000230 20 c0 c9 3c fd b1 91 bd 2b 4d 80 bd 58 58 bc 3d
       0.024627745 -0.07114027 -0.062647186 0.09196538
000240 08 4e 1e 3d 47 c8 85 3d 5b 25 b9 3c 35 27 1c be
       0.038648635 0.065323405 0.02260082 -0.15249331
000250 c9 90 bf bd 5b 7d 6b bd 2b 2f c2 3c 4d d3 d9 bc
       -0.093537875 -0.057492595 0.023704132 -0.026590014
000260 cc 1b 38 3d b8 cf 69 3e b8 0f d6 3d 4d a5 6c 3d
       0.044948384 0.22833145 0.10452217 0.05777483
000270 17 5a c8 bd 1a 5d 9b bd bd 9a 8c 3d 10 d4 53 bd
       -0.09782808 -0.07586117 0.068654515 -0.05171591
000280 06 16 b5 3d b3 09 01 3e 1e 73 c1 3d af a0 0d 3c
       0.08842091 0.12601356 0.09445785 0.008644267
000290 d8 ab e7 3d 0b a6 fe 3d f2 7e c3 bd 8f e2 ba bb
       0.113120735 0.12434014 -0.09545697 -0.0057032774
0002a0 06 9d 93 3d 1d b7 6a 3d 1c d1 1f bc 0d 65 d8 bd
       0.07207684 0.057303537 -0.009754445 -0.10566149
0002b0 c6 b9 26 3d 83 f6 c1 3d 5e 06 06 3e 95 93 c9 3c
       0.04070451 0.094708465 0.13088366 0.024606505
0002c0 99 5a b3 3d a8 41 07 3e dd 06 ed 3d 92 1c da 3d
       0.087575145 0.1320864 0.11573575 0.106499806
0002d0 14 43 35 3d 8e bb d6 3d 48 e6 2c bc 1d 40 ac bc
       0.044253424 0.10484992 -0.01055295 -0.021026665
0002e0 01 72 98 3c 6f b6 2d bb 10 84 d2 3d 7f 3f 4e be
       0.018609049 -0.0026506444 0.10279095 -0.2014141
0002f0 cc a0 7b bd 4a 7e 6e 3b 86 ca 1c 3e a5 6b db bd
       -0.061432645 0.0036391192 0.15311632 -0.10713891
000300 fc dd 5f 3d 1a 89 c5 bd 74 de 85 3d f4 48 62 3e
       0.05465506 -0.09645291 0.0653657 0.22098142
000310 11 22 16 be 08 ac bd bd d4 17 2b 3d 39 f6 ec bd
       -0.14661433 -0.09261328 0.04177077 -0.11570401
000320 46 da 43 bc 1f 3f ae 3b fe 2b 01 3e 53 c3 69 3d
       -0.011953896 0.005317583 0.12614438 0.05707104
000330 18 8c 23 3e 94 33 18 be 63 7f b4 3b 54 08 53 3e
       0.1597141 -0.14863425 0.0055083497 0.20608646
000340 bb ff e5 3d 91 29 2e 3c be d7 b9 3c a9 64 24 3d
       0.11230417 0.010630027 0.022685882 0.04013506
000350 c6 e9 07 be 5b 5c ad 3d 93 1f ac bd ee de 0f 3d
       -0.13272771 0.08464881 -0.0840446 0.03512471
000360 1d 1f 1b 3d 85 31 e8 3d ec c2 0a 3e bc 8b 04 bc
       0.03787147 0.1133757 0.1355092 -0.008089956
000370 73 6f d1 bd f0 45 22 3e 9a 16 13 3c 40 6c 95 bc
       -0.102263354 0.15846992 0.008977557 -0.018240094
000380 bb 19 b9 3d d1 04 e9 b9 29 41 39 3e 8f 69 b8 3c
       0.09038111 -0.00044444812 0.18091263 0.022511272
000390 f5 10 df 3d c6 4a 08 3e 52 9e 05 bd 26 38 29 3d
       0.10891906 0.13309774 -0.03262169 0.041313313
0003a0 ee 5b 85 3d 84 d9 08 be f9 b7 de bd 74 78 33 bd
       0.06511675 -0.13364226 -0.10874934 -0.043816045
0003b0 9b 28 2d 3e 6b c2 ec 3d ef df ab 3d 90 07 55 3d
       0.16910021 0.1156052 0.08392321 0.052009165
0003c0 65 40 08 bd b5 14 9c bd 11 10 83 bd 7e af aa bd
       -0.033264536 -0.07621137 -0.06399549 -0.08334254
0003d0 0c 37 9e 3c 53 17 d3 3d db 6d 85 3d 60 ad 20 3c
       0.019313358 0.10307183 0.06515094 0.009806961
0003e0 bf 43 1d 3e 36 14 f7 3d e9 fa a5 bd ec a4 73 bd
       0.15357874 0.12064402 -0.08104498 -0.059483454
0003f0 50 53 1e 3d ef c2 b2 bd b0 a1 07 3e cc f8 9f bc
       0.03865367 -0.08728587 0.13245273 -0.019527815

model.2.bias f4 [32]
000000 86 ac ec 3c 66 f4 06 3d d1 c5 2b 3e 13 c1 8f 3d
       0.02889086 0.03294792 0.1677468 0.07019248
000010 93 e2 0b be 99 bf 5d 3d 7b 7c e7 3d 4e 85 8a 3c
       -0.1366065 0.0541378 0.1130304 0.016909268
000020 0c 3e c3 bc 7c 3e 12 be 98 5d 43 3d e2 45 29 bb
       -0.023833297 -0.14281648 0.04769668 -0.0025829007
000030 c6 5f 21 3c 4c d4 b1 3d 63 65 ef 3d b4 fc d8 3d
       0.009849494 0.086830705 0.1168926 0.10595074
000040 60 00 9c bd 2d 1b 84 3d e5 ce 6d bd 8a 60 18 3e
       -0.07617259 0.06450496 -0.058058638 0.14880577
000050 d5 17 aa bd ff 05 b9 3d b9 22 be 3d 2f 96 3d bd
       -0.08305327 0.09034347 0.092839666 -0.046285804
000060 06 64 5b 3e 4a 89 c7 bd 92 10 d5 3d 13 b1 9e bd
       0.21424875 -0.09742983 0.10403551 -0.07748618
000070 9c 6a db bc db d9 6b 3d f5 8a 42 3d f8 b5 60 3c
       -0.026784234 0.05758081 0.0474958 0.01371526

model.4.weight f4 [1, 32]
000000 c9 40 f7 3c 02 e0 8f 3d 11 4f db 3d 75 24 6a 3d
       0.03018226 0.07025148 0.1070844 0.057163674
000010 ad 02 1b bd f4 fc 8d 3d 0b 9d 06 3e fc 22 56 3d
       -0.03784435 0.069330126 0.13145845 0.052279457
000020 b8 b0 9f bd 50 3e 25 bd aa b1 d2 3c 28 f4 fe bd
       -0.07797378 -0.04034263 0.025719482 -0.12448913
000030 2b c7 03 3e b1 5f 69 bd 62 b7 6d 3e 63 2d b5 bd
       0.12868945 -0.056976024 0.23214486 -0.088465475
000040 20 5f 1b be e8 af b8 3d 0b 66 1d be 14 05 bb 3d
       -0.15173006 0.090179265 -0.15370958 0.09131828
000050 1b e6 d7 bd f6 6b df bd 7e b2 fa bd 84 56 d6 bd
       -0.10541936 -0.10909264 -0.12241076 -0.1046572
000060 0d e2 94 3e 62 cc 0b be c3 a0 e2 bd fd 7f 7e bb
       0.29078713 -0.13652185 -0.11065819 -0.0038833611
000070 c5 e8 88 bd 13 15 07 3e ea 6b 2c be 82 e1 0f 3e
       -0.06685022 0.13191633 -0.16838041 0.14050868

exp_avg f4 [7, 4]
000000 c5 86 ad b8 00 37 36 39 de e8 09 38 6a 87 c3 38
       -8.2743856e-05 0.00017377362 3.288022e-05 9.3235474e-05
000010 72 56 52 37 0c 52 52 38 23 9a 40 38 71 cf 11 39
       1.25371025e-05 5.0144314e-05 4.591992e-05 0.00013905556
000020 02 ba 35 39 b4 f5 03 ba cf 8b 1c b9 7c 43 de b9
       0.00017330798 -0.0005033866 -0.00014929402 -0.0004239342
000030 09 15 5a 38 d2 cb 03 b8 59 93 f9 b8 2d d1 52 38
       5.199484e-05 -3.1422656e-05 -0.00011900691 5.026271e-05
000040 00 67 66 b9 a4 57 01 3a ed a3 e0 38 7a a9 31 3a
       -0.0002197288 0.0004934019 0.00010711686 0.0006777268
000050 85 38 09 b8 99 ff 95 37 92 7e e5 b7 75 6f c0 b8
       -3.2715983e-05 1.7881206e-05 -2.7357866e-05 -9.176034e-05
000060 6e d1 1a 39 41 1e 62 b9 8b c1 f0 37 34 49 45 b9
       0.00014764603 -0.0002156431 2.8700355e-05 -0.00018814654

exp_avg_sq f4 [7, 4]
000000 c1 5d 1d 35 78 9d 44 36 d7 1e ee 34 17 63 08 36
       5.862349e-07 2.9297935e-06 4.4353393e-07 2.0323257e-06
000010 bc ac c9 32 d7 12 18 34 cf 9d 42 33 e0 22 05 35
       2.347803e-08 1.4162957e-07 4.531267e-08 4.959711e-07
000020 53 eb 8b 35 34 a5 ab 36 83 32 f0 34 0f 91 98 35
       1.0424795e-06 5.1154293e-06 4.4740236e-07 1.13671e-06
000030 bf 6b 28 35 44 ea 91 36 f3 0d 7d 35 3d 10 85 36
       6.274167e-07 4.348609e-06 9.4270143e-07 3.9655993e-06
000040 c0 36 9e 35 50 e6 b8 36 be f9 19 35 03 fe 7a 36
       1.1787852e-06 5.510439e-06 5.7360364e-07 3.7400757e-06
000050 5f 8d a5 34 66 08 46 36 23 12 e4 34 8f e7 8c 35
       3.0836506e-07 2.9509188e-06 4.2481506e-07 1.0498205e-06
000060 04 58 31 35 5d eb 85 36 39 0e 12 35 d8 45 11 36
       6.606572e-07 3.9911088e-06 5.4409935e-07 2.1647338e-06

exp_avg f4 [7, 4]
000000 a7 8f 78 b9 58 5b bd 39 ed 7d c6 ba 94 c8 e0 39
       -0.00023704638 0.00036116946 -0.001514373 0.00042874052
000010 27 b4 61 b8 91 f3 b0 37 0c da a3 b8 e8 31 66 37
       -5.381196e-05 2.1094254e-05 -7.81306e-05 1.3720688e-05
000020 bb 8f 9f 39 fa 30 91 b8 29 41 a1 39 b0 a3 52 b9
       0.0003043393 -6.9232614e-05 0.0003075686 -0.00020088139
000030 89 21 8e b9 dc eb d3 39 84 d9 c2 b9 6f 90 48 39
       -0.00027109336 0.00040420785 -0.00037164625 0.00019127292
000040 a2 f8 92 38 18 e7 33 36 2d e4 dd 39 ac 0d 5b b8
       7.008134e-05 2.6807593e-06 0.0004232241 -5.22264e-05
000050 7e db 05 3a 44 dc b7 39 cd 1d 57 39 9d 4c af b9
       0.0005106254 0.0003506859 0.000205151 -0.00033435682
000060 de 56 5f 39 8e e0 72 b9 3a 95 a1 39 b9 d7 b9 b8
       0.00021299298 -0.00023162572 0.00030819495 -8.861669e-05

exp_avg_sq f4 [7, 4]
000000 51 7a 3a 36 c0 ab 81 35 84 38 a7 36 99 3d 29 35
       2.7787357e-06 9.661235e-07 4.983567e-06 6.304704e-07
000010 84 49 8d 36 04 c2 41 35 6c 54 85 36 2d ba 2e 35
       4.210686e-06 7.218043e-07 3.973537e-06 6.509097e-07
000020 d5 76 ac 36 98 38 d0 35 1d ed f5 36 a3 3a 33 35
       5.1398333e-06 1.5513679e-06 7.3291726e-06 6.6768024e-07
000030 26 47 b4 36 b3 ab 77 35 2a 9e 9a 36 fc b8 34 35
       5.372701e-06 9.2264526e-07 4.6079704e-06 6.7324413e-07
000040 36 82 fd 36 f9 11 9c 35 fc 29 f1 36 ac 03 9e 35
       7.555146e-06 1.1628136e-06 7.1872473e-06 1.1772986e-06
000050 48 61 e8 36 34 49 97 35 5b da c2 36 90 07 a7 35
       6.925464e-06 1.1271682e-06 5.8070705e-06 1.2444671e-06
000060 67 e1 d5 36 7e c1 b7 35 1e f0 ac 36 1a 34 87 35
       6.374135e-06 1.3690876e-06 5.1539528e-06 1.0073447e-06

exp_avg f4 [6, 3]
000000 d2 3c 4d 39 72 6e 4e 38 de 83 8d b8 9d 3d e5 38
       0.00019572981 4.9217088e-05 -6.747966e-05 0.00010931047
000010 5a b7 74 b9 8f 3e 9f b8 96 a1 8b b8 b9 4a d4 b8
       -0.00023337957 -7.593363e-05 -6.658134e-05 -0.00010122866
000020 ad fc 22 38 a2 fb c7 39 33 d7 2e 3a bf a4 d5 b8
       3.8859132e-05 0.0003814372 0.00066696404 -0.00010187318
000030 2e 95 39 b9 40 2f 1b 38 58 5d da b8 a7 44 3a b9
       -0.00017698549 3.6998885e-05 -0.00010412437 -0.00017763917
000040 c4 c5 4b b9 b0 22 f3 b8
       -0.00019433262 -0.00011593604

exp_avg_sq f4 [6, 3]
000000 7d f9 07 36 6c 43 0c 35 af c0 3b 35 cd 20 04 37
       2.026179e-06 5.2252176e-07 6.994332e-07 7.87545e-06
000010 4c b9 0b 35 d2 cc 48 35 ff 6c e6 36 d0 36 48 35
       5.205118e-07 7.480386e-07 6.867223e-06 7.458557e-07
000020 70 f8 11 36 21 b3 0b 37 54 6e c1 35 30 bb b9 35
       2.1751293e-06 8.326752e-06 1.441173e-06 1.3838053e-06
000030 b7 a6 36 36 d6 7a c4 35 e8 5f b2 35 10 d5 2d 36
       2.7217154e-06 1.4638888e-06 1.3289946e-06 2.5903028e-06
000040 5a f3 b2 34 39 1e 15 35
       3.3332145e-07 5.5550805e-07

exp_avg f4 [6, 3]
000000 50 71 68 b8 df 35 e6 b8 db 73 5a b8 d7 07 23 b9
       -5.541864e-05 -0.00010977289 -5.208315e-05 -0.00015547812
000010 b9 0c 72 39 c4 7c 38 39 75 83 14 b8 f1 bf 06 39
       0.00023083658 0.00017594086 -3.540838e-05 0.0001285074
000020 ba 4a 86 38 0d 11 fb b8 f4 26 0c ba 29 75 fc b8
       6.403537e-05 -0.000119717886 -0.00053463806 -0.00012038119
000030 40 ab 91 37 c9 d6 a7 39 58 39 35 39 5e f7 9b 38
       1.7365091e-05 0.0003201275 0.00017282867 7.437052e-05
000040 69 24 56 39 70 b0 ad 38
       0.00020422194 8.282147e-05

exp_avg_sq f4 [6, 3]
000000 7e b1 42 34 af ca 82 35 11 dd 73 34 bb f0 c7 34
       1.8132229e-07 9.744743e-07 2.2711562e-07 3.7241793e-07
000010 36 25 34 36 ea 93 ba 35 c7 f1 50 34 72 af 1a 36
       2.684375e-06 1.3901129e-06 1.9459468e-07 2.304991e-06
000020 3e 51 3f 35 94 b9 1b 34 a9 85 f4 35 54 30 20 35
       7.127127e-07 1.4503013e-07 1.8218317e-06 5.967497e-07
000030 98 1e 83 34 2d 79 d3 35 dd 53 b5 35 81 e1 ff 34
       2.442291e-07 1.5755992e-06 1.3509958e-06 4.7661527e-07
000040 e8 63 0e 36 4f 10 d7 35
       2.1217802e-06 1.6023495e-06

exp_avg f4 [4, 2]
000000 81 f6 ff 39 b9 84 e5 b9 a6 94 44 b9 46 b4 ca 37
       0.0004882105 -0.0004377717 -0.00018747392 2.4164223e-05
000010 d8 dd 42 ba fb 33 45 b9 18 62 5b b7 c2 c1 1a 38
       -0.000743357 -0.00018806748 -1.3076256e-05 3.6896912e-05

exp_avg_sq f4 [4, 2]
000000 a3 66 aa 36 1f a8 6b 36 21 7e 6b 36 dd 60 14 36
       5.0783433e-06 3.5115588e-06 3.5091145e-06 2.21101e-06
000010 6e 45 ae 36 d3 b9 20 36 d2 43 65 36 6b 90 60 36
       5.193687e-06 2.3950022e-06 3.4163136e-06 3.3462663e-06

exp_avg f4 [8, 4]
000000 c4 5d 07 39 ad 80 05 38 d3 2e 3d 38 77 5e 1c 39
       0.00012909534 3.182951e-05 4.510472e-05 0.0001491251
000010 eb ff 71 b8 d1 a8 49 b9 fb 26 49 b7 d7 2a aa 37
       -5.769722e-05 -0.00019231743 -1.1989609e-05 2.0285528e-05
000020 df c0 3a b7 7d a2 22 37 3e 71 a5 38 0b 7b 1f b8
       -1.113137e-05 9.693785e-06 7.888906e-05 -3.8023147e-05
000030 9c f5 41 b8 0b a9 8b 38 89 01 08 37 fa 70 e1 b7
       -4.6243527e-05 6.659523e-05 8.106589e-06 -2.6874699e-05
000040 d0 3f d0 b5 44 66 2d b9 89 69 83 b6 34 f2 be 38
       -1.551578e-06 -0.00016536663 -3.91639e-06 9.10502e-05
000050 af 5c ac 39 38 69 44 38 8c af 36 b9 e9 73 cc 39
       0.0003287545 4.6828034e-05 -0.00017422269 0.00038996272
000060 3d 49 4e 38 ba c5 07 b8 8d 77 65 37 63 af b1 38
       4.9182436e-05 -3.2370655e-05 1.3677299e-05 8.472686e-05
000070 38 08 d1 b8 31 68 1a 39 0f 26 0c b9 92 2c 8c b7
       -9.9674275e-05 0.00014725399 -0.00013365618 -1.6710055e-05

exp_avg_sq f4 [8, 4]
000000 86 44 1f 34 90 54 83 34 5b 4b bc 33 0e 7f 2b 34
       1.4832958e-07 2.446218e-07 8.768139e-08 1.5971838e-07
000010 03 23 64 35 ff ae d1 35 51 d8 87 34 62 67 b1 34
       8.498757e-07 1.5622644e-06 2.53031e-07 3.304404e-07
000020 d8 22 5b 34 b8 55 3f 34 d5 1a 87 33 3f 10 9f 33
       2.040864e-07 1.7819445e-07 6.291308e-08 7.4069696e-08
000030 25 24 5d 34 a0 23 35 35 f5 af 68 33 16 ba 83 33
       2.0595378e-07 6.7479596e-07 5.417674e-08 6.134012e-08
000040 47 eb aa 34 94 27 44 35 4f 94 53 34 f1 ba 20 35
       3.1836154e-07 7.3073284e-07 1.970486e-07 5.987668e-07
000050 68 98 4e 35 30 80 8e 36 3e 7b 05 35 f2 b1 c7 34
       7.696276e-07 4.2468528e-06 4.97257e-07 3.719611e-07
000060 d2 83 f5 33 f4 68 81 33 05 bb 99 33 35 ec 22 35
       1.14326795e-07 6.0261215e-08 7.158636e-08 6.069343e-07
000070 32 7a 19 35 b7 48 0b 36 21 89 3b 35 93 1c 4c 35
       5.717476e-07 2.075494e-06 6.986248e-07 7.6037503e-07

exp_avg f4 [3, 2]
000000 a5 da 1f 38 c0 39 a8 b9 b4 77 24 3a 56 d9 2c b9
       3.8112183e-05 -0.00032086484 0.00062739407 -0.00016484162
000010 1a 0c 61 b9 c1 dd 03 39
       -0.0002146218 0.00012575743

exp_avg_sq f4 [3, 2]
000000 c5 c2 f1 36 81 da 87 36 6f e2 6c 37 2d 33 67 36
       7.205034e-06 4.0487507e-06 1.4119417e-05 3.445147e-06
000010 fe bf 5f 37 a5 44 da 36
       1.3336537e-05 6.5048976e-06

exp_avg f4 [7, 4]
000000 df d9 ea b9 da e8 94 b9 b8 62 1e ba 62 33 ad b9
       -0.00044794285 -0.00028402248 -0.0006041932 -0.00033035415
000010 eb 86 72 37 c3 8b 6f b7 14 d4 d8 b6 87 c3 b6 b6
       1.4455737e-05 -1.4278051e-05 -6.461991e-06 -5.446785e-06
000020 f5 45 8f b8 1d 83 26 b8 1a 20 d5 b8 d3 00 32 b8
       -6.831802e-05 -3.9699593e-05 -0.00010162611 -4.2439275e-05
000030 77 58 3d b8 ba e1 9b b8 64 96 98 35 f6 fd 13 b8
       -4.51435e-05 -7.433021e-05 1.1368652e-06 -3.528405e-05
000040 9e 3b cc 37 b0 78 f0 38 e1 a0 0a b8 90 ba 7f b8
       2.4346456e-05 0.000114665716 -3.3051594e-05 -6.0970488e-05
000050 f1 05 d7 38 e4 ee a9 38 29 8f af b5 97 83 05 b8
       0.000102531056 8.103045e-05 -1.3080181e-06 -3.1832224e-05
000060 8e 92 ef b9 a9 ec cd b9 39 b4 eb 39 d6 53 b7 39
       -0.00045694824 -0.00039276973 0.0004495697 0.00034966943

exp_avg_sq f4 [7, 4]
000000 08 18 1a 35 7d 0f 7f 35 58 b2 87 35 6c ea 09 36
       5.740444e-07 9.501744e-07 1.0110189e-06 2.0551042e-06
000010 4c 11 94 34 cc c8 6e 35 a7 fc 18 35 ce 4c a5 35
       2.7579733e-07 8.8954107e-07 5.699207e-07 1.2315811e-06
000020 45 4b 92 34 af 0a 88 35 87 19 63 35 50 49 b6 35
       2.7249385e-07 1.0135899e-06 8.4601237e-07 1.3581393e-06
000030 4e aa d2 34 a6 7b 2a 36 03 54 c2 35 40 c6 25 36
       3.923946e-07 2.5403947e-06 1.4478577e-06 2.4702313e-06
000040 fb 00 b1 34 37 fb a2 35 07 ae aa 35 7b 4d ba 35
       3.2969533e-07 1.2143054e-06 1.2716636e-06 1.388063e-06
000050 03 f5 12 34 1d 61 1c 35 3f e0 5c 35 d7 0b a1 35
       1.3686444e-07 5.8255847e-07 8.228271e-07 1.1998881e-06
000060 8e a2 3f 35 a3 f2 a6 35 2f 5a a4 35 e8 61 eb 35
       7.1389593e-07 1.243858e-06 1.2245199e-06 1.7537359e-06

exp_avg f4 [6, 3]
000000 49 fd 09 3a 6e 16 4f b9 db ce c9 37 83 85 98 3a
       0.00052638777 -0.00019749414 2.4057392e-05 0.0011636469
000010 7f 4b b7 b9 4a 7f c0 39 2e 85 7c 36 ca 59 85 b8
       -0.0003496073 0.00036715931 3.7628447e-06 -6.358659e-05
000020 fa 2b 90 b8 4a 36 f9 b9 04 7b 25 3a 8f 6d 53 b9
       -6.874646e-05 -0.0004753343 0.0006312581 -0.00020163342
000030 38 e9 c3 b8 b1 a9 c0 38 03 e0 21 38 92 b8 8c b8
       -9.341765e-05 9.186881e-05 3.859402e-05 -6.710099e-05
000040 a3 5a a6 b7 56 6c 16 38
       -1.9830948e-05 3.5863683e-05

exp_avg_sq f4 [6, 3]
000000 b6 f6 14 37 9b 6e 7a 36 22 44 0e 35 a8 65 40 37
       8.878929e-06 3.7317284e-06 5.299827e-07 1.14677605e-05
000010 f1 94 6c 36 80 0e 36 35 ba 67 ec 36 84 61 35 36
       3.5253436e-06 6.7821384e-07 7.0454234e-06 2.7027863e-06
000020 78 58 98 35 e3 69 ef 37 6a de 19 37 c3 e3 b1 35
       1.135063e-06 2.8540328e-05 9.1712955e-06 1.3253815e-06
000030 86 9a 39 38 59 79 86 37 b0 9d c4 35 5d 24 a3 36
       4.425135e-05 1.6030552e-05 1.4649031e-06 4.862012e-06
000040 15 bb 3a 36 ac 23 f4 34
       2.7825056e-06 4.5474496e-07

exp_avg f4 [6, 3]
000000 51 c3 3b b9 85 f0 2d b8 9b 0a bd 36 34 5a 60 ba
       -0.00017906471 -4.1470415e-05 5.6338736e-06 -0.0008558363
000010 39 bb 88 b9 10 59 91 b9 f9 33 63 39 ae d4 d6 37
       -0.00026079433 -0.00027722912 0.00021667768 2.5609825e-05
000020 11 c6 14 38 04 fc bb b8 5d 8f 5a 38 4a 96 1f b8
       3.5470413e-05 -8.9637964e-05 5.2108768e-05 -3.804852e-05
000030 62 23 8b 39 4b 38 62 b9 b9 bb de 38 9d 59 16 37
       0.00026538508 -0.0002157401 0.00010620751 8.961561e-06
000040 c0 b5 85 35 dc 93 00 b8
       9.962168e-07 -3.0655283e-05

exp_avg_sq f4 [6, 3]
000000 30 6e 2d 36 89 23 56 35 03 9e 01 35 21 d1 22 36
       2.5843146e-06 7.9772923e-07 4.828618e-07 2.426161e-06
000010 9b 24 a9 34 2b 6c d8 34 d4 09 c7 35 b3 46 0c 34
       3.1505337e-07 4.0311838e-07 1.4829516e-06 1.3064236e-07
000020 c6 35 ad 34 9e 01 29 36 da 8f 03 35 30 42 07 35
       3.2262886e-07 2.5183904e-06 4.9010634e-07 5.0387735e-07
000030 1a 33 a3 36 12 07 e4 34 8d 6e 5d 35 17 45 9c 36
       4.8637276e-06 4.2473454e-07 8.248979e-07 4.6572054e-06
000040 10 4a f0 34 6f ef 68 35
       4.475737e-07 8.6775157e-07

exp_avg f4 [4, 2]
000000 1a 71 61 39 b7 f0 35 38 88 83 e9 b7 59 6d 43 39
       0.00021499806 4.3377946e-05 -2.7837013e-05 0.00018637384
000010 ff 64 6d b9 f7 39 13 39 64 66 12 39 b0 8c a1 b9
       -0.00022639705 0.00014040606 0.00013961788 -0.00030813133

exp_avg_sq f4 [4, 2]
000000 a8 4c ed 35 75 3f a7 36 7d 11 10 36 b1 8b 8d 36
       1.7680186e-06 4.984375e-06 2.1467852e-06 4.2183897e-06
000010 a8 59 a9 35 32 f4 8f 36 5a be 5b 36 9e 15 07 37
       1.2617575e-06 4.29016e-06 3.2744342e-06 8.05166e-06

exp_avg f4 [8, 4]
000000 16 05 89 38 85 de 11 38 e3 55 da 37 33 48 d6 37
       6.5336164e-05 3.477793e-05 2.602762e-05 2.5544408e-05
000010 52 ee 44 b8 03 56 2b b8 68 6a 43 b8 28 41 d5 b8
       -4.6951995e-05 -4.084968e-05 -4.659072e-05 -0.00010168768
000020 6a b0 e3 38 22 67 87 b8 a8 08 4f 39 4d 1d 1c 38
       0.00010857063 -6.4565116e-05 0.00019744283 3.7220587e-05
000030 10 9e ab 38 41 bc 4b b8 d6 89 ed b8 73 10 35 37
       8.183357e-05 -4.8574297e-05 -0.000113267146 1.0792271e-05
000040 45 54 ba b9 cd 78 07 b9 63 f3 af 39 59 8d 33 38
       -0.0003553947 -0.00012919605 0.00033559938 4.2808566e-05
000050 fd df 8b 38 35 a1 93 b9 1a 0c ac b9 e4 82 eb b8
       6.6697576e-05 -0.00028158134 -0.00032815413 -0.000112300535
000060 8a cb b0 b8 29 c3 a5 b8 7e 95 fb 37 15 e6 8a 38
       -8.430246e-05 -7.9041645e-05 2.9991144e-05 6.623209e-05
000070 ad c5 f0 b8 a6 06 8d b7 11 51 7d 39 78 76 2a 38
       -0.00011480912 -1.6811606e-05 0.0002415816 4.064149e-05

exp_avg_sq f4 [8, 4]
000000 90 2b 02 34 4b ca 22 35 8e 25 b8 33 12 20 34 34
       1.2123041e-07 6.064408e-07 8.574999e-08 1.6775473e-07
000010 ea 34 80 35 17 8f 0d 37 e2 0b 03 36 02 97 df 35
       9.552143e-07 8.437571e-06 1.9527438e-06 1.6658744e-06
000020 8e 00 45 33 4f a9 84 34 78 5e 23 34 99 90 02 33
       4.586814e-08 2.4710104e-07 1.5214925e-07 3.0399494e-08
000030 10 5f 2b 34 7c 64 2a 36 5e ba 33 35 3d 15 58 34
       1.59602e-07 2.5390464e-06 6.6953896e-07 2.0124294e-07
000040 ef 04 a7 34 6f 31 2d 36 c3 0f 00 36 a5 4c d2 34
       3.1109764e-07 2.5807783e-06 1.908266e-06 3.9171314e-07
000050 4f d7 b3 35 bc ff a6 36 59 b4 2f 36 9a 8d a4 34
       1.3399202e-06 4.976957e-06 2.6182008e-06 3.065041e-07
000060 1f 35 5a 34 dd a7 71 36 79 55 32 36 0c 2a a1 34
       2.0322157e-07 3.6009508e-06 2.6573819e-06 3.001918e-07
000070 50 33 7b 34 fc 04 24 35 ba d5 c4 35 1d e4 d1 33
       2.3394864e-07 6.1102014e-07 1.4665341e-06 9.7738145e-08

exp_avg f4 [64, 43]
000000 4e 81 d9 39 85 9d 4b 39 7a 3b 54 b9 55 19 0a 3a
       0.00041485805 0.00019418269 -0.00020240052 0.0005268057
000010 40 96 b7 3a 58 a1 02 b9 be bc 29 38 f9 3b da 37
       0.001400657 -0.00012457871 4.046852e-05 2.6015552e-05
000020 8c ee 0c b9 f0 c7 18 b7 02 35 a5 b8 4b 80 8d b9
       -0.00013440306 -9.106458e-06 -7.8776866e-05 -0.000269892
000030 84 dc d0 b9 eb a1 84 3a 33 18 05 ba 26 14 05 b9
       -0.00039837149 0.0010119056 -0.00050771533 -0.00012691374
000040 06 bc e1 b8 e3 8d 21 39 ac fb 54 39 42 ea 71 39
       -0.00010763858 0.00015407013 0.0002031165 0.00023070819
000050 7b 9c a8 39 e5 fb a3 b9 6d 69 a9 ba 73 ea aa ba
       0.00032160044 -0.0003127746 -0.0012925096 -0.0013039842
000060 ab b9 49 b8 2c 09 95 39 c1 12 0a ba c9 e3 01 b8
       -4.809505e-05 0.00028426328 -0.0005267077 -3.0968138e-05
000070 eb af fd 39 7f 17 0d ba 5f fa d0 39 9d c3 66 39
       0.0004838699 -0.00053822243 0.00039859393 0.00022007381
000080 5c b6 58 b7 96 fe 74 3a b4 49 bc b9 85 42 b8 b9
       -1.2917062e-05 0.00093457976 -0.00035913067 -0.00035144776
000090 5d 65 92 b9 7b 4a 74 38 93 5b 5b b9 f5 66 ab 3b
       -0.00027922812 5.82435e-05 -0.00020919582 0.0052307793
0000a0 99 6d ae ba 38 54 dc b9 4a 9c 14 b8 b8 13 5b b8
       -0.0013307809 -0.00042024418 -3.5431505e-05 -5.2232033e-05
0000b0 c3 7c ec b8 85 9c 88 38 50 df 6d b9 06 64 da b9
       -0.000112765956 6.5141394e-05 -0.00022685272 -0.00041654723
0000c0 79 6d 43 b8 82 dd 05 b6 6d a3 7c b8 83 1a a6 38
       -4.6593577e-05 -1.994748e-06 -6.0233684e-05 7.920435e-05
0000d0 5a f4 c4 b7 17 a9 0c 39 7e 53 e5 38 cc ba d4 38
       -2.3478806e-05 0.00013414431 0.000109351226 0.000101437414
0000e0 ca fb 41 ba 1e ab 81 39 29 4c 9b b8 88 13 0d 39
       -0.0007399885 0.0002473229 -7.405162e-05 0.00013454084
0000f0 ae cc 0e 39 0f 89 c7 37 3f e2 94 38 5a e2 df b8
       0.00013618424 2.3786472e-05 7.0993316e-05 -0.0001067563
000100 fe 74 33 b8 88 23 fd 39 f9 64 d5 39 7b 99 6c b8
       -4.2785883e-05 0.00048282393 0.00040701756 -5.6409724e-05
000110 69 59 5e b9 02 93 0e 39 92 22 a2 37 36 f3 46 b9
       -0.00021204878 0.0001359694 1.9328003e-05 -0.00018973355
000120 41 f8 b1 39 6b 6d 73 38 7d 6a 92 b8 87 a6 85 b7
       0.00033945034 5.8037618e-05 -6.9816575e-05 -1.593238e-05
000130 07 00 88 b9 d2 e2 e5 39 eb 3e e8 37 e6 e0 32 39
       -0.00025939962 0.00043847278 2.7685854e-05 0.00017059184
000140 f7 75 04 b9 8f 92 33 3b da cb 01 3b 51 3f 9f 3a
       -0.00012632446 0.0027400588 0.0019805343 0.0012149607
000150 8f 58 95 39 98 da fc 38 e5 04 ca b9 fe 8c 9a 39
       0.00028485476 0.00012057013 -0.0003853209 0.00029478216
000160 0c 18 9a 39 47 db 3e b9 70 9d a3 39 df c1 02 39
       0.00029391085 -0.00018201499 0.00031207083 0.00012469989
000170 ab ef 9f 38 33 64 50 37 98 c3 9a b9 44 de 37 b9
       7.6263525e-05 1.2421096e-05 -0.00029518898 -0.0001753504
000180 dc 5f 12 ba ef 0c 3f b9 ec 7e 0c ba fb e0 41 3a
       -0.0005583742 -0.00018219998 -0.0005359489 0.00073958904
000190 93 55 c5 b8 fe 61 ce 38 e4 00 3c ba 60 f5 69 39
       -9.4096315e-05 9.841098e-05 -0.00071717636 0.00022312021
0001a0 b0 10 04 3a de eb 80 38 f1 64 8a 38 3d f5 79 b9
       0.0005037887 6.147449e-05 6.5991546e-05 -0.00023837849
0001b0 b4 21 c0 b8 b4 ae 0b ba 8c 99 ed 38 39 24 a3 38
       -9.161551e-05 -0.0005328462 0.00011329641 7.779193e-05
0001c0 d0 4e 89 b9 ad 9c 97 39 8f 3d 2c 39 61 79 cb b7
       -0.00026189396 0.00028917697 0.0001642613 -2.4256007e-05
0001d0 19 6e 00 39 9b 06 3b 39 64 7b 61 b9 32 c9 34 3a
       0.00012248046 0.0001783617 -0.00021503639 0.00068964355
0001e0 6d c0 9f b8 dd 87 0a 39 9f 96 27 b9 54 f9 ec 39
       -7.617553e-05 0.00013211319 -0.00015982472 0.00045199192
0001f0 b3 8b e9 3a 53 b5 8f 3c 25 28 84 3a 59 2f 31 38
       0.0017818123 0.017542517 0.0010082765 4.2244184e-05
000200 a2 20 18 39 4f a4 66 b9 46 00 83 39 b5 e6 ce 39
       0.00014508006 -0.00021995719 0.0002498647 0.00039463272
000210 db 9b be 38 75 52 75 b7 f5 68 73 b9 66 fa 22 39
       9.088936e-05 -1.46223365e-05 -0.00023213385 0.00015542805
000220 4a ee 5a 39 8a f2 8c b8 c2 7e a9 39 11 d7 47 b9
       0.0002087887 -6.7208966e-05 0.00032328634 -0.00019058237
000230 8b cf 4e b9 0e b4 85 b9 6b 7f a4 b9 fe 53 6e b8
       -0.00019723007 -0.00025501888 -0.0003137545 -5.6821846e-05
000240 10 96 c1 b8 2a 5d 94 39 31 a1 00 3a 7f 25 27 b9
       -9.2309085e-05 0.00028298172 0.0004906832 -0.0001594033
000250 0f cf 3a 39 4d 13 eb b8 f2 fd ca b9 0a a4 25 b9
       0.00017815478 -0.00011209268 -0.00038717646 -0.00015796736
000260 b9 d9 d1 39 d0 59 c6 b8 d5 36 20 37 aa a6 b1 38
       0.00040025802 -9.4581046e-05 9.54951e-06 8.471061e-05
000270 91 44 de b8 a1 dd 5b b7 f6 76 01 ba a9 87 d3 b9
       -0.000105985564 -1.3105019e-05 -0.0004938686 -0.0004034613
000280 6f d4 8a b9 8e e0 2a b9 d2 ce 0b b8 b8 0b 8b 39
       -0.00026479686 -0.00016296117 -3.33328e-05 0.00026520877
000290 11 58 a9 b9 3a 0c fc 37 8d 4e b0 b8 93 81 aa 3b
       -0.00032299806 3.0046434e-05 -8.406965e-05 0.0052034347
0002a0 ba e3 30 3a a1 c3 08 3b 1c 7d f7 38 3e e3 35 38
       0.0006747801 0.0020868557 0.00011801181 4.33654e-05
0002b0 86 16 39 37 9c c2 b4 37 74 b4 e5 b8 8f 76 03 38
       1.1032103e-05 2.1548294e-05 -0.00010953183 3.134325e-05
0002c0 58 c0 f0 b7 c5 18 9b 38 1f 7d 85 37 b1 fd 03 b7
       -2.8699797e-05 7.39559e-05 1.59131e-05 -7.867276e-06
0002d0 0b f5 05 39 25 99 5c b7 07 ce 0b 36 42 e4 e3 36
       0.00012775154 -1.3148679e-05 2.0832538e-06 6.7917e-06
0002e0 7c f0 b2 38 83 a7 d6 38 b5 02 0a b7 80 46 26 b8
       8.532495e-05 0.00010235517 -8.226071e-06 -3.9643142e-05
0002f0 c7 b1 54 b9 0a 90 85 b8 9d 98 18 39 b5 40 93 b8
       -0.00020284123 -6.3687636e-05 0.00014552702 -7.021559e-05
000300 e7 c4 54 37 1c dd 18 39 7e c1 82 b8 b8 f9 dc b8
       1.268203e-05 0.00014578219 -6.234924e-05 -0.00010536931
000310 94 87 56 b8 f6 98 81 38 6e 7e b7 38 e8 c6 5f b8
       -5.1147843e-05 6.1796905e-05 8.749669e-05 -5.335259e-05
000320 75 ac 60 38 96 b8 4e 39 7a 41 1d 39 87 8b 51 39
       5.3566375e-05 0.00019714455 0.00014997079 0.00019983771
000330 2a dd 3e 38 ea 4b 1b b8 c6 a3 f0 b8 83 f9 9c 39
       4.5505505e-05 -3.702558e-05 -0.00011474597 0.0002994054
000340 45 f9 76 b8 66 a8 ee 38 c2 18 86 b9 6d 2a e8 b9
       -5.888312e-05 0.00011380091 -0.00025576918 -0.00044282098
000350 00 fd 4b b8 14 67 75 b8 cd 12 e9 b7 00 00 00 00
       -4.8634596e-05 -5.850855e-05 -2.778452e-05 0.0
000360 00 00 00 00 00 00 00 00 00 00 00 00 00 00 00 00
       0.0 0.0 0.0 0.0
000370 00 00 00 00 00 00 00 00 00 00 00 00 00 00 00 00
       0.0 0.0 0.0 0.0
000380 00 00 00 00 00 00 00 00 00 00 00 00 00 00 00 00
       0.0 0.0 0.0 0.0
000390 00 00 00 00 00 00 00 00 00 00 00 00 00 00 00 00
       0.0 0.0 0.0 0.0
0003a0 00 00 00 00 00 00 00 00 00 00 00 00 00 00 00 00
       0.0 0.0 0.0 0.0
0003b0 00 00 00 00 00 00 00 00 00 00 00 00 00 00 00 00
       0.0 0.0 0.0 0.0
0003c0 00 00 00 00 00 00 00 00 00 00 00 00 00 00 00 00
       0.0 0.0 0.0 0.0
0003d0 00 00 00 00 00 00 00 00 00 00 00 00 00 00 00 00
       0.0 0.0 0.0 0.0
0003e0 00 00 00 00 00 00 00 00 00 00 00 00 00 00 00 00
       0.0 0.0 0.0 0.0
0003f0 00 00 00 00 00 00 00 00 00 00 00 00 00 00 00 00
       0.0 0.0 0.0 0.0
