model_Adam_128Relu_val_Huber.pth (torch, 217738 bytes, 57 tensors)

embeddings.0.weight f4 [7, 4]
0	0xbeb1cb9e	-0.3472566
1	0xbf4ef72a	-0.8084589
2	0xbf496a15	-0.78677493
3	0xbfd0a89b	-1.6301454
4	0xbca6f811	-0.02038196
5	0x3e6f5432	0.23371962
6	0x3f33cef6	0.7023767
7	0x3fa26b30	1.2688961
8	0x3fd31f16	1.6493862
9	0xbffedfcf	-1.9912051
10	0xbde293e7	-0.110633664
11	0xbfb2426d	-1.3926522
12	0xbf16e7f8	-0.58947706
13	0x3f9052fe	1.1275327
14	0xbf07a54e	-0.5298661
15	0xbdcb50c1	-0.09927512
16	0xbe71615c	-0.23572296
17	0xbfb32982	-1.3997042
18	0xc011afed	-2.2763627
19	0x3ecfc5ce	0.405806
20	0x3efbab1f	0.49153993
21	0xbf8ddcb0	-1.1082973
22	0x3f88f00f	1.069826
23	0xbea9e3c1	-0.33181575
24	0xbfcce359	-1.6006881
25	0xbd07ae7e	-0.033125393
26	0xbed78d8a	-0.42100173
27	0xbec3a502	-0.38211828

embeddings.1.weight f4 [7, 4]
0	0x3f340793	0.7032406
1	0x3f5e1bcd	0.8676117
2	0xbf365270	-0.7121954
3	0x3faf7fb8	1.3710852
4	0xbeed2641	-0.46318248
5	0x3e5d829e	0.21631858
6	0x3f4f26d5	0.8091863
7	0x3f978544	1.1837544
8	0x3f49722c	0.7868984
9	0x3fd9f017	1.7026395
10	0xbfadf628	-1.3590746
11	0x3f8c093a	1.0940316
12	0x3f8a07b9	1.0783607
13	0x3f83b03d	1.0288159
14	0xc02ca12a	-2.6973367
15	0x3fd117e2	1.6335413
16	0x3f168041	0.5878945
17	0xbf9107f3	-1.1330551
18	0x3fbebc57	1.4901227
19	0xbe5c9a77	-0.21543299
20	0x3f85809a	1.0429871
21	0x3e0ddc7f	0.13853644
22	0x3f9cb19a	1.22417
23	0xbf443a04	-0.76651025
24	0xbf969b8c	-1.1766219
25	0x3e83281d	0.25616542
26	0x4014127b	2.313628
27	0xbec74a1a	-0.38923723

embeddings.2.weight f4 [6, 3]
0	0x3f409643	0.7522928
1	0xbf91d20e	-1.1392229
2	0x3f935a32	1.15119
3	0x3f882c25	1.0638472
4	0x3d82e38c	0.06391057
5	0x3f2b32ab	0.6687419
6	0xbf7788f1	-0.9669333
7	0x3f38d94e	0.7220658
8	0x3f349089	0.70533043
9	0xbfec31ed	-1.8452736
10	0x3f05bb7f	0.5223922
11	0xbfdb25a1	-1.7120858
12	0xbf7f5d6e	-0.9975194
13	0xbf4e7a6c	-0.8065555
14	0x3f1a813b	0.6035344
15	0xbf1e99f6	-0.61953676
16	0x3feaaa85	1.8333288
17	0x3ededcae	0.4352774

embeddings.3.weight f4 [6, 3]
0	0xbf7df4ec	-0.99201846
1	0x3f62ab45	0.88542587
2	0x3f94a9e1	1.1614343
3	0x3d29d34b	0.04146127
4	0x3eb6456e	0.35599846
5	0x3f8c01cc	1.0938048
6	0x40394d7d	2.8953545
7	0xbfcee045	-1.6162192
8	0xbf52ef94	-0.8239682
9	0x3fad5535	1.3541628
10	0x3f365797	0.712274
11	0x3f75b25d	0.95975286
12	0x3e085ead	0.13317366
13	0x3f79f221	0.97635084
14	0x3fa8f35d	1.3199269
15	0xbea84dd5	-0.3287188
16	0xc0014780	-2.019989
17	0xbeaf981c	-0.34295738

embeddings.4.weight f4 [4, 2]
0	0x3f47b638	0.7801242
1	0xbeebf490	-0.46085024
2	0x402c01a1	2.6875994
3	0xbc69da62	-0.014273258
4	0x3f93b0eb	1.1538366
5	0xbec44825	-0.38336292
6	0xbd8fd2ca	-0.07022627
7	0xbf4f00d8	-0.8086066

embeddings.5.weight f4 [8, 4]
0	0xbfc270b6	-1.5190647
1	0xbfb3cdf5	-1.4047228
2	0x3ec05ce9	0.37570885
3	0xbf84d318	-1.0376921
4	0xbf5ba4f2	-0.8579856
5	0x3f27667d	0.6539076
6	0x3f2911a4	0.6604254
7	0x3f18b911	0.5965739
8	0xbee243aa	-0.4419225
9	0xbf465f51	-0.7748919
10	0xbf2cc371	-0.6748572
11	0xc01bbbb0	-2.4333305
12	0xbe6e182f	-0.23251413
13	0xbc022d3e	-0.007945357
14	0xbf7bd807	-0.98376507
15	0xbf144e62	-0.579321
16	0x3e03c3f9	0.12867726
17	0x3f86fb48	1.0545435
18	0x3fef0762	1.8674128
19	0xbfac2480	-1.3448639
20	0x3e5fbaf1	0.21848656
21	0x40166716	2.3500419
22	0x3df0352d	0.117288925
23	0x3f14abd7	0.58074707
24	0xbfbe2be2	-1.4857142
25	0x3ec698fd	0.38788596
26	0xbf80c9d0	-1.0061588
27	0x3f2f5727	0.6849236
28	0xbffdb2ef	-1.9820231
29	0xbe89429c	-0.2680863
30	0x3efc3688	0.49260354
31	0x3f62f4df	0.88654894

embeddings.6.weight f4 [3, 2]
0	0x3f0e40ee	0.55567825
1	0x3e954e0b	0.29161105
2	0x3ef690f6	0.4815747
3	0x4004dc65	2.0759518
4	0x3f910caa	1.133199
5	0xbf91f474	-1.1402726

embeddings.7.weight f4 [7, 4]
0	0x3f67ffae	0.9062451
1	0x3f8cc0d9	1.0996352
2	0xbfbcd480	-1.475235
3	0x3f5a3660	0.8523922
4	0xbebd826b	-0.37013564
5	0x400c8b43	2.1959999
6	0xbf828358	-1.0196333
7	0x3fa6a39d	1.3018681
8	0x3f69c713	0.9131939
9	0xbf3ae54b	-0.73006123
10	0x3fb2893e	1.3948133
11	0xbed31aa5	-0.41231266
12	0x3ed9e686	0.42558688
13	0xc0384424	-2.879159
14	0xbf7bc307	-0.98344463
15	0x3c6ec83a	0.014574105
16	0xbf3fb8e1	-0.7489148
17	0xbd15faaf	-0.036616024
18	0xbfb091fd	-1.3794552
19	0xbfe8c286	-1.8184364
20	0xc006ae25	-2.104379
21	0x3ec7a07d	0.3898963
22	0x3fccec8c	1.6009688
23	0x3d445539	0.047932837
24	0x3f95b2a4	1.1695142
25	0x400522a2	2.0802388
26	0x3fb91014	1.4458032
27	0x3fa6fa7c	1.3045192

embeddings.8.weight f4 [6, 3]
0	0xbfab6510	-1.3390217
1	0x3f110715	0.5665143
2	0x3e6cdcfb	0.23131172
3	0xc02e7360	-2.725792
4	0xbdd1025c	-0.10205528
5	0xbe379d29	-0.17931046
6	0x401dc7b2	2.4653134
7	0xc00a7864	-2.163598
8	0xbf0ec1bb	-0.5576436
9	0x3e6bc878	0.23025692
10	0x3e78e93c	0.24307722
11	0xbf49ec0d	-0.7887581
12	0x3fc47854	1.5349221
13	0xbce2beb2	-0.027678821
14	0x3f5bf26c	0.8591678
15	0xbe16bc6c	-0.14720315
16	0x3f1ad906	0.604874
17	0xc00ddd4c	-2.216632

embeddings.9.weight f4 [6, 3]
0	0xbf310743	-0.69151706
1	0x4002d4e7	2.0442445
2	0x3f3714c8	0.71516085
3	0xbeed9d63	-0.4640914
4	0x3fc7f07a	1.5620263
5	0xbf9b4b9c	-1.2132449
6	0x3e6e4cb5	0.23271449
7	0xbf0e1fbe	-0.55517185
8	0xbf55b27f	-0.8347549
9	0xbf8d3058	-1.1030378
10	0xbfab7953	-1.33964
11	0xbf618f62	-0.8810941
12	0x3fb7773d	1.4333264
13	0xbcf6ce78	-0.030127749
14	0x3fbd8f0e	1.4809282
15	0x3fcfc7cf	1.6232852
16	0xbf15d182	-0.5852281
17	0xc017fcfc	-2.374816

embeddings.10.weight f4 [4, 2]
0	0x3faceaea	1.350919
1	0x3f5c40ba	0.86036265
2	0x3ebc3bb5	0.36764303
3	0xc000ecbb	-2.014449
4	0xbfda4315	-1.7051722
5	0x3f18fef9	0.5976406
6	0xbf18ab2d	-0.59636194
7	0x3ea0e28d	0.31422845

embeddings.11.weight f4 [5, 3]
0	0x3f428dee	0.7599782
1	0xbe81a924	-0.25324357
2	0x3f263b82	0.6493455
3	0x3f38ef0d	0.7223976
4	0x3e5da790	0.21645951
5	0x3f413bb7	0.7548174
6	0x3fddfc09	1.734254
7	0x400efa29	2.2340186
8	0xbf0eda12	-0.558015
9	0x3fa9cd72	1.3265822
10	0xbf8bf100	-1.0932922
11	0x3f105f2e	0.5639523
12	0x3fa9643b	1.3233713
13	0xbfe979be	-1.8240278
14	0xbda62f37	-0.08114474

model.0.weight f4 [128, 42]
0	0x3e76915e	0.2407889
1	0x3ca27cb0	0.019834846
2	0xbe11048c	-0.14161891
3	0x3ca969e1	0.02068037
4	0x3cf1a4a8	0.02949746
5	0x3dbef04f	0.09323179
6	0xbe3d9ba7	-0.18516408
7	0xbe1939a7	-0.14963399
8	0xbe14b457	-0.14521919
9	0xbe0cfd52	-0.13768509
10	0xbd91cdbf	-0.07119321
11	0xbda03b24	-0.0782378
12	0x3e09842f	0.1342933
13	0xbe862b92	-0.26205117
14	0xbd9f8ef1	-0.07790936
15	0x3e36d583	0.17854886
16	0x3ecc6b36	0.39925545
17	0xbd8af723	-0.06785419
18	0x3d30504f	0.04304534
19	0x3ee3165b	0.44352993
20	0xbea7ef2f	-0.3279967
21	0x3d104658	0.035223335
22	0xbe1283e0	-0.14308119
23	0x3e37e29c	0.17957538
24	0x3dd53f8d	0.10412512
25	0x3e78f18d	0.24310894
26	0xbd29c343	-0.04144598
27	0x3f0d65b6	0.55233324
28	0x3d9d2bc7	0.076743655
29	0xbd602296	-0.054720484
30	0xbd071f7e	-0.032989018
31	0xbccebe6c	-0.025237285
32	0xbe1e83c0	-0.15479946
33	0x3c2f2c17	0.010691664
34	0xbe2a1c61	-0.16612388
35	0x3d875eeb	0.06609901
36	0x3e725724	0.23666054
37	0x3e0ab699	0.13546218
38	0xbca09088	-0.019600168
39	0x3e07ea2d	0.13272925
40	0x3e24a739	0.16079415
41	0x3e328a7b	0.17435639
42	0xbd835daa	-0.064143494
43	0x3cfccdd8	0.030859873
44	0xbe33d093	-0.17560034
45	0x3e0926bf	0.13393687
46	0xbc2c305b	-0.010509576
47	0x3dcb8cfb	0.09938999
48	0x3d77ddab	0.060514133
49	0xbbb0842d	-0.0053868503
50	0xbc67e904	-0.014154676
51	0xbe9072e5	-0.28212658
52	0x3d8884eb	0.06665977
53	0xbe54c49f	-0.2077813
54	0xbc2e6a2b	-0.01064543
55	0xbd81fdac	-0.06347212
56	0x3c8f4c2b	0.017492374
57	0x3e8427f3	0.2581173
58	0xbde6729c	-0.11252329
59	0xbd93826f	-0.072026126
60	0xbdf62bb9	-0.12020058
61	0xbdec3ea7	-0.115353875
62	0xbda627ca	-0.08113058
63	0xbea3af9d	-0.3196992
64	0x3def0475	0.11670772
65	0x3db3c452	0.087776795
66	0x3d8be435	0.068306364
67	0x3d9b49e7	0.07582455
68	0x3daf78f9	0.085679956
69	0x3e004a73	0.125284
70	0x3d2114bb	0.03932641
71	0xbe19ec58	-0.15031564
72	0xbdf3bf3b	-0.11901709
73	0xbd3f6cfc	-0.046734795
74	0x3e1924bf	0.14955424
75	0x3d48b596	0.0490013
76	0xbe0228f5	-0.12710936
77	0x3cb40243	0.021973735
78	0xbe01ee65	-0.12688597
79	0xbd844ed8	-0.06460351
80	0xbe6b7cab	-0.22996776
81	0xbb4dec35	-0.0031421308
82	0xbe2714e7	-0.16316567
83	0x3d885197	0.06656187
84	0x3c83e624	0.01610095
85	0xbe1c22d5	-0.15247662
86	0xbedda8f9	-0.43292978
87	0xbeba9a85	-0.36446014
88	0xbe802c6c	-0.2503389
89	0xbcb0fc63	-0.021604722
90	0xbd42c7bb	-0.04755376
91	0x3ed165ed	0.40898076
92	0xbde200be	-0.11035298
93	0xbe086ac1	-0.13321973
94	0xbe5cff5b	-0.21581785
95	0xbe692415	-0.2276767
96	0xbe10a109	-0.1412393
97	0x3c0dc90b	0.008653889
98	0xbd85f35f	-0.0654056
99	0xbe10227e	-0.14075658
100	0x3ccc3b72	0.02493069
101	0x3e41b7ef	0.18917821
102	0x3d2e1d74	0.042508557
103	0x3cbea872	0.02327368
104	0x3e7c532e	0.24641106
105	0xbdaa9c93	-0.083306454
106	0xbdc3503c	-0.09536788
107	0xbecf5bbd	-0.40499678
108	0xbe514d85	-0.20439728
109	0xbec13431	-0.3773513
110	0x3e5646ae	0.209254
111	0x3ecbd439	0.3981035
112	0x3eecdedc	0.46263778
113	0x3e060a30	0.13089824
114	0xbdd8aa5d	-0.10579369
115	0xbdcb5781	-0.099287994
116	0x3dea6ae5	0.1144617
117	0xbeb0d764	-0.3453933
118	0xbd9bb113	-0.076021336
119	0xbe64c3b0	-0.22340274
120	0xbd0c3e03	-0.034238826
121	0xbe1af53f	-0.15132616
122	0x3cc6cf4e	0.024268772
123	0x3c2ae79e	0.010431198
124	0x3e077356	0.13227591
125	0xbeced83e	-0.40399355
126	0xbda6ae5d	-0.08138726
127	0x3b341ef6	0.0027484274
128	0xbdcb5920	-0.099291086
129	0x3da3b15b	0.07992812
130	0xbe93a88d	-0.28839532
131	0xbe312b00	-0.1730156
132	0x3d8d55b4	0.06901112
133	0xbdf3862d	-0.118908264
134	0x3dbc6c47	0.0920034
135	0xbe9ffe94	-0.31248915
136	0x3dc9981a	0.09843464
137	0xbe8159d0	-0.25263834
138	0xbe072dde	-0.1320109
139	0xbe2b347d	-0.16719241
140	0xbe9094ab	-0.28238425
141	0xbdba2848	-0.09089714
142	0xbdbca36d	-0.092108585
143	0xbe6350c3	-0.22198777
144	0x3e287473	0.16450672
145	0xbdd4e07f	-0.10394382
146	0x3e020ac5	0.12699421
147	0xbe4fa352	-0.20277146
148	0x3e72d77f	0.23715018
149	0x3e02a820	0.12759447
150	0x3ded79ce	0.11595498
151	0x3e814e2a	0.25254947
152	0xbe4001cd	-0.18750687
153	0x3e2101e8	0.15723383
154	0xbea701e6	-0.32618636
155	0xbdfca706	-0.12336545
156	0xbc94229c	-0.01808291
157	0xbdc928f0	-0.09822261
158	0xbe02aa6b	-0.12760322
159	0x3e07d12a	0.13263384
160	0xbdb0b05e	-0.08627389
161	0x3da49dad	0.08037887
162	0xbeca0b50	-0.39461756
163	0xbd817611	-0.063213475
164	0xbe4743e2	-0.19459489
165	0x3dbdef20	0.09274125
166	0xbdab73d9	-0.083717056
167	0xbddc85e7	-0.10767727
168	0xbdac7739	-0.084211774
169	0x3e2a9520	0.16658449
170	0xbd1d51e5	-0.03840818
171	0x3d8b3e64	0.067990094
172	0x3e84afed	0.2591547
173	0x3e55e306	0.20887384
174	0x3e460db8	0.19341171
175	0x3d80a73e	0.06281899
176	0xbd8549ea	-0.065082386
177	0xbea672ea	-0.32509547
178	0xbdac484a	-0.084122255
179	0xbcae0d43	-0.021246558
180	0xbe7d0aaf	-0.24711107
181	0x3dcd36e5	0.10020236
182	0x3d1c72b1	0.038195316
183	0xbe402eeb	-0.18767898
184	0xbd5abf62	-0.053405173
185	0x3e30a450	0.1725018
186	0x3e2534a3	0.1613336
187	0xbe3e9548	-0.18611634
188	0x3e022ab8	0.12711608
189	0xbd762bac	-0.060100242
190	0xbe6e2b28	-0.2325865
191	0x3e88be6e	0.26707786
192	0x3dcd0f4f	0.100126855
193	0x3d5353c5	0.05159356
194	0x3d23b4c1	0.039967302
195	0xba949b87	-0.0011337855
196	0xbdcd66c2	-0.10029365
197	0x3bf748d5	0.007546524
198	0xbd8658ce	-0.06559907
199	0x3c407f3c	0.011749085
200	0x3e76608e	0.2406027
201	0xbd5586b7	-0.052130427
202	0x3ddf9a00	0.10918045
203	0x3c723bee	0.014784796
204	0x3ebc1120	0.36731815
205	0x3c649d36	0.013953498
206	0x3ca01f70	0.01954624
207	0xbd96c401	-0.073616035
208	0x3e59c08c	0.21264857
209	0xbc8f049f	-0.017458258
210	0x3e937167	0.28797457
211	0xbce57183	-0.028008228
212	0x3dc3281c	0.09529135
213	0x3e3c930e	0.18415472
214	0xbdb3aa06	-0.08772664
215	0x3c8ea68c	0.0174134
216	0xbd9ecb12	-0.07753576
217	0x3e1f336f	0.15546964
218	0xbdd48ab4	-0.10378018
219	0xbc678815	-0.014131566
220	0x3e23169a	0.1592659
221	0xbd48ea98	-0.04905185
222	0xbe3b106c	-0.18267983
223	0x3e6f10e6	0.2334629
224	0x3d8eb789	0.069686
225	0xbdd5fb6e	-0.10448347
226	0xbe955995	-0.29169908
227	0x3d2f5a04	0.042810455
228	0xbd2be515	-0.041966517
229	0xbe3dbe92	-0.18529728
230	0x3e8b3cc1	0.2719479
231	0xbe68562b	-0.2268912
232	0x3df82002	0.1211548
233	0xbd9a87d4	-0.075454384
234	0xbd6a395c	-0.05718361
235	0x3c003bae	0.007826729
236	0x3c74290d	0.014902365
237	0x3e1e0e7f	0.15435217
238	0xbe288bc5	-0.16459568
239	0xbd9a0514	-0.075205
240	0xbd332c2a	-0.04374329
241	0xbd178c72	-0.036999173
242	0x3ea408a7	0.3203785
243	0xbd08c83f	-0.033394095
244	0x3e98236f	0.29714534
245	0x3c575f9e	0.0131453555
246	0x3e8b56de	0.27214712
247	0xbe435101	-0.1907387
248	0xbb1e6d36	-0.0024173982
249	0x3df24f73	0.1183156
250	0x3e8e9ae6	0.27852553
251	0x3c28193c	0.010259923
252	0x3e08f100	0.13373184
253	0xbcb482a7	-0.022034956
254	0xbe8d79b8	-0.27631927
255	0x3acc9661	0.0015608781

model.0.bias f4 [128]
0	0xbea17ba2	-0.31539637
1	0x3d62b984	0.055352703
2	0x3e3953c5	0.18098362
3	0xbe0cbd13	-0.13744001
4	0x3e9ddd1b	0.30832753
5	0x3eacb3f3	0.3373104
6	0x3e6a204b	0.22863881
7	0x3e74d0ac	0.23907727
8	0x3e077f04	0.13232046
9	0xbeba8ee1	-0.36437133
10	0x3ddef838	0.10887188
11	0xbcc9aa40	-0.024617314
12	0x3dac81ef	0.0842322
13	0xbd78fc8e	-0.06078773
14	0x3d5dd2cf	0.05415612
15	0x3eb298cd	0.34882203
16	0x3ee0accb	0.4388183
17	0x3e0fb7f0	0.1403501
18	0x3ebf572d	0.37371197
19	0xbf1f40db	-0.62208337
20	0x3e4343b9	0.19068803
21	0xbdd800f5	-0.105470575
22	0x3eb49c60	0.35275555
23	0xbeccece8	-0.40024495
24	0xbdf16888	-0.11787516
25	0xbee76bf9	-0.45199564
26	0xbd9bebfe	-0.07613371
27	0x3d9a9d5f	0.075495474
28	0x3cd63acd	0.026151085
29	0x3eb987af	0.3623633
30	0x3d8a14cb	0.06742247
31	0xbe0ad0bb	-0.13556187
32	0x3dfd28d7	0.12361305
33	0xbb902767	-0.0043992284
34	0xbe2c7633	-0.16841964
35	0x3eb37026	0.350465
36	0xbdfb3426	-0.12265806
37	0x3e75f8da	0.2402071
38	0xbedb24f4	-0.4280163
39	0x3e636829	0.22207703
40	0x3e856008	0.2604983
41	0xbf0a5697	-0.54038376
42	0x3e25771c	0.16158718
43	0xbea23763	-0.31682882
44	0x3e9acb48	0.30233216
45	0xbef19e99	-0.47191313
46	0x3e84dfbb	0.25951943
47	0x3e877c06	0.2646181
48	0x3d9dec22	0.077110544
49	0x3d79c8d8	0.060982555
50	0x3e5eae67	0.21746217
51	0xbe4002c6	-0.18751058
52	0x3d015f3d	0.031584967
53	0x3eb27a58	0.34858966
54	0xbdf2f78c	-0.11863622
55	0xbc2220f6	-0.009895554
56	0xbe033a4c	-0.12815207
57	0x3e91e9e8	0.2849877
58	0xbca2923e	-0.019845124
59	0xbd877c1c	-0.06615469
60	0x3e72e4aa	0.23720041
61	0xbe47e18f	-0.19519638
62	0x3d4bfb1d	0.049800027
63	0x3e5a6214	0.21326476
64	0x3e865127	0.2623379
65	0x3ee4d3bd	0.44692793
66	0xbef57189	-0.47938183
67	0xbd19aa9c	-0.03751622
68	0xbe19c6f3	-0.150173
69	0x3e80965d	0.25114718
70	0x3d7cf022	0.061752446
71	0x3e649c79	0.22325315
72	0x3e3858c1	0.18002607
73	0xbf185630	-0.5950651
74	0x3e459c10	0.19297814
75	0xbdf155f6	-0.11783974
76	0xbcf1c21e	-0.029511508
77	0x3def4d56	0.116846725
78	0x3e395259	0.1809782
79	0xbea7c3be	-0.32766527
80	0x3cacec46	0.021108758
81	0xbe6657d3	-0.2249444
82	0x3d9cddef	0.07659518
83	0x3e418c8e	0.18901274
84	0x3dfeaa13	0.12434783
85	0x3ea26516	0.31717747
86	0xbebc1e2e	-0.36741775
87	0x3dd2272c	0.10261378
88	0x3e01ceb7	0.12676512
89	0x3e83c8a6	0.2573902
90	0xbecb9249	-0.39760044
91	0x3e85534f	0.26040122
92	0x3ed86665	0.4226562
93	0xbe9939ba	-0.29926854
94	0x3e398a9b	0.1811928
95	0xbdf80014	-0.1210939
96	0xbef08e68	-0.46983647
97	0x3eb4aad3	0.3528658
98	0xbec1c2e2	-0.37843996
99	0xbb765584	-0.0037587592
100	0x3e969648	0.2941153
101	0xbe05135a	-0.12995663
102	0x3e4284df	0.18995999
103	0x3d5e81d9	0.05432305
104	0xbde52208	-0.111881316
105	0xbe9ed7c9	-0.31024006
106	0xbecccefd	-0.4000167
107	0x3dbf955e	0.093546614
108	0xbed3bbe0	-0.41354275
109	0xbcb0b313	-0.021569764
110	0x3ed16eed	0.40904942
111	0x3e134985	0.14383514
112	0x3e9f4d75	0.31113783
113	0xbdadac71	-0.08480156
114	0xbd5e1d07	-0.0542269
115	0xbdd9d72f	-0.10636746
116	0xbe3bfb06	-0.18357477
117	0x3db81463	0.089882635
118	0x3e20e06f	0.15710615
119	0xbe98c8c4	-0.29840672
120	0xbc5bd513	-0.0134175
121	0xbe32d975	-0.17465766
122	0x3e9a666f	0.30156276
123	0x3d3ab616	0.045583807
124	0x3e3d85c9	0.18508066
125	0x3e21231b	0.15736048
126	0x3b98bb1a	0.004660976
127	0x3c45fec9	0.012084671

model.2.weight f4 [64, 128]
0	0xbcf126b5	-0.029437402
1	0xbd2a8703	-0.041632663
2	0xbda4c284	-0.080449134
3	0x3c055d1b	0.008139874
4	0xbca1b9e2	-0.019741956
5	0xbc448b18	-0.011996053
6	0x3c5076b0	0.01272361
7	0xbc609d45	-0.013709371
8	0x3d344648	0.044012338
9	0xbd914299	-0.070927806
10	0xbdaa7a8f	-0.083241574
11	0xbd7dcf88	-0.061965495
12	0x3cc100f0	0.023560017
13	0x3d584ca9	0.052807484
14	0xbd8e9c1c	-0.06963369
15	0xbd390e88	-0.045179874
16	0xbdcdae48	-0.10043007
17	0xbdd6668c	-0.10468778
18	0x3cac3019	0.021019028
19	0xbda3e159	-0.08001966
20	0xbc7381db	-0.014862503
21	0x3ce0834c	0.027406357
22	0x3b33403a	0.0027351514
23	0x3d7a0209	0.061037097
24	0x3cd2bfc4	0.025726207
25	0x3d9e8714	0.07740608
26	0x3d85112f	0.06497418
27	0x3d6b2c80	0.057415485
28	0xbb938a81	-0.004502595
29	0xbc086b13	-0.00832631
30	0x3bed3f6f	0.007240228
31	0xbd33533e	-0.043780558
32	0x3b2414d4	0.0025036829
33	0x3cbf72eb	0.023370227
34	0xbb10e01b	-0.0022106234
35	0xbd321db7	-0.04348537
36	0x3d76773f	0.060172316
37	0xbd4fb91b	-0.05071364
38	0xbc40ba82	-0.011763217
39	0x3d0bbbde	0.03411471
40	0xbda6af96	-0.08138959
41	0x3c67ce2b	0.014148275
42	0x3a8383c1	0.0010033773
43	0x3d0d6772	0.03452248
44	0xbd4af322	-0.049548276
45	0xbda34bc8	-0.079734385
46	0x3d1b9b1c	0.03798972
47	0xbd86c027	-0.06579619
48	0x3c4140d3	0.01179524
49	0xbc786768	-0.015161373
50	0xbd8f009a	-0.069825366
51	0x3c04ff3e	0.008117495
52	0xbdeaf3bb	-0.11472269
53	0xbcbf888d	-0.023380542
54	0xbcf67f23	-0.03008992
55	0xbc9ceb90	-0.019155294
56	0x3d817866	0.06321792
57	0x3d18524c	0.03718786
58	0x3c495095	0.012287279
59	0xbdc04da5	-0.093898095
60	0x3cad46e8	0.021151975
61	0x3be693bd	0.0070366547
62	0x3ca70afe	0.020390984
63	0xbdd6de25	-0.104915895
64	0xbe0401e6	-0.12891349
65	0xbcc3c860	-0.023899257
66	0xbda286d2	-0.07935871
67	0x3d7acdcc	0.06123142
68	0xbc9a1e17	-0.018813176
69	0x3d307b17	0.043086138
70	0xbd966a74	-0.07344523
71	0x3cb76c2e	0.022390451
72	0x3d5482b8	0.051882476
73	0x3cf62a61	0.030049505
74	0xbd98dcf0	-0.074640155
75	0x3cf4f5e0	0.029902399
76	0xbcc456c9	-0.023967164
77	0xbc323fad	-0.010879439
78	0x3accd002	0.0015625956
79	0x3da8b163	0.08236959
80	0x3cacbece	0.021087077
81	0xbdb6842c	-0.089119285
82	0xbdf939fc	-0.12169263
83	0x3ce6e210	0.028183967
84	0xbd64a7bc	-0.055824026
85	0x3c774554	0.015092213
86	0xbd60850d	-0.054814387
87	0xbb24ba3c	-0.0025135418
88	0xbdadd930	-0.08488691
89	0xbc454ecf	-0.012042715
90	0x3cad824e	0.021180298
91	0xbda67cb7	-0.08129256
92	0xbda67d6a	-0.081293896
93	0x3cab39f8	0.020901665
94	0xbdd2ebe1	-0.102988966
95	0xbd6c3629	-0.05766884
96	0xbd6cd16c	-0.057816908
97	0xbc1c9644	-0.0095573105
98	0xbcef0a15	-0.029179612
99	0xbd333557	-0.04375204
100	0xbcffb0b0	-0.03121218
101	0xbdbd5293	-0.092442654
102	0xbc29d6ee	-0.010366185
103	0xba797878	-0.00095165474
104	0xbd291278	-0.04127738
105	0x3d0a54c5	0.03377225
106	0xbc0733f3	-0.008252132
107	0x3d101ed2	0.035185643
108	0x3d86d539	0.06583638
109	0x3d8180e3	0.06323411
110	0x3d3637e2	0.044486888
111	0x3c4ff953	0.012693721
112	0x3c03abb1	0.00803654
113	0xbd852811	-0.06501783
114	0x39e5e884	0.0004385152
115	0xbb33001b	-0.0027313295
116	0xbd3a2dac	-0.045453712
117	0x3d87015d	0.06592057
118	0x3cc2b65a	0.023768593
119	0xbd68a6b6	-0.056799613
120	0xbd7132c3	-0.0588863
121	0xbdbfd72c	-0.09367213
122	0x3d2f3be5	0.04278173
123	0x3d869a7b	0.065724336
124	0xbd909a85	-0.07060722
125	0xbc5f07fe	-0.013612745
126	0x3d78fe0f	0.060789164
127	0xbddf9ca0	-0.10918546
128	0x3d465c3e	0.048427813
129	0xbe06bee9	-0.13158764
130	0x3d10187d	0.035179604
131	0xbe937e56	-0.28807324
132	0xbb6ce112	-0.0036144895
133	0xbe5651ba	-0.20929614
134	0xbe209be9	-0.15684475
135	0x3a24dd96	0.00062891224
136	0x3e3e03f8	0.18556201
137	0xbce99774	-0.028514601
138	0xbef5a447	-0.47976896
139	0x3c3d6194	0.011558909
140	0xbe5920dd	-0.21203943
141	0xbdc40169	-0.095705815
142	0x3decd2d5	0.115636505
143	0xbdeeea14	-0.116657406
144	0xbd950078	-0.0727548
145	0x3d246883	0.040138733
146	0x3e19ca65	0.15018614
147	0xbce95acf	-0.028485684
148	0x3e0ae64b	0.13564412
149	0x3e33970c	0.17538089
150	0xbc14320f	-0.009045138
151	0xbd72fe63	-0.059324633
152	0x3c488fd6	0.012241324
153	0x3db0f9c5	0.0864139
154	0x3db11c2c	0.086479515
155	0xbd8fdcc0	-0.070245266
156	0xbe52b73e	-0.20577714
157	0xbdfccde5	-0.12343959
158	0xbd510153	-0.051026653
159	0x3d4360df	0.047699805
160	0xbd1b4bf0	-0.037914217
161	0xbce5027d	-0.027955288
162	0x3b0fa87e	0.0021920498
163	0xbc979829	-0.018505173
164	0x3e0c97d7	0.13729797
165	0x3cad32b5	0.021142343
166	0x3da02e66	0.0782135
167	0x3dacf9a2	0.08446051
168	0x3dfdf475	0.12400142
169	0x3d775d65	0.060391802
170	0x3cbeece6	0.023306321
171	0xbdae6fc5	-0.08517412
172	0x3d854bd9	0.065086074
173	0x3d16028a	0.036623515
174	0xbe2cc951	-0.16873671
175	0x3ddfad3a	0.10921712
176	0xbe1a8957	-0.15091453
177	0xbe5091ba	-0.2036809
178	0xbd966c4d	-0.073448755
179	0xbca98d46	-0.020697247
180	0xbe450a67	-0.1924225
181	0xbe08ec47	-0.13371383
182	0x3c051b4b	0.008124183
183	0x3d6cde76	0.057829343
184	0x3dc34d02	0.095361724
185	0x3c31efa5	0.010860358
186	0xbdeb4f22	-0.11489703
187	0xbdb0b9f6	-0.08629219
188	0xbd455ee5	-0.0481862
189	0xbd2b4653	-0.041815113
190	0xbda500c4	-0.08056787
191	0x3ddf605f	0.10907053
192	0xbd157f38	-0.03649828
193	0x3d845321	0.06461168
194	0xbd933759	-0.07188291
195	0x3c5b28d4	0.013376433
196	0x3de868c0	0.113481045
197	0x3d29800f	0.04138189
198	0xbe22bee6	-0.15893134
199	0x3e00ac76	0.12565789
200	0xbe7f7a0a	-0.24948898
201	0x3cac4933	0.021030998
202	0xbe11058e	-0.14162275
203	0x3b144798	0.002262568
204	0x3dfa7296	0.12228887
205	0x3d773734	0.06035538
206	0xbe845f97	-0.2585418
207	0x3db32407	0.08747106
208	0x3df3a141	0.11895991
209	0x3dca38c4	0.098741084
210	0xbbebe4ee	-0.0071989214
211	0xbe884699	-0.26616362
212	0x3d808bea	0.062766865
213	0xbe3ee20a	-0.18640915
214	0xbb847923	-0.004042761
215	0xbe99b8cd	-0.30023804
216	0xbd7c607a	-0.061615445
217	0xbcf6723f	-0.030083774
218	0xbd1fc106	-0.03900244
219	0xbdb4bef0	-0.08825481
220	0xbaf261d8	-0.0018492294
221	0x3dec14b1	0.11527384
222	0xbd7b78dc	-0.061394557
223	0xbedf0fe1	-0.43566802
224	0x3c5deec1	0.013545693
225	0xbe87d784	-0.26531613
226	0x3d35545c	0.044269904
227	0xbea65d0d	-0.32492867
228	0xbd134eee	-0.035963945
229	0xbd67c7a8	-0.05658689
230	0xbdf90f9b	-0.1216118
231	0x3cc780de	0.02435344
232	0xbdf01b22	-0.11723925
233	0xbe6e144b	-0.23249929
234	0xbcf5e62a	-0.030016977
235	0x3da2a218	0.07941073
236	0x3d03843d	0.032108534
237	0xbe3eea07	-0.18643962
238	0x3e2a35a6	0.16622028
239	0x3e37524b	0.17902486
240	0xbcf1d672	-0.0295212
241	0x3d89602e	0.06707798
242	0xbe21ca35	-0.15799792
243	0x3d41bc08	0.04729846
244	0xbd6b6b4c	-0.057475373
245	0xbd8276ba	-0.063703015
246	0x3d122828	0.035682827
247	0x3d43c504	0.04779531
248	0xbdef1743	-0.11674359
249	0xbc743202	-0.014904501
250	0xbe1dd501	-0.15413286
251	0x3cf4c4f4	0.02987907
252	0xbe381925	-0.17978342
253	0xbe757598	-0.2397064
254	0x3d271281	0.04078913
255	0xbd2a9b22	-0.041651852

model.2.bias f4 [64]
0	0xbdb38a9e	-0.087666735
1	0xbd1ca259	-0.038240764
2	0xbde57be2	-0.112052694
3	0xbe936d1f	-0.2879419
4	0x3cb5d2b6	0.022195201
5	0x3e9e131d	0.30873957
6	0x3dbde80c	0.09272775
7	0x3e6fa089	0.23401083
8	0x3df8f62a	0.12156327
9	0x3eb24b00	0.34822845
10	0x3e2e02b8	0.16993225
11	0x3c53ac37	0.012919477
12	0xbd5f9686	-0.05458691
13	0xbc949ba6	-0.018140625
14	0x3deaf4d1	0.11472476
15	0x3e66540e	0.22493002
16	0x3e1d8907	0.15384303
17	0x3b58525d	0.0033008077
18	0xbd761bc2	-0.060085066
19	0xbc294e0c	-0.010333549
20	0x3d56973d	0.052390326
21	0xbd1a1822	-0.03762067
22	0x3ec81b87	0.39083502
23	0x3d1cf8c3	0.038323175
24	0x3d1197d2	0.035545178
25	0xbd0ab64b	-0.033865254
26	0x3db376d6	0.087629005
27	0x3e754f6d	0.2395608
28	0x3e0527fb	0.13003533
29	0x3e49e179	0.19714917
30	0x3e236385	0.15955932
31	0xbdc51244	-0.096226245
32	0xbddc212e	-0.10748516
33	0x3df4b635	0.11948816
34	0x3d82a8a5	0.06379823
35	0x3c4c65c2	0.012475433
36	0x3d0c1f6e	0.03420966
37	0x3c01da25	0.007925545
38	0x3de9ad09	0.11409957
39	0x3e93f6ff	0.2889938
40	0x3d8cefc5	0.0688167
41	0x3c095a38	0.008383326
42	0x3bf3b44a	0.0074372636
43	0x3eabfed5	0.3359286
44	0x3d48ec03	0.049053203
45	0xbd8f14a2	-0.06986357
46	0xbc616612	-0.013757246
47	0x3d5463d9	0.051853035
48	0x3d23239a	0.039828874
49	0x3dfe3b61	0.124136694
50	0x3d02db40	0.031947374
51	0x3e805138	0.25061965
52	0x3d884cd8	0.06655282
53	0xbdfec3d9	-0.12439699
54	0x3ae9d7ee	0.0017840841
55	0xbe936b7c	-0.28792942
56	0x3e2e6ded	0.17034121
57	0x3e101338	0.14069831
58	0xbd26e70f	-0.0407477
59	0xbd932e01	-0.07186509
60	0x3e3c3136	0.18378147
61	0x3db6d2ca	0.089269236
62	0xbe80fba5	-0.2519199
63	0xbdac4afe	-0.08412741

model.4.weight f4 [32, 64]
0	0x3a4c2b00	0.000778839
1	0xbe04ed1f	-0.1298108
2	0x3c9fef68	0.019523337
3	0xbe0acd6a	-0.13554922
4	0x3db78382	0.0896063
5	0x3de6d07e	0.112702355
6	0x3d96f9de	0.07371877
7	0xbcbdc156	-0.023163479
8	0x3c95e755	0.018298784
9	0x3de839bb	0.11339136
10	0xbe05f406	-0.13081369
11	0x3db87499	0.09006614
12	0xbb8ded2c	-0.0043312516
13	0xbc3698c0	-0.011144817
14	0xbd44129c	-0.04786931
15	0xbd9f9c9a	-0.07793541
16	0xbce774c4	-0.02825392
17	0x3cbe34ff	0.02321863
18	0xbdb0056d	-0.08594785
19	0x3dac218e	0.084048375
20	0xbd881b71	-0.06645859
21	0xbde385d6	-0.111095116
22	0xbd5eff68	-0.054442793
23	0xbd6d14b3	-0.05788107
24	0xbdd39755	-0.10331599
25	0xbd6c37a4	-0.05767025
26	0xbd048ade	-0.032358997
27	0xbdadc532	-0.08484878
28	0x3d922282	0.07135488
29	0x3cda8294	0.026673593
30	0x3c10f137	0.008846573
31	0xbdf2528d	-0.118321516
32	0x3d69e9c3	0.0571077
33	0xbc8c9a89	-0.017163532
34	0xbcb01f57	-0.021499319
35	0xbc8183c1	-0.015809895
36	0x3dd90333	0.10596313
37	0xbab691f9	-0.0013929001
38	0xbd49d270	-0.049272954
39	0x3da576d7	0.080793075
40	0xbcbf8948	-0.02338089
41	0xbdba190b	-0.09086808
42	0xbd2a2bcc	-0.041545674
43	0xbe07bc88	-0.13255513
44	0x3d30b366	0.043139838
45	0x3ba8914d	0.0051442743
46	0x3bc9ae2b	0.0061547956
47	0xbccf8350	-0.02533117
48	0xbb883920	-0.0041572005
49	0xbdb9ec28	-0.09078246
50	0xbdb7cd62	-0.089747205
51	0xbd38dc13	-0.045131754
52	0xbd0befc8	-0.03416422
53	0xbdcaae9f	-0.098965876
54	0x3ce3b17c	0.027794592
55	0xbe0e6bd3	-0.13908319
56	0xbd004696	-0.031317316
57	0xbdabcb67	-0.08388405
58	0x3d43e32c	0.04782407
59	0x3cafb2f1	0.02144763
60	0x3cbfc32a	0.023408491
61	0xbb72140e	-0.0036938223
62	0x3d96d441	0.07364703
63	0x3c29da76	0.010367027
64	0xbc303a66	-0.010756111
65	0xbe01fb0d	-0.12693425
66	0x3db5286f	0.08845603
67	0xbd9722db	-0.07379695
68	0x3d985702	0.074384704
69	0x3c9c8398	0.019105718
70	0xbe308f65	-0.172422
71	0x3d651187	0.05592492
72	0xbdb0ac14	-0.08626571
73	0x3e648689	0.22316946
74	0xbd64c1dc	-0.05584894
75	0x3d46f9bd	0.048578013
76	0x3e1ade3d	0.1512384
77	0xbd2a16af	-0.04152554
78	0x3dd8fd81	0.10595227
79	0x3ddc1958	0.107470214
80	0x3cfeb88a	0.031093854
81	0xbccb684d	-0.024830008
82	0x3c8be98e	0.017079141
83	0xbb9a37d7	-0.0047063637
84	0x3d5912ba	0.052996375
85	0xbe6d6ff5	-0.2318724
86	0xbd07efd7	-0.033187713
87	0x3d99a14e	0.075014696
88	0xbe29e4a2	-0.16591123
89	0x3dafae2d	0.08578143
90	0x3d65a988	0.05606988
91	0x3db03f61	0.086058386
92	0x3d32eec3	0.043684732
93	0x3dc63ee7	0.096799664
94	0x3e1e01f3	0.15430431
95	0xbdb67fee	-0.089111194
96	0x3b95948c	0.0045648273
97	0xbc216d62	-0.009852739
98	0xbdb66730	-0.089064
99	0xbbea134c	-0.0071434136
100	0xbdc88d45	-0.0979257
101	0x3e4e7463	0.20161586
102	0xbd7bd7e1	-0.061485175
103	0x3c424e7b	0.0118595315
104	0xbd0172e2	-0.0316037
105	0x3df9165f	0.1216247
106	0x3e03f541	0.12886526
107	0xbbc48d87	-0.0059983167
108	0xbdc93c2a	-0.098259285
109	0x3cbfae7c	0.02339863
110	0x3e2d8003	0.16943364
111	0xbde363b5	-0.11103002
112	0x3b0cdd96	0.002149438
113	0x3d35c275	0.0443749
114	0xbdeb8f31	-0.11501921
115	0x3d644c16	0.055736624
116	0x3c7e0c17	0.015505812
117	0xbcccec4c	-0.025015019
118	0xbdedf7fd	-0.11619566
119	0xbcd1154f	-0.025522856
120	0xbd64b0a6	-0.055832528
121	0x3e0af782	0.13570979
122	0xbdddba2f	-0.10826527
123	0x3d8f4d61	0.06997181
124	0xbe88a427	-0.26687738
125	0x3c79535e	0.01521763
126	0x3e48cf11	0.1961024
127	0x3d00c768	0.03144017
128	0xbd81b5c8	-0.063335
129	0xbb874eab	-0.004129251
130	0xbd610f15	-0.054946024
131	0x3c1a1732	0.009404944
132	0x3ddf1a92	0.1089374
133	0xbd017eb5	-0.031614978
134	0xbd4ade53	-0.04952843
135	0x3d1d19dc	0.03835474
136	0x3cd76dd8	0.026297495
137	0x3d120fa5	0.03565945
138	0x3de9fa36	0.11424677
139	0xbbd1d772	-0.006403857
140	0x3e32e4b0	0.1747005
141	0x3bfbf12c	0.007688662
142	0x3e099778	0.13436687
143	0x3cf6d1f6	0.030129414
144	0x3d970843	0.07374623
145	0xbd8d6de9	-0.06905729
146	0x3d148347	0.03625801
147	0x3dac11ef	0.08401858
148	0x3df6da47	0.12053352
149	0xbe340d63	-0.17583232
150	0xbd8afd47	-0.0678659
151	0x3e1b54d6	0.15169081
152	0x3d8750d7	0.06607216
153	0x3cd5040c	0.026002906
154	0x3cd452ed	0.025918448
155	0x3e322713	0.17397718
156	0xbddddbca	-0.10832937
157	0x3d13861b	0.036016565
158	0x3e05bbb7	0.13059889
159	0x3b82a1cd	0.0039865733
160	0x3cb8c868	0.022556499
161	0x3dafb41d	0.08579276
162	0xbda9b15f	-0.08285784
163	0xbdc2c66b	-0.095105015
164	0x3dae0247	0.08496528
165	0x3bb52ac9	0.005528782
166	0xbca30a92	-0.019902501
167	0x3df541d8	0.11975449
168	0xbdb711d7	-0.089389496
169	0x3cc1ac0c	0.023641609
170	0xbb94a2ff	-0.004536032
171	0x3d5062d2	0.050875492
172	0x3ce4bc79	0.027921902
173	0xbc85f1e4	-0.016350694
174	0xbd53cef6	-0.051711045
175	0x3df8460d	0.12122736
176	0xbd14cc60	-0.03632772
177	0x3dbd6341	0.09247447
178	0x3d18a406	0.0372658
179	0x3cb7e11f	0.022446213
180	0x3dc5939e	0.09647296
181	0x3d97ad30	0.0740608
182	0xbd039c88	-0.0321317
183	0x3cbfd2dc	0.023415975
184	0xbd67fe19	-0.05663881
185	0x3d42729f	0.047472592
186	0x3d299914	0.041405752
187	0xbcb83fbe	-0.022491332
188	0xbd50edce	-0.05100804
189	0xbd6be05c	-0.057587013
190	0x3db797ed	0.089645244
191	0xbd23d854	-0.04000123
192	0xbcb11d7e	-0.021620508
193	0xbe1b1d91	-0.15147997
194	0x3e0be488	0.13661397
195	0xbd5a26fd	-0.05325984
196	0xbdc920e5	-0.09820727
197	0x3cb0d276	0.02158473
198	0xbe424247	-0.18970595
199	0x3e023dc5	0.12718876
200	0x3d94102e	0.072296485
201	0xbcc463ff	-0.023973463
202	0x3e00c37f	0.12574576
203	0x3e10edb5	0.14153178
204	0x3e7d7d28	0.24754775
205	0xbd9bca84	-0.07606986
206	0xbd305278	-0.0430474
207	0x3c090c5b	0.008364762
208	0x3dc52c3a	0.09627576
209	0x3dcc8b69	0.09987528
210	0x3cc8368c	0.024440072
211	0xbdf878e7	-0.12132435
212	0x3d511646	0.051046632
213	0xbe6098d3	-0.21933298
214	0x3d8c38d0	0.068467736
215	0x3e21a79b	0.15786593
216	0xbe18d3b0	-0.14924502
217	0x3d959ac3	0.07304909
218	0xbd99cd4f	-0.07509863
219	0x3e1271ab	0.14301173
220	0x3d11a0c7	0.03555372
221	0x3c8dc99c	0.017308049
222	0x3dd545be	0.10413693
223	0x3db649d1	0.08900798
224	0xbde67f92	-0.11254801
225	0x3d1a7ec7	0.03771856
226	0x3c29396d	0.010328633
227	0x3c427f0c	0.011871111
228	0x3d396105	0.04525854
229	0x3e048b3a	0.12943736
230	0xbdfbb226	-0.122898385
231	0x3da5e591	0.08100427
232	0x3da406d9	0.080091186
233	0xbd2065d7	-0.039159622
234	0x3e03d1bd	0.12872978
235	0xbd76efbb	-0.06028722
236	0x3e0074f6	0.12544617
237	0xbd0fa819	-0.03507242
238	0x3e7a7c47	0.2446147
239	0xbdf526e5	-0.11970309
240	0xbd4b8f9b	-0.0496975
241	0x3cc80554	0.024416603
242	0x3db604ca	0.08887632
243	0xbda96719	-0.082716174
244	0x3d2415af	0.04005974
245	0xbd333cd6	-0.04375919
246	0xbd9577f2	-0.072982684
247	0xbb77f4f3	-0.003783521
248	0xbd9ce9b3	-0.07661762
249	0x3e1750d1	0.14776923
250	0x3de3a4ec	0.11115441
251	0x3dd85942	0.105638996
252	0xbe275b83	-0.16343503
253	0x3d3cd81a	0.046104528
254	0x3e20270c	0.15639895
255	0xbc2e1a3d	-0.010626373

model.4.bias f4 [32]
0	0xbdac11f8	-0.08401865
1	0x3e4cc8a6	0.19998416
2	0x3def8d20	0.11696839
3	0x3dabede6	0.08394985
4	0xbc93a939	-0.018025028
5	0xbdbf1ab4	-0.09331265
6	0x3e161bbf	0.14659022
7	0xbc1ab4da	-0.009442532
8	0xbde2800d	-0.1105958
9	0x3e65158f	0.22371505
10	0x3b5b3987	0.0033451037
11	0x3c6a49ce	0.014299823
12	0xbd342165	-0.04397716
13	0x3db05527	0.086099915
14	0x3bba5d56	0.005687396
15	0x3d183bc6	0.03716638
16	0xbce8eef8	-0.028434262
17	0x3ea33ab8	0.31880736
18	0x3de53114	0.111910015
19	0x3d3fd554	0.046834305
20	0x3d63f513	0.055653643
21	0x3cae4107	0.021271242
22	0xbe4314e6	-0.19050941
23	0x3d83f806	0.06443791
24	0xbd8de43f	-0.069283
25	0x3e3c5c18	0.18394506
26	0xbca51905	-0.020153532
27	0x3c9ae514	0.018908061
28	0x3e00cd29	0.12578262
29	0x3e84657f	0.25858685
30	0xbe27be28	-0.16381133
31	0xbd1c953d	-0.038228262

model.6.weight f4 [1, 32]
0	0xbddba5e1	-0.10724998
1	0x3e30e41d	0.17274518
2	0x3ddcf01b	0.10787984
3	0x3da3351a	0.07969113
4	0xbdfaff3e	-0.12255715
5	0x3e16aa79	0.14713468
6	0x3d2d10f8	0.04225251
7	0x3c8bfca2	0.017088238
8	0xbe001eff	-0.12511824
9	0x3dc642d8	0.09680718
10	0xbd4d0cb3	-0.05006094
11	0xbd1fee3b	-0.039045554
12	0xbe260099	-0.16211165
13	0xbe146f83	-0.14495663
14	0x3e74164e	0.23836634
15	0x3c827a7b	0.015927544
16	0xbd1de6d1	-0.0385502
17	0xbef503b9	-0.47854403
18	0x3dd33d8f	0.10314476
19	0xbe815ceb	-0.25266203
20	0x3ce52b69	0.027974801
21	0x3da9b79a	0.08286972
22	0xbd881320	-0.06644273
23	0xbd06ccdd	-0.032910217
24	0xbdfb351e	-0.12265991
25	0x3e3c7423	0.18403678
26	0x3d8b2c2e	0.06795536
27	0x3e28bacf	0.16477512
28	0x3dbb8198	0.091555774
29	0xbe8a1b7f	-0.26974103
30	0xbc351979	-0.011053436
31	0xbdb7045d	-0.08936379

exp_avg f4 [7, 4]
0	0xb9743d94	-0.00023292593
1	0xb748d334	-1.19701035e-05
2	0x390aa02c	0.00013220374
3	0x38779052	5.9023798e-05
4	0xb989de8a	-0.0002629648
5	0xb954da75	-0.00020299277
6	0x39b66e52	0.0003479594
7	0xb9433850	-0.00018617627
8	0xb930ec9d	-0.00016872813
9	0x37113556	8.655092e-06
10	0x38fc5d09	0.000120336255
11	0x39884ffd	0.00025999537
12	0xb8e3ddf3	-0.00010865545
13	0xb744eb36	-1.1737275e-05
14	0xb890a35d	-6.896884e-05
15	0x3820e5f7	3.8361144e-05
16	0xb7c2d582	-2.3226024e-05
17	0x37a0252d	1.9090798e-05
18	0xb9529c3c	-0.00020085362
19	0xb944e631	-0.0001877777
20	0xb981200e	-0.0002462868
21	0xb8fbc69c	-0.000120056065
22	0x39812933	0.00024635493
23	0x37bd9feb	2.2605023e-05
24	0x37e6aa5f	2.7497472e-05
25	0x394e88e8	0.00019696692
26	0x397f3730	0.00024339254
27	0x38bf0825	9.109107e-05

exp_avg_sq f4 [7, 4]
0	0x365e7e66	3.3154151e-06
1	0x364982de	3.0027509e-06
2	0x35737727	9.0697944e-07
3	0x3614f859	2.2198276e-06
4	0x36224c92	2.418445e-06
5	0x35d6e8ee	1.6012034e-06
6	0x360fb477	2.1413705e-06
7	0x35ae05c7	1.2965692e-06
8	0x3675f7e5	3.6652139e-06
9	0x3667976f	3.4509828e-06
10	0x36098c77	2.0496352e-06
11	0x3604b178	1.9772833e-06
12	0x35395e0a	6.9054715e-07
13	0x3519c6d4	5.7286275e-07
14	0x34f5b889	4.5769073e-07
15	0x3496ecb9	2.8111916e-07
16	0x35aaad9b	1.2716513e-06
17	0x35a3ce2b	1.2204449e-06
18	0x3510b975	5.3914056e-07
19	0x35511c43	7.7899693e-07
20	0x35c2141d	1.445998e-06
21	0x35838a32	9.800481e-07
22	0x35a6c647	1.242567e-06
23	0x35180a6f	5.6639595e-07
24	0x35ea2b30	1.7446928e-06
25	0x355ce734	8.229283e-07
26	0x353ca690	7.027784e-07
27	0x351110ea	5.404132e-07

exp_avg f4 [7, 4]
0	0x39c2cf4e	0.00037157018
1	0xb85dbaa5	-5.2864332e-05
2	0x3956b3de	0.00020475636
3	0x385f9524	5.330624e-05
4	0xb93c69c7	-0.00017968482
5	0xb93e21c5	-0.00018132392
6	0xb8a50df2	-7.8704106e-05
7	0xb95730a9	-0.00020522125
8	0x3a013355	0.00049286085
9	0x39a9926b	0.00032343282
10	0x391b6ac1	0.00014821721
11	0x39b890ec	0.0003520319
12	0xb8177036	-3.610571e-05
13	0x39103971	0.00013754309
14	0xb9a3837a	-0.0003118774
15	0x36867781	4.0074233e-06
16	0x3953d2dd	0.00020201081
17	0x37b654ab	2.1735517e-05
18	0x39a29358	0.00031008828
19	0x39b1378a	0.0003380145
20	0xb9984620	-0.00029043946
21	0x38f313ec	0.00011590854
22	0xb89e982b	-7.5623706e-05
23	0x381d43c7	3.749484e-05
24	0x38e814da	0.00011066506
25	0x39073417	0.00012894008
26	0x3a024f0c	0.00049708853
27	0x3983cbbf	0.0002513807

exp_avg_sq f4 [7, 4]
0	0x368ba344	4.1615294e-06
1	0x3616ffec	2.2500708e-06
2	0x360dda19	2.1137587e-06
3	0x36f97c8c	7.4352774e-06
4	0x35c7024d	1.4827325e-06
5	0x3587d4d5	1.0120226e-06
6	0x3689721c	4.0962022e-06
7	0x3683e0a7	3.930257e-06
8	0x36e391f5	6.782119e-06
9	0x36913532	4.3275295e-06
10	0x360dd6fc	2.1135775e-06
11	0x3734a98d	1.0768313e-05
12	0x36e1fca9	6.734936e-06
13	0x367b1770	3.7415557e-06
14	0x35a55cba	1.2320445e-06
15	0x37283d84	1.0027903e-05
16	0x36a6c3de	4.9699875e-06
17	0x35d5e944	1.5937626e-06
18	0x3714c71b	8.867845e-06
19	0x36763685	3.668859e-06
20	0x368d539f	4.2118622e-06
21	0x3588a175	1.017978e-06
22	0x36c78cda	5.9470594e-06
23	0x36519c99	3.1234579e-06
24	0x35bbfeb6	1.4006716e-06
25	0x355a7826	8.138617e-07
26	0x3708143a	8.110941e-06
27	0x364794ec	2.9739995e-06

exp_avg f4 [6, 3]
0	0x38869cf4	6.418853e-05
1	0xb920361d	-0.00015278948
2	0x384cc523	4.8820988e-05
3	0xb8ad44fc	-8.262132e-05
4	0xb90e9c8c	-0.00013600494
5	0xb90f18a1	-0.00013646718
6	0xb9d3b27f	-0.00040378046
7	0x380a0a17	3.291116e-05
8	0x39a4be7a	0.00031422434
9	0x363f10be	2.8470963e-06
10	0xb82cc927	-4.1195333e-05
11	0xb94b71a1	-0.00019401919
12	0x37d237ab	2.5059873e-05
13	0x39f29ca4	0.00046274543
14	0x399f09b6	0.00030334078
15	0xb331de5a	-4.141325e-08
16	0xba028f62	-0.0004980472
17	0xb8ce95d2	-9.850752e-05

exp_avg_sq f4 [6, 3]
0	0x35f4b28b	1.823138e-06
1	0x367b5665	3.7452203e-06
2	0x3684fc11	3.963251e-06
3	0x3549310e	7.494972e-07
4	0x35a96489	1.2620741e-06
5	0x36079a50	2.020639e-06
6	0x363c1c8f	2.8030806e-06
7	0x365e5bf8	3.313411e-06
8	0x36ceda50	6.1646933e-06
9	0x364271ab	2.8974416e-06
10	0x369b156c	4.621854e-06
11	0x3632cffd	2.6645132e-06
12	0x36b83b52	5.490533e-06
13	0x369ce87a	4.676226e-06
14	0x36ecd5ff	7.0582605e-06
15	0x36102e40	2.1484593e-06
16	0x36d33699	6.294646e-06
17	0x371e541c	9.437117e-06

exp_avg f4 [6, 3]
0	0xb8573774	-5.131164e-05
1	0x392b5929	0.00016341046
2	0xb99e9781	-0.00030248988
3	0xb88da9b5	-6.755014e-05
4	0x399f468f	0.00030379414
5	0xb9e5f040	-0.00043857284
6	0x38c34cea	9.312651e-05
7	0xb8c0f0ff	-9.2001625e-05
8	0x39e0baa5	0.0004286367
9	0x36ca470a	6.028339e-06
10	0xb96a67b2	-0.00022354609
11	0x39a9911e	0.00032342313
12	0xb8f50607	-0.00011683633
13	0x3868c6c4	5.5498225e-05
14	0xb781d1bd	-1.5475665e-05
15	0x39ce38a4	0.00039333582
16	0xbaaed646	-0.0013339005
17	0x3adb8123	0.001674686

exp_avg_sq f4 [6, 3]
0	0x35294473	6.305701e-07
1	0x36851c0b	3.9669735e-06
2	0x37bdf8f5	2.2646485e-05
3	0x35a7d89b	1.250551e-06
4	0x36f59d4c	7.3198808e-06
5	0x3807b59c	3.2355645e-05
6	0x362f889a	2.6156545e-06
7	0x372c92a1	1.0286139e-05
8	0x37aba99d	2.046377e-05
9	0x356c0d60	8.7936314e-07
10	0x36a51522	4.9198434e-06
11	0x37aa6a09	2.0314956e-05
12	0x3571112c	8.9804485e-07
13	0x36a521c3	4.9213136e-06
14	0x37c3c41d	2.3337134e-05
15	0x360d65c7	2.106988e-06
16	0x379c2a8c	1.8616462e-05
17	0x38186ef5	3.634296e-05

exp_avg f4 [4, 2]
0	0x39d76e59	0.0004109021
1	0xb9c2067c	-0.00037007395
2	0x3a2d9d92	0.0006622906
3	0xbab2d477	-0.0013643642
4	0x389fc3c9	7.618179e-05
5	0x39b51402	0.00034537917
6	0x39386528	0.00017585291
7	0x3720b5f3	9.5791065e-06

exp_avg_sq f4 [4, 2]
0	0x36df2f80	6.6514476e-06
1	0x384700d2	4.744606e-05
2	0x36e0597f	6.686139e-06
3	0x382539d6	3.939293e-05
4	0x36c7cc7b	5.954467e-06
5	0x3854f066	5.0768627e-05
6	0x36e39743	6.7827364e-06
7	0x38314a45	4.2269257e-05

exp_avg f4 [8, 4]
0	0xb9599ffd	-0.00020754333
1	0xb8e3dc4f	-0.00010865239
2	0xb90d785f	-0.0001349165
3	0xb95dc6a4	-0.00021150202
4	0xb93911af	-0.00017649563
5	0x39a7ec5f	0.00032028832
6	0x390e11aa	0.00013548756
7	0xb9d79246	-0.00041116978
8	0x3734385f	1.0741961e-05
9	0xb62cc188	-2.5742647e-06
10	0x38179a89	3.6145128e-05
11	0xb940a0d4	-0.0001837046
12	0xb9d76bd0	-0.00041088322
13	0x379849fc	1.8154264e-05
14	0xb98ff8a0	-0.00027460326
15	0xb929d1a3	-0.00016195192
16	0xbad0699d	-0.0015900616
17	0x39dbf45f	0.00041953006
18	0xb900bc5d	-0.00012277202
19	0xbacf7223	-0.0015826862
20	0x3a02969b	0.00049815484
21	0xb91918c7	-0.00014600447
22	0x38fef5b6	0.00012157431
23	0x3994743f	0.0002831537
24	0xb8c44ca3	-9.360283e-05
25	0xb8e2a8f6	-0.00010807991
26	0x388cc02b	6.711514e-05
27	0xb7ca9154	-2.414795e-05
28	0xb8a661c6	-7.9337085e-05
29	0xb9ebd9c7	-0.0004498495
30	0x39842219	0.00025202407
31	0xb8b20384	-8.488356e-05

exp_avg_sq f4 [8, 4]
0	0x36df8a7a	6.6620387e-06
1	0x361f9b1d	2.3783134e-06
2	0x3583a66e	9.808698e-07
3	0x36aa4a71	5.075061e-06
4	0x37c12d5b	2.3028513e-05
5	0x36c10c09	5.7532493e-06
6	0x35aed5af	1.30262e-06
7	0x36bd93a8	5.6498284e-06
8	0x3715c5bc	8.927131e-06
9	0x36ab35f3	5.1024776e-06
10	0x36ab2130	5.1000607e-06
11	0x374c681c	1.2183587e-05
12	0x37981795	1.8130793e-05
13	0x371a0b5d	9.181761e-06
14	0x369363de	4.3925675e-06
15	0x371ffa11	9.535362e-06
16	0x386e0b70	5.6754274e-05
17	0x37a81c5d	2.0040368e-05
18	0x3648ac98	2.9902785e-06
19	0x37cdf1ab	2.455044e-05
20	0x3729d39f	1.0122457e-05
21	0x377a321c	1.4912828e-05
22	0x3607265c	2.0138896e-06
23	0x36847afe	3.9482247e-06
24	0x35b2de14	1.3326667e-06
25	0x359df54b	1.1768801e-06
26	0x34f4ba44	4.5584068e-07
27	0x34dfd26e	4.1690095e-07
28	0x380668e8	3.204579e-05
29	0x37888fc7	1.6279415e-05
30	0x36928090	4.3661057e-06
31	0x37620d77	1.3473785e-05

exp_avg f4 [3, 2]
0	0x38000185	3.0518993e-05
1	0x38dec3db	0.00010622266
2	0x39447c4c	0.00018738321
3	0x38014a3c	3.0825133e-05
4	0x3a19f180	0.0005872473
5	0x373e9034	1.1358457e-05

exp_avg_sq f4 [3, 2]
0	0x36cd7c77	6.1239657e-06
1	0x358d87fd	1.0544896e-06
2	0x37372cba	1.0918064e-05
3	0x36069023	2.0051455e-06
4	0x372c9b25	1.0288121e-05
5	0x35b909a4	1.378638e-06

exp_avg f4 [7, 4]
0	0x37fc22b2	3.0056897e-05
1	0xb8309746	-4.2102554e-05
2	0x38f29639	0.000115674404
3	0xb63b18d1	-2.7879616e-06
4	0x38dd3eff	0.00010549835
5	0x380c7060	3.348326e-05
6	0xb8aa729a	-8.127578e-05
7	0xb8076910	-3.2284355e-05
8	0x399e37e3	0.00030177747
9	0x3912d489	0.0001400282
10	0x38ccd4fb	9.767149e-05
11	0x38498d1b	4.805355e-05
12	0xb75bc8c3	-1.3100161e-05
13	0xb8db8b25	-0.000104686515
14	0x3906be10	0.0001285004
15	0xb9c1fb35	-0.00036998992
16	0xb8947635	-7.079208e-05
17	0xb8539784	-5.044743e-05
18	0xb909c181	-0.00013137424
19	0x39853a62	0.00025411235
20	0xb8fb3c61	-0.00011979859
21	0xb6e19ced	-6.723791e-06
22	0x378ff036	1.7158785e-05
23	0x390f734f	0.00013680499
24	0xb90eff73	-0.00013637338
25	0x3883914b	6.27363e-05
26	0x3821f2c7	3.8611495e-05
27	0x38dfc353	0.000106698506

exp_avg_sq f4 [7, 4]
0	0x35e04e52	1.6712095e-06
1	0x34bd1674	3.522033e-07
2	0x34a6114a	3.093249e-07
3	0x3500de28	4.8006996e-07
4	0x353b601b	6.980278e-07
5	0x34c60fdb	3.689191e-07
6	0x344fbf0d	1.9347881e-07
7	0x34857b47	2.4862877e-07
8	0x35d6e010	1.6009453e-06
9	0x351c3bd1	5.8201573e-07
10	0x34e542a9	4.2703076e-07
11	0x3513d1de	5.5067164e-07
12	0x35a8a97a	1.25663e-06
13	0x3582b1d1	9.737506e-07
14	0x34f1238f	4.491562e-07
15	0x353ec23e	7.1063175e-07
16	0x35b7ade6	1.3685174e-06
17	0x352f83af	6.5384205e-07
18	0x3535d74e	6.7741064e-07
19	0x35d8d3cb	1.6154894e-06
20	0x359deb1a	1.1765835e-06
21	0x3510500e	5.3760675e-07
22	0x35509877	7.7707904e-07
23	0x351e259b	5.891431e-07
24	0x35952ca1	1.1114354e-06
25	0x3524de44	6.14182e-07
26	0x34c0ad32	3.5888803e-07
27	0x34f403e9	4.5451387e-07

exp_avg f4 [6, 3]
0	0xb8db6aeb	-0.00010462649
1	0xb87042e4	-5.7282756e-05
2	0xb9abed75	-0.0003279258
3	0xb9a7b683	-0.00031988704
4	0x387c517f	6.015738e-05
5	0xb9adcb56	-0.00033148628
6	0xb8953f2d	-7.116641e-05
7	0x398bc720	0.00026660506
8	0x3865785b	5.4709944e-05
9	0x38c837d0	9.547139e-05
10	0xb9c472c8	-0.00037469552
11	0xb82d0e80	-4.125992e-05
12	0xb9785933	-0.00023684352
13	0xb91a7330	-0.00014729495
14	0xb96d321f	-0.00022620753
15	0x388fa28a	6.8490466e-05
16	0xb95ac98c	-0.00020865182
17	0x398c9a99	0.00026818065

exp_avg_sq f4 [6, 3]
0	0x35ffed47	1.9068037e-06
1	0x35e92cdc	1.7372909e-06
2	0x36441cdb	2.9223072e-06
3	0x35bc16ce	1.4013729e-06
4	0x358de44d	1.0571763e-06
5	0x36021b7f	1.9387514e-06
6	0x3638cfe9	2.7539156e-06
7	0x3626fa8d	2.4881767e-06
8	0x3610af94	2.1559872e-06
9	0x35f5121e	1.8259195e-06
10	0x35f58464	1.8292453e-06
11	0x3654cc24	3.1709287e-06
12	0x361b14bc	2.3108869e-06
13	0x363abfaf	2.7827734e-06
14	0x3647947f	2.9739747e-06
15	0x355a3ebf	8.1302636e-07
16	0x3630787e	2.629618e-06
17	0x36b58804	5.4100547e-06

exp_avg f4 [6, 3]
0	0xb898fce8	-7.295032e-05
1	0xb83c14d2	-4.4842083e-05
2	0xb8cc6b22	-9.747433e-05
3	0x37a0cc93	1.9168749e-05
4	0xb910b915	-0.00013801859
5	0xb9167d3b	-0.00014351767
6	0x3948323d	0.00019092202
7	0xb861d236	-5.3839954e-05
8	0xb8ab3043	-8.162905e-05
9	0xb9850cd2	-0.0002537729
10	0x36bd4170	5.640257e-06
11	0xb8171a6c	-3.6025813e-05
12	0x38b01aba	8.397312e-05
13	0xb8763d78	-5.8708218e-05
14	0xb88814ad	-6.4888365e-05
15	0xb8e2ce59	-0.00010814955
16	0x3933f770	0.00017162948
17	0x385ea8ca	5.308612e-05

exp_avg_sq f4 [6, 3]
0	0x35d15b14	1.5598221e-06
1	0x3525c16f	6.1748773e-07
2	0x351ace4b	5.7669666e-07
3	0x355f5c51	8.320831e-07
4	0x351e7e7c	5.9043646e-07
5	0x353a5481	6.941337e-07
6	0x352c329f	6.4148657e-07
7	0x350c4b0e	5.2263283e-07
8	0x34e7273f	4.3055658e-07
9	0x35928f96	1.0919637e-06
10	0x35362236	6.7850067e-07
11	0x3518dbb6	5.6944134e-07
12	0x35459c8f	7.361604e-07
13	0x34f53c2c	4.5678587e-07
14	0x349f261c	2.9643786e-07
15	0x3538a612	6.8787006e-07
16	0x352776ef	6.238542e-07
17	0x352a6c9e	6.3487994e-07

exp_avg f4 [4, 2]
0	0x3930c46b	0.0001685784
1	0xb86906e4	-5.5557946e-05
2	0xb8f15018	-0.00011506694
3	0x3563afdb	8.4819993e-07
4	0x38f82727	0.00011832854
5	0xb99f92d2	-0.00030436233
6	0x388e0280	6.771553e-05
7	0xb96a1d1d	-0.00022326825

exp_avg_sq f4 [4, 2]
0	0x35a0f5d0	1.199247e-06
1	0x3595caf3	1.1160431e-06
2	0x35980b87	1.1328237e-06
3	0x35a6bc43	1.2422755e-06
4	0x3586ec18	1.005249e-06
5	0x35d260f4	1.5674436e-06
6	0x352e2779	6.487749e-07
7	0x35706ba6	8.9563616e-07

exp_avg f4 [5, 3]
0	0xba9f393e	-0.0012147797
1	0xb90a01f2	-0.0001316143
2	0xba49308d	-0.0007674776
3	0x3817d802	3.620238e-05
4	0x38b61297	8.681899e-05
5	0x3770de6b	1.43569005e-05
6	0x399c7541	0.00029842
7	0xb909ab4e	-0.00013129154
8	0x390c2235	0.00013364184
9	0x3a24dc88	0.0006288965
10	0xb6a5bbbb	-4.939238e-06
11	0x394c003e	0.00019455046
12	0x3a829b6f	0.0009964536
13	0xb8b826ac	-8.781007e-05
14	0x3a67acdd	0.00088377093

exp_avg_sq f4 [5, 3]
0	0x3752f626	1.2574286e-05
1	0x34dc26ef	4.100652e-07
2	0x370e44a2	8.479839e-06
3	0x36a00780	4.7692447e-06
4	0x34ab3380	3.1888703e-07
5	0x36822b5c	3.8793496e-06
6	0x37d05f33	2.4839863e-05
7	0x35d18912	1.5611606e-06
8	0x374b00c3	1.209992e-05
9	0x37b07c30	2.1038664e-05
10	0x3590cd83	1.0788648e-06
11	0x379857ea	1.816075e-05
12	0x389741f1	7.2125236e-05
13	0x3610daca	2.1585024e-06
14	0x385d8b44	5.2820207e-05
