model_save_Adam_Leaky.pth (torch, 38250 bytes, 19 tensors)

embeddings.0.weight f4 [7, 4]
1.2385272 0.47403845 0.5058707 -1.2615243 -2.1537764 1.7159121 -0.46289635 1.0406102
0.9606098 0.38237816 1.5967249 0.1213326 -0.42640302 0.28671458 -1.1706157 -0.02062595
0.09955071 -0.2211612 -0.4304659 -1.7179112 -1.2920998 1.7862319 2.07221 -0.78365034
-0.26970935 -0.3303309 -0.14156148 0.9312757
00000000: 0f88 9e3f 2bb5 f23e be80 013f a179 a1bf
00000010: 79d7 09c0 02a3 db3f c000 edbe b732 853f
00000020: 86ea 753f 12c7 c33e 7b61 cc3f 3a7d f83d
00000030: 7f51 dabe 41cc 923e bcd6 95bf c1f7 a8bc
00000040: 3ee1 cb3d 1578 62be 0766 dcbe 84e4 dbbf
00000050: 8763 a5bf 3fa3 e43f 179f 0440 4f9d 48bf
00000060: 5817 8abe 2221 a9be 7ef5 10be 1668 6e3f

embeddings.1.weight f4 [7, 4]
0.6769747 0.20056424 0.4788188 1.7010338 -1.061881 -1.5105528 -1.9291924 0.11010287
0.21380259 -1.2464029 -0.37137437 0.12342159 2.0771472 0.036886893 1.3236853 -0.263867
-0.45384088 -0.004663516 -0.25263977 0.47520024 1.4018807 0.72288764 -1.5265126 -1.5963367
0.89203244 -1.0491067 -1.8085227 -1.9461963
00000000: 374e 2d3f b660 4d3e bd27 f53e 7abb d93f
00000010: b7eb 87bf cb59 c1bf c7ef f6bf 9d7d e13d
00000020: 11ef 5a3e 218a 9fbf c824 bebe 75c4 fc3d
00000030: fbef 0440 b616 173d 856e a93f 9319 87be
00000040: d55d e8be 68d0 98bb 005a 81be 724d f33e
00000050: d470 b33f 2a0f 393f c464 c3bf c354 ccbf
00000060: 3d5c 643f 2149 86bf ac7d e7bf f61c f9bf

embeddings.2.weight f4 [6, 3]
-1.4552568 -0.41811466 -1.1409802 -0.7258879 0.2030618 0.21696936 -0.08334201 -0.59728163
-0.34946236 -0.75796735 -2.1692128 0.02703726 1.2672971 0.82689965 0.17575783 -0.1410044
1.8928267 1.6870345
00000000: db45 babf 2013 d6be a40b 92bf cad3 39bf
00000010: 6fef 4f3e 372d 5e3e 37af aabd 73e7 18bf
00000020: bbec b2be 260a 42bf 62d4 0ac0 3e7d dd3c
00000030: cb36 a23f b2af 533f dcf9 333e 7563 10be
00000040: 2548 f23f bff0 d73f

embeddings.3.weight f4 [6, 3]
0.21261144 -1.4832036 1.1476109 1.4255791 -0.33235565 -0.7243016 -2.2065716 1.2940034
0.31933782 0.06853645 0.52732974 -0.17203446 0.4056588 0.7898102 -0.8183893 1.0318986
0.8878383 0.41784745
00000000: d0b6 593e 9ed9 bdbf eae4 923f 6079 b63f
00000010: 852a aabe d46b 39bf 7838 0dc0 e7a1 a53f
00000020: 3f80 a33e d75c 8c3d 15ff 063f cd29 30be
00000030: 83b2 cf3e 0031 4a3f f681 51bf 4115 843f
00000040: 5f49 633f 1af0 d53e

embeddings.4.weight f4 [4, 2]
0.15510106 1.0654268 -0.5589886 -0.1240995 -0.14890216 0.29725978 -1.482209 0.38973302
00000000: d0d2 1e3e e85f 883f e019 0fbf e127 febd
00000010: cf79 18be 6f32 983e 06b9 bdbf 168b c73e

embeddings.5.weight f4 [8, 4]
-1.8844702 -0.43449357 0.767122 -1.1340085 -0.96834415 -0.6467845 -2.474552 0.49516442
-0.8096446 -0.6212056 -0.81643754 -0.52357817 -0.39799607 0.65199065 -1.1971966 2.0625923
0.13837835 -0.21044172 0.17060716 -0.7458577 0.8776969 -0.44289193 -1.9690801 -0.6387875
-0.9264329 -0.6101707 -1.0114859 -0.03699165 0.82278216 -0.3432593 -0.44763076 1.3089707
00000000: 5236 f1bf f175 debe 1b62 443f 3127 91bf
00000010: 67e5 77bf ab93 25bf 0f5f 1ec0 3186 fd3e
00000020: de44 4fbf 5507 1fbf 0d02 51bf 3809 06bf
00000030: 24c6 cbbe dce8 263f bd3d 99bf 8301 0440
00000040: 0eb3 0d3e 097e 57be a5b3 2e3e 88f0 3ebf
00000050: beb0 603f bbc2 e2be d10a fcbf 9487 23bf
00000060: b52a 6dbf 2634 1cbf 5f78 81bf 8e84 17bd
00000070: daa1 523f afbf afbe dc2f e5be 5a8c a73f

embeddings.6.weight f4 [3, 2]
-0.9761344 0.3390203 0.74242926 0.15434223 -0.94005185 0.9431785
00000000: f2e3 79bf 1294 ad3e d80f 3e3f e40b 1e3e
00000010: 3da7 70bf 2574 713f

embeddings.7.weight f4 [7, 4]
-1.7236197 0.034917038 0.016817145 1.0739502 0.78162867 -0.24541879 1.661752 0.0014541775
1.1428145 0.8343214 -0.31343058 -0.94133854 -1.2642282 0.150216 -0.7527625 -0.44209066
-0.560463 -0.6752803 -0.16554004 1.9381484 1.2740338 -0.43396616 -1.5675728 0.20689091
-0.43346918 0.36525378 0.042749897 -1.2449317
00000000: 929f dcbf 2b05 0f3d 1cc4 893c 3377 893f
00000010: d118 483f 104f 7bbe 4ab4 d43f 1a9a be3a
00000020: bf47 923f 1696 553f f979 a0be 90fb 70bf
00000030: 3bd2 a1bf 39d2 193e 0bb5 40bf b559 e2be
00000040: 817a 0fbf 2bdf 2cbf 5483 29be 3f15 f83f
00000050: 8a13 a33f d030 debe 3aa6 c8bf 36db 533e
00000060: acef ddbe 8b02 bb3e 841a 2f3d ec59 9fbf

embeddings.8.weight f4 [6, 3]
-2.8858917 -1.4230274 2.3091702 0.3142673 -1.0996126 -0.009074405 0.9859962 -0.8153202
0.88012034 -1.5497344 0.08662347 0.7812864 0.34151873 -1.5735284 -0.77297664 2.1329458
1.1031543 -0.7485969
00000000: 73b2 38c0 c325 b6bf 72c9 1340 a5e7 a03e
00000010: 1bc0 8cbf d0ac 14bc 3f6a 7c3f d3b8 50bf
00000020: 914f 613f b25d c6bf a567 b13d 6302 483f
00000030: 8bdb ae3e 6169 c9bf cce1 45bf 2f82 0840
00000040: 2934 8d3f 0ca4 3fbf

embeddings.9.weight f4 [6, 3]
0.56225735 -0.4099747 -0.38035712 -0.056406308 0.61604977 0.98240876 -0.5517773 0.11490661
-0.16178463 0.4007222 -0.58192337 2.4278362 -1.758665 -0.3759786 0.9421353 -0.48436165
0.39602378 -0.4539424
00000000: 19f0 0f3f 34e8 d1be 2bbe c2be 4d0a 67bd
00000010: 70b5 1d3f 247f 7b3f 4741 0dbf 2854 eb3d
00000020: dfaa 25be 762b cd3e eef8 14bf ab61 1b40
00000030: ef1b e1bf 4480 c0be c72f 713f 40fe f7be
00000040: a1c3 ca3e 236b e8be

embeddings.10.weight f4 [4, 2]
0.14110267 -0.019051978 -0.056490276 -0.22997321 -1.5768348 2.01376 0.91536075 1.419795
00000000: 387d 103e e512 9cbc 5962 67bd 197e 6bbe
00000010: b9d5 c9bf 72e1 0040 1555 6a3f d8bb b53f

embeddings.11.weight f4 [5, 3]
0.9819403 2.8954868 1.0810177 -0.13470784 -1.7700132 0.849037 1.0876074 -0.14801398
-0.60170496 -0.83094615 -0.94369626 -0.5610909 -1.3580052 1.8354818 1.7968522
00000000: 7160 7b3f a84f 3940 ca5e 8a3f daf0 09be
00000010: cb8f e2bf 7d5a 593f b836 8b3f fa90 17be
00000020: 5609 1abf e3b8 54bf 1496 71bf a7a3 0fbf
00000030: 1dd3 adbf 11f1 ea3f 41ff e53f

model.0.weight f4 [64, 42]
0.03270464 0.07530238 -0.010191286 -0.02103118 -0.072929025 0.0031588534 0.04768351 -0.12511723
-0.104667634 -0.0966244 -0.05390607 0.026178965 -0.015880376 -0.022013325 -0.14992905 -0.0065911226
0.10236356 -0.057303265 -0.08151032 -0.1760279 0.087822326 -0.08626152 0.06360318 -0.032989446
0.013426092 -0.15337238 0.074691564 0.04197338 0.017516589 -0.07467991 -0.07736661 -0.104557104
-0.13906492 -0.021358227 -0.04677031 -0.08999747 -0.14168133 0.07393055 0.037567943 -0.07117259
0.014822942 -0.012900414 0.03899177 0.1546735 0.06719538 0.039478015 0.059470564 -0.097146034
-0.06549417 -0.0014584794 -0.11830741 -0.010161814 -0.0143281855 -0.12727584 -0.07077518 0.057936758
-0.14459187 -0.033385437 -0.034750268 -0.04231149 -0.11030139 0.07391846 -0.08755707 -0.1111324
0.14550807 -0.10563064 -0.12527204 -0.15056609 0.148498 -0.016914483 0.11005593 0.08493508
-0.13056408 0.13084257 -0.1260407 -0.066031575 -0.0005803391 0.09261442 0.1079554 -0.027704477
-0.10469143 -0.03577413 -0.07300449 0.008913923 -0.08563284 -0.054050215 -0.07595899 -0.001790307
-0.15145783 -0.13247032 -0.026580932 -0.105201 0.15117761 -0.13514082 0.0075562866 -0.14807321
0.07149253 0.05762026 -0.009340715 -0.11103248 -0.115050256 0.053054117 0.120669 0.12831111
-0.009735676 -0.10597278 -0.1363493 0.053776354 -0.08813722 -0.10768718 0.10617551 0.15974359
0.10569649 -0.14637452 -0.035981175 -0.0051794075 0.04502453 0.15326266 -0.103234194 0.08221477
0.113313235 -0.08164333 -0.055860568 0.028028872 0.12156395 0.01102001 0.08727482 0.026078591
0.006827269 0.14950845 -0.02533138 -0.027408896 -0.008237304 0.09318584 -0.06319272 -0.14005513
0.05853634 -0.048031136 -0.07032426 0.038346246 -0.048188023 0.14355345 0.05697709 0.06059233
0.06426377 -0.14374483 -0.010605772 0.026140153 -0.13993165 -0.09999035 0.1415414 0.06554031
0.15348299 -0.032939896 0.07007488 -0.0047953334 -0.092032574 -0.034337614 -0.017596114 0.054544844
0.12441914 0.06450795 -0.06201271 0.072548494 -0.06925329 -0.08613848 0.091390334 0.0783392
0.10656409 0.0458049 -0.11277089 0.100661404 0.11522389 -0.069998935 0.06295985 0.010666964
-0.09875273 0.08533338 0.008332775 -0.022530586 0.034793317 0.1588551 -0.019763708 0.06486571
-0.078272045 -0.014623883 -0.13446257 -0.084212355 -0.06041299 -0.014441806 -0.034630816 -0.03091158
0.11645724 0.08050243 -0.042629942 0.09725365 0.030809963 0.04097821 -0.028600391 0.16854131
0.121462174 -0.07863393 -0.08199944 -0.18690346 0.058614485 0.10505376 0.018107077 -0.09928333
0.07137695 0.11964738 -0.06876066 0.0034346299 -0.07624065 0.11481498 -0.014228548 -0.050428405
-0.061991945 -0.013381823 0.09009435 0.0474047 0.09047303 0.009943519 -0.09517357 -0.11776886
0.15224914 -0.13116516 -0.03993912 -0.039513275 0.09338623 0.05715294 -0.0786003 0.062766604
0.06006865 -0.061092723 0.08668566 0.08923613 -0.11270631 -0.029584449 0.12479103 0.1369409
-0.08760369 -0.030929174 -0.06358627 -0.08989246 -0.12429731 0.14571096 0.038576525 0.118544675
-0.1278023 -0.02419763 0.032715652 -0.12371726 -0.10089049 -0.04886968 -0.03311369 0.0067562815
00000000: 4df5 053d 2238 9a3d 5af9 26bc 9549 acbc
00000010: d05b 95bd c404 4f3b c94f 433d bb1e 00be
00000020: fc5b d6bd 03e3 c5bd 9ccc 5cbd 4575 d63c
00000030: 9017 82bc 4a55 b4bc 0087 19be 58fa d7bb
00000040: fca3 d13d d4b6 6abd e2ee a6bd a840 34be
00000050: 31dc b33d e1a9 b0bd 6242 823d f11f 07bd
00000060: 1df9 5b3c a60d 1dbe e4f7 983d 47ec 2b3d
00000070: f37e 8f3c c8f1 98bd 6372 9ebd 0922 d6bd
00000080: 0967 0ebe 73f7 aebc 3992 3fbd 9850 b8bd
00000090: e914 11be e668 973d d8e0 193d efc2 91bd
000000a0: eddb 723c 425c 53bc d6b5 1f3d bb62 1e3e
000000b0: bb9d 893d b3b3 213d 6897 733d 80f4 c6bd
000000c0: cf21 86bd 732a bfba 284b f2bd bd7d 26bc
000000d0: c4c0 6abc 9954 02be 94f2 90bd 184f 6d3d
000000e0: e40f 14be 2bbf 08bd 4c56 0ebd d04e 2dbd
000000f0: b2e5 e1bd 9062 973d 1f51 b3bd 6299 e3bd
00000100: 1100 153e e154 d8bd 5047 00be ff2d 1abe
00000110: dc0f 183e 3e90 8abc 0165 e13d 71f2 ad3d
00000120: 97b2 05be 98fb 053e d010 01be 903b 87bd
00000130: e621 18ba a1ac bd3d b917 dd3d 80f4 e2bc
00000140: 7668 d6bd e587 12bd 6183 95bd b40b 123c
00000150: 4560 afbd c263 5dbd 6390 9bbd bca8 eaba
00000160: c317 1bbe 4da6 07be 41c0 d9bc 9f73 d7bd
00000170: 4ece 1a3e 5b62 0abe ba9a f73b 81a0 17be
00000180: ad6a 923d 3903 6c3d cc09 19bc ff64 e3bd
00000190: 789f ebbd 464f 593d 4f21 f73d fd63 033e
000001a0: 6382 1fbc 4208 d9bd 279f 0bbe 9844 5c3d
000001b0: 4981 b4bd 198b dcbd 8c72 d93d d393 233e
000001c0: 6777 d83d 34e3 15be ff60 13bd 05b8 a9bb
000001d0: a46b 383d e3f0 1c3e 736c d3bd 3860 a83d
000001e0: c510 e83d 9e34 a7bd 0dce 64bd ce9c e53c
000001f0: 85f6 f83d 468d 343c 24bd b23d c5a2 d53c
00000200: 49b7 df3b be18 193e c183 cfbc 9f88 e0bc
00000210: c2f5 06bc 38d8 be3d 2f6b 81bd 9d6a 0fbe
00000220: cdc3 6f3d 4cbc 44bd 2a06 90bd f410 1d3d
00000230: ce60 45bd adff 123e cf60 693d aa2f 783d
00000240: b99c 833d d831 13be d5c3 2dbc e023 d63c
00000250: 3e4a 0fbe bec7 ccbd 3bf0 103e 003a 863d
00000260: a52a 1d3e fceb 06bd 6b83 8f3d 2c22 9dbb
00000270: 937b bcbd 99a5 0cbd ba25 90bc 6a6a 5f3d
00000280: 76cf fe3d be1c 843d 0a01 7ebd 4e94 943d
00000290: abd4 8dbd 5f69 b0bd db2a bb3d 4d70 a03d
000002a0: 463e da3d eb9d 3b3d 6df4 e6bd 9127 ce3d
000002b0: 81fa eb3d 9a5b 8fbd 18f1 803d 7dc4 2e3c
000002c0: df3e cabd 44c3 ae3d 3186 083c 1092 b8bc
000002d0: 7083 0e3d e9aa 223e 80e7 a1bc 50d8 843d
000002e0: 184d a0bd 0399 6fbc 8eb0 09be 8777 acbd
000002f0: 9d73 77bd 539d 6cbc 0bd9 0dbd 483a fdbc
00000300: 2281 ee3d 75de a43d bc9c 2ebd ec2c c73d
00000310: 2d65 fc3c c4d8 273d 5e4b eabc 1896 2c3e
00000320: 29c1 f83d d30a a1bd 53ef a7bd 9f63 3fbe
00000330: be15 703d 6d26 d73d 4b55 943c 0f55 cbbd
00000340: 142e 923d b009 f53d 64d2 8cbd 8717 613b
00000350: 0f24 9cbd 1e24 eb3d db1e 69bc 048e 4ebd
00000360: 44eb 7dbd 6f3f 5bbc 6383 b83d 6e2b 423d
00000370: ed49 b93d 24ea 223c 5cea c2bd cd30 f1bd
00000380: 33e7 1b3e 2950 06be 3497 23bd acd8 21bd
00000390: 4841 bf3d 3419 6a3d 32f9 a0bd c78b 803d
000003a0: 8b0a 763d 5d3c 7abd 4088 b13d 6fc1 b63d
000003b0: 91d2 e6bd 165b f2bc 7192 ff3d 3c3a 0c3e
000003c0: 9069 b3bd 2e5f fdbc 8539 82bd 8a19 b8bd
000003d0: 978f febd 4135 153e 6b02 1e3d 8dc7 f23d
000003e0: 9bde 02be 1c3a c6bc d900 063d 7a5f fdbd
000003f0: ac9f cebd 932b 48bd 38a2 07bd cc63 dd3b

model.0.bias f4 [64]
-0.08877642 0.08985868 0.10545913 0.076524734 -0.13070662 -0.06463919 0.0882226 0.042463638
0.060905255 0.12892406 -0.066604026 0.0019195607 -0.078839734 -0.05226554 0.08308593 -0.20507346
0.0067972564 0.18110871 -0.022133913 0.004020503 -0.062377777 -0.02117102 0.0943018 0.121988125
-0.042006977 0.0952636 -0.07685622 0.11444703 0.104728535 0.045910567 -0.05610319 -0.076090775
-0.048557144 0.030484324 -0.13976611 0.10278871 0.123963274 -0.050416835 0.08514636 -0.107285365
-0.103746876 -0.003359004 -0.08586159 0.10207273 0.14370185 0.17671871 -0.12396988 -0.048276246
-0.08779342 -0.090503454 0.082121134 0.16115355 0.04935487 -0.015684722 -0.030337784 -0.04346643
-0.0018063021 0.07808711 0.0669692 0.049684606 -0.052936047 -0.13223849 0.10204761 0.051945154
00000000: 69d0 b5bd d407 b83d f5fa d73d 00b9 9c3d
00000010: f5d7 05be 8d61 84bd 0dae b43d 5aee 2d3d
00000020: ca77 793d ab04 043e b167 88bd c599 fb3a
00000030: ba76 a1bd 6414 56bd f528 aa3d c7fe 51be
00000040: 85bb de3b 9074 393e 2e52 b5bc 6cbe 833b
00000050: d77f 7fbd d96e adbc 4d21 c13d e9d4 f93d
00000060: 820f 2cbd 9019 c33d cb66 9dbd 3463 ea3d
00000070: ea7b d63d b80c 3c3d 75cc 65bd 7bd5 9bbd
00000080: dbe3 46bd 43ba f93c d91e 0fbe e382 d23d
00000090: 75e0 fd3d e281 4ebd 3761 ae3d 6eb8 dbbd
000000a0: 3e79 d4bd bc22 5cbb 34d8 afbd 820b d13d
000000b0: 9426 133e c0f5 343e ece3 fdbd 50bd 45bd
000000c0: 09cd b3bd e059 b9bd 202f a83d 7005 253e
000000d0: 5528 4a3d 3f7d 80bc f286 f8bc db09 32bd
000000e0: 71c1 ecba 22ec 9f3d 2627 893d 1682 4b3d
000000f0: 78d3 58bd 8769 07be 56fe d03d 71c4 543d

model.2.weight f4 [48, 64]
-0.072754614 0.03890132 0.0871598 -0.07466021 0.076524496 0.06294109 0.098374546 0.07076853
-0.035939608 0.014988878 -0.022332242 -0.10132813 -0.11270321 0.02004844 -0.06703388 -0.037857637
-0.10429945 0.11855635 0.12044838 0.10666386 0.0002536328 0.11905853 0.06251002 -0.03270539
-0.07899586 0.041518297 0.08192396 0.10788134 0.061533682 0.066208854 -0.079049625 -0.09729815
0.027377075 0.08903744 0.055896126 -0.048260733 0.10997856 0.036485977 0.07565933 -0.0065569803
-0.027837563 0.121959805 0.027032673 -0.08862936 0.02399072 0.049152378 -0.09715217 0.014142801
-0.023167368 -0.09979329 0.000968242 -0.081428625 0.059834156 0.086506665 0.043185197 0.0127911065
-0.011608829 0.047691412 -0.006054299 0.050263423 0.006981478 -0.011878869 0.036407735 0.05615059
0.06326466 0.01976739 0.00095256837 -0.05224807 0.105548576 0.011784852 0.12174531 0.029549439
-0.051050145 0.05738411 -0.07090034 -0.038889077 0.029495679 0.05400776 0.08019514 -0.0325189
-0.025632799 -0.085939065 -0.01845238 -0.08691229 0.09237337 -0.026638944 0.008741988 0.08514582
-0.10387348 0.069651596 0.04121157 0.07887087 -0.009136809 0.09868728 0.1008904 -0.0009826359
0.040237106 0.010425908 0.057072233 0.10917104 -0.07596803 -0.07323639 -0.049884014 0.042185705
0.06052635 0.06564488 -0.08599847 0.11605352 0.1448333 -0.07084922 -0.09605429 -0.001046991
0.001121646 0.105594866 0.008517616 0.03131672 0.11896024 -0.08276395 -0.06328151 0.0934097
-0.04223711 -0.101728976 -0.0692943 0.1204003 0.08371669 -0.003008978 0.07330312 0.010873013
-0.012105848 -0.02086445 -0.017231155 0.0826111 0.056137282 0.11333097 -0.02677991 0.11126429
-0.0495844 0.010129141 0.06999318 -0.106705554 -0.0447739 -0.09760619 0.10670631 0.016036337
0.04429062 -0.033316914 -0.054771267 0.07446114 -0.047411397 -0.11203683 -0.116999455 -0.12889649
0.07096813 0.09973829 0.044413235 -0.123391464 0.0686877 -0.06298365 -0.096936196 -0.07707552
0.058751095 0.055974543 -0.024387058 0.052273553 -0.12176446 0.06368284 -0.0090767825 -0.10714576
0.046235435 0.11251138 0.09073706 -0.12035142 -0.084201634 0.08995714 -0.08375579 0.015290088
0.017558435 -0.020555256 -0.0641573 0.016693074 0.000972648 0.11868243 0.014009907 0.012525541
-0.017448576 -0.06383477 -0.05467003 0.041654643 -0.025876341 -0.0442574 0.09452968 -0.018906288
0.09355889 -0.0572729 -0.04640693 -0.022206428 0.06060529 -0.07217663 -0.06768637 -0.07856822
-0.0037045833 0.09044343 0.08081613 0.038013265 0.10712997 -0.117624916 0.109236546 -0.0333404
0.051285136 0.011735706 -0.09877289 -0.005003299 -0.112626165 0.10948284 -0.011226755 0.03252133
-0.044691447 -0.1089605 0.052514326 0.07189101 -0.05654323 -0.12670311 -0.10878284 0.06572022
-0.016210787 -0.11395723 0.11284979 -0.052276324 0.079183556 0.08378703 0.095494404 -0.06307037
0.11764792 0.10900053 -0.047407188 -0.067230806 0.09655616 0.015046231 -0.037796922 0.10613179
0.122512944 -0.0027610702 -0.05524987 0.09863273 -0.054510534 -0.07064254 0.023696247 -0.11726327
0.06475595 -0.019820416 -0.049988896 0.06537833 -0.05827968 -0.027417919 0.07033024 0.0055859806
00000000: 5f00 95bd fe56 1f3d d680 b23d 74e7 98bd
00000010: e0b8 9c3d 42e7 803d 9878 c93d 17ef 903d
00000020: 6935 13bd e993 753c 1bf2 b6bc 1f85 cfbd
00000030: f1d0 e6bd a03c a43c 0f49 89bd 9c10 1bbd
00000040: f39a d5bd accd f23d a4ad f63d 9572 da3d
00000050: 05fa 8439 f5d4 f33d 4105 803d 16f6 05bd
00000060: 95c8 a1bd 170f 2a3d c0c7 a73d e4f0 dc3d
00000070: be0a 7c3d 8298 873d c5e4 a1bd 4144 c7bd
00000080: e345 e03c 4359 b63d 56f3 643d 0cad 45bd
00000090: 703c e13d 5272 153d 47f3 9a3d f0db d6bb
000000a0: 9a0b e4bc 10c6 f93d a073 dd3c 4f83 b5bd
000000b0: 3088 c43c 0154 493d b8f7 c6bd 35b7 673c
000000c0: 7ec9 bdbc 6d60 ccbd 9fd1 7d3a 0dc4 a6bd
000000d0: a914 753d 682a b13d f6e2 303d ca91 513c
000000e0: f532 3ebc 1258 433d 2463 c6bb 05e1 4d3d
000000f0: e2c4 e43b 969f 42bc 4720 153d 29fe 653d
00000100: e790 813d 39ef a13c c8b5 793a 1202 56bd
00000110: da29 d83d 4015 413c 9b55 f93d aa11 f23c
00000120: f519 51bd 9a0b 6b3d 3334 91bd 274a 1fbd
00000130: eca0 f13c 3e37 5d3d 593d a43d 8a32 05bd
00000140: e0fb d1bc d200 b0bd 7229 97bc 12ff b1bd
00000150: 402e bd3d ea39 dabc 8e3a 0f3c ef60 ae3d
00000160: 9ebb d4bd 7fa5 8e3d 77cd 283d 0d87 a13d
00000170: 8eb2 15bc 8f1c ca3d a09f ce3d cacb 80ba
00000180: aacf 243d 6dd1 2a3c 93c4 693d 1195 df3d
00000190: 2095 9bbd f6fc 95bd 2e53 4cbd ebca 2c3d
000001a0: 7aea 773d d370 863d f71f b0bd 78ad ed3d
000001b0: 2e4f 143e 6519 91bd 1db8 c4bd 303b 89ba
000001c0: 3204 933a 1f42 d83d 798d 0b3c f645 003d
000001d0: 6da1 f33d 2580 a9bd bc99 81bd 964d bf3d
000001e0: d200 2dbd 4857 d0bd 2cea 8dbd 6f94 f63d
000001f0: a873 ab3d 4632 45bb f21f 963d b924 323c
00000200: 9b57 46bc eceb aabc 5a28 8dbc 0230 a93d
00000210: 35f0 653d 111a e83d 8b61 dbbc 88de e33d
00000220: 0319 4bbd b2f4 253c 9658 8f3d 7188 dabd
00000230: d664 37bd c1e5 c7bd d688 da3d a35e 833c
00000240: 156a 353d 5177 08bd d657 60bd 157f 983d
00000250: 7432 42bd 9173 e5bd 699d efbd 71fd 03be
00000260: bd57 913d 9743 cc3d a7ea 353d aab4 fcbd
00000270: 23ac 8c3d 92fd 80bd 7c86 c6bd c5d9 9dbd
00000280: fda4 703d 9045 653d 5ec7 c7bc cb1c 563d
00000290: a55f f9bd 266c 823d c9b6 14bc 3c6f dbbd
000002a0: 5e61 3d3d 5e6c e63d 5ad4 b93d ce7a f6bd
000002b0: e871 acbd 733b b83d 2888 abbd 4783 7a3c
000002c0: b5d6 8f3c 7f63 a8bc e764 83bd eabf 883c
000002d0: 4df9 7e3a c60f f33d cf89 653c ed37 4d3c
000002e0: 51f0 8ebc cebb 82bd aeed 5fbd 0f9e 2a3d
000002f0: 9ffa d3bc 3f47 35bd c798 c13d 5ce1 9abc
00000300: ce9b bf3d fd96 6abd 3115 3ebd 41ea b5bc
00000310: 413d 783d 57d1 93bd 279f 8abd 60e8 a0bd
00000320: 98c8 72bb 683a b93d ed82 a53d ccb3 1b3d
00000330: f566 db3d 55e5 f0bd 69b7 df3d f18f 08bd
00000340: 5d10 523d 1e47 403c 7149 cabd b7f2 a3bb
00000350: 8ca8 e6bd 8a38 e03d 6cf0 37bc 1635 053d
00000360: 610e 37bd af26 dfbd 4319 573d 983b 933d
00000370: e099 67bd 76be 01be 8ac9 debd 5398 863d
00000380: 7ccc 84bc 6862 e9bd ca1d e73d b31f 56bd
00000390: fd2a a23d 8998 ab3d 9292 c33d 0a2b 81bd
000003a0: 65f1 f03d ab3b df3d 0a2e 42bd 4eb0 89bd
000003b0: 3cbf c53d 7884 763c f2d0 1abd a05b d93d
000003c0: 11e8 fa3d 12f3 34bb b04d 62bd f5ff c93d
000003d0: 7046 5fbd 09ad 90bd a21e c23c ba27 f0bd
000003e0: c49e 843d 6d5e a2bc 28c1 4cbd 13e5 853d
000003f0: acb6 6ebd 8b9b e0bc 4d09 903d 9a0a b73b

model.2.bias f4 [48]
-0.06722494 0.16537777 0.05275155 0.037216987 0.099337004 -0.023110213 -0.04026642 0.03628264
0.0060583316 0.043889403 -0.08885872 -0.20792137 0.0031026336 0.019025514 0.08186357 0.14614335
0.13236035 -0.112057835 0.0853402 0.0036359099 0.41017097 -0.05115374 -0.080944486 -0.029348329
0.065551594 -0.0065149292 -0.06108323 0.07764495 -0.106743224 -0.10463219 0.012337761 -0.0760256
0.042254586 -0.023238795 0.05790173 0.19656909 -0.041211713 -0.0072607636 -0.015000838 0.034963574
0.07123571 0.15759605 0.08912023 0.1025185 -0.082000636 -0.023546902 -0.13670243 0.0367295
00000000: 3bad 89bd ca58 293e 0212 583d d770 183d
00000010: 3371 cb3d a151 bdbc 67ee 24bd 1b9d 143d
00000020: f884 c63b 60c5 333d 90fb b5bd 57e9 54be
00000030: 8e55 4b3b 65db 9b3c 16a8 a73d 9aa6 153e
00000040: 7989 073e 947e e5bd d8c6 ae3d 7248 6e3b
00000050: ee01 d23e 9686 51bd 39c6 a5bd e86b f0bc
00000060: ea3f 863d 307b d5bb 6932 7abd 5104 9f3d
00000070: 319c dabd 6749 d6bd 5224 4a3c 4fb3 9bbd
00000080: 2513 2d3d 495f bebc 5d2a 6d3d 6849 493e
00000090: 9dcd 28bd b3eb edbb 13c6 75bc f735 0f3d
000000a0: 07e4 913d dc60 213e ab84 b63d 38f5 d13d
000000b0: f3ef a7bd 6fe5 c0bc b9fb 0bbe ac71 163d

model.4.weight f4 [32, 48]
0.024436591 0.021809766 -0.018276738 0.041137736 0.08087188 -0.14042862 -0.1045788 0.1396499
-0.07594186 -0.10404749 -0.13075678 0.044773154 0.040008236 0.047827203 0.0005886501 0.092059515
-0.09483355 -0.10359792 -0.10089044 -0.0077389106 -0.1097543 0.0158792 0.13160166 -0.07681842
-0.12030591 -0.117346145 -0.13256353 -0.099544115 -0.08717376 -0.06797159 -0.110032365 -0.12867557
0.08895166 -0.13196011 0.1315142 0.052678496 -0.041589677 -0.06518021 0.14649865 0.09318106
-0.10638423 0.047029644 0.07620035 0.045659162 0.1421366 -0.04020122 -0.0067980317 0.12986916
-0.060561594 -0.15019797 0.076489724 -0.036320366 -0.14267027 -0.13587867 -0.06085832 0.04929727
0.037202034 0.13137582 -0.071266316 0.12893687 0.054916672 0.03241752 0.029591655 0.093824446
-0.11088597 -0.01700618 0.13151488 -0.04778468 0.040623162 0.025860202 -0.0069934186 -0.091844596
-0.09061725 0.08814179 0.03618954 -0.04291866 0.09406621 -0.115203954 -0.052030757 0.08953586
0.07422315 0.11457474 0.122628935 -0.13560443 -0.07074845 0.14171468 -0.1227967 -0.14296599
-0.06783787 0.06529594 -0.0806592 -0.07524465 -0.07878465 0.055516236 -0.10272223 0.0030675277
-0.09772237 0.07782055 -0.007678712 0.108545594 0.15928373 0.070318066 0.06498113 0.15782104
-0.09908521 0.028742349 0.13182731 -0.11635854 -0.0783931 -0.044710994 0.13738747 0.0025744915
-0.08473908 0.0856753 -0.109820575 -0.02887363 0.145182 0.06794592 -0.040149003 -0.11924451
0.14311732 0.13045777 0.12343241 0.10074521 -0.08798595 -0.04522006 -0.116887555 0.058085095
0.04738936 -0.0029892633 0.045011494 0.15410595 -0.06593297 -0.10040937 -0.045494355 0.00763207
0.05024945 0.08259887 -0.054655127 -0.027673965 0.057225514 0.118648395 0.033073172 0.06000967
0.1094446 -0.0140536195 -0.036199536 -0.007326295 0.058420178 -0.07339159 -0.08253958 -0.06660945
-0.07119718 -0.07084746 -0.11318878 0.107985094 -0.13309443 0.06503501 -0.08227524 0.09575879
-0.059329536 0.042410694 -0.024316007 0.08418117 0.0945834 -0.074262895 -0.087325074 0.07665717
-0.049984876 -0.09238531 -0.038815 0.013759403 0.12228134 0.05270891 0.11742589 0.0810472
0.08062066 0.05088473 -0.04332165 0.006213656 -0.13740468 -0.12029622 0.13172539 0.122206375
0.15626183 0.041008364 0.12976444 0.054508705 -0.12949525 0.0018754513 0.045616988 -0.07090432
-0.08706414 0.03771942 -0.10175048 0.1159915 0.117295556 -0.0010304727 -0.11463443 0.051393118
-0.068309665 -0.12308006 -0.042421114 -0.0444912 0.0659355 0.05905026 0.050563455 -0.0020498713
-0.14310914 -0.11631047 0.03992341 0.005673434 0.07973011 0.072618686 -0.1452614 0.0877807
0.06115744 -0.07670825 -0.023386661 -0.048808698 0.07830036 0.10117625 0.0544474 -0.039111584
-0.14038086 0.110711955 0.11676515 -0.0664001 0.092295446 0.14279768 0.0017474694 -0.12876837
-0.02589098 0.09120707 0.023281356 -0.11999552 -0.14524749 -0.0036485714 0.055443313 -0.1165136
0.1375006 0.14260015 0.053098045 0.14216214 -0.09063155 -0.028861811 -0.022346746 0.022079108
0.00930418 0.1413141 0.06272722 -0.0868952 0.14263974 -0.034247573 -0.033961244 0.13446654
00000000: 3f2f c83c 65aa b23c 19b9 95bc 0b80 283d
00000010: 28a0 a53d 85cc 0fbe 692d d6bd 6200 0f3e
00000020: 6887 9bbd da16 d5bd 1be5 05be 0e64 373d
00000030: addf 233d 75e6 433d a44f 1a3a b389 bc3d
00000040: 1838 c2bd 252b d4bd a69f cebd b096 fdbb
00000050: ddc6 e0bd 1915 823c 96c2 063e fa52 9dbd
00000060: f262 f6bd 2d53 f0bd bcbe 07be c9dd cbbd
00000070: 2888 b2bd b034 8bbd a658 e1bd 87c3 03be
00000080: 4a2c b63d 8d20 07be a9ab 063e 68c5 573d
00000090: f059 2abd 347d 85bd be03 163e b6d5 be3d
000000a0: fadf d9bd 28a2 403d ee0e 9c3d 1a05 3b3d
000000b0: 428c 113e 09aa 24bd 06c2 debb 6cfc 043e
000000c0: 6f0f 78bd 7fcd 19be a5a6 9c3d aac4 14bd
000000d0: 2818 12be c723 0bbe 9346 79bd efeb 493d
000000e0: 2961 183d 6287 063e 13f4 91bd 0708 043e
000000f0: 4ef0 603d 3cc8 043d 336a f23c 0827 c03d
00000100: 2f18 e3bd 8b50 8bbc d6ab 063e deb9 43bd
00000110: 7964 263d c6d8 d33c 0c29 e5bb 0519 bcbd
00000120: 8995 b9bd af83 b43d 7c3b 143d 7acb 2fbd
00000130: c9a5 c03d 0df0 ebbd 341e 55bd 945e b73d
00000140: 4f02 983d 29a6 ea3d e124 fb3d e3db 0abe
00000150: 90e4 90bd a71d 113e d67c fbbd ad65 12be
00000160: 95ee 8abd e1b9 853d a730 a5bd de19 9abd
00000170: d959 a1bd fe64 633d 0860 d2bd 9308 493b
00000180: aa22 c8bd 6160 9f3d b49d fbbb 274d de3d
00000190: 461b 233e eb02 903d d414 853d d79b 213e
000001a0: 30ed cabd 1375 eb3c bdfd 063e 634d eebd
000001b0: 908c a0bd e022 37bd 4daf 0c3e cdb8 283b
000001c0: af8b adbd 8876 af3d 9ce9 e0bd 6488 ecbc
000001d0: 97aa 143e 3b27 8b3d 4873 24bd 7736 f4bd
000001e0: 598d 123e b996 053e 22ca fc3d 8153 ce3d
000001f0: fa31 b4bd ab38 39bd be62 efbd a3ea 6d3d
00000200: 581b 423d 84e7 43bb f95d 383d f3cd 1d3e
00000210: dd07 87bd 6ea3 cdbd 4a58 3abd 7216 fa3b
00000220: 5ed2 4d3d 9929 a93d 0ede 5fbd 83b4 e2bc
00000230: 4d65 6a3d eefd f23d bc77 073d b3cc 753d
00000240: 7e24 e03d 2741 66bc f745 14bd 6b11 f0bb
00000250: ff49 6f3d 544e 96bd 830a a9bd 896a 88bd
00000260: d4cf 91bd 7918 91bd 85cf e7bd 4a27 dd3d
00000270: e849 08be 1331 853d ec7f a8bd 2f1d c43d
00000280: 8703 73bd d6b6 2d3d 5d32 c7bc 2d67 ac3d
00000290: f1b4 c13d 2517 98bd 7dd7 b2bd 6ffe 9c3d
000002a0: f1bc 4cbd 8234 bdbd 7afc 1ebd 1e6f 613c
000002b0: a46e fa3d 4ce5 573d fc7c f03d 13fc a53d
000002c0: 721c a53d 826c 503d 0b72 31bd ed9b cb3b
000002d0: d0b3 0cbe dd5d f6bd 05e3 063e 5647 fa3d
000002e0: 1a03 203e 63f8 273d f8e0 043e 8544 5f3d
000002f0: 679a 04be b4d1 f53a e1d8 3a3d 4936 91bd
00000300: af4e b2bd ae7f 1a3d 8e62 d0bd f48c ed3d
00000310: a738 f03d ed10 87ba 75c5 eabd 9781 523d
00000320: f0e5 8bbd 6611 fcbd c3c1 2dbd 683c 36bd
00000330: 3109 873d afde 713d a01b 4f3d 2257 06bb
00000340: 348b 12be 2f34 eebd bb86 233d 37e8 b93b
00000350: 8a49 a33d 1bb9 943d 68bf 14be 5ec6 b33d
00000360: 3980 7a3d 3719 9dbd 6295 bfbc a1eb 47bd
00000370: f05b a03d 7e35 cf3d 3d04 5f3d 7833 20bd
00000380: 00c0 0fbe f3bc e23d 9122 ef3d c7fc 87bd
00000390: 6505 bd3d 8e39 123e 580b e53a dbdb 03be
000003a0: 5219 d4bc c6ca ba3d 8bb8 be3c 36c0 f5bd
000003b0: c2bb 14be df1c 6fbb 8718 633d af9e eebd
000003c0: f5cc 0c3e c605 123e 567d 593d f492 113e
000003d0: 099d b9bd 9b6f ecbc 8610 b7bc 3fdf b43c
000003e0: 8f70 183c a5b4 103e 2177 803d 1cf6 b1bd
000003f0: 2710 123e 2f47 0cbd f21a 0bbd 99b1 093e

model.4.bias f4 [32]
-0.101192094 0.1220258 0.24891269 -0.2006817 -0.082869984 0.08940309 0.058345873 -0.04643151
0.2346143 -0.1284204 0.060790956 0.22561808 0.015459808 -0.13015695 0.11058151 0.05109272
0.059528884 -0.1511874 0.06724097 -0.015026753 0.25161248 -0.003884506 0.2063339 0.009995517
-0.09700379 0.028663693 0.091648795 0.2705525 0.2007211 0.25812396 0.0055072755 0.025330307
00000000: cd3d cfbd aae8 f93d f8e2 7e3e 817f 4dbe
00000010: bdb7 a9bd f818 b73d 15fc 6e3d f82e 3ebd
00000020: bb3e 703e a380 03be f0ff 783d 6d08 673e
00000030: 224b 7d3c dd47 05be 8f78 e23d 9a46 513d
00000040: 8fd4 733d dfd0 1abe a2b5 893d c532 76bc
00000050: 5ad3 803e 3293 7ebb 3249 533e 3dc4 233c
00000060: eca9 c6bd 1fd0 ea3c 5db2 bb3d db85 8a3e
00000070: d589 4d3e d328 843e 6076 b43b 8181 cf3c

model.6.weight f4 [1, 32]
-0.07070498 -0.09249561 0.3158482 -0.23615876 -0.1711453 0.10318375 0.13197115 0.11920363
0.2910562 -0.17404847 -0.048027575 0.3080562 -0.16475916 -0.12310531 0.35470515 0.045755625
0.16922748 0.14332037 0.14351249 -0.028444419 0.45832247 0.07766391 0.32219827 -0.050554357
-0.020532215 -0.015486058 -0.08060983 0.28611007 0.35189468 0.41873443 0.28214413 0.120190166
00000000: c6cd 90bd 576e bdbd dbb6 a13e 9ad3 71be
00000010: b740 2fbe 0052 d33d 7223 073e 0821 f43d
00000020: 5105 953e c339 32be 90b8 44bd 8bb9 9d3e
00000030: a0b6 28be a31e fcbd ea9b b53e 406a 3b3d
00000040: f849 2d3e 93c2 123e f0f4 123e 4504 e9bc
00000050: 3ea9 ea3e 420e 9f3d 2cf7 a43e 1612 4fbd
00000060: 2d33 a8bc 3cb9 7dbc c416 a5bd 057d 923e
00000070: 8a2b b43e 5c64 d63e 3275 903e 4326 f63d
