model_checkpoint.pth (torch, 88242 bytes, 57 tensors)

embeddings.1.weight f4 [6, 3]
0	0x3edd769c	0.43254554
1	0xbf16446d	-0.5869816
2	0x3f9260ac	1.1435752
3	0xbf4997de	-0.78747356
4	0x3e86e5d8	0.26347232
5	0xbfdf7ed5	-1.7460581
6	0xbf491353	-0.7854511
7	0x3fe3ca14	1.7796044
8	0xbe6b6c7b	-0.22990601
9	0x3eb3f4fe	0.35147852
10	0xbf319b75	-0.69377834
11	0x3e950ed2	0.2911287
12	0x3ed8408d	0.42236748
13	0x3ec59a85	0.38594452
14	0x3c8ff546	0.01757301
15	0x3e610d60	0.21977758
16	0xbf02e15a	-0.5112511
17	0x3e8a6b65	0.2703506

embeddings.2.weight f4 [7, 4]
0	0x3f95cb7d	1.1702725
1	0x3c30f596	0.01080074
2	0x3f79f2cf	0.9763612
3	0xbdbe7b02	-0.09300806
4	0x3faad1bc	1.3345256
5	0xbe8adc27	-0.27121088
6	0xbd0dcd08	-0.03461936
7	0x3fa31cfb	1.2743219
8	0xbf015a66	-0.5052856
9	0x3f5d93ac	0.86553454
10	0xbe6f2b2c	-0.23356313
11	0x3e241444	0.16023356
12	0xbf9d9695	-1.2311579
13	0xbf6c272e	-0.92247283
14	0x3fa73fd3	1.3066353
15	0xbf2434c3	-0.6414301
16	0x3ef9755f	0.4872236
17	0xbe7e1849	-0.24813952
18	0x3f2aa9ad	0.66665155
19	0x3fb6dd6d	1.4286324
20	0xbdc84add	-0.09779904
21	0x3fdd93be	1.7310712
22	0x3e362494	0.17787391
23	0xbed88b36	-0.4229371
24	0xbf26025a	-0.6484734
25	0x3f7177eb	0.94323605
26	0x3e2d381e	0.16915938
27	0xbe246a20	-0.16056108

embeddings.3.weight f4 [6, 3]
0	0xbef4d279	-0.47816828
1	0x3eeed160	0.46644115
2	0x3faae0e8	1.3349886
3	0x3ea73970	0.3266101
4	0x3f44b7b5	0.76842815
5	0x3e12e46d	0.1434495
6	0x3f55b48c	0.8347862
7	0xbf11b581	-0.5691758
8	0xbfb86131	-1.440466
9	0x3fc82b97	1.5638303
10	0x3e7e54e9	0.24837078
11	0x3fc97a22	1.5740397
12	0xbe183806	-0.14865121
13	0x3f97ee38	1.1869574
14	0x3fcb8eeb	1.590299
15	0x3e071254	0.13190585
16	0xbf8e73b4	-1.112906
17	0x3f9fada8	1.2474871

embeddings.4.weight f4 [6, 3]
0	0xbf80baf1	-1.005705
1	0xbfbfac56	-1.4974468
2	0xbdb3a573	-0.08771791
3	0xc000fa61	-2.015282
4	0xbeb47b54	-0.35250342
5	0xbf617e1c	-0.8808305
6	0xbf9019d3	-1.1257881
7	0xbf3e6b54	-0.7438252
8	0x3d957fba	0.072997525
9	0xbe779854	-0.24179202
10	0xbe805f8a	-0.2507289
11	0x3f90c6f8	1.131072
12	0xbf535965	-0.8255828
13	0xbfecca40	-1.8499222
14	0xbf7672e6	-0.9626907
15	0x3ff58f4b	1.9184355
16	0xbffdd9a1	-1.983204
17	0x3d1190d6	0.035538517

embeddings.5.weight f4 [4, 2]
0	0x3f5f10d9	0.8713508
1	0xbf776bb9	-0.96648747
2	0x3ed5c33c	0.41750515
3	0x3f14e201	0.58157355
4	0xbfa0d565	-1.2565123
5	0x3f617f5e	0.8808497
6	0x3fb70c8d	1.4300705
7	0x3eb5f8b6	0.35541314

embeddings.6.weight f4 [4, 2]
0	0x3f3b8fda	0.73266375
1	0x3dc2aa88	0.095051825
2	0xbf4dc71a	-0.8038193
3	0xc012bafa	-2.2926621
4	0x3fc4ed82	1.5384982
5	0x3f673a4d	0.90323335
6	0x3f03fb28	0.5155511
7	0xbf0e6918	-0.5562911

embeddings.7.weight f4 [5, 3]
0	0x3fbdb8b5	1.4821993
1	0x3fb8e383	1.4444431
2	0xbe86dbb9	-0.2633951
3	0xbf87db41	-1.0613786
4	0xbfbc55d5	-1.4713694
5	0x3e88d018	0.26721263
6	0x3fab4133	1.3379272
7	0x401ab2e3	2.4171684
8	0x3e219c6d	0.15782328
9	0x3fb40706	1.4064643
10	0xbfc36a2a	-1.5266774
11	0xbfc1783d	-1.5114819
12	0xbe05f493	-0.13081579
13	0x3f7d9e3e	0.99069583
14	0x3f971658	1.1803694

embeddings.8.weight f4 [3, 2]
0	0xbf023174	-0.5085671
1	0x400cb67e	2.1986384
2	0xbf18bd1c	-0.5966356
3	0xbfda9af1	-1.7078534
4	0x40137fae	2.304668
5	0xbe7344d7	-0.23756729

embeddings.9.weight f4 [7, 4]
0	0xc013e7d4	-2.3110247
1	0x3f80e900	1.0071106
2	0xbe9d64b1	-0.30740884
3	0xbf78ebb4	-0.97234654
4	0x3f196cae	0.5993146
5	0xbf9db3ad	-1.2320458
6	0xbea14d4e	-0.3150429
7	0x3f68c058	0.90918493
8	0x3e954333	0.2915283
9	0xbba8a869	-0.005147029
10	0xbf4ec14d	-0.80763704
11	0x3f18435e	0.59477794
12	0xbdb32b61	-0.08748508
13	0x3f58a1b2	0.8462173
14	0xbf342c95	-0.70380527
15	0xbf96b5ef	-1.1774272
16	0xc00aec16	-2.1706595
17	0x3de4229a	0.11139412
18	0x3f660da3	0.8986456
19	0x3eb10fb7	0.34582302
20	0xbd63e0df	-0.055634376
21	0xbf33e7f1	-0.7027579
22	0x3d096682	0.033545025
23	0x3ddab6ab	0.106793724
24	0x3f9bcdeb	1.2172216
25	0x3d12d51b	0.035847764
26	0x3e14981a	0.14511147
27	0xbe8f0a9d	-0.27937785

embeddings.10.weight f4 [6, 3]
0	0xbdb61285	-0.08890251
1	0xbec143e3	-0.37747106
2	0xbf0c650a	-0.54841673
3	0xbfac704b	-1.3471769
4	0x3f4f8e69	0.81076676
5	0xbf5b06b6	-0.85557115
6	0x3faef8a8	1.3669634
7	0xbc5f68d8	-0.013635837
8	0xbe9644bf	-0.29349324
9	0xbf102331	-0.563037
10	0x3f1144db	0.5674569
11	0xbe7f8c0c	-0.24955767
12	0xbf77e58d	-0.9683464
13	0x3fc2949e	1.5201604
14	0xbf8a2d70	-1.0795116
15	0xbfc20a26	-1.5159347
16	0x3f86d3f0	1.0533428
17	0xbf8e7071	-1.1128064

embeddings.11.weight f4 [6, 3]
0	0x3e9ef956	0.31049603
1	0x3f2c3e93	0.6728298
2	0x3ec646be	0.38725847
3	0x3db46f2e	0.08810268
4	0x3e479531	0.19490506
5	0xbfa4d0de	-1.2876241
6	0x3f9f6d27	1.2455186
7	0xbe07a93b	-0.1324815
8	0x3f7d8008	0.99023485
9	0x3e008959	0.12552394
10	0xbec38b80	-0.38192368
11	0x3cd7c827	0.026340557
12	0xbd44194f	-0.0478757
13	0xbf39e672	-0.72617257
14	0x3f4dc938	0.8038516
15	0x3e94f664	0.2909423
16	0xbe8b434f	-0.2719979
17	0xbf1ba061	-0.60791594

embeddings.12.weight f4 [4, 2]
0	0xbf4a86c0	-0.7911186
1	0xbf2755f7	-0.65365547
2	0x3f33cf3f	0.7023811
3	0x3f02aa47	0.5104107
4	0x3f994876	1.1975238
5	0x3fa95bf2	1.3231184
6	0x3f26c42f	0.651431
7	0xbfc903c5	-1.5704275

embeddings.13.weight f4 [4, 2]
0	0x40441a81	3.0641177
1	0x3eb77a19	0.3583534
2	0xbfdc98e3	-1.7234157
3	0x3fcf4e2d	1.6195732
4	0x3d251668	0.04030457
5	0x3fd0124c	1.6255584
6	0xbefe947d	-0.49722663
7	0xbf9a4ce6	-1.2054718

embeddings.14.weight f4 [8, 4]
0	0x401be391	2.4357646
1	0x3fbd0687	1.4767617
2	0x3e816d3e	0.25278658
3	0xbe842115	-0.2580649
4	0x3ea0584f	0.31317374
5	0xbf3ff951	-0.749898
6	0x3f3bc940	0.7335396
7	0x3fa8c806	1.3186042
8	0x3eb93952	0.36176544
9	0x3fd3c0bb	1.6543192
10	0xbddbdea2	-0.10735823
11	0xbf2e9e87	-0.68210644
12	0x3f22a536	0.6353334
13	0x3ef909b0	0.48640203
14	0xbec1e813	-0.3787237
15	0xbf9dee92	-1.2338431
16	0xbf7f3291	-0.99686533
17	0x3fa794d8	1.3092299
18	0x3d131db4	0.035917
19	0x3d938311	0.07202733
20	0x3f341a5e	0.70352733
21	0x3f6b3fd7	0.91894287
22	0xbf5862b9	-0.8452564
23	0x3ed39ebd	0.41332045
24	0x3fb32de9	1.3998386
25	0xbc8a2d4f	-0.016867308
26	0xbf301a48	-0.687901
27	0xbf810e4a	-1.0082486
28	0x3fc4a6ed	1.5363442
29	0xbf2947f1	-0.661254
30	0x3f7e33ca	0.99297774
31	0xbd78a25f	-0.060701724

model.0.weight f4 [64, 46]
0	0x3d955ff9	0.07293696
1	0x3db65634	0.08903161
2	0xbad25fe3	-0.0016050305
3	0x3dbc15cd	0.09183846
4	0xbdcc98e9	-0.09990103
5	0xbd03aad0	-0.03214532
6	0x3b3157c2	0.0027060364
7	0x3dd8c3da	0.10584231
8	0xbe0a4bbf	-0.13505457
9	0x3d48d823	0.04903425
10	0xbda231b6	-0.07919638
11	0xbe06c1e3	-0.131599
12	0xbdc1ac7f	-0.09456729
13	0x3d38da38	0.045129985
14	0xbe15df97	-0.14636074
15	0xbd36fad3	-0.0446728
16	0x3da174bf	0.07883596
17	0x3e06da05	0.13169105
18	0xbcfc14a5	-0.030771563
19	0xbe29ab15	-0.16569169
20	0x3d68b1aa	0.05681006
21	0x3ca37912	0.019955192
22	0x3ca61a92	0.020276342
23	0x3c44ef6b	0.012019972
24	0xbddb09f4	-0.10695258
25	0xbe1b31d7	-0.15155731
26	0xbde81fe4	-0.11334208
27	0xbe33c456	-0.17555365
28	0xbd2e2a73	-0.04252095
29	0xbd110901	-0.035408977
30	0x3da1ef41	0.07906962
31	0xbdcd3e6b	-0.10021671
32	0xbccd7c0e	-0.025083568
33	0x3a94256a	0.0011302654
34	0x3c83fea6	0.016112637
35	0x3dbe9ffe	0.0930786
36	0xbdbd5ed4	-0.09246603
37	0xbd4eeb66	-0.050517462
38	0xbcc4122a	-0.023934443
39	0xbe1ce73d	-0.15322585
40	0x3e0c34be	0.13691995
41	0xbd27a158	-0.040925354
42	0x3dde33c9	0.10849721
43	0x3d5bce34	0.053663447
44	0x3d3c85e2	0.046026118
45	0x3c9177a3	0.017757243
46	0xbcf97b78	-0.030454382
47	0xbdbe0b5e	-0.09279512
48	0x3c22efeb	0.009944896
49	0x3e16e78d	0.14736767
50	0x3e0a4fe0	0.13507032
51	0x3da00e86	0.0781527
52	0x3d120a07	0.035654094
53	0xbc3e998e	-0.01163329
54	0xbe0de620	-0.13857317
55	0x3d88bc82	0.0667658
56	0xbddd886c	-0.10817036
57	0xbc33cb66	-0.010973787
58	0x3e12429d	0.14283223
59	0xbe0d80c8	-0.13818657
60	0xbc744e84	-0.014911298
61	0x3cdf7c74	0.027281024
62	0xbd905539	-0.07047505
63	0xbe14f14e	-0.14545175
64	0x3a740c77	0.0009309719
65	0x3de52229	0.11188156
66	0x3d23c371	0.03998131
67	0xbd16e5a5	-0.0368401
68	0x3cd1c5b7	0.025606973
69	0xbe036259	-0.12830485
70	0x3e06fed7	0.13183151
71	0x3d51aa83	0.051188003
72	0xbe13d737	-0.14437567
73	0x3c972866	0.01845188
74	0xbc01049f	-0.007874637
75	0x3db7947a	0.089638665
76	0x3db357c4	0.08756974
77	0xbe02bb32	-0.12766722
78	0x3e036ee3	0.12835269
79	0x3da7d03c	0.081940144
80	0x3de21518	0.110391796
81	0x3cfe41df	0.03103727
82	0x3e010e6d	0.12603159
83	0x3dfc5905	0.12321667
84	0xbc51fad4	-0.01281615
85	0x3e0a051b	0.1347851
86	0xbdefeabe	-0.117146954
87	0xbcb94283	-0.022614723
88	0xbd12c819	-0.03583536
89	0xbde0fd82	-0.10985853
90	0x3dc60040	0.096680164
91	0xbd84e3cf	-0.064887635
92	0x3cd07e59	0.025450872
93	0x3deaeae3	0.11470582
94	0xbcd9b82e	-0.026577082
95	0x3c7aa457	0.015297971
96	0x3e046538	0.12929237
97	0x3d2a9d27	0.04165378
98	0xbd52967f	-0.051413056
99	0xbde3a539	-0.11115498
100	0xbdff1b18	-0.124563396
101	0x3daf556c	0.08561215
102	0x3e127c0c	0.14305133
103	0x3cb05345	0.021524081
104	0xbdd34ce5	-0.10317401
105	0x3c421758	0.011846386
106	0xbd7f9f01	-0.062407497
107	0xbdf10d77	-0.11770146
108	0x3d648976	0.055795155
109	0x3bafdb38	0.005366709
110	0xbd541c86	-0.051785015
111	0xbdbf0c2e	-0.09328495
112	0xbdc1e807	-0.09468084
113	0xbdcc8ae0	-0.09987426
114	0xbe18f0f9	-0.14935674
115	0x3cdfa731	0.027301403
116	0xbd57de6a	-0.052702345
117	0x3db07c02	0.086174026
118	0xbd86a286	-0.06573968
119	0xbe01619d	-0.12634893
120	0xbbbabb85	-0.0056986236
121	0xba2066b2	-0.00061188184
122	0x3de8fd09	0.113763876
123	0xbdad5578	-0.084635675
124	0xbdd93066	-0.106049344
125	0x3d5d6d61	0.05405939
126	0x3d17825e	0.036989562
127	0xbc886108	-0.01664783
128	0x3cb69440	0.022287488
129	0xbd90c6c4	-0.070691615
130	0x3dd062ea	0.10175116
131	0x3d460028	0.048339993
132	0xbdd89bb8	-0.10576576
133	0x3e2274ff	0.15864943
134	0xbdf7ca09	-0.12099082
135	0x3e18db5f	0.14927433
136	0x3e1f8e48	0.1558162
137	0xbd527be9	-0.0513877
138	0xbd6949f1	-0.05695528
139	0xbe0a1cbe	-0.13487527
140	0x3cd1aa18	0.025593802
141	0xbd8569dc	-0.06514332
142	0xbdeb2909	-0.11482436
143	0x3d50fbb3	0.05102129
144	0x3db8241e	0.08991264
145	0x3e06fa2d	0.13181372
146	0x3c2692e9	0.010166862
147	0xbd77caed	-0.06049626
148	0xbd61c1f2	-0.0551166
149	0xbd8b1f86	-0.06793122
150	0xbd866c75	-0.06563655
151	0xbdf52af9	-0.11971087
152	0xbe051a85	-0.12998398
153	0xbd77dd3d	-0.060513724
154	0xbcee4370	-0.029084891
155	0xbe0ec768	-0.13943255
156	0xbe196507	-0.14979945
157	0x3c694d03	0.014239552
158	0xbdf41aaf	-0.11919152
159	0xbd8d1e69	-0.06890566
160	0xbe0600af	-0.13086198
161	0x3d5bfd3c	0.0537083
162	0x3c92cb03	0.01791907
163	0xbd0b1c96	-0.03396281
164	0xbe1155ac	-0.14192837
165	0x3b0f9f2e	0.0021914947
166	0xbda2e7e2	-0.079543844
167	0xbdde1ab8	-0.1084494
168	0xbd166d42	-0.03672529
169	0x3d6d3a0f	0.057916697
170	0x3c70d212	0.014698522
171	0xbd8b546e	-0.06803213
172	0x3df356e1	0.11881805
173	0xbda8820f	-0.08227932
174	0xbb56e490	-0.0032790042
175	0xbdb2f649	-0.087383814
176	0x3d3da4fd	0.046299923
177	0x3dcd084d	0.10011349
178	0xbc3c874e	-0.0115068685
179	0xbd69a852	-0.05704529
180	0xbc11d77a	-0.008901471
181	0x3d19a208	0.03750804
182	0x3dfedeb5	0.12444822
183	0x3ddeb1bb	0.10873743
184	0x3e0ef9cb	0.13962476
185	0xbdbc0a82	-0.09181692
186	0xbe03139d	-0.1280045
187	0x3e1354a6	0.1438776
188	0x3e1271af	0.1430118
189	0x3bd6daed	0.0065568597
190	0x3ca8634f	0.020555167
191	0x3e1299b0	0.1431644
192	0x3c4a2f47	0.012340373
193	0x3d1fa3b4	0.03897448
194	0x3d62229d	0.05520879
195	0xbd5eac3f	-0.054363485
196	0x3db87e8d	0.09008513
197	0x3ddc96f3	0.10770979
198	0x3dccd9c9	0.10002477
199	0xbde570de	-0.11203168
200	0xbd33a9cc	-0.043863103
201	0x3e11d35f	0.14240788
202	0x3d8f8e90	0.070096135
203	0x3de0f74c	0.10984668
204	0x3cb1b7fb	0.021694174
205	0xbdf64d71	-0.120264895
206	0xbd8702ae	-0.06592308
207	0x3b0124e9	0.0019705838
208	0xbe0ba70c	-0.13637942
209	0xbd803831	-0.06260718
210	0xbe049f77	-0.12951456
211	0xbe074f27	-0.13213788
212	0xbc701005	-0.014652257
213	0xbe11cbdb	-0.14237921
214	0xbce497dc	-0.027904443
215	0x3da23216	0.079197094
216	0xbe02dd2f	-0.12779687
217	0xbd5bb809	-0.053642306
218	0xbc77393d	-0.01508933
219	0x3dc27993	0.09495845
220	0x3cb7ff6e	0.022460666
221	0xbdbdfeb0	-0.092770934
222	0x3963b4a7	0.00021715705
223	0xbe13864a	-0.14406696
224	0xbe0ddc94	-0.13853675
225	0xbdc32921	-0.09529329
226	0xbde5db3a	-0.11223455
227	0x3dd08f71	0.10183609
228	0x3dce11ba	0.10061975
229	0xbd935628	-0.071941674
230	0x3da8cd0c	0.082422346
231	0x3ddd0dd7	0.10793655
232	0xbdaf9669	-0.0857361
233	0xbda5e53a	-0.08100362
234	0x3e085fcb	0.13317792
235	0xbd559cb4	-0.052151397
236	0xbcf9e48a	-0.030504484
237	0x3d26a95f	0.04068887
238	0x3c1647e6	0.009172415
239	0x3da4f796	0.08055036
240	0xbc85b5a5	-0.016321966
241	0xbdbd2b48	-0.09236771
242	0xbd00245c	-0.031284675
243	0xbd66965a	-0.05629573
244	0x3d8355f1	0.064128764
245	0x3d849dbd	0.06475399
246	0xbe1fffa5	-0.15624864
247	0xbd2cb4f5	-0.04216476
248	0xbe1e7add	-0.15476556
249	0xbdcad48a	-0.0990382
250	0x3d913856	0.07090823
251	0xbc420a04	-0.011843208
252	0x3d72cbbf	0.05927634
253	0x3d58b379	0.052905533
254	0xbe21d473	-0.15803699
255	0xbd45c1d1	-0.04828054

model.0.bias f4 [64]
0	0x3da99492	0.08280291
1	0x3de7121e	0.112827525
2	0x3cba7e49	0.022765296
3	0x3d91ad4c	0.07113132
4	0x3d93682f	0.07197606
5	0xbc2caaf5	-0.010538806
6	0x3e0533c5	0.1300803
7	0x3d211026	0.03932204
8	0x3cd27094	0.025688447
9	0x3d3e769d	0.046499837
10	0x3cdb4548	0.026766434
11	0xbd946c2e	-0.07247196
12	0xbdcef25e	-0.101048216
13	0x3ddbf0e9	0.10739309
14	0x3d95e320	0.07318711
15	0xbc9c79fe	-0.01910114
16	0xbe050ef0	-0.1299398
17	0x3ceb18aa	0.028698284
18	0xbcd61afe	-0.026135918
19	0x3dba9454	0.091103226
20	0xbcf501fa	-0.029908169
21	0x3e2eb1ba	0.17059985
22	0xbd94c681	-0.07264424
23	0x3b414806	0.0029492392
24	0xbe0a9515	-0.13533433
25	0x3e00da9b	0.12583391
26	0x3e1824fa	0.14857855
27	0x3da3385c	0.07969734
28	0xbe0b2388	-0.13587773
29	0xbd0b1da1	-0.033963803
30	0x3e16248c	0.14662379
31	0x3cc11840	0.023571134
32	0xbd637132	-0.055527873
33	0x3dea0bb7	0.11428016
34	0x3d6530b8	0.055954665
35	0x3d8b1b2d	0.06792293
36	0xbcc72acc	-0.0243124
37	0x3d915c34	0.070976645
38	0xbdad0e81	-0.08450032
39	0xbd192e08	-0.037397414
40	0x3d336081	0.043793205
41	0xbd8d9a94	-0.06914249
42	0xbd43da40	-0.04781556
43	0x3e117188	0.14203465
44	0x3ddee10e	0.108827695
45	0xbe010c2e	-0.12602302
46	0x3d228f4c	0.03968744
47	0x3d862fb1	0.06552065
48	0x3db7160c	0.08939752
49	0xbddcbabf	-0.107778065
50	0xbda0839d	-0.07837603
51	0x3e0ba220	0.13636065
52	0x3da0e17c	0.07855508
53	0xbc0108c3	-0.007875624
54	0x3daf1f5d	0.08550904
55	0xbdfb885f	-0.1228187
56	0x3d7dba36	0.061945163
57	0xbdbf03ef	-0.09326922
58	0x3c3d632f	0.011559292
59	0xbd9f3475	-0.07773677
60	0x3abaad7a	0.0014242374
61	0xbe03908d	-0.1284811
62	0x3a995789	0.0011699061
63	0x3e107a66	0.14109191

model.2.weight f4 [32, 64]
0	0x3ceaa2a8	0.028642014
1	0x3d879904	0.06620982
2	0xbd572bdc	-0.052532062
3	0xbbad0960	-0.0052806586
4	0xbd613800	-0.054985046
5	0xbddc50e0	-0.10757613
6	0xbcb0edf0	-0.021597832
7	0xbd89d336	-0.067297384
8	0x3da17bd0	0.078849435
9	0xbdf5fdce	-0.120113
10	0xbd0bca84	-0.03412868
11	0xbdc2ac02	-0.09505464
12	0xbccbfa60	-0.024899662
13	0xbdb71932	-0.089403525
14	0x3c10b150	0.008831337
15	0x3da28132	0.07934798
16	0x3c7a47b0	0.015275881
17	0x3a804600	0.0009786487
18	0xbd84b8fc	-0.064805955
19	0x3c80ca88	0.015721574
20	0xbda30e8c	-0.07961759
21	0x3ca80ea8	0.020514801
22	0xbc14b580	-0.009076476
23	0xbdbfd690	-0.093670964
24	0x3a63a600	0.0008684099
25	0xbd0b5bcc	-0.03402309
26	0x3d045898	0.032311052
27	0x3cd60790	0.026126653
28	0x3d77a1d4	0.060457066
29	0xbdd8983a	-0.1057591
30	0x3d41fd5c	0.047360763
31	0xbdea1a8c	-0.11430845
32	0x3d04d05c	0.03242527
33	0xbd17e4ec	-0.03708355
34	0xbd74b12c	-0.059739277
35	0x3d5bb9e8	0.05364409
36	0xbdce024c	-0.10059032
37	0x3b7b5100	0.003834784
38	0x3de9cdf6	0.11416237
39	0xbdbde53e	-0.0927224
40	0xbd272860	-0.04080999
41	0x3d6fcb10	0.058543265
42	0xbd585994	-0.052819803
43	0xbd4871fc	-0.04893683
44	0x3d017614	0.03160675
45	0x3b9ad5c0	0.004725188
46	0x3d9badee	0.07601534
47	0xbd0fb844	-0.03508784
48	0x3c01dfb0	0.007926866
49	0xbc35e290	-0.01110138
50	0xbd801d1c	-0.06255552
51	0xbdb36d14	-0.087610394
52	0xbdf742b8	-0.120732725
53	0xbd6a6018	-0.05722055
54	0x3dfa6710	0.12226689
55	0x3d8745fe	0.06605147
56	0x3d12af88	0.03581193
57	0xbddaf236	-0.10690729
58	0xbd440eac	-0.047865555
59	0x3cad29d8	0.021138117
60	0xbd5ccb18	-0.053904623
61	0x3d9c900a	0.07644661
62	0x3da9b3fe	0.08286284
63	0xbbf65160	-0.007517025
64	0x3d6d616e	0.057954244
65	0xbda892c0	-0.08231115
66	0xbd4275bc	-0.04747556
67	0xbd9f338c	-0.07773504
68	0x3d965078	0.07339567
69	0xbd1df5b2	-0.03856439
70	0xbde5fefd	-0.11230276
71	0x3d40a6cc	0.04703407
72	0xbda2c0a9	-0.07946903
73	0xbcb6b67d	-0.022303814
74	0x3de3917c	0.11111733
75	0x3d59f770	0.05321449
76	0x3d1c876b	0.038215082
77	0x3dd03912	0.10167135
78	0xbdec1e0c	-0.115291685
79	0xbc948a4e	-0.018132355
80	0x3c12b8a0	0.008955151
81	0xbcdfa978	-0.027302489
82	0xbcdb0c97	-0.026739402
83	0xbd6f9b6c	-0.05849783
84	0xbd336eaf	-0.043806728
85	0xbd847cbc	-0.06469104
86	0xb93a2800	-0.00017753243
87	0xbdd5727f	-0.10422229
88	0xbda70b90	-0.08156502
89	0x3dac4a30	0.08412588
90	0xbd4ee7f2	-0.05051417
91	0x3d3d6194	0.046235636
92	0xbdffce4e	-0.12490521
93	0x3d6e06dc	0.05811201
94	0xbde49424	-0.11161068
95	0xbe0c4751	-0.1369908
96	0x3d95cdd4	0.07314649
97	0x3d897f74	0.06713763
98	0xbdb15796	-0.08659284
99	0x3db4455c	0.08802292
100	0x3c336a41	0.010950626
101	0xbd3e4c12	-0.046459265
102	0x3d8137f2	0.06309499
103	0x3d884a64	0.06654814
104	0xbd4ddd12	-0.050259657
105	0xbdd0d072	-0.10196008
106	0x3be401a0	0.0069582015
107	0x3d46315c	0.048386917
108	0xbdf13322	-0.11777331
109	0xbddc3333	-0.10751953
110	0x3d83541a	0.064125255
111	0x3d257798	0.040397257
112	0x3db461c2	0.08807708
113	0x3d3887ee	0.045051508
114	0x3ded4108	0.11584669
115	0xbc9d9f30	-0.019240946
116	0xbda4b692	-0.08042635
117	0xbc5c5099	-0.01344695
118	0x3b2b4270	0.002613213
119	0xbd877e4a	-0.066158846
120	0x3d7f7bfd	0.062374104
121	0x3db6b3ad	0.08920989
122	0xbd4cc831	-0.049995605
123	0xbd8472cb	-0.064672075
124	0xbdb74fe4	-0.08950785
125	0x3d847605	0.06467823
126	0xbd93ed0e	-0.07222949
127	0x3df5754a	0.11985262
128	0x3e0681b7	0.1313542
129	0xbd0838e8	-0.033257395
130	0x3da7da7a	0.08195968
131	0x39c42a38	0.0003741549
132	0x3d20fac8	0.039301664
133	0x3df0c394	0.117560536
134	0x3c816d37	0.015799148
135	0xbd96cc90	-0.07363236
136	0x3d5c7e8d	0.053831626
137	0x3dabed5d	0.08394883
138	0x3d81cf72	0.06338395
139	0x3d329ed4	0.0436085
140	0x3df09f3f	0.11749124
141	0x3cb0aae8	0.02156587
142	0x3cb2ddc0	0.021834254
143	0xbc37d2d7	-0.011219702
144	0x3d5afd88	0.053464442
145	0x3da13b86	0.07872681
146	0x3dd0a933	0.10188522
147	0xbb973980	-0.004615009
148	0x3bfc7b3a	0.0077051194
149	0xbe0d21f0	-0.13782477
150	0xbc7fb090	-0.015606061
151	0x3e0013e9	0.12507595
152	0x3c9db840	0.019252896
153	0xbdd5285a	-0.10408087
154	0x3d7f7acf	0.06237298
155	0xbb367254	-0.002783914
156	0xbdf16a68	-0.117878735
157	0xbc2071e0	-0.009792775
158	0x3ddde12f	0.10833966
159	0x3deab16d	0.114596225
160	0xbdb6003c	-0.088867635
161	0xbdc2fe1b	-0.09521123
162	0xbcb37518	-0.02190642
163	0xbd3ba814	-0.04581459
164	0x3c2539fb	0.010084624
165	0xbd7fc277	-0.062441316
166	0xbd72b8f3	-0.059258413
167	0x3df83d5e	0.1212108
168	0xbdf110b7	-0.11770766
169	0x3dea477c	0.11439416
170	0x3d19b6dd	0.037527908
171	0x3dda8e46	0.10671668
172	0x3dbe49c8	0.092914164
173	0x3d639a3a	0.055567004
174	0xbda304b8	-0.079598844
175	0xbdcbc04c	-0.09948787
176	0xbd5b7b64	-0.05358447
177	0x3bbe206b	0.0058022044
178	0xbdb3fdaa	-0.08788617
179	0x3d95ccc6	0.07314448
180	0x3de67b85	0.11254028
181	0x3dfe828a	0.12427242
182	0xbc338d16	-0.0109589305
183	0xbc3669f7	-0.011133662
184	0x3dfa6fa7	0.12228327
185	0x3dc81a1c	0.09770605
186	0xbd9c42c3	-0.07629921
187	0x3d208e48	0.03919819
188	0x3cdf8ed8	0.027289793
189	0xbc8afd80	-0.016966581
190	0xbdef6e70	-0.11690986
191	0x3d222bec	0.03959267
192	0x3db7ccba	0.08974595
193	0x3deea38c	0.11652288
194	0xbcdbcb33	-0.026830291
195	0xbbeedde1	-0.0072896336
196	0x3d5f2220	0.054475904
197	0xbdd2adcc	-0.102870554
198	0x3cfcf71e	0.030879553
199	0xbd101bec	-0.03518288
200	0xbce0585f	-0.027385889
201	0x3a0e354e	0.0005424813
202	0x3db036bd	0.086041905
203	0x3d14164c	0.036154076
204	0x3da05279	0.078282304
205	0xbbee5ca0	-0.0072742254
206	0x3d042da8	0.032270104
207	0x3dfc6b3f	0.12325143
208	0xbc4c4720	-0.012468129
209	0xbd20e660	-0.039282203
210	0xbc835617	-0.016032262
211	0x3da7df3a	0.08196874
212	0x3d299ed9	0.041411255
213	0x3cbb7a27	0.022885395
214	0x3db4b9bc	0.088244885
215	0x3dc9a244	0.09845403
216	0x3d813894	0.063096195
217	0xbc8a0a53	-0.016850626
218	0x3cd912c5	0.026498208
219	0xbdd73fdf	-0.10510229
220	0xbd30e240	-0.04318452
221	0xbde86c34	-0.11348763
222	0x3d861d32	0.06548537
223	0x3d34b0ad	0.044113804
224	0xbd2dd480	-0.042438984
225	0x3dddbac7	0.108266406
226	0x3d918cf4	0.07106963
227	0xbc1f0790	-0.009706393
228	0xbda7cc5e	-0.08193277
229	0xbce9a606	-0.028521549
230	0x3a88af81	0.0010428281
231	0xbd08f920	-0.03344071
232	0x3d47cca2	0.048779137
233	0x3df337f6	0.11875908
234	0x3d8c9568	0.068644345
235	0xbda16a6e	-0.07881628
236	0x3dbbf1c6	0.09176974
237	0x3db1d55e	0.08683275
238	0x3da156e7	0.078779034
239	0xbd0c2f57	-0.034224834
240	0x3d4ce05c	0.050018653
241	0x3dfec8f9	0.12440676
242	0x3d12bae4	0.035822764
243	0x3d8aae4e	0.06771527
244	0x3dae11aa	0.08499463
245	0xbddb119e	-0.106967196
246	0x3df5e1d3	0.12005963
247	0x3df08a83	0.11745169
248	0xbd8f406e	-0.06994711
249	0x3d9eb8fd	0.077501275
250	0x3dba6097	0.09100454
251	0xbd83c378	-0.06433767
252	0x3cdc7800	0.02691269
253	0xbdaffb34	-0.08592835
254	0x3df07774	0.11741534
255	0x3d31f508	0.04344657

model.2.bias f4 [32]
0	0xbcf98d18	-0.030462787
1	0xbdb350c0	-0.08755636
2	0x3d844146	0.064577624
3	0xbd45564a	-0.048177995
4	0xbdec361b	-0.11533757
5	0x3b960960	0.0045787543
6	0xbd4b7c4c	-0.049679086
7	0xbdbda468	-0.09259874
8	0xbdeec884	-0.11659339
9	0xbd80f320	-0.062963724
10	0x3cfe3954	0.031033196
11	0x3dc6e4c5	0.09711603
12	0xbdd4fff4	-0.10400382
13	0xbda0b156	-0.07846324
14	0xbdaf3bf2	-0.085563555
15	0xbe10aa73	-0.14127521
16	0xbdaeaf03	-0.085294746
17	0x3d9e09c5	0.07716707
18	0xbd9045be	-0.07044552
19	0x3d7352ad	0.059405018
20	0x3e026c47	0.12736617
21	0xbddff284	-0.10934928
22	0xb9680ba4	-0.0002212958
23	0xbd97a526	-0.074045464
24	0x3be96258	0.007122319
25	0x3d6935fc	0.05693625
26	0x3db46f0a	0.088102415
27	0x3d118c22	0.03553403
28	0x3b627a40	0.003455773
29	0x3d3dff94	0.046386316
30	0x3c9c8fc5	0.019111523
31	0xbd7d5f60	-0.061858535

model.4.weight f4 [1, 32]
0	0xbc63685e	-0.013879864
1	0xbdbea7cc	-0.093093485
2	0x3df3a291	0.118962415
3	0x3d97b6f6	0.07407944
4	0xbcea1c9a	-0.028578091
5	0xbc435c3f	-0.011923849
6	0xbe097599	-0.13423766
7	0xbd2cdb9f	-0.042201634
8	0xbd203a18	-0.039117903
9	0x3e03310b	0.12811677
10	0x3dd6fabe	0.10497044
11	0xbdaadee6	-0.08343296
12	0xbdac8f42	-0.08425762
13	0xbcea10a5	-0.02857239
14	0x3dc648b4	0.09681836
15	0x3c10642f	0.008812948
16	0x3e176977	0.14786325
17	0x3e0954a8	0.134112
18	0x3e09adbb	0.13445179
19	0x3e1686ba	0.14699832
20	0x3e27a0cb	0.16369931
21	0x3cf95685	0.030436764
22	0xbc88a63c	-0.01668083
23	0x3e1af4de	0.15132472
24	0xbc892ef5	-0.016746024
25	0xbd616989	-0.055032287
26	0xbdd35fe0	-0.10321021
27	0x3dbe8851	0.09303344
28	0x3e216ade	0.15763423
29	0x3d2800ff	0.041016575
30	0xbddee659	-0.10883779
31	0xbdfda9bc	-0.1238589

exp_avg f4 [6, 3]
0	0x395a68b2	0.00020829102
1	0x39075c9d	0.00012909104
2	0xb95e1773	-0.00021180305
3	0x394d580f	0.00019583128
4	0x38217678	3.8495724e-05
5	0xb8596a18	-5.183564e-05
6	0x3a001e96	0.000488737
7	0x398bff95	0.0002670257
8	0xb91debe1	-0.00015060559
9	0xb883326e	-6.25596e-05
10	0x38772197	5.8920672e-05
11	0xb5a1d6c9	-1.2057945e-06
12	0xba536f1b	-0.0008065567
13	0xb9d228b1	-0.0004008464
14	0x3990cecc	0.00027619896
15	0x39095e98	0.00013100577
16	0x37a2ce97	1.9408106e-05
17	0x379c4da9	1.8632812e-05

exp_avg_sq f4 [6, 3]
0	0x32537eab	1.2310617e-08
1	0x3383f6ee	6.145079e-08
2	0x329b864c	1.8105446e-08
3	0x331fa042	3.7165826e-08
4	0x32a11fe4	1.8757369e-08
5	0x31021a4e	1.8932442e-09
6	0x335b4285	5.105041e-08
7	0x33900737	6.706835e-08
8	0x32bbd6a8	2.186728e-08
9	0x3300b51b	2.9967037e-08
10	0x32fce337	2.9439986e-08
11	0x32a3ef04	1.908439e-08
12	0x339bd2a7	7.2560674e-08
13	0x339842ea	7.090223e-08
14	0x32c571bf	2.2985544e-08
15	0x32261832	9.667973e-09
16	0x32390272	1.0768973e-08
17	0x31f0714b	6.9977992e-09

exp_avg f4 [7, 4]
0	0xba289127	-0.0006430321
1	0xba41c0da	-0.0007391103
2	0x3a378cf6	0.0007001901
3	0x3a3cf918	0.0007208749
4	0x394f9477	0.00019796366
5	0x39be1fd3	0.00036263335
6	0xb9825836	-0.00024861254
7	0xb9b4565d	-0.0003439662
8	0xba17c6d5	-0.0005789821
9	0xba4cdf1d	-0.0007815229
10	0x3a3f806c	0.0007305208
11	0x3a8c10df	0.001068618
12	0x39414ceb	0.00018434568
13	0x39306830	0.00016823481
14	0xb98de8cb	-0.0002706706
15	0xb9bafcd5	-0.0003566506
16	0x39da04bb	0.00041583725
17	0x3a2054d7	0.0006116158
18	0xba2fda0e	-0.0006708213
19	0xba3bd1dd	-0.0007164756
20	0xb80133d6	-3.0804273e-05
21	0xb8e33e1e	-0.00010835774
22	0xb782e94e	-1.5605849e-05
23	0x38868d40	6.415928e-05
24	0x38ed08e5	0.000113026974
25	0x3936dc74	0.00017438998
26	0xb919c670	-0.00014665141
27	0xb90130bb	-0.00012320552

exp_avg_sq f4 [7, 4]
0	0x3421a732	1.5055119e-07
1	0x3509afbb	5.12922e-07
2	0x358d69eb	1.0536145e-06
3	0x340d2e61	1.3148521e-07
4	0x3346405e	4.615901e-08
5	0x33aafd10	7.962274e-08
6	0x33987256	7.098849e-08
7	0x32ac0aff	2.0028436e-08
8	0x337ea393	5.9287753e-08
9	0x33d7a722	1.0042119e-07
10	0x346ee45d	2.2248555e-07
11	0x338d644a	6.5840666e-08
12	0x32aedd7d	2.0356987e-08
13	0x33695c20	5.4333327e-08
14	0x340cc96c	1.3111793e-07
15	0x32c6fd26	2.3165352e-08
16	0x33814f43	6.021448e-08
17	0x342e3e34	1.6227642e-07
18	0x34da96b8	4.0715327e-07
19	0x33decdaa	1.0375091e-07
20	0x32faf132	2.9213513e-08
21	0x338d500b	6.580384e-08
22	0x33db2dbb	1.02063005e-07
23	0x32481aa6	1.1647591e-08
24	0x32c66454	2.3095858e-08
25	0x33008c5e	2.9929986e-08
26	0x332ba619	3.9965105e-08
27	0x3226858a	9.692835e-09

exp_avg f4 [6, 3]
0	0x39833483	0.0002502539
1	0xb776da2b	-1.4713539e-05
2	0xb95ea1ea	-0.00021231888
3	0xb9043872	-0.00012609528
4	0x38c2216f	9.256868e-05
5	0x37095f3f	8.1880125e-06
6	0xb800dbdd	-3.072234e-05
7	0x39282cd9	0.00016038436
8	0x38811739	6.155525e-05
9	0xb92dcec2	-0.00016575589
10	0xb96e7cb9	-0.00022743912
11	0xb808cf04	-3.2617725e-05
12	0x37a01026	1.9081006e-05
13	0xb890daae	-6.907187e-05
14	0x38d403ae	0.00010109633
15	0xb8305a7e	-4.2045947e-05
16	0x3844ba18	4.6903355e-05
17	0xb81e9ca9	-3.7816037e-05

exp_avg_sq f4 [6, 3]
0	0x3360aef1	5.2313172e-08
1	0x32516eb4	1.2190572e-08
2	0x32f637a2	2.8663468e-08
3	0x312c4f23	2.5074278e-09
4	0x31072c21	1.967017e-09
5	0x2ff91aa4	4.5311765e-10
6	0x32cb3ae2	2.3659087e-08
7	0x32077412	7.884426e-09
8	0x3301f909	3.026165e-08
9	0x346c905b	2.2031729e-07
10	0x3396d36f	7.023379e-08
11	0x3380afad	5.99242e-08
12	0x32d82b5a	2.5165424e-08
13	0x31203cc3	2.3317603e-09
14	0x3105eeaf	1.9489723e-09
15	0x308b7c33	1.0148881e-09
16	0x2fa25b56	2.9532526e-10
17	0x2f93da54	2.6894276e-10

exp_avg f4 [6, 3]
0	0xb8adc658	-8.286227e-05
1	0xb885d416	-6.381438e-05
2	0x390d6032	0.00013482643
3	0x3992019a	0.00027848483
4	0x390244e7	0.00012423434
5	0x3976159d	0.0002346844
6	0x388e16c2	6.7753266e-05
7	0xb7d53eb7	-2.5420783e-05
8	0x39802094	0.00024438335
9	0xb5d02eed	-1.5510865e-06
10	0x37ea3bd0	2.7922826e-05
11	0xb999bbbf	-0.00029322316
12	0xb83e7e47	-4.5417135e-05
13	0x371d5295	9.377157e-06
14	0xb909d7aa	-0.00013145679
15	0xb775d49f	-1.4652643e-05
16	0x385c05d4	5.2457515e-05
17	0x37d61427	2.5520172e-05

exp_avg_sq f4 [6, 3]
0	0x32a265e8	1.8905624e-08
1	0x31a94412	4.926286e-09
2	0x32528be7	1.2255419e-08
3	0x33ae8388	8.126432e-08
4	0x32e30d65	2.643237e-08
5	0x341745d0	1.4088369e-07
6	0x31b9ed95	5.4112186e-09
7	0x3122e16d	2.3702242e-09
8	0x3203d652	7.673934e-09
9	0x3217f1e8	8.84436e-09
10	0x31c51018	5.7352842e-09
11	0x32a379ab	1.9031026e-08
12	0x30491f0b	7.316749e-10
13	0x2f11622a	1.3222548e-10
14	0x310aad87	2.0180282e-09
15	0x320c2afe	8.158848e-09
16	0x31f0b51d	7.0055095e-09
17	0x331150f2	3.3834063e-08

exp_avg f4 [4, 2]
0	0x39c796d9	0.00038068628
1	0x3937257b	0.00017466203
2	0xbaa19c88	-0.0012329975
3	0xb9f78bf5	-0.00047215787
4	0x3aa55b87	0.0012615778
5	0x3a108f41	0.00055145106
6	0xba23d054	-0.0006249
7	0xb9cf120a	-0.00039495557

exp_avg_sq f4 [4, 2]
0	0x3370a40d	5.6028558e-08
1	0x32fd833a	2.9512751e-08
2	0x343f2c02	1.7804271e-07
3	0x333d04d5	4.4009386e-08
4	0x34bbcf18	3.4982145e-07
5	0x33d57a13	9.9407906e-08
6	0x34700274	2.2352634e-07
7	0x331d6bd6	3.6652487e-08

exp_avg f4 [4, 2]
0	0x3808d235	3.2620697e-05
1	0xb8d5fe65	-0.00010204016
2	0xb89038f8	-6.877066e-05
3	0x3876aabc	5.880998e-05
4	0x3846704d	4.7311467e-05
5	0x3783367c	1.5641788e-05
6	0x3820bc91	3.832259e-05
7	0xb78e1f6c	-1.6942351e-05

exp_avg_sq f4 [4, 2]
0	0x33a04b32	7.4642585e-08
1	0x352cc09e	6.435529e-07
2	0x3140039f	2.7941736e-09
3	0x3193793d	4.2920463e-09
4	0x31721680	3.5228425e-09
5	0x34143ef1	1.3806472e-07
6	0x32c3db22	2.2800638e-08
7	0x35582fa9	8.0535625e-07

exp_avg f4 [5, 3]
0	0xb8c0984f	-9.183643e-05
1	0xb8f7bff3	-0.00011813631
2	0xb9105629	-0.00013765007
3	0xb8eb9908	-0.000112341775
4	0xb8e5cddc	-0.00010957915
5	0xb9a40097	-0.00031280957
6	0x39ab9c01	0.00032731894
7	0x393d6286	0.00018061147
8	0x399626b8	0.00028639077
9	0xb76ba930	-1.4046484e-05
10	0xb8e64bbd	-0.00010981362
11	0x37a98016	2.0206015e-05
12	0x394a812a	0.00019312339
13	0x3891dc1e	6.955139e-05
14	0xb80b80dd	-3.3260196e-05

exp_avg_sq f4 [5, 3]
0	0x31cc70e8	5.9500174e-09
1	0x3140a926	2.8035827e-09
2	0x31e9bf7a	6.802961e-09
3	0x33dfa690	1.0414544e-07
4	0x333a5eba	4.3392653e-08
5	0x32f5800a	2.857998e-08
6	0x343379f8	1.6715046e-07
7	0x33ae4983	8.115878e-08
8	0x3441e2fc	1.8057102e-07
9	0x32886a40	1.58808e-08
10	0x32bca0c9	2.1959197e-08
11	0x332684cd	3.877067e-08
12	0x335917f7	5.0546046e-08
13	0x32e506c9	2.6662194e-08
14	0x339e9d47	7.386057e-08

exp_avg f4 [3, 2]
0	0x39b32e79	0.00034176165
1	0xb8025144	-3.10701e-05
2	0x39204adb	0.00015286675
3	0x38aab1e9	8.13937e-05
4	0xb98d2946	-0.00026924367
5	0xb7ecdb91	-2.8235636e-05

exp_avg_sq f4 [3, 2]
0	0x339608c4	6.986514e-08
1	0x3483041a	2.4403636e-07
2	0x340d56bf	1.3163206e-07
3	0x34d6e386	4.002615e-07
4	0x330138bd	3.0086756e-08
5	0x348024bd	2.3868589e-07

exp_avg f4 [7, 4]
0	0x39d18d04	0.0003996865
1	0xb9d9577f	-0.00041454655
2	0xb97247b0	-0.00023105624
3	0x399ffb33	0.00030514
4	0x372ff809	1.0488563e-05
5	0xb91966ca	-0.00014629509
6	0xb93c7145	-0.00017971273
7	0xb8e576db	-0.000109417095
8	0x36bbd87d	5.598237e-06
9	0xb9a57ff1	-0.00031566576
10	0xb993d6ae	-0.00028197974
11	0xb92a2130	-0.00016224827
12	0xb952ab61	-0.00020091004
13	0x3a3cd3f8	0.00072032167
14	0x3a093ffb	0.0005235669
15	0xb87f16ac	-6.0817852e-05
16	0x37aebc78	2.0830179e-05
17	0xba1a26d5	-0.000588042
18	0xb9e1b404	-0.00043049466
19	0xb976b943	-0.00023529404
20	0x368d517a	4.2116126e-06
21	0xb86216fa	-5.3903997e-05
22	0xb8815d8b	-6.168623e-05
23	0x37c149e0	2.3041794e-05
24	0x381a8788	3.6842684e-05
25	0x39eaac14	0.00044760166
26	0x39d8d2d8	0.0004135582
27	0x395013dd	0.00019843825

exp_avg_sq f4 [7, 4]
0	0x349c234c	2.9082946e-07
1	0x355bd665	8.189584e-07
2	0x355cadb7	8.2209175e-07
3	0x346fbb05	2.2326647e-07
4	0x339cfdad	7.3104594e-08
5	0x3490caa3	2.6969528e-07
6	0x343c5137	1.753841e-07
7	0x33624feb	5.269241e-08
8	0x312422b5	2.388487e-09
9	0x3267cb23	1.3492158e-08
10	0x321f9c94	9.29062e-09
11	0x31a96198	4.9296425e-09
12	0x33dda81a	1.0321692e-07
13	0x34b57ca9	3.380458e-07
14	0x347b8e8d	2.3428056e-07
15	0x333912bf	4.309072e-08
16	0x32ae4c37	2.0290924e-08
17	0x33d844d9	1.0070807e-07
18	0x3379a24d	5.8122442e-08
19	0x32eec777	2.7797553e-08
20	0x31b41f2a	5.2422324e-09
21	0x327b6d25	1.46349395e-08
22	0x32699197	1.3595488e-08
23	0x312adabf	2.4862599e-09
24	0x33c408bd	9.128551e-08
25	0x3476fefb	2.3003297e-07
26	0x343dbd8f	1.7670958e-07
27	0x33809b12	5.9886716e-08

exp_avg f4 [6, 3]
0	0xb9738ec5	-0.00023227472
1	0xb8402e24	-4.581934e-05
2	0x392b82ec	0.00016356603
3	0xba273c4b	-0.0006379529
4	0xb8de148b	-0.00010589611
5	0x394ac5ea	0.0001933795
6	0xba8c26b7	-0.001069269
7	0xb990e76b	-0.0002763824
8	0x39c6cf29	0.0003791985
9	0x3a361cf8	0.00069470657
10	0xb77330d8	-1.4495301e-05
11	0xb934a5a4	-0.00017227844
12	0x3ae49d96	0.0017441984
13	0x3a06e9df	0.0005146544
14	0xba35da04	-0.0006937089
15	0xba3862e6	-0.000703378
16	0xb85902ae	-5.1739327e-05
17	0x3952d166	0.00020105168

exp_avg_sq f4 [6, 3]
0	0x32786cab	1.4460208e-08
1	0x320b9f0d	8.127029e-09
2	0x32586ba9	1.2597334e-08
3	0x338fef33	6.7024665e-08
4	0x331df781	3.6779515e-08
5	0x3277245c	1.4385559e-08
6	0x347c0dbf	2.347433e-07
7	0x346f9579	2.2312987e-07
8	0x33f12da6	1.12307404e-07
9	0x3425e7c7	1.5451143e-07
10	0x33e43a2f	1.0627661e-07
11	0x3389acc0	6.410983e-08
12	0x3511d2fc	5.432373e-07
13	0x3507bddf	5.056772e-07
14	0x34be8894	3.5489632e-07
15	0x3392690c	6.817763e-08
16	0x329d0e8a	1.8283817e-08
17	0x3284c29f	1.5455326e-08

exp_avg f4 [6, 3]
0	0xb8b75d5e	-8.743511e-05
1	0xb9fc82cb	-0.00048162634
2	0x3a296087	0.0006461222
3	0x354a6f6b	7.5413e-07
4	0xb892a9d5	-6.993456e-05
5	0x38b1ef1a	8.484554e-05
6	0x39287cec	0.00016068266
7	0xb9294f7d	-0.00016146708
8	0x39288fa4	0.00016075239
9	0x3888cea9	6.523479e-05
10	0xba2ae413	-0.0006518971
11	0x3a323277	0.0006797681
12	0xb7759d9c	-1.4639834e-05
13	0x3a4f1500	0.00078995526
14	0xba8be96f	-0.0010674427
15	0xb823af17	-3.9025294e-05
16	0x397c7a15	0.00024078072
17	0xb8fe448e	-0.00012124433

exp_avg_sq f4 [6, 3]
0	0x3498126f	2.8325618e-07
1	0x33b5b7d7	8.4619096e-08
2	0x353522c9	6.7478373e-07
3	0x32863769	1.562485e-08
4	0x317f1e5b	3.712464e-09
5	0x328fb0c7	1.672778e-08
6	0x3317afe7	3.531741e-08
7	0x3237d13a	1.0699575e-08
8	0x33ba0631	8.662426e-08
9	0x332a161b	3.9601314e-08
10	0x331ce1be	3.652689e-08
11	0x3458b30e	2.0181707e-07
12	0x33a6b29f	7.7624684e-08
13	0x3391e057	6.792896e-08
14	0x34bca793	3.5139655e-07
15	0x337779ab	5.7619825e-08
16	0x3317d747	3.535322e-08
17	0x33ea8b94	1.0921863e-07

exp_avg f4 [4, 2]
0	0x3a12d94d	0.00056018383
1	0xba34e560	-0.00069006346
2	0xb9a437d3	-0.0003132211
3	0x3925d048	0.00015813217
4	0xb9be9e8e	-0.00036357756
5	0x39329b46	0.00017033247
6	0xb9a2c400	-0.0003104508
7	0x39cf8b1b	0.00039585758

exp_avg_sq f4 [4, 2]
0	0x33caae6a	9.438084e-08
1	0x342c65fc	1.605585e-07
2	0x33968564	7.009183e-08
3	0x3404cf76	1.2368932e-07
4	0x32e26e07	2.6359897e-08
5	0x333511c7	4.2158515e-08
6	0x33a3efa4	7.6338694e-08
7	0x33c8d079	9.351147e-08

exp_avg f4 [4, 2]
0	0x36ccd2cd	6.104214e-06
1	0xb9275852	-0.00015959263
2	0x392d6374	0.00016535615
3	0xb970f56a	-0.00022979607
4	0xb8c4db92	-9.3869065e-05
5	0x395075e5	0.00019880345
6	0xb7ce230f	-2.4573439e-05
7	0x39af9314	0.00033488183

exp_avg_sq f4 [4, 2]
0	0x338ab72f	6.459447e-08
1	0x334d8208	4.7848545e-08
2	0x324fe737	1.2101558e-08
3	0x325c19d0	1.28115545e-08
4	0x31b8f66a	5.383119e-09
5	0x320a5c4e	8.053645e-09
6	0x3299e565	1.791586e-08
7	0x32e08bc5	2.6140592e-08

exp_avg f4 [8, 4]
0	0xb9b34d75	-0.0003419925
1	0x39e906bb	0.00044446238
2	0x391e1495	0.00015075722
3	0xb8d02a66	-9.92611e-05
4	0xb92343ed	-0.00015570196
5	0x3986add0	0.00025687972
6	0x38b2d85e	8.528003e-05
7	0xb86d09bd	-5.6514273e-05
8	0x3707779c	8.074476e-06
9	0xb8951557	-7.1088485e-05
10	0xb6d6231e	-6.381785e-06
11	0x38250620	3.934477e-05
12	0xb8f917ca	-0.00011877676
13	0x393577df	0.0001730616
14	0x3803bf1e	3.1410826e-05
15	0xb884296b	-6.301965e-05
16	0x3a6e68e4	0.00090946094
17	0xba910f0d	-0.0011067108
18	0xba02edd2	-0.00049945444
19	0x379d9e3b	1.878954e-05
20	0xb9291aec	-0.00016127125
21	0x38ebb125	0.00011238669
22	0x38000332	3.0520554e-05
23	0xb8847e4b	-6.3177744e-05
24	0xb9208901	-0.00015309827
25	0x3933b4a6	0.00017138067
26	0x390c836f	0.00013400403
27	0x37aa7948	2.0322055e-05
28	0xb97cbbc6	-0.00024102544
29	0x39c55ea8	0.00037645292
30	0x38f5ce44	0.0001172093
31	0x38381003	4.388393e-05

exp_avg_sq f4 [8, 4]
0	0x32136136	8.578629e-09
1	0x32a8d506	1.9654646e-08
2	0x3342f02f	4.538759e-08
3	0x320f8635	8.354211e-09
4	0x32061d97	7.8065545e-09
5	0x32fe43c0	2.96003e-08
6	0x33d8bce9	1.00926464e-07
7	0x31b4889c	5.25422e-09
8	0x308dbb2d	1.0312299e-09
9	0x31b262ae	5.1917004e-09
10	0x33516b05	4.8758938e-08
11	0x312b0cad	2.489098e-09
12	0x30844f74	9.626846e-10
13	0x31459294	2.8750593e-09
14	0x3200c964	7.4963715e-09
15	0x30e7083d	1.6809804e-09
16	0x340ced2f	1.3124803e-07
17	0x348888c9	2.5431498e-07
18	0x359ea6ed	1.1820499e-06
19	0x3356d4b8	5.0019224e-08
20	0x327e71ca	1.48106185e-08
21	0x330d6975	3.2925033e-08
22	0x34d777fe	4.0134177e-07
23	0x32f91963	2.899896e-08
24	0x3284a7a4	1.5443057e-08
25	0x330e4006	3.312018e-08
26	0x342b640b	1.5962011e-07
27	0x31d66897	6.24011e-09
28	0x32c4a5be	2.2892774e-08
29	0x33b2e67a	8.3306944e-08
30	0x34ae2fb2	3.2444729e-07
31	0x32a00deb	1.863278e-08

exp_avg f4 [64, 46]
0	0xb9c2a4b9	-0.0003712529
1	0xba04310e	-0.000504271
2	0x39a16252	0.00030781567
3	0x384442a4	4.6792105e-05
4	0x38894023	6.5446155e-05
5	0x3a4fe998	0.00079312315
6	0xb8c0932c	-9.182686e-05
7	0xba4b678f	-0.0007759267
8	0x39a285c4	0.0003099871
9	0x365200c0	3.1292875e-06
10	0x39865209	0.00025619593
11	0xb9ec2af8	-0.00045045442
12	0xb96d8565	-0.00022651775
13	0xb9c51e4c	-0.0003759734
14	0x3a62cc8a	0.00086516945
15	0x3990544c	0.00027528626
16	0x399fd633	0.00030486434
17	0x396b0a39	0.00022415155
18	0xb97c0114	-0.00024032994
19	0xba474ef5	-0.0007603013
20	0xb8bff33b	-9.152895e-05
21	0x39f3b76b	0.0004648523
22	0x3aacc4d9	0.0013181224
23	0xba7d1dae	-0.00096556067
24	0xb8876c80	-6.457511e-05
25	0x38dbd92a	0.00010483184
26	0x39a31edc	0.00031112775
27	0x39885278	0.00026001385
28	0xba0ea70b	-0.00054417615
29	0xb89fda4c	-7.622372e-05
30	0x39a552db	0.00031532985
31	0x39ed24d1	0.00045231593
32	0xb931a709	-0.00016942261
33	0x3a2094dc	0.00061256974
34	0x36a2f6e5	4.8567185e-06
35	0xb9b0ab97	-0.0003369718
36	0xb65c0a2e	-3.278848e-06
37	0x3ab83816	0.0014054801
38	0xb9ca28bc	-0.00038558792
39	0x38db8240	0.00010466995
40	0xb891413a	-6.926288e-05
41	0x3b8c28fe	0.0042773476
42	0x3c003a93	0.007826465
43	0x3b1245cc	0.0022319434
44	0xba486957	-0.00076450914
45	0x38ab8b46	8.179857e-05
46	0x00000000	0.0
47	0x00000000	0.0
48	0x00000000	0.0
49	0x00000000	0.0
50	0x00000000	0.0
51	0x00000000	0.0
52	0x00000000	0.0
53	0x00000000	0.0
54	0x00000000	0.0
55	0x00000000	0.0
56	0x00000000	0.0
57	0x00000000	0.0
58	0x00000000	0.0
59	0x00000000	0.0
60	0x00000000	0.0
61	0x00000000	0.0
62	0x00000000	0.0
63	0x00000000	0.0
64	0x00000000	0.0
65	0x00000000	0.0
66	0x00000000	0.0
67	0x00000000	0.0
68	0x00000000	0.0
69	0x00000000	0.0
70	0x00000000	0.0
71	0x00000000	0.0
72	0x00000000	0.0
73	0x00000000	0.0
74	0x00000000	0.0
75	0x00000000	0.0
76	0x00000000	0.0
77	0x00000000	0.0
78	0x00000000	0.0
79	0x00000000	0.0
80	0x00000000	0.0
81	0x00000000	0.0
82	0x00000000	0.0
83	0x00000000	0.0
84	0x00000000	0.0
85	0x00000000	0.0
86	0x00000000	0.0
87	0x00000000	0.0
88	0x00000000	0.0
89	0x00000000	0.0
90	0x00000000	0.0
91	0x00000000	0.0
92	0x394bad60	0.00019424176
93	0xba091ff0	-0.00052308943
94	0xba0c1bff	-0.0005344748
95	0xb8b6fa10	-8.725014e-05
96	0xba781ad6	-0.0009464448
97	0x3ac2bee9	0.0014857921
98	0xba78fa6a	-0.0009497764
99	0xbab521fe	-0.0013819335
100	0x3a044847	0.00050461706
101	0xb9fea557	-0.00048569843
102	0xbaafe887	-0.0013420739
103	0x390ee6e0	0.00013628183
104	0xb9882825	-0.0002596985
105	0xba201cf7	-0.0006107832
106	0x3a9d0011	0.0011978169
107	0x3995ed68	0.00028596376
108	0x39ecb42f	0.00045147675
109	0x3a5fdb9f	0.0008539501
110	0xbab29fad	-0.0013627909
111	0xbb21b6bd	-0.002467557
112	0xb9016fa0	-0.00012343982
113	0x3b67702b	0.003531466
114	0x3acaf6e1	0.0015484953
115	0x3a429f3d	0.0007424241
116	0xba8aa7f8	-0.0010578623
117	0x3a29679a	0.0006462276
118	0x3aca98e9	0.0015456948
119	0x3ade771e	0.0016972756
120	0xbafd9239	-0.0019345946
121	0x3a46fe24	0.00075909705
122	0x3a881873	0.0010383263
123	0x3a4bc11c	0.0007772611
124	0xba4751b7	-0.0007603424
125	0x3a98f0c7	0.0011668437
126	0x3a19c620	0.000586601
127	0xbb928d06	-0.0044723777
128	0xbad99daa	-0.0016602774
129	0x3b75ee33	0.003752601
130	0xbab74dbb	-0.0013984957
131	0x39ae1e0f	0.00033210262
132	0xba393551	-0.00070651347
133	0xbae4592e	-0.0017421597
134	0xbba4e61b	-0.0050323135
135	0xba99211c	-0.0011682841
136	0xbae5544a	-0.0017496434
137	0x379b5b70	1.8520019e-05
138	0xb7501eb9	-1.2404919e-05
139	0xb6feb789	-7.591156e-06
140	0x37910bad	1.7290784e-05
141	0xb63b543d	-2.7914205e-06
142	0xb821039f	-3.8388764e-05
143	0x37cfa4f7	2.475314e-05
144	0xb7df41e9	-2.6614363e-05
145	0x3680ba1b	3.836363e-06
146	0x379ddec3	1.881959e-05
147	0x377ff912	1.5257176e-05
148	0xb7c5e93f	-2.3592844e-05
149	0xb7877e75	-1.615214e-05
150	0xb6129c81	-2.1846793e-06
151	0xb708eca3	-8.161328e-06
152	0xb70b63a3	-8.308244e-06
153	0x36cef0ca	6.16731e-06
154	0x380b36cf	3.3191227e-05
155	0x381e4bfa	3.7740894e-05
156	0xb6ea8f40	-6.99042e-06
157	0xb723e657	-9.769187e-06
158	0x35ff4c95	1.9021269e-06
159	0x3897ba84	7.234982e-05
160	0x37df0d1f	2.6589782e-05
161	0x38327277	4.254511e-05
162	0x364c7ab5	3.0469794e-06
163	0xb7539cce	-1.2613089e-05
164	0xb751acf7	-1.2497642e-05
165	0x367a50e6	3.7299992e-06
166	0xb76cbe35	-1.4110982e-05
167	0x376b24ec	1.4015688e-05
168	0x38170af5	3.601141e-05
169	0x37366b76	1.0873066e-05
170	0x37695d6d	1.3909635e-05
171	0xb7073fe2	-8.061501e-06
172	0xb62f93e7	-2.6163123e-06
173	0xb8922306	-6.968346e-05
174	0xb839e164	-4.431735e-05
175	0xb6d76cac	-6.4201504e-06
176	0x3718f4f1	9.116936e-06
177	0x350669e6	5.007299e-07
178	0x351507af	5.5518007e-07
179	0x38ea49e1	0.000111717505
180	0x396b4dfb	0.00022440396
181	0x389c5e32	7.456205e-05
182	0xb7b3477f	-2.1371756e-05
183	0x34908d95	2.6925105e-07
184	0x00000000	0.0
185	0x00000000	0.0
186	0x00000000	0.0
187	0x00000000	0.0
188	0x00000000	0.0
189	0x00000000	0.0
190	0x00000000	0.0
191	0x00000000	0.0
192	0x00000000	0.0
193	0x00000000	0.0
194	0x00000000	0.0
195	0x00000000	0.0
196	0x00000000	0.0
197	0x00000000	0.0
198	0x00000000	0.0
199	0x00000000	0.0
200	0x00000000	0.0
201	0x00000000	0.0
202	0x00000000	0.0
203	0x00000000	0.0
204	0x00000000	0.0
205	0x00000000	0.0
206	0x00000000	0.0
207	0x00000000	0.0
208	0x00000000	0.0
209	0x00000000	0.0
210	0x00000000	0.0
211	0x00000000	0.0
212	0x00000000	0.0
213	0x00000000	0.0
214	0x00000000	0.0
215	0x00000000	0.0
216	0x00000000	0.0
217	0x00000000	0.0
218	0x00000000	0.0
219	0x00000000	0.0
220	0x00000000	0.0
221	0x00000000	0.0
222	0x00000000	0.0
223	0x00000000	0.0
224	0x00000000	0.0
225	0x00000000	0.0
226	0x00000000	0.0
227	0x00000000	0.0
228	0x00000000	0.0
229	0x00000000	0.0
230	0x39bad744	0.0003563707
231	0x39a9a838	0.00032359525
232	0xb987dfce	-0.00025915954
233	0x39d8f69b	0.00041382466
234	0xb9742919	-0.00023284963
235	0xb9a5f6ea	-0.00031655218
236	0x397de1fe	0.00024212149
237	0xb8a0e143	-7.671353e-05
238	0xb9c537f4	-0.00037616456
239	0x38f69c65	0.00011759325
240	0x362116f5	2.4004232e-06
241	0x390f4c55	0.00013665979
242	0x392ac970	0.00016287505
243	0x399b8717	0.00029664554
244	0xb9ef7cf9	-0.00045678744
245	0xb90d6860	-0.0001348569
246	0xb97edbfa	-0.00024305275
247	0xb850928d	-4.972755e-05
248	0x3a2f83f0	0.00066953804
249	0x3a447f33	0.0007495761
250	0xb90cdeb2	-0.00013434401
251	0xb9d8fba0	-0.00041386206
252	0xb9cc1f4b	-0.00038933227
253	0x3a5e3703	0.00084768253
254	0xb5161e0c	-5.592308e-07
255	0xb98c22b9	-0.0002672875

exp_avg_sq f4 [64, 46]
0	0x363183b9	2.6451728e-06
1	0x3382968c	6.080981e-08
2	0x344999e7	1.8775573e-07
3	0x33e04f04	1.0445186e-07
4	0x345b87b0	2.0445327e-07
5	0x340c4e17	1.3066925e-07
6	0x34ca3036	3.766051e-07
7	0x349a3a18	2.8727004e-07
8	0x35861a0d	9.99136e-07
9	0x3338fe27	4.307199e-08
10	0x35629f4d	8.4423374e-07
11	0x3580a102	9.583603e-07
12	0x356f550a	8.9158186e-07
13	0x3467ddba	2.1594215e-07
14	0x353045b3	6.5666535e-07
15	0x34253cfa	1.5389006e-07
16	0x34ec8dfb	4.406173e-07
17	0x33957e63	6.961343e-08
18	0x35069e66	5.014939e-07
19	0x35a9b380	1.2643723e-06
20	0x342d6ff6	1.6152612e-07
21	0x3502a1c2	4.866416e-07
22	0x359162ad	1.083206e-06
23	0x35f35cd6	1.813193e-06
24	0x34e8eae2	4.3384267e-07
25	0x33a04a61	7.46411e-08
26	0x34eaefc5	4.3760352e-07
27	0x34cf0c98	3.8565918e-07
28	0x353b345e	6.9739133e-07
29	0x350ae024	5.1735174e-07
30	0x33f8deab	1.1588903e-07
31	0x336c3c6d	5.500299e-08
32	0x33d9ee50	1.0148199e-07
33	0x34aeee58	3.2583443e-07
34	0x3442e188	1.8149706e-07
35	0x359d9ce2	1.174307e-06
36	0x34554a83	1.9864278e-07
37	0x35941e71	1.1035719e-06
38	0x350f2ccd	5.3336845e-07
39	0x33c9b37a	9.3924385e-08
40	0x33a0b44c	7.4833764e-08
41	0x398e1240	0.00027097948
42	0x3a694361	0.0008898285
43	0x38c63079	9.4504045e-05
44	0x3497d74f	2.82826e-07
45	0x337f9112	5.9503755e-08
46	0x00000000	0.0
47	0x00000000	0.0
48	0x00000000	0.0
49	0x00000000	0.0
50	0x00000000	0.0
51	0x00000000	0.0
52	0x00000000	0.0
53	0x00000000	0.0
54	0x00000000	0.0
55	0x00000000	0.0
56	0x00000000	0.0
57	0x00000000	0.0
58	0x00000000	0.0
59	0x00000000	0.0
60	0x00000000	0.0
61	0x00000000	0.0
62	0x00000000	0.0
63	0x00000000	0.0
64	0x00000000	0.0
65	0x00000000	0.0
66	0x00000000	0.0
67	0x00000000	0.0
68	0x00000000	0.0
69	0x00000000	0.0
70	0x00000000	0.0
71	0x00000000	0.0
72	0x00000000	0.0
73	0x00000000	0.0
74	0x00000000	0.0
75	0x00000000	0.0
76	0x00000000	0.0
77	0x00000000	0.0
78	0x00000000	0.0
79	0x00000000	0.0
80	0x00000000	0.0
81	0x00000000	0.0
82	0x00000000	0.0
83	0x00000000	0.0
84	0x00000000	0.0
85	0x00000000	0.0
86	0x00000000	0.0
87	0x00000000	0.0
88	0x00000000	0.0
89	0x00000000	0.0
90	0x00000000	0.0
91	0x00000000	0.0
92	0x36726240	3.6118e-06
93	0x341d7ad7	1.4666453e-07
94	0x34d24653	3.9166716e-07
95	0x34ff5d27	4.7565229e-07
96	0x34878f79	2.52501e-07
97	0x351e55d0	5.898446e-07
98	0x34f4d966	4.560672e-07
99	0x34824df7	2.4271114e-07
100	0x35a4b0fc	1.2270461e-06
101	0x3464a399	2.1293671e-07
102	0x35e75640	1.7235943e-06
103	0x35d4806b	1.5832605e-06
104	0x35fe23dd	1.8934912e-06
105	0x349314e2	2.7396078e-07
106	0x35084431	5.076318e-07
107	0x34ab8bd1	3.1952962e-07
108	0x3507c4a8	5.057759e-07
109	0x346e655b	2.220235e-07
110	0x353de347	7.073872e-07
111	0x35b87e7a	1.3745878e-06
112	0x34a1fe77	3.0173734e-07
113	0x3608c57f	2.0380537e-06
114	0x358c52b3	1.0454881e-06
115	0x3601d6c0	1.93475e-06
116	0x3500e4de	4.801676e-07
117	0x349a2042	2.8708206e-07
118	0x35388b48	6.874802e-07
119	0x3593e285	1.1018279e-06
120	0x35909881	1.077322e-06
121	0x35139df4	5.499162e-07
122	0x3488e294	2.549683e-07
123	0x340477fb	1.2337107e-07
124	0x347dc1fd	2.3633034e-07
125	0x34f98468	4.6476202e-07
126	0x34ae4236	3.24582e-07
127	0x360b23e7	2.0733512e-06
128	0x355ff447	8.3429444e-07
129	0x36211082	2.4000478e-06
130	0x359c2fa9	1.1636777e-06
131	0x349f15d5	2.9631943e-07
132	0x33ed16f0	1.1040345e-07
133	0x39b32289	0.0003416727
134	0x3a8157de	0.0009868105
135	0x390789c4	0.00012925925
136	0x350d83b3	5.271824e-07
137	0x33a5020c	7.6837836e-08
138	0x334e653b	4.805518e-08
139	0x31c5ce8f	5.7569376e-09
140	0x3306d2e3	3.1391107e-08
141	0x30e9a599	1.7000047e-09
142	0x31088166	1.986416e-09
143	0x319d708d	4.582097e-09
144	0x311ad79b	2.2532507e-09
145	0x315daab4	3.2256766e-09
146	0x31b9d66d	5.408586e-09
147	0x31cf5e46	6.0352106e-09
148	0x326cf3d5	1.3792449e-08
149	0x335622cb	4.98574e-08
150	0x31bfc4de	5.581213e-09
151	0x3217712c	8.815089e-09
152	0x32934cb3	1.7147931e-08
153	0x324fae51	1.2088621e-08
154	0x32b02798	2.0507102e-08
155	0x31485d74	2.9156952e-09
156	0x3275ee66	1.43150825e-08
157	0x32e5ee38	2.6767438e-08
158	0x30caaa0f	1.4745768e-09
159	0x332ba204	3.9961392e-08
160	0x3201e028	7.5597555e-09
161	0x320eece7	8.319353e-09
162	0x32374c8a	1.0669405e-08
163	0x31a4d8f8	4.7976947e-09
164	0x32931dd2	1.7126613e-08
165	0x31ece957	6.8950317e-09
166	0x32559e61	1.2434243e-08
167	0x31c08bcf	5.60383e-09
168	0x32356dc1	1.0560542e-08
169	0x30afdf41	1.2796378e-09
170	0x32065335	7.818746e-09
171	0x31d23ae4	6.1184995e-09
172	0x3219a589	8.9434105e-09
173	0x324c509b	1.189269e-08
174	0x3205b40b	7.782556e-09
175	0x325a310e	1.2700424e-08
176	0x32a84f3e	1.959381e-08
177	0x30862c98	9.762458e-10
178	0x3071e075	8.799426e-10
179	0x367dc493	3.781436e-06
180	0x3788f76c	1.6327678e-05
181	0x35e594a2	1.7105087e-06
182	0x312a6974	2.47982e-09
183	0x30be49dc	1.3845312e-09
184	0x00000000	0.0
185	0x00000000	0.0
186	0x00000000	0.0
187	0x00000000	0.0
188	0x00000000	0.0
189	0x00000000	0.0
190	0x00000000	0.0
191	0x00000000	0.0
192	0x00000000	0.0
193	0x00000000	0.0
194	0x00000000	0.0
195	0x00000000	0.0
196	0x00000000	0.0
197	0x00000000	0.0
198	0x00000000	0.0
199	0x00000000	0.0
200	0x00000000	0.0
201	0x00000000	0.0
202	0x00000000	0.0
203	0x00000000	0.0
204	0x00000000	0.0
205	0x00000000	0.0
206	0x00000000	0.0
207	0x00000000	0.0
208	0x00000000	0.0
209	0x00000000	0.0
210	0x00000000	0.0
211	0x00000000	0.0
212	0x00000000	0.0
213	0x00000000	0.0
214	0x00000000	0.0
215	0x00000000	0.0
216	0x00000000	0.0
217	0x00000000	0.0
218	0x00000000	0.0
219	0x00000000	0.0
220	0x00000000	0.0
221	0x00000000	0.0
222	0x00000000	0.0
223	0x00000000	0.0
224	0x00000000	0.0
225	0x00000000	0.0
226	0x00000000	0.0
227	0x00000000	0.0
228	0x00000000	0.0
229	0x00000000	0.0
230	0x369a35a0	4.5958004e-06
231	0x33b3fc57	8.3812374e-08
232	0x35013373	4.8131113e-07
233	0x33c0e1bc	8.9817576e-08
234	0x33c21624	9.037856e-08
235	0x34353ac2	1.6878315e-07
236	0x350793c6	5.050646e-07
237	0x340c44bd	1.3063523e-07
238	0x358f0d63	1.0658226e-06
239	0x340c0a08	1.3042165e-07
240	0x3605c3cd	1.9932515e-06
241	0x358f39fa	1.0671204e-06
242	0x35b61885	1.3567193e-06
243	0x3458df99	2.0197912e-07
244	0x3487feca	2.5331093e-07
245	0x34b504a6	3.371726e-07
246	0x35584dd0	8.05795e-07
247	0x33cd4f38	9.560466e-08
248	0x3583c3ae	9.817211e-07
249	0x35b5efbb	1.3555322e-06
250	0x33c0aee9	8.972513e-08
251	0x351f89bc	5.9432546e-07
252	0x35786e1d	9.2547435e-07
253	0x352f2e82	6.526026e-07
254	0x346671dc	2.1461841e-07
255	0x3451cda6	1.9539456e-07

exp_avg f4 [64]
0	0x396a0944	0.0002231943
1	0x00000000	0.0
2	0xb8f501cb	-0.00011682844
3	0x36fa304d	7.4562035e-06
4	0x00000000	0.0
5	0xb960bd55	-0.00021432836
6	0x3892cd33	7.000044e-05
7	0xba74b8ce	-0.00093353994
8	0x395eb242	0.00021237976
9	0x38ae60ab	8.3149724e-05
10	0x39ae0954	0.00033194816
11	0x00000000	0.0
12	0x3a05c365	0.00051026634
13	0x00000000	0.0
14	0x00000000	0.0
15	0x38da591b	0.00010411647
16	0x00000000	0.0
17	0x00000000	0.0
18	0x39819eee	0.0002472321
19	0x00000000	0.0
20	0x3808c08e	3.2604257e-05
21	0xb9e94b77	-0.0004449745
22	0x00000000	0.0
23	0x39bad6e5	0.00035636793
24	0x00000000	0.0
25	0x355a2b27	8.1274123e-07
26	0x39575608	0.00020536047
27	0xb87d334b	-6.036767e-05
28	0x00000000	0.0
29	0x00000000	0.0
30	0x3835122c	4.3170687e-05
31	0x3933fc22	0.00017164697
32	0x00000000	0.0
33	0xb8e14d2f	-0.000107432126
34	0x00000000	0.0
35	0x00000000	0.0
36	0x39ad833c	0.0003309491
37	0x398d60dd	0.00026965784
38	0x37e79410	2.7606293e-05
39	0x00000000	0.0
40	0x387d1162	6.033609e-05
41	0x00000000	0.0
42	0x38b169f9	8.459757e-05
43	0x00000000	0.0
44	0x33125939	3.407442e-08
45	0x399d21c7	0.0002997054
46	0xba127f8d	-0.00055884646
47	0xb792bb76	-1.749185e-05
48	0x00000000	0.0
49	0x398ac670	0.0002646926
50	0xb779fd4b	-1.4900531e-05
51	0x00000000	0.0
52	0x39b1874d	0.00033860878
53	0x39980d02	0.0002900139
54	0x36b5eecc	5.42202e-06
55	0x39db2746	0.00041800196
56	0x3882d8d1	6.239268e-05
57	0x398fade3	0.0002740464
58	0x39a1c5f0	0.00030855788
59	0xb81f2b7b	-3.794905e-05
60	0x00000000	0.0
61	0xb8e906f4	-0.00011111601
62	0x00000000	0.0
63	0x00000000	0.0
