model_Adam_128Relu.pth (torch, 216258 bytes, 57 tensors)

embeddings.0.weight f4 [7, 4]
000000 52 ca c9 bf 4e 74 0c c0 67 9c f7 bc 0b f1 8e be
       -1.5764868 -2.1945987 -0.030225946 -0.27918276
000010 c2 38 ab bd 91 53 27 bf f5 1e 8e 3f 09 d1 17 bf
       -0.08360435 -0.6536189 1.1103197 -0.5930334
000020 af 56 c5 bf 51 dd c9 3e 9d d4 28 3f dd 42 04 3f
       -1.5417079 0.39426664 0.6594942 0.51664525
000030 ac 34 91 bf 71 d3 4a 3f 99 bd 72 3d c0 61 82 bf
       -1.1344199 0.79228884 0.059262846 -1.0186081
000040 41 08 97 bf 43 27 18 3f 2a b2 a8 3c 34 cf a4 bf
       -1.1799394 0.5943491 0.020592768 -1.2875733
000050 4f ec f7 be eb 65 c1 3e 07 1f 42 3f 34 47 57 bf
       -0.48422477 0.3777307 0.75828594 -0.8409302
000060 9f 6d c1 bf d0 d0 2a bf 76 22 8f be 50 c5 33 bf
       -1.5111579 -0.6672487 -0.2795598 -0.7022295

embeddings.1.weight f4 [7, 4]
000000 93 ce 85 bf 04 bf 8f 3f 46 e3 d9 3f 73 23 c0 3f
       -1.0453666 1.1230168 1.7022483 1.5010818
000010 21 fe 92 3e a3 ae b5 bf 46 74 13 3e 47 24 bb 3f
       0.2870951 -1.419392 0.14399824 1.4620446
000020 b0 a7 b3 3e f0 84 ec 3f b0 46 e7 3f 83 0d 49 3f
       0.35088873 1.8478069 1.8068447 0.7853624
000030 1f ca 61 bf ae 6f 9b 3f da fa e2 3e 28 d2 4e 3f
       -0.8819904 1.2143457 0.4433201 0.80789423
000040 c5 ed 2d be 45 ce a1 be cb 6d 97 bf b2 e0 2d 3f
       -0.16985233 -0.31602684 -1.1830381 0.6792098
000050 b3 a1 13 3e b5 5f 2b 40 a4 c4 b2 3e fe 89 f6 be
       0.14417152 2.6777165 0.3491565 -0.48152155
000060 ae e0 a1 3f 9d 76 f8 3f a5 93 5b 3f 32 2c e0 3f
       1.2646692 1.9411198 0.8577216 1.7513487

embeddings.2.weight f4 [6, 3]
000000 6f db ca bf 5b 4d a2 3f 60 a4 df 3d 17 99 ac 3e
       -1.5848216 1.2679857 0.10920024 0.33710548
000010 62 9c 11 bf 43 1a c5 be f0 dc 08 bf bd b1 19 bf
       -0.56879246 -0.384966 -0.53462124 -0.6003683
000020 b9 a5 c7 bf 75 54 6c 3f 06 69 03 3f 24 ec 17 3f
       -1.559745 0.9231637 0.5133213 0.59344697
000030 6b 0c 2c 3f b4 da 73 bf 58 4d 27 bf 40 86 44 bf
       0.6720645 -0.9525559 -0.6535239 -0.7676735
000040 de a7 80 bf ce 7b bd 3f
       -1.0051229 1.4803407

embeddings.3.weight f4 [6, 3]
000000 2f 77 e2 3f 21 f6 d9 3d 9d bd 31 3d 21 3c cb be
       1.7692622 0.106426485 0.04339372 -0.39694312
000010 6c 24 8e 3d 3b d4 ad be aa 2a 18 3f c6 b0 4c bd
       0.06940541 -0.33950981 0.594401 -0.04997327
000020 75 8c 7e bf 60 5a c0 bf 11 18 87 be 5a 66 34 bf
       -0.9943307 -1.502758 -0.2638555 -0.70468676
000030 e0 71 4f 3f 84 54 9e 3f 81 65 7f bf ab 4f 39 be
       0.81033134 1.2369542 -0.9976426 -0.18096797
000040 52 9b 9f 3f 2c 95 28 3e
       1.2469275 0.16463155

embeddings.4.weight f4 [4, 2]
000000 71 9d 16 bf 13 61 50 3e a6 96 30 bf 3d 5d 9f bd
       -0.58833987 0.20349531 -0.6897987 -0.07781456
000010 cf c3 0e 40 d2 57 11 c0 fb 80 82 3f 4c 86 45 40
       2.2307012 -2.2709851 1.0195612 3.0863218

embeddings.5.weight f4 [8, 4]
000000 21 9b d1 3e 2d 97 e3 3e ed 1d 16 3f d0 1a 02 40
       0.40938666 0.44451275 0.58639413 2.0328865
000010 8c 74 a0 be 97 6b c6 3f a7 16 cf 3e b4 7f a0 bf
       -0.31338918 1.5501584 0.4044697 -1.2538972
000020 09 5c fe be 2e 8b a1 3f 21 c3 32 3f 88 84 20 3f
       -0.49679592 1.2620599 0.69828993 0.62702227
000030 93 af d7 bf f7 ec 32 c0 cd 5f 8a bd b9 83 55 3f
       -1.6850456 -2.7957132 -0.06756554 0.8340412
000040 3a ca 7e bf bb 3b 1b 3f 45 a2 df bf d8 00 55 3d
       -0.99527323 0.60638016 -1.7471396 0.052002758
000050 bd 56 08 bf c0 c0 a4 3f e2 27 2c 3f 7d 01 32 3e
       -0.5325735 1.2871323 0.67248356 0.1738338
000060 16 0c 6a bf 4a e9 fd 3f ce b5 bf 3e 21 0d 81 bf
       -0.9142469 1.9836819 0.37443393 -1.0082132
000070 5d 8e 8d bd 34 5e f8 3e f1 9c c6 3f 5e d3 89 be
       -0.06911919 0.4850937 1.5516645 -0.26919073

embeddings.6.weight f4 [3, 2]
000000 f1 2e 69 bf 42 13 34 3f e1 3b 30 3f 57 92 cd 3f
       -0.9108725 0.70341885 0.6884137 1.6060284
000010 48 67 36 3e 7c 92 a7 3f
       0.17812836 1.3091578

embeddings.7.weight f4 [7, 4]
000000 36 00 37 3f 25 06 a6 3f 6b 3d f1 3e ff 75 21 40
       0.71484697 1.2970625 0.4711717 2.522827
000010 81 e9 8a 3f 46 60 92 3f f1 4f 01 bf de 15 31 bf
       1.085251 1.143563 -0.50512606 -0.6917399
000020 0d c3 09 be 83 dc d1 3e 53 ad 14 3f f7 dc 2d 3f
       -0.13453312 0.4098855 0.5807697 0.6791529
000030 12 0a 17 3f 4e 3a 32 3e 8e 13 07 3e 56 c6 34 be
       0.5899974 0.17405054 0.13191053 -0.17653784
000040 b5 ed 84 bf b8 d6 5c 3f 5b d6 4b bf 52 f7 15 3f
       -1.0385042 0.86265135 -0.79623955 0.58580506
000050 35 8b 66 be d1 b3 7f 3f cb d5 03 bf 61 92 e6 3f
       -0.22514041 0.99883753 -0.514981 1.8013421
000060 7f 91 22 bf 96 64 0d 3f db 46 b6 3f 09 ec ad be
       -0.6350326 0.55231607 1.4240373 -0.33969143

embeddings.8.weight f4 [6, 3]
000000 32 38 8b 3e c6 2f 22 3f a9 61 4d bf f2 30 14 3f
       0.2719131 0.63354146 -0.8022714 0.57887185
000010 ff 05 14 bf a5 d3 d9 bf 94 3b e1 be 55 08 67 3e
       -0.5782165 -1.7017714 -0.43990767 0.22561772
000020 f1 cc b8 bf ed 1b 90 be dd 93 8d 3e 16 46 97 bf
       -1.4437543 -0.28146306 0.27651873 -1.1818264
000030 28 e3 a2 bf 01 7e 26 3f 38 57 84 bf 94 25 05 40
       -1.2725573 0.65036017 -1.0339117 2.0804186
000040 03 3d ee 3e 56 49 99 bf
       0.46530923 -1.1975505

embeddings.9.weight f4 [6, 3]
000000 25 70 d5 bf 82 fe 36 bf 27 d0 66 be 9e c8 92 3d
       -1.6674849 -0.714821 -0.22540341 0.07167171
000010 43 55 ba bf f8 12 57 be 7d f4 9b 3f 38 bc e2 be
       -1.455727 -0.2100333 1.2183987 -0.44284225
000020 94 ee 25 bf 6f 65 be 3f de fc e3 be 01 2c 6b bf
       -0.64817166 1.4874705 -0.4452886 -0.9186402
000030 ba fb d4 bf ec 8e ed 3f f8 91 f8 bd ea bd 00 bf
       -1.6639321 1.8559241 -0.12137216 -0.50289786
000040 e0 05 81 bf 77 c3 06 bf
       -1.0079918 -0.52642006

embeddings.10.weight f4 [4, 2]
000000 b2 89 b3 3e 12 0a 8c 3e 68 52 e9 3f b9 69 ee bd
       0.3506599 0.27351433 1.8228273 -0.11641259
000010 9e eb ff be 6c ed ad 3e d1 46 61 bf cc d6 8d bf
       -0.4998445 0.339702 -0.8799868 -1.1081176

embeddings.11.weight f4 [5, 3]
000000 20 f5 da 3e 7d eb fd 3f 22 16 e5 bd 2b be d8 3d
       0.4276514 1.983749 -0.11185862 0.10583147
000010 c3 7c 54 3e 04 9a 07 be 4c cf c1 bf b2 e2 2f bf
       0.20750718 -0.13242346 -1.5141387 -0.68705285
000020 98 ca 8b 3f 23 2d b1 3f 9b 09 ee be df 96 a5 bf
       1.0921202 1.38419 -0.46491703 -1.2936667
000030 ee b7 ed be 29 ab f5 3d 0f d1 d2 3f
       -0.4642939 0.11995537 1.647005

model.0.weight f4 [128, 42]
000000 1e 48 b1 bc 7c cc f2 bd 75 9e ca be 37 bc 9b be
       -0.021640833 -0.118554085 -0.39574018 -0.30417034
000010 c7 7c 74 3d 51 31 c5 3d f1 e6 17 bd e0 36 75 3e
       0.05968931 0.09628547 -0.037085477 0.23946714
000020 fa 00 7f bc 66 d8 f7 ba 58 1b 77 3e ed 92 cf bc
       -0.015564198 -0.0018909096 0.24131525 -0.025338614
000030 a5 d3 b5 3e 7c 59 9f be 2f 9b 1f 3d 92 dc 82 be
       0.35513034 -0.3112296 0.038966354 -0.25558907
000040 9d 9d 09 3d 9b 27 46 be 02 a6 16 3d 0c 92 84 bd
       0.033597577 -0.19351046 0.03677941 -0.06473169
000050 54 48 90 3e 3a 0d b4 bd c6 ce 5e 3c d5 cc 0e be
       0.28180182 -0.08791585 0.013599103 -0.13945325
000060 d6 a3 a3 be ea 63 de bd 33 93 11 3e 86 90 00 bc
       -0.31960934 -0.10858901 0.14216308 -0.007846957
000070 39 3a 6c 3e 7c d4 e4 bd 71 db 13 be 6c 7c 5b 3d
       0.23069085 -0.11173341 -0.14439179 0.053585455
000080 75 ab df be fc b2 e9 3c ba 46 a6 3c ea 41 8e 3e
       -0.436855 0.02852773 0.020297397 0.27784663
000090 34 03 4b 3e ca 9f 9a 3d 2e fd 82 3b 4d 4a 46 bd
       0.1982544 0.075500086 0.0039974665 -0.048410702
0000a0 0e 5b 0a be ba e1 3a be 8b 91 27 be 3b 37 8a 3d
       -0.13511297 -0.1825017 -0.16364114 0.067488156
0000b0 83 41 20 be 56 9b 97 be be ff 87 3d 55 58 0f be
       -0.1564999 -0.296107 0.06640576 -0.1399854
0000c0 1c c0 1c bf de ff 32 be 68 8e bd 3c 4d 08 29 be
       -0.61230636 -0.17480418 0.023139194 -0.16507073
0000d0 7b b9 29 3e d2 38 d4 bd 16 9e 7b be a8 39 bf 3e
       0.16574661 -0.103624 -0.24572024 0.37348676
0000e0 af 7a 7b 3d 4b 23 94 bd b6 7e c1 bd 43 dd 35 3e
       0.061396297 -0.07233294 -0.09447996 0.17760186
0000f0 b3 00 55 be a9 ff f3 bd 01 de 36 be 86 c4 7a 3d
       -0.20801048 -0.11913998 -0.17858125 0.061222576
000100 18 da b2 be 69 4c 65 bd 8e 46 5e be 1c fa 88 bd
       -0.34932017 -0.055981074 -0.21706602 -0.066883296
000110 46 3a 20 be 93 cf d0 3a 5e ba eb bc 60 3e 86 3c
       -0.1564723 0.0015931003 -0.02877539 0.016387165
000120 d6 29 d0 3d 0e ae 62 3e aa 76 07 3e 31 d7 fc 3d
       0.101642296 0.22136709 0.1322886 0.12345732
000130 17 87 19 bd df 95 cf be f0 c4 8d 3d b6 86 0a be
       -0.037482347 -0.4054403 0.069223285 -0.1352795
000140 d2 52 8e 3a df b5 8e bd 24 25 03 3d a5 9f 71 3d
       0.0010858423 -0.06968283 0.032017842 0.05899014
000150 77 f4 fa bd f8 56 18 3e 71 79 fe ba 64 d2 8e 3c
       -0.12253659 0.14876926 -0.0019414854 0.017434306
000160 fa b0 88 3d 2c 91 91 3d e5 47 ad bc 71 46 9b 3c
       0.066743806 0.071077675 -0.021152446 0.018954488
000170 48 a3 25 3e a7 2b 15 3e 07 87 71 bc 3e 24 8c 3d
       0.16175568 0.14567433 -0.014741666 0.0684285
000180 71 6e 7f 3c b9 9f 5f 3d f7 da 37 3d 6e 2e d9 3d
       0.015590296 0.054595683 0.044886556 0.10604559
000190 79 f7 73 be 3e ba 20 3e 14 8d a4 bd 19 54 bb bd
       -0.23824872 0.15696046 -0.08034721 -0.091469
0001a0 69 03 82 bd 9a d3 28 3d 5a db b1 3c 9d f6 b6 bd
       -0.06348307 0.041217424 0.02171104 -0.089337565
0001b0 2c 4c c9 3d 2f 07 02 3e e3 86 3a 3d 7a bc e4 bb
       0.09828982 0.12698053 0.045538794 -0.006980476
0001c0 a6 e2 47 be 56 79 4f bd 51 25 78 bd 94 72 9d 3d
       -0.19520053 -0.050652824 -0.060582463 0.0768787
0001d0 68 09 e3 bb 0e fa 0b bd 18 60 b6 bd 01 1d 24 be
       -0.0069286115 -0.034174018 -0.08905047 -0.16026689
0001e0 ae 47 39 be 68 d3 b0 3b d2 19 c3 3c 2d ba a5 bc
       -0.1809375 0.0053962953 0.023816023 -0.020230377
0001f0 6a 85 3d 3e 6b 77 8a 3d ef 85 40 3d 8f cb 9e bd
       0.18507925 0.067610584 0.04700273 -0.077536695
000200 60 54 4c be 84 1f 9b 3e 2a ad 40 be 2a 2d 5b 3b
       -0.19954062 0.30297482 -0.18816057 0.0033443668
000210 c8 fe 21 be 3f 99 0e 3e e2 5a 0b bb 55 b3 1b be
       -0.15819848 0.13925646 -0.0021263887 -0.15205128
000220 d6 70 ec bb d9 f7 11 3e cb 2d f6 bc dd 5b 2b 3e
       -0.0072155995 0.14254703 -0.030051133 0.16734262
000230 5a 86 9f 3d c3 27 74 3d 44 19 c6 3d bb be 1f 3e
       0.077892974 0.059608232 0.09672788 0.15600102
000240 58 13 1f bb 8b ac 43 3d f4 19 4b 3e ea c9 2b be
       -0.0024273004 0.04777197 0.19834119 -0.16776243
000250 e8 d8 87 bd ae ae f2 3c fe 9d 89 3d 81 6b 43 bc
       -0.066331685 0.02962431 0.06719588 -0.011927486
000260 26 69 66 3e 99 06 ae bd 4a 2c 76 3e d8 2b fd 3d
       0.22501048 -0.08497352 0.24040332 0.12361878
000270 46 2d dc bd 7d f7 60 3e 87 50 fb bd 94 de 06 bd
       -0.10750823 0.2196941 -0.12271219 -0.03292711
000280 b8 bb 76 bc 55 eb 8e bd 65 44 1e be d3 96 97 3d
       -0.015059404 -0.0697848 -0.15455778 0.07401814
000290 e7 72 52 3d ad 01 b9 bc 70 53 9e 3e a7 92 1b 3e
       0.05137911 -0.022583807 0.30923033 0.15192662
0002a0 f3 f6 09 3e 41 ae 9e bb 88 43 90 3b 27 4a b4 bd
       0.1347311 -0.00484255 0.0044025816 -0.08803206
0002b0 5b 67 b1 3e 90 bc 2a bb af c9 f8 3d 54 ff 20 be
       0.34649166 -0.0026052333 0.12147843 -0.157224
0002c0 0a 84 af be 93 09 74 bd 3b 9c 3f be 83 84 67 3e
       -0.34280425 -0.059579443 -0.18711941 0.22609143
0002d0 83 8b 72 3c 9b 6b 52 3e 77 b7 01 be d4 9f b7 bd
       0.01480377 0.2054886 -0.12667643 -0.08966032
0002e0 33 ad 3d 3b 65 68 9d bc fc 27 bf bd 49 bb 05 3e
       0.0028942346 -0.019214818 -0.09333798 0.13059725
0002f0 a7 7f 57 bb e2 ad 6a be 4d 37 8c 3d 68 32 07 3e
       -0.0032882483 -0.22917894 0.06846485 0.13202822
000300 f2 12 af be 31 25 5d 3d ec 5c 6c 3e f2 77 03 3e
       -0.34194142 0.053990547 0.23082322 0.12838724
000310 98 06 96 3e 0b da b4 3c e5 5e 48 ba 6b 82 53 3e
       0.29301906 0.022076627 -0.0007643535 0.2065522
000320 ca 67 e3 3b 60 6f 2c 3d 12 10 18 3d 0a fa 8d bd
       0.006939863 0.042098403 0.0371247 -0.06932457
000330 f4 35 46 bd f1 97 fd 3d 6c 2f 23 3d 17 42 77 be
       -0.048391297 0.12382496 0.039840147 -0.24146305
000340 af 8d 27 3e b7 5d bd 3d 51 eb ff bd db a2 76 be
       0.16362642 0.0924639 -0.12496055 -0.24085562
000350 5d cf de 3d 16 12 c6 3d 64 5b 8a 3e 1c cf e8 bb
       0.10879395 0.09671418 0.2702285 -0.0071047675
000360 51 7f 64 be e3 9a 55 be 6c 12 e4 bd 6f 8d 96 be
       -0.22314192 -0.20859866 -0.11136326 -0.2940478
000370 30 1d 3e be 9b 96 56 bd ff 37 aa 3c 09 85 1d be
       -0.18565822 -0.052389722 0.020778654 -0.1538278
000380 71 29 59 3c ca fa 17 3d 9d 36 17 bd e2 03 eb 3e
       0.013254509 0.037104405 -0.036917318 0.459014
000390 54 cb 75 3e 10 16 2e bd 72 c2 1e be ff 0b 55 3e
       0.24003345 -0.04250151 -0.15503863 0.20805357
0003a0 f1 f6 d3 be ee 99 8d 3d 33 1e 93 be 9e 20 94 3d
       -0.4139934 0.069141254 -0.28733978 0.07232784
0003b0 64 d1 24 3c 2e 47 67 3d 04 02 84 be 06 1e 00 3e
       0.010059688 0.056464367 -0.25782788 0.12511453
0003c0 27 f5 26 bd e4 91 64 be 75 77 ce 3d 54 9a c9 3d
       -0.04076114 -0.22321278 0.10081378 0.09843889
0003d0 f1 bb 04 be 26 b2 9e bd db 49 94 3b 10 e4 1c be
       -0.12962319 -0.07748823 0.004525406 -0.15321374
0003e0 a6 db 75 3c d9 58 6f bd 40 8d 1b 3e a3 5c 7e bd
       0.015005982 -0.05843434 0.15190601 -0.062100064
0003f0 36 05 a8 3c f1 61 0b 3e e3 a6 8f 3e ac 5a a2 bc
       0.020510297 0.1361158 0.28057012 -0.019818626

model.0.bias f4 [128]
000000 97 bc a2 bc 09 42 7f bd ce 50 48 3e 0b 48 bd be
       -0.019865317 -0.062318835 0.19562075 -0.36969027
000010 4e 46 8b be 9c e6 52 3e a4 b6 60 3e 4d 0a d3 3e
       -0.27202076 0.20595783 0.21944672 0.41218796
000020 3c cf 11 be d4 cb 67 be bf d5 2f be 5e f7 c2 3d
       -0.1423921 -0.22636348 -0.17171381 0.09519838
000030 e2 5d 2d 3d 54 69 92 be f5 36 e9 3d b0 22 1a be
       0.04232586 -0.28595984 0.11387435 -0.15052295
000040 0d 50 48 be 2a fd b0 3e a6 e9 73 be 71 c0 e1 3d
       -0.19561787 0.3456815 -0.23819599 0.110230334
000050 fc 84 81 be d1 0c e0 bd c1 29 7b 3e a7 31 fb bd
       -0.25296772 -0.109399445 0.24527647 -0.1226533
000060 8f 8e ec 3d 36 47 ff 3c 77 54 17 3e 8c 7d c2 bd
       0.115506284 0.031161886 0.14778315 -0.094966024
000070 48 6e b6 3e 41 1e 43 3e 43 db 85 3e 40 08 5a bd
       0.35631013 0.1905451 0.26143846 -0.053230524
000080 61 4a 79 3d cc 6a 8d bc 64 1b 77 3e fd 3b 7b 3e
       0.06086195 -0.017262839 0.24131542 0.24534602
000090 b1 6f ac be 38 82 c7 3d 17 6a 92 3e 4e d9 9a be
       -0.33678964 0.09741634 0.28596565 -0.30243915
0000a0 34 84 90 3e 4b 46 b7 3c 07 22 46 be d8 78 d1 3b
       0.28225863 0.022372385 -0.19348918 0.0063925795
0000b0 23 37 66 3e 4b 4e 92 3d cc a0 fb bd e9 96 c2 be
       0.2248197 0.071438394 -0.12286529 -0.3800576
0000c0 90 9c 55 3e e4 b0 f8 bd cb af a0 be 10 0f 9d be
       0.20860505 -0.12143114 -0.3138412 -0.30675554
0000d0 a1 6e 09 3e 69 c9 4a be 9e f3 77 3d 6f 0e c3 3e
       0.13421108 -0.19803394 0.060535066 0.3809695
0000e0 c3 f6 b7 bc f1 04 89 3e 0b b1 a3 3d e1 18 8f be
       -0.022456532 0.26761582 0.07992753 -0.2794867
0000f0 5e f1 88 be d3 4b 8f 3e 9f 7c b8 bd e1 8d 04 be
       -0.2674665 0.27987537 -0.090081446 -0.12944748
000100 b0 49 8a 39 54 a4 80 3c bc 27 41 3e c0 40 cb bd
       0.00026376313 0.015703358 0.18862814 -0.099244595
000110 29 be fb 3d 3d 88 06 bf aa 43 72 3d 78 25 3b 3e
       0.122921295 -0.52551633 0.05914656 0.18276012
000120 a4 39 78 3d 0e 78 1b 3d bb 9a bb bd 9f c1 c3 be
       0.060601845 0.03795629 -0.09160372 -0.3823366
000130 8f 46 07 3e 72 f7 ce be 4d bc 4d 3e c9 f0 d9 bd
       0.1321051 -0.4042316 0.20091362 -0.10641629
000140 f1 03 c0 bd e5 48 c4 3d 2d c9 67 3e 96 b2 8e bd
       -0.09375752 0.09584216 0.22635336 -0.06967656
000150 03 37 90 be 40 79 c5 bd bf 44 c0 bd a0 28 a5 bc
       -0.2816697 -0.09642267 -0.09388112 -0.020160973
000160 e1 04 3f 3e f2 a7 22 3e 3d e3 0e be b3 d2 d2 3e
       0.18654205 0.15884379 -0.13953872 0.41176376
000170 81 cb 9c be 00 5d c2 be a4 a1 62 3e c6 2d db bd
       -0.3062401 -0.37961578 0.22131974 -0.1070209
000180 e8 4a cd ba 4f 3b 5c 3e 9e 58 e1 bd a4 1a 9e 3e
       -0.0015662583 0.21507 -0.110032305 0.308797
000190 a9 f9 9c 3d 5e 62 af 3d 74 30 05 bc e6 70 54 be
       0.076648064 0.08563684 -0.008129228 -0.20746192
0001a0 54 3a 37 3e cd e7 b1 be 94 b4 6c be f3 66 02 3e
       0.17893344 -0.34747162 -0.2311576 0.12734585
0001b0 50 82 ad 3d 15 d2 80 3e 69 92 b4 3e 32 6b 37 3e
       0.08472121 0.2516028 0.35267952 0.17911986
0001c0 50 59 b6 bd 95 ad f6 bd c0 12 47 3e 85 9b c6 bd
       -0.08903754 -0.12044827 0.19440746 -0.09697632
0001d0 2e 78 40 bd 7e f5 d6 3d 88 a8 0a 3a db 08 e1 bc
       -0.046989612 0.10496043 0.00052893953 -0.027470043
0001e0 ec fb ba 3e cc 90 c2 bd 62 cd 24 3e d3 a5 60 3e
       0.36520326 -0.09500274 0.16093972 0.21938257
0001f0 3b 6c c7 3c 25 e5 86 3e e6 9a bb 3e 03 e4 79 be
       0.0243436 0.26346698 0.36641616 -0.24403386

model.2.weight f4 [64, 128]
000000 bb 9c ba 3c 8d 2b 93 bc 22 87 25 3c 4b aa af 3d
       0.022779813 -0.017965103 0.010103019 0.08577403
000010 b7 6e 8f 3d dd 83 ae 3d b5 0e ff bd 9c 54 17 bc
       0.07003539 0.08521245 -0.12453977 -0.009236481
000020 62 1a a4 bd 82 82 ae bd 9b ba e6 3d 5a 16 c3 bc
       -0.080128446 -0.08520986 0.11266061 -0.023814369
000030 3c 81 0f 3d 0f a3 7d be 9a cb 82 3d 57 d9 5b bd
       0.035035357 -0.24769233 0.0638649 -0.05367407
000040 97 4b 59 bc d4 50 94 bd 6e 1d 35 3d e4 ac 83 3d
       -0.013262651 -0.07241979 0.04421752 0.06429461
000050 83 eb 65 be 46 0b 37 3d e7 b0 1a be 18 ac bf bb
       -0.22453122 0.044688486 -0.15106545 -0.0058493726
000060 ee 71 cb bd 7c 43 73 bd 8b 45 81 be 78 70 5d be
       -0.0993384 -0.05939053 -0.2524837 -0.21624935
000070 cf 7e 5a 3d f6 ba 52 3e df 6a e7 3d 17 bc fa bd
       0.05334359 0.20579132 0.11299681 -0.122429065
000080 6f 95 9d bc 9e b2 f5 3d e5 2f 88 3c 01 40 5b bd
       -0.019236295 0.11996959 0.0166244 -0.053527836
000090 3b 3d c3 bd 10 ff 06 3d 60 01 14 be 6e 45 a4 be
       -0.09533163 0.03295809 -0.1445365 -0.3208422
0000a0 83 94 b7 bd dd 70 db bd 63 4c d5 3d 83 50 c4 3d
       -0.08963873 -0.10714886 0.1041496 0.09585669
0000b0 e7 84 40 bd aa a5 99 bd 0c f0 0d be 48 cf 16 be
       -0.047001746 -0.07502301 -0.13861102 -0.14727509
0000c0 17 f6 9a 3a 1d 85 10 3e df 8c a0 bd 37 0c 7f be
       0.0011822608 0.14113279 -0.07839369 -0.24907003
0000d0 f6 c0 d2 bd 2a 89 f6 bd e3 24 17 be 61 7a 85 3c
       -0.10290711 -0.12037881 -0.14760165 0.016293706
0000e0 9c 17 37 be fd 04 34 be 55 61 65 3d 0a da 00 be
       -0.178801 -0.17580028 0.056001026 -0.12583175
0000f0 29 8d 0a 3c 51 8e 98 3e 9e b1 4a bd 0e 52 b1 bc
       0.008456507 0.2979608 -0.049485795 -0.021645572
000100 7f 43 5d bb 2c 3a 8d 3c e0 da 36 be 36 45 78 bd
       -0.0033762155 0.017239653 -0.17856932 -0.06061288
000110 b6 bb 66 bc 1c 88 40 be 9a a9 27 3d 6c 74 27 be
       -0.01408284 -0.18801922 0.04093323 -0.16353005
000120 21 63 71 3e 1e c1 a1 3b 79 92 53 3d a9 14 60 be
       0.23572971 0.0049363514 0.05165336 -0.21882881
000130 5c 97 12 3d 9d e0 36 be 80 f8 a4 bd 2c 8e e2 bd
       0.03578888 -0.1785912 -0.0805521 -0.110622734
000140 d8 a0 6a bd 94 74 d5 bd a6 03 3e be aa cd 5e be
       -0.0572823 -0.10422626 -0.1855608 -0.21758142
000150 ea 58 4b bd 5d 4f 51 be 06 0d 73 3d 13 45 91 bd
       -0.049645342 -0.20440431 0.059338592 -0.07093253
000160 92 7d da bc e3 d7 99 3e c7 3d 0c be 5e f0 07 be
       -0.026671205 0.3004752 -0.13695441 -0.13275287
000170 97 e9 e4 bd 86 c8 e3 bd c4 5c 87 bd 7d e7 fc 3c
       -0.11177366 -0.11122231 -0.066094905 0.030872101
000180 7a ae 9d 3e e4 e2 81 3d 6f 7c 32 be a0 1b 46 b8
       0.30797178 0.06342104 -0.1743028 -4.7232606e-05
000190 d6 9e bb bd c5 c9 94 bc 3b 0e b1 bb cc c2 73 3c
       -0.09161155 -0.018162617 -0.0054033077 0.014877986
0001a0 bb cf 8c 3d c4 83 5f 3c 58 18 61 bd 62 b4 c6 3d
       0.06875559 0.013642255 -0.054954857 0.09702374
0001b0 4a f0 62 bd 0c f1 e7 3d 14 4e d7 3d 2f 62 5b bd
       -0.05540494 0.11325273 0.10512939 -0.053560432
0001c0 a6 85 a9 bd 15 4f 8c 3e 64 b0 c3 3d 65 2f 84 3e
       -0.082774445 0.27404085 0.09555128 0.2581741
0001d0 49 9c 1d be 40 5f a1 3d 47 a7 70 bd df 43 ab b9
       -0.1539165 0.078794956 -0.058753278 -0.0003266623
0001e0 62 88 4f 38 19 fa e2 bc 7f 25 40 3e 86 97 f0 3d
       4.9479662e-05 -0.027707146 0.18764304 0.11747651
0001f0 c0 a5 fc bc 61 92 ac 3c 72 ec 04 3e 1c 29 8e 3d
       -0.030840755 0.021065893 0.12980822 0.06941435
000200 39 dc 9c be b9 05 3c 3d b4 91 8e bc 34 e3 a4 bd
       -0.30636767 0.045903895 -0.017403461 -0.08051148
000210 6e a5 27 be 99 8f 76 3e eb ee 75 3d 28 8d 42 be
       -0.163717 0.24078216 0.060042303 -0.1899916
000220 a3 b8 aa 3d 3c 2f 9c 3e 35 65 c7 bd 2d e4 8a 3e
       0.08335998 0.30504787 -0.097361006 0.2712721
000230 30 33 a8 bd 9a bd d5 bd 87 84 a9 bd df 1e 1f bc
       -0.08212888 -0.10436554 -0.08277231 -0.00971195
000240 80 3f ca bd 0e 1e b6 3b 18 03 28 3d a0 6c f0 3d
       -0.09875393 0.005557782 0.041018575 0.117394686
000250 91 7e d6 3c 4a b0 fc bd 65 ee bf 3d 10 74 3c 3d
       0.026183398 -0.12338312 0.09371642 0.046009123
000260 9e cb fd 3d dd 4d d5 bc 4a 3d 49 bd 78 17 9a 3a
       0.123923525 -0.026038105 -0.049130715 0.0011756262
000270 ee a4 02 be 39 3c 08 3e bc 10 d3 3d ec fc 40 3d
       -0.12758228 0.13304223 0.10305926 0.047116205
000280 96 3d 04 be ac 69 62 be 43 4b b9 3d 0e d8 a0 bd
       -0.12914118 -0.22110623 0.09047558 -0.07853709
000290 aa 77 43 3b 1f 25 24 3e e7 e9 40 b9 00 db 69 bd
       0.0029825964 0.16029786 -0.00018397682 -0.05709362
0002a0 30 ef e7 bd ae cd 3e 3e 37 e3 62 3e 45 3b 89 bc
       -0.11324918 0.18633148 0.22156988 -0.016751895
0002b0 bd ea 13 bc a5 4d ca 3b 31 fc 16 3e be ce 33 be
       -0.009028134 0.0061738067 0.14744641 -0.17559335
0002c0 3a 96 25 3e 32 b2 1d 3e 2a a8 72 3d d6 30 db 3c
       0.16170588 0.15400007 0.059242405 0.026756685
0002d0 00 ac 82 3d bd 07 8d bd cb ae 57 3e 47 79 96 3d
       0.06380463 -0.068862416 0.21062772 0.073473506
0002e0 31 62 ed bc c1 b3 05 3d 7c 2c 3a 3e 44 2e bd 3c
       -0.028977485 0.03264213 0.18181032 0.02309335
0002f0 59 54 e3 3c 7e 0c b2 3c d5 ab aa bc 75 31 83 3d
       0.027750181 0.021734472 -0.020833889 0.064059176
000300 7b 9a 04 3e 7d ed dc bd b4 41 9c 3e 00 cf ba 3d
       0.12949555 -0.10787485 0.30518878 0.09121513
000310 48 01 f6 bd a0 dd 8d bc cd 4e 9b 3d bd 4e b9 be
       -0.12011963 -0.017317593 0.075833894 -0.36192885
000320 ce 1d 80 3d 2e b2 f5 3c 49 41 54 3d f9 b7 fc bc
       0.06255685 0.02999219 0.051820073 -0.030849444
000330 03 78 77 bd 4d 13 ec bd 00 1a 46 3d fa e0 39 3d
       -0.060417186 -0.11527119 0.04836464 0.04538057
000340 34 9d cb 3c bb 01 5a 3e fe 0d 89 3d 6f fa e4 3c
       0.024855234 0.21289723 0.06692122 0.027951447
000350 d0 a3 5a be 93 50 85 bb 3e 28 b7 bd 4e 4e 3e bc
       -0.21351552 -0.004068443 -0.089432225 -0.011615349
000360 d0 a9 14 bd b6 3d a5 3d 8d 7a af 3d 8f 59 cb bd
       -0.03629476 0.08068411 0.085682966 -0.09929191
000370 76 e8 b4 3d 9f 93 b9 bd 3c d1 19 3d ed 7a 31 bd
       0.08833401 -0.090613596 0.037553057 -0.04333012
000380 7b 1c f7 3d 85 e8 ce bd c7 fb af bd e8 50 cd bd
       0.12065979 -0.10102943 -0.085929446 -0.10025197
000390 f0 8f 47 3e 72 dc 47 bd cd 1c 0b 3d 53 1b 58 be
       0.19488502 -0.048794217 0.033963013 -0.21104173
0003a0 4f 4b 84 3d 3f 0b 48 3c 89 5b fc bd a8 a1 36 3e
       0.064596765 0.0122097125 -0.123221464 0.17835104
0003b0 1f 18 50 3e ea c0 fd 3d 91 79 4b 3e 79 f5 b9 bd
       0.20321701 0.12390311 0.19870593 -0.09080023
0003c0 8d 46 f1 3d 25 71 aa bc e3 4f a3 bd 62 4a 6b bd
       0.117810346 -0.020805905 -0.079742216 -0.057443984
0003d0 01 a0 d7 3b 86 3e 4f bc 8f 1c 66 3d b0 5f 38 3e
       0.0065803532 -0.012649184 0.05617958 0.18005252
0003e0 54 56 56 ba 28 ab 30 be ad 15 78 be 49 50 0d be
       -0.0008176316 -0.17252791 -0.24227019 -0.13800158
0003f0 18 c4 94 3b 8a 6c 1b 3d 5b a3 8b 3d 40 e7 b3 b8
       0.0045399778 0.037945308 0.06818267 -8.578459e-05

model.2.bias f4 [64]
000000 2b fb ac bc cc dc e0 bd cf ba 9a 3c 00 52 8a bd
       -0.02111586 -0.10979614 0.018887905 -0.067539215
000010 61 3a e7 bd a5 d4 fd bc 82 9d 89 3d 67 de 14 3d
       -0.11290432 -0.030985186 0.06719495 0.036344912
000020 d6 3b a6 3c fc 54 2b 3e 62 17 9e 3e f7 62 4b 3d
       0.020292204 0.16731638 0.30877215 0.049654927
000030 3f 83 a5 3d ec 93 64 3d d0 4f 60 bd 5c 11 2d bd
       0.08081674 0.05580513 -0.054763615 -0.042252883
000040 a2 b4 8a 3e d6 10 8e 3b 67 1e 42 3e d8 5d 67 3e
       0.27090937 0.004335503 0.1895691 0.22594392
000050 75 6e ba 3c b6 44 f7 3b 2f 8c bd bd 31 bc 71 3e
       0.022757748 0.007546033 -0.092552535 0.23606946
000060 1c 9c 36 bd fe 3d 3d bd 50 d5 50 3e 48 77 7b 3e
       -0.04458247 -0.0462017 0.20393872 0.24557221
000070 29 d8 cb 3c b9 c6 b7 bd 55 89 ca 3c fa 04 c5 bd
       0.024883347 -0.0897345 0.024723688 -0.0962009
000080 8c 38 99 3e 23 c6 0d bd 88 ad b3 bd 21 81 d0 bc
       0.29925954 -0.034612786 -0.08773333 -0.025452198
000090 23 b4 7e bd 60 a6 68 bc 0e 5c 71 3d cf dd db bd
       -0.06218351 -0.014199823 0.05892568 -0.10735666
0000a0 99 bd 12 3e 08 be 96 bd 00 ca c6 be 2c 5b 36 3d
       0.14330138 -0.07360464 -0.3882599 0.044520542
0000b0 b0 c9 87 bd f0 3f a5 bd 6c 76 8d 3d 7f d2 bd bd
       -0.06630266 -0.08068836 0.06907353 -0.092686646
0000c0 fd 18 a8 bd 4a d6 c2 bd b6 b2 35 bd 1c 27 20 3c
       -0.08207891 -0.09513529 -0.044359885 0.009774949
0000d0 71 21 08 3e cc 95 ce bd bc 2e 00 3d 6c 1a 9d bd
       0.13294007 -0.10087165 0.03129457 -0.07671055
0000e0 e7 56 65 3d 23 c4 80 bd c7 02 24 3e 1a 6a 5a bd
       0.05599108 -0.0628741 0.16016684 -0.053323843
0000f0 39 9c 79 bd 12 5e a5 bd 3a 4a 4b 3d 19 6d ae 3d
       -0.06094 -0.08074583 0.049631335 0.085169025

model.4.weight f4 [32, 64]
000000 e8 a2 a0 3c 32 de d0 bd 0c 64 ef bd 68 c8 e1 bd
       0.01960893 -0.101986304 -0.11689004 -0.110245526
000010 26 d5 f6 3d 74 7b c5 bd fc 07 11 bd f0 ea bb bc
       0.120523736 -0.096426874 -0.035408005 -0.022939175
000020 30 88 56 3c 1c 08 51 bd 00 be 4b 3c de d9 d5 bd
       0.013093993 -0.051033124 0.012435436 -0.104419455
000030 a0 18 a8 3d 30 ff 4c 3c 66 00 fe bd 1e d7 b0 3d
       0.08207822 0.012512013 -0.1240242 0.0863478
000040 fa ac 81 bd f2 a0 ff bd ca 1f e8 bd fc 24 3e bd
       -0.06331821 -0.1248187 -0.11334188 -0.04642199
000050 6a cc ab bd 40 5e 89 3b e8 ea 2e bd a4 da e7 3d
       -0.08388598 0.0041921437 -0.042704493 0.11320999
000060 b8 4c e7 3c 70 2b cb 3c 46 2b b5 bd 04 fa 58 bd
       0.028234825 0.024800986 -0.088461444 -0.05297281
000070 aa eb 8f 3d 54 2b 12 bd ee 74 c5 3d ec 14 37 3d
       0.07027371 -0.035685852 0.09641443 0.044697687
000080 78 0a ab bc 8c c7 4f bd 5c 29 47 bd 00 67 73 3d
       -0.020879015 -0.050727412 -0.048623428 0.0594244
000090 c6 94 e2 bd b4 5f b9 bd 80 5e ca 3c 46 c9 af bd
       -0.110635325 -0.09051457 0.024703264 -0.08583312
0000a0 a8 e9 f4 bc d8 8f 9f 3c 70 96 0b 3c 50 d4 95 bc
       -0.029896572 0.01947777 0.008519754 -0.018289715
0000b0 be 65 b3 bd b4 32 76 3d 60 7d e6 3c b0 48 62 bd
       -0.0875964 0.060106948 0.028135955 -0.0552451
0000c0 74 de 9b bd 62 91 cf 3d 00 04 fe ba 88 73 89 3d
       -0.07610789 0.101351514 -0.0019379854 0.06711489
0000d0 82 16 a6 3d 5a 49 8d bd 50 81 f0 3c 34 0d 87 3d
       0.08109762 -0.06898756 0.029358536 0.06594315
0000e0 5a dc db bd 58 0f da 3c 0a ff fd bd c4 84 7e bd
       -0.10735388 0.026618645 -0.124021605 -0.062138334
0000f0 0a 2e cb bd 26 be c3 bd 10 89 6b 3c 00 44 93 3d
       -0.09920891 -0.09557752 0.01437594 0.07190704
000100 83 50 6b 3d 9a 66 a9 3d 68 7a 52 bd f3 af 87 3c
       0.05744983 0.08271523 -0.051386267 0.016563391
000110 20 57 7a 3c 8c 63 b0 bd d4 4a 56 bd 02 63 78 bd
       0.015279561 -0.08612737 -0.052317455 -0.060641296
000120 44 e4 24 3c 6e f1 96 bd 0d 3f b9 bd bc ef 8d bd
       0.010064188 -0.07370268 -0.09045229 -0.06930491
000130 17 29 1b be d4 bd 38 bd bb 20 a6 bd 2f 48 d9 3d
       -0.15152393 -0.04510291 -0.081117116 0.10609471
000140 5d f9 79 bd 89 19 a8 3d 2e 5c 63 bc a7 74 d3 3c
       -0.061028827 0.082079954 -0.013876958 0.02581246
000150 f2 ed 9f 3d fe d5 d5 3c d8 61 f5 3c e1 8b e9 3c
       0.07809056 0.026103016 0.029953882 0.028509082
000160 e1 a5 d2 3d 05 a6 bd bd 59 7a 8f 3d 3a cf 34 bd
       0.10285545 -0.09260181 0.07005758 -0.04414294
000170 da 99 a1 3d ec 3a 7b 3d 53 ae bd bd 6d ac 9f bd
       0.07890673 0.06133549 -0.09261765 -0.077965595
000180 9e 1e 82 bd 06 ef 23 3d 26 8d af bd f4 ea dc 3d
       -0.06353496 0.040022872 -0.08571844 0.10787001
000190 94 43 89 bd 2c 16 34 3d 52 5f 0a be 13 7a a8 3d
       -0.06702343 0.043966457 -0.13512924 0.08226409
0001a0 5a b7 64 3d f9 28 5a 3d d4 72 15 bd d2 f4 cd 3d
       0.05583892 0.05326173 -0.03648646 0.100564614
0001b0 ed 79 43 3c e8 95 3b 3d cb 41 77 bd 85 45 f5 bd
       0.011930925 0.04579726 -0.06036548 -0.119761504
0001c0 03 87 cd bd ec 19 8e bc e8 57 d4 3d 28 a9 d8 3d
       -0.10035517 -0.017346345 0.10368329 0.10579139
0001d0 fa 80 f3 bc 9a 93 94 bd 94 9b cd bd b7 f3 e9 3d
       -0.029724587 -0.07254715 -0.1003944 0.11423438
0001e0 c5 20 e7 bd a4 2c 6a 3d 28 be d7 3d 27 5a 03 be
       -0.11285547 0.05717148 0.10534316 -0.12827359
0001f0 20 6f 25 bd 39 09 70 bc e2 91 43 bd 0a c8 f3 3c
       -0.04038918 -0.014650636 -0.047746547 0.029758472
000200 67 8a ee bd 19 c9 ab bc 2e b2 b0 3d f9 3f 02 be
       -0.11647492 -0.020969914 0.08627735 -0.12719716
000210 69 70 ff bc ed c4 96 bd 90 8e 6e bc 53 e9 03 3d
       -0.031181531 -0.07361779 -0.014560357 0.032204937
000220 a0 ab 82 3c 03 0e 44 3d 32 5e da bd 1a 19 e0 bd
       0.015950978 0.047864925 -0.106624976 -0.10942288
000230 53 fd 48 3d cd 06 8a 3c b0 ff db bc c5 47 a1 3d
       0.049069714 0.016848946 -0.02685532 0.07875017
000240 c1 90 13 3d 3d 39 e6 3d 41 e2 94 3d 8f ad f3 bd
       0.03602672 0.11241386 0.07269717 -0.11898338
000250 9d 5a e0 bc c5 fe 29 bd 4e 28 b8 bd 0f 48 c0 bd
       -0.027386958 -0.041502733 -0.089920625 -0.09388744
000260 f9 fa ae bd f9 9e 82 3c 20 63 d6 3c 2e d4 a5 bd
       -0.08543963 0.015944945 0.026170313 -0.08097111
000270 97 57 ff bd 88 8c e6 bc 02 e6 ae bd 66 bd b8 bd
       -0.12467878 -0.028143182 -0.08539964 -0.090205
000280 be a5 31 bc b1 c5 3b 3c e5 0d a9 bd 91 8d 9b bd
       -0.010842739 0.0114607075 -0.08254603 -0.07595361
000290 8d 99 be bd a0 3e d6 bc b0 15 59 bd 6a a3 b4 3c
       -0.09306631 -0.026152909 -0.0529992 0.022050578
0002a0 14 91 ac 3d ba e4 b9 3d 08 8e 8b 3d d6 74 a9 3b
       0.08426109 0.09076829 0.068142 0.0051713986
0002b0 a1 ed 1e 3d 3b 18 b1 bd 01 f2 c5 3d c1 1c 69 3c
       0.03880084 -0.086472 0.09665299 0.014228047
0002c0 de f0 16 3d fb 76 b9 3d 5a d9 b7 3d 00 7d 79 ba
       0.036850803 0.09055897 0.089770034 -0.00095172226
0002d0 14 9f 33 bd 3e e4 db bd e0 6d e6 bc 50 6c 2d 3b
       -0.04385288 -0.10736893 -0.028128564 0.0026462264
0002e0 57 b2 f8 bd 9b 36 04 be ab 2f 93 3c 88 40 af bd
       -0.121433906 -0.12911455 0.017967066 -0.0855723
0002f0 6e 1f e1 3d 89 fc 0a be 27 ab 91 bd b6 31 85 bd
       0.10992323 -0.13572897 -0.07112723 -0.06503622
000300 e8 7c 88 3c d2 df 06 bd e5 97 e6 bd b5 66 5f bd
       0.016661122 -0.032928295 -0.1125944 -0.05454131
000310 ea 37 eb bd ba f6 8f bd 90 6a 24 bd 81 7c 55 3d
       -0.11485274 -0.07029481 -0.04014069 0.05212069
000320 38 42 ef bc 06 6b 3d bd 4e 43 a5 3c c5 ac 81 bc
       -0.02920638 -0.046244644 0.020173695 -0.015829453
000330 db 83 db 3c 60 d6 43 3d a0 eb a4 3b ac d3 46 3d
       0.026796272 0.047811866 0.0050329715 0.04854171
000340 79 6b 91 bd 88 e0 86 bd bd 34 b4 3b b3 b0 ee bc
       -0.07100577 -0.06585795 0.005499451 -0.029136991
000350 a9 4f 24 3d 8a b3 00 be 36 d3 a8 3d 47 3d 1d 3a
       0.040115032 -0.12568489 0.0824341 0.0005998206
000360 a0 7c 93 bb 00 5a 1f 3d 34 24 e2 3d df d0 42 bd
       -0.0045009404 0.03890419 0.110420614 -0.047562476
000370 7d e9 a0 3c 20 8f c2 bd fa d0 64 bc 3e f7 a0 bd
       0.019642586 -0.09499955 -0.0139658395 -0.07859658
000380 da cd 03 be 6d fc 91 3d ae bf ff 3b 75 6c 32 3d
       -0.12871495 0.071282245 0.0078048324 0.043560464
000390 c4 2f aa 3d 10 9a dd 3d 7f 99 82 bd 93 36 b8 bc
       0.08309892 0.10820401 -0.06376933 -0.02248696
0003a0 8b 1f 44 3c 9b f9 9c bd cc 75 d6 bd 48 b8 c6 bd
       0.011970411 -0.07664796 -0.10471687 -0.097031176
0003b0 59 fd 68 bd ac ff cc bd f6 e0 c0 bd b3 6d 30 bd
       -0.056882236 -0.10009703 -0.09417908 -0.043073367
0003c0 37 f5 3b 3d 5c 1f ad bd 78 51 f4 bc 52 76 8a bd
       0.045888152 -0.08453247 -0.029824004 -0.06760849
0003d0 57 39 0c 3d cc 62 cd 3d 9c c2 18 bd b4 fc 8d 3d
       0.03423437 0.1002861 -0.03729497 0.06932965
0003e0 b4 c5 fe bc 43 78 f7 3c f9 28 8d bd cd 6a c8 3d
       -0.031100132 0.030208712 -0.068925805 0.09785996
0003f0 16 31 a9 bd 21 f0 93 bb 02 8c 72 3d ef 18 94 3d
       -0.082613155 -0.0045147096 0.059215553 0.07231318

model.4.bias f4 [32]
000000 10 d2 29 bc 40 a7 05 be 95 6d 5b 3d a0 0a c2 bd
       -0.010365024 -0.13052082 0.053571302 -0.09474683
000010 6f ae 58 ba 2a 99 da bc f6 c4 1d 3d e2 42 aa bd
       -0.0008265739 -0.026684362 0.038517915 -0.08313538
000020 fd 1c aa 3d fb 05 c4 bd 0d 42 84 bd d8 dd 83 3e
       0.0830631 -0.09571453 -0.06457911 0.2575519
000030 5c e7 bc bd a7 cc 47 3b e8 5f 38 bd da 62 32 3e
       -0.09223816 0.0030486973 -0.04501334 0.17420521
000040 85 54 95 bc ab 21 50 bd 2c 2b 2e bc f0 76 18 be
       -0.018228779 -0.05081336 -0.01063041 -0.14889121
000050 2e 23 d9 3d ca b4 f4 3c ac 20 89 bd 2d c0 f6 3b
       0.10602413 0.029871363 -0.06695685 0.0075302334
000060 d1 3f ac 3d f1 9b 90 3d 75 f6 ac bd 26 37 2a 3d
       0.084106095 0.070609935 -0.084454454 0.0415565
000070 e6 7d 0c 3c ce 8a dd bb 3b a6 6b bd 24 bf 4d 3b
       0.008574938 -0.0067609316 -0.057531577 0.0031394446

model.6.weight f4 [1, 32]
000000 5f b8 86 bd c9 80 1c bd 6b 84 1c bc bd e2 f5 bd
       -0.06578135 -0.038208757 -0.009553055 -0.120061375
000010 a6 64 be bd 0a 47 81 bc 6c 63 26 be 43 84 f7 3d
       -0.09296541 -0.015780944 -0.16248864 0.12085774
000020 8b 4e e4 3c 70 de 45 3e 42 32 5a be 74 3d 58 be
       0.027869483 0.19323134 -0.21308234 -0.21117193
000030 af 0a bf bd 5e d3 17 be 16 29 33 3e 08 22 38 3e
       -0.093282096 -0.14826724 0.17496142 0.17981732
000040 43 d1 9f bd 15 5d de 3c f1 2a 62 3b 46 5b 10 bb
       -0.078035854 0.027143994 0.0034510458 -0.002202706
000050 4f ca 76 3d 79 28 83 be dd 92 b3 3d 76 54 7c bc
       0.06025153 -0.25616816 0.08768246 -0.015400996
000060 f9 31 05 be 15 55 bb 3d 9d 53 94 bd 80 d0 da 3d
       -0.13007344 0.091470875 -0.072425105 0.106842995
000070 73 c1 0d 3c 27 81 02 3d 13 5e 17 be 48 0b 09 3e
       0.008652079 0.03186145 -0.1478198 0.1338321

exp_avg f4 [7, 4]
000000 53 ad e6 3a d8 7a 1e 3a 56 fa cb ba 57 89 77 39
       0.0017599262 0.0006045527 -0.0015562277 0.00023606919
000010 3f 4e 5e 3b 9a 7a e4 3a 35 19 a1 bb 6a cb 5c 3b
       0.003392115 0.0017431558 -0.004916335 0.003369058
000020 35 04 8d 3b 25 56 d0 39 79 f6 9c bb cb 68 47 3b
       0.00430348 0.00039737034 -0.004790124 0.0030427452
000030 0e 5e 8a 3a dc 30 e9 b8 82 6d e1 b9 ab 3c 87 3a
       0.0010556595 -0.000111194066 -0.00042996934 0.0010317763
000040 58 90 3f b8 d1 9c b0 b7 fd a7 28 39 a6 2b cb b9
       -4.567238e-05 -2.1053858e-05 0.00016084309 -0.00038751698
000050 6a a4 aa ba f9 af 5d b9 d9 da 8f 3a ad 9b 1a 39
       -0.001301897 -0.00021141757 0.0010975256 0.00014744578
000060 10 4c 93 ba 75 13 af b9 ce 00 a7 3a 7d c1 66 ba
       -0.0011237878 -0.00033393098 0.0012741329 -0.0008802636

exp_avg_sq f4 [7, 4]
000000 00 5b 01 39 71 df f0 36 54 55 06 39 4b cc 50 38
       0.00012336299 7.1785694e-06 0.00012811023 4.9781327e-05
000010 ae 3b 1a 39 7e 96 25 37 37 5d 3a 39 b3 00 da 38
       0.00014708817 9.869806e-06 0.00017773068 0.0001039518
000020 7b a6 04 39 a5 a3 46 37 0d bc 27 39 79 13 88 38
       0.0001265052 1.1839821e-05 0.00015996415 6.4886124e-05
000030 17 eb 2d 38 65 c4 11 36 06 4e 30 38 fc b1 ac 37
       4.146536e-05 2.1721e-06 4.2034335e-05 2.0586878e-05
000040 12 e9 87 38 84 04 48 36 84 83 95 38 9a 2b 1f 38
       6.4807144e-05 2.980495e-06 7.12937e-05 3.794916e-05
000050 ee 37 a5 38 75 5b 96 36 95 c2 cf 38 fc 4e 62 38
       7.878231e-05 4.4809954e-06 9.906773e-05 5.395616e-05
000060 84 5e 95 38 1a 09 49 36 a2 52 97 38 03 34 00 38
       7.1224786e-05 2.9956632e-06 7.215633e-05 3.0566018e-05

exp_avg f4 [7, 4]
000000 9b bf 74 3a 88 25 e4 b9 8e 2f 48 b8 25 8c 18 38
       0.0009336413 -0.00043515512 -4.7728005e-05 3.6370144e-05
000010 10 b8 5f b9 c2 a1 18 ba d0 4e 6f b9 76 01 b6 39
       -0.00021335506 -0.00058224436 -0.00022822176 0.00034714834
000020 d4 76 0e ba b5 91 10 ba 28 a6 2c ba 18 38 71 38
       -0.0005434577 -0.0005514876 -0.00065860385 5.751112e-05
000030 3f 93 d6 b9 81 ed 98 ba 71 e9 d6 39 0b ac 41 b9
       -0.00040926968 -0.0011667461 0.00040991188 -0.00018470005
000040 15 6a d9 b9 ca 8a 94 b9 23 d1 e1 39 a9 79 a2 b9
       -0.00041468503 -0.00028332166 0.00043071163 -0.00030989692
000050 16 fa 09 39 ae 89 73 b8 69 9a 75 39 d4 fd f5 b7
       0.00013158502 -5.806394e-05 0.00023422543 -2.9324474e-05
000060 41 56 9a ba ea ec 6d b8 88 e3 d1 b9 11 87 f3 b9
       -0.0011774973 -5.6725847e-05 -0.0004003311 -0.00046449204

exp_avg_sq f4 [7, 4]
000000 8d c5 2b 37 1e 6c 96 36 51 85 44 36 e3 53 d1 36
       1.023839e-05 4.482935e-06 2.9283876e-06 6.238451e-06
000010 9c 5d d6 36 bd 4d 53 36 af 23 67 36 d9 94 f6 36
       6.3885946e-06 3.14867e-06 3.4442453e-06 7.3486995e-06
000020 09 e1 06 37 0e 68 a9 36 e6 b9 2a 36 eb 1e 22 37
       8.0394175e-06 5.048706e-06 2.5440181e-06 9.663151e-06
000030 93 fa 0c 37 08 88 c0 36 51 64 82 36 c1 9b 1f 37
       8.402992e-06 5.737882e-06 3.8859803e-06 9.513403e-06
000040 9c af 1a 37 d2 f9 58 36 b3 44 37 37 22 a6 5d 37
       9.2200025e-06 3.2331923e-06 1.0923645e-05 1.3211307e-05
000050 d1 73 f2 36 3c 06 b6 36 30 49 0b 36 2c 76 00 37
       7.225645e-06 5.4247485e-06 2.0755215e-06 7.656909e-06
000060 89 53 2a 37 e3 e4 8f 36 32 46 0f 36 b2 91 01 37
       1.0152239e-05 4.288378e-06 2.134952e-06 7.7229215e-06

exp_avg f4 [6, 3]
000000 48 cf 97 38 16 2a 9f b9 81 a1 bf 39 eb 01 af b9
       7.23885e-05 -0.000303582 0.0003655069 -0.0003338003
000010 07 df 3e 3a 02 6d 45 3a 93 58 84 ba 4c dc 52 ba
       0.00072811585 0.0007531197 -0.0010097198 -0.0008043691
000020 10 34 63 3a e2 80 d6 39 b0 3e a1 39 a5 77 8c ba
       0.0008667121 0.00040913286 0.0003075502 -0.0010716809
000030 a8 ca 48 ba cf 5f f2 39 58 22 a3 b9 d4 8a 1b 39
       -0.00076595927 0.0004622922 -0.0003111537 0.0001483367
000040 15 d4 42 39 29 a5 a0 39
       0.00018580288 0.00030640632

exp_avg_sq f4 [6, 3]
000000 13 c8 e6 36 33 8d a4 37 34 fa 53 37 c3 57 78 36
       6.877826e-06 1.9616074e-05 1.2634835e-05 3.7005964e-06
000010 ab 3e 9f 37 e8 b2 d3 36 0a 6b cb 36 c0 66 06 38
       1.8983459e-05 6.3091175e-06 6.0623324e-06 3.2043783e-05
000020 db 3d 9b 37 6e 5e ce 36 b9 a9 9d 37 bd c5 5e 37
       1.8506244e-05 6.1502715e-06 1.8794892e-05 1.3278271e-05
000030 98 ca 20 37 51 f5 62 38 bf 62 02 38 ba 7b 88 37
       9.583913e-06 5.4111068e-05 3.108638e-05 1.6270078e-05
000040 17 25 53 38 89 ac 8a 37
       5.0340863e-05 1.6531225e-05

exp_avg f4 [6, 3]
000000 94 d7 42 ba 28 45 27 3a d4 df b6 37 ef 76 85 39
       -0.00074326363 0.00063808495 2.1800319e-05 0.0002545635
000010 08 7f 8e b8 d0 9e f8 b7 51 6a 22 ba 23 7a 2f 37
       -6.794749e-05 -2.9637857e-05 -0.0006195652 1.045925e-05
000020 e3 da d8 ba d9 43 ce 38 c5 fa 74 b9 4a 71 75 ba
       -0.0016544726 9.835483e-05 -0.00023363072 -0.00093628897
000030 6f ce 9a b9 42 26 96 ba 9a 4a c8 3a b1 f6 52 ba
       -0.00029526974 -0.0011455494 0.0015281022 -0.0008047624
000040 ba 2a 03 bb ce cf 98 3a
       -0.002001448 0.001165861

exp_avg_sq f4 [6, 3]
000000 ec 1f 6c 36 f8 57 48 36 bf b1 33 37 6d 86 84 36
       3.5185321e-06 2.9853527e-06 1.0710616e-05 3.949556e-06
000010 77 75 cd 36 c7 ae f2 37 10 1d a6 36 f2 d7 d4 36
       6.123151e-06 2.8930035e-05 4.950569e-06 6.3432317e-06
000020 76 83 d3 37 aa 7d 22 36 2b 30 93 36 69 71 b2 37
       2.5214376e-05 2.4213027e-06 4.386549e-06 2.1272064e-05
000030 b5 37 8f 36 d1 91 c5 36 2f f8 8e 37 d3 5b 01 37
       4.2682173e-06 5.888033e-06 1.7043289e-05 7.710379e-06
000040 06 a8 39 37 eb df 13 38
       1.106598e-05 3.525607e-05

exp_avg f4 [4, 2]
000000 d5 4b c3 3a ef f0 3e 39 48 dc f1 39 48 1c 8d 38
       0.0014899919 0.00018209567 0.00046131224 6.728672e-05
000010 cf b9 4f 3a fa 39 08 3a 4d 61 e0 b7 76 55 24 ba
       0.0007924111 0.00051966275 -2.674819e-05 -0.0006268838

exp_avg_sq f4 [4, 2]
000000 03 9b 14 37 6f 6b ef 36 e4 06 4a 37 8b 10 08 37
       8.857579e-06 7.135262e-06 1.2041743e-05 8.110083e-06
000010 a8 39 08 37 22 b6 0f 37 18 68 c7 36 80 04 38 37
       8.119656e-06 8.56587e-06 5.9427803e-06 1.0968302e-05

exp_avg f4 [8, 4]
000000 5a a7 c2 ba 65 99 51 3a 5c 7a 0b 3a d5 55 fc 37
       -0.00148509 0.0007995575 0.0005320662 3.008071e-05
000010 71 9a 63 3b bd d9 01 bb 15 1f 39 ba 10 b2 cd ba
       0.0034729505 -0.001981362 -0.00070618215 -0.0015693326
000020 d2 a6 f1 3a 99 67 9d ba 90 e0 30 b9 b0 f3 56 ba
       0.0018436557 -0.0012009024 -0.00016868324 -0.00081997644
000030 d3 6c ff ba 35 b8 96 3a 0b de 95 3a 3c 18 04 3b
       -0.0019487388 0.001149899 0.0011433972 0.0020156046
000040 cf 09 ba 3b 85 96 30 bb ca 68 6f 3a 62 9e 6d bb
       0.005677439 -0.0026945185 0.0009132741 -0.0036257734
000050 e9 9c 9d 3b 61 03 db ba 69 36 ce ba 65 fd 2f bb
       0.004809965 -0.0016709381 -0.0015732768 -0.0026853916
000060 07 05 e5 b7 9a 36 37 b8 05 da 6c 38 7f a6 c9 38
       -2.7301268e-05 -4.368145e-05 5.646983e-05 9.615439e-05
000070 a8 a5 1b 3b df e2 b4 ba a1 b6 9e ba a7 73 b8 ba
       0.0023749862 -0.0013800523 -0.0012108871 -0.0014072553

exp_avg_sq f4 [8, 4]
000000 a8 2a 90 38 98 81 ab 37 10 21 31 37 a8 ae 9b 37
       6.8744004e-05 2.0445135e-05 1.055772e-05 1.855877e-05
000010 32 0f 08 39 fb d8 3e 38 e8 0c 1e 38 8b 7d 3e 38
       0.00012975631 4.550161e-05 3.7682155e-05 4.541645e-05
000020 85 2b 81 39 a6 12 ad 38 c2 52 f6 37 06 07 5b 38
       0.00024637222 8.2527564e-05 2.9364022e-05 5.222021e-05
000030 c4 50 80 39 26 32 fd 37 f3 02 fd 37 6d e8 95 38
       0.00024474238 3.0183302e-05 3.0161324e-05 7.148166e-05
000040 d3 98 d3 39 a1 17 ef 38 56 e2 93 38 67 5a f8 38
       0.0004035892 0.00011400809 7.0516646e-05 0.000118424
000050 7a d1 0f 39 67 09 2a 38 9f e4 ab 37 b3 a2 3d 38
       0.00013715579 4.0539915e-05 2.0491249e-05 4.5212637e-05
000060 8d 82 ac 37 27 67 e5 36 57 0e 02 36 44 17 be 36
       2.056479e-05 6.8367403e-06 1.9379856e-06 5.6651497e-06
000070 b7 12 bb 39 4b de f2 38 df 4c b7 38 28 ff c6 38
       0.00035681363 0.000115808645 8.740438e-05 9.488902e-05

exp_avg f4 [3, 2]
000000 ab 5c d7 ba 15 25 86 3b 3d 9a e8 3b c3 e4 37 bc
       -0.0016430815 0.004093776 0.0070984648 -0.011223975
000010 bb 49 78 3b e1 84 0f bc
       0.0037885744 -0.008759708

exp_avg_sq f4 [3, 2]
000000 b5 ab 00 39 44 97 db 39 4f dd 53 39 28 a5 2d 3a
       0.00012270997 0.00041883637 0.00020204972 0.00066240365
000010 0b 71 50 39 81 46 2a 3a
       0.00019878538 0.0006495491

exp_avg f4 [7, 4]
000000 71 af 18 b9 32 21 d8 39 4d 78 77 38 6a 5b 1a 39
       -0.00014561207 0.00041223463 5.9001428e-05 0.00014720639
000010 2f 8e 27 ba 7a 5a b1 39 f8 fa 4e b9 c5 95 47 3a
       -0.00063917314 0.0003382748 -0.00019739184 0.0007613565
000020 0f 3c c4 b9 68 e9 2b 3a 1d 20 0d 3a 6d 22 18 3a
       -0.0003742878 0.00065579126 0.00053835084 0.00058034697
000030 58 a5 3c 3a cd 87 09 ba ac 06 7f b9 69 b2 85 b9
       0.0007196269 -0.0005246371 -0.0002432118 -0.00025500663
000040 7a 36 d1 b9 b5 8d 1d 3a a8 32 51 3a 41 8b 96 39
       -0.00039904175 0.00060101907 0.00079802657 0.00028713982
000050 3f bf ff b7 bb b8 3e 39 e0 bf ae 39 38 2f de 38
       -3.0487425e-05 0.0001818863 0.00033330824 0.0001059458
000060 69 2d 63 39 7d 01 c3 b9 d4 70 83 ba 36 65 f5 b9
       0.00021665324 -0.00037194407 -0.0010028132 -0.0004680545

exp_avg_sq f4 [7, 4]
000000 c5 4b e1 36 5e b1 1d 37 91 eb 18 37 94 53 77 36
       6.7143433e-06 9.399226e-06 9.114753e-06 3.6854517e-06
000010 2d 94 aa 36 46 35 bc 36 22 0c bc 36 ef 8f e8 35
       5.0836447e-06 5.6090385e-06 5.604249e-06 1.7327237e-06
000020 ac 44 2d 37 0b 20 3e 37 23 62 1b 37 5f 85 8e 36
       1.03275925e-05 1.1332343e-05 9.261569e-06 4.247456e-06
000030 a5 d8 c9 36 21 ee 1b 37 a3 8e 0e 37 50 69 35 36
       6.0154875e-06 9.294164e-06 8.49707e-06 2.7032402e-06
000040 14 99 67 37 13 96 40 37 08 01 6e 37 cd a0 35 36
       1.3804314e-05 1.1479034e-05 1.4186146e-05 2.70647e-06
000050 60 87 10 37 a0 3f 6a 37 33 90 40 37 9b 08 72 36
       8.614588e-06 1.3962301e-05 1.1477666e-05 3.606582e-06
000060 a2 d0 da 36 a1 f5 c7 36 18 07 b4 36 d8 e4 e0 35
       6.5211943e-06 5.959257e-06 5.365244e-06 1.6755903e-06

exp_avg f4 [6, 3]
000000 2e 5c 9a ba 0f 60 90 bb ac 2f d6 3b 99 12 a0 ba
       -0.0011776739 -0.0044059823 0.0065364446 -0.0012212574
000010 bf f5 3b bb 34 95 98 3b 14 b3 15 3b 85 6c 18 bb
       -0.0028680412 0.0046564583 0.0022842335 -0.0023258042
000020 c8 a0 a8 3b b7 0b 42 39 04 72 f9 b9 a4 0c d6 ba
       0.0051461197 0.00018505646 -0.0004757793 -0.0016330671
000030 4a c3 a2 ba 14 a1 91 bb 5c ab d9 3b 82 45 04 3a
       -0.001241782 -0.004444251 0.006642742 0.0005045758
000040 c5 4a 2c 3b 95 0e d6 ba
       0.0026289683 -0.001633125

exp_avg_sq f4 [6, 3]
000000 57 13 08 38 19 f2 01 39 d8 64 08 3a f7 a4 82 37
       3.244294e-05 0.00012392587 0.0005203015 1.5574025e-05
000010 b1 82 e6 38 92 21 84 39 99 f2 08 38 eb 01 58 39
       0.00010991598 0.00025202014 3.2650863e-05 0.0002060008
000020 dd 33 03 3a 48 22 d9 37 01 cc 0e 39 83 00 05 3a
       0.00050049816 2.588438e-05 0.00013618173 0.00050736236
000030 05 e3 5f 38 49 ba 54 39 68 6f 45 3a 4f c8 c3 37
       5.337877e-05 0.00020287292 0.00075315544 2.3339087e-05
000040 6d d7 6e 39 72 27 ac 39
       0.00022777701 0.00032835786

exp_avg f4 [6, 3]
000000 a9 19 54 39 e9 7a 3f 3a 22 fd c3 b8 00 08 a2 39
       0.00020227455 0.0007304387 -9.345474e-05 0.00030905008
000010 63 9f 20 3a 82 cc 08 39 b8 43 92 39 55 9a 62 3a
       0.0006127266 0.00013046156 0.00027897744 0.0008644213
000020 8a 17 f6 38 28 88 b1 36 8f cd fb 38 2f 30 4f 3a
       0.000117345786 5.2908617e-06 0.00012006901 0.0007903603
000030 f9 21 d0 38 65 7a 81 b9 d1 ef 8f 39 a8 d0 2f 3a
       9.924541e-05 -0.00024695988 0.00027453763 0.00067068124
000040 2b 77 33 b8 24 e1 f4 3a
       -4.278791e-05 0.001868282

exp_avg_sq f4 [6, 3]
000000 02 12 e6 36 63 ea 9c 36 31 11 c2 37 29 7e 3d 36
       6.8566305e-06 4.6764485e-06 2.3134608e-05 2.823663e-06
000010 6d a8 e7 36 5a d8 b3 37 60 f4 60 36 06 f2 81 36
       6.903944e-06 2.143921e-05 3.3520846e-06 3.872675e-06
000020 2a bc a1 37 fc 9d 8c 36 69 40 bb 36 25 f8 09 38
       1.9280316e-05 4.190717e-06 5.5805326e-06 3.2894448e-05
000030 7b c8 aa 36 e8 be 47 36 bc 31 c0 37 58 cc 80 36
       5.089734e-06 2.9764433e-06 2.2911343e-05 3.838486e-06
000040 20 76 e6 36 6c 07 c8 37
       6.8682857e-06 2.3845314e-05

exp_avg f4 [4, 2]
000000 44 46 35 b8 a0 72 87 39 15 b1 b3 39 17 99 b1 b9
       -4.3219203e-05 0.0002583461 0.00034273477 -0.00033874132
000010 f6 79 cb 39 54 62 9b 3a 8a c7 a4 b9 49 5a 85 3a
       0.00038810045 0.0011854866 -0.00031429186 0.0010174002

exp_avg_sq f4 [4, 2]
000000 bb fb f8 36 33 f3 1a 37 36 14 01 37 ed dc 15 37
       7.4202812e-06 9.2357395e-06 7.693705e-06 8.93253e-06
000010 d1 b8 0e 37 76 df 2d 37 10 29 c0 36 31 40 a6 36
       8.5068905e-06 1.0363632e-05 5.726826e-06 4.9546584e-06

exp_avg f4 [5, 3]
000000 3c f6 a4 39 01 7f 8c 39 76 44 63 3a 0b a4 18 ba
       0.00031463976 0.00026797506 0.0008669564 -0.0005822784
000010 8d 67 b6 b9 72 32 96 b9 86 bf b0 ba 15 7f 2a ba
       -0.00034790896 -0.00028647814 -0.0013484813 -0.0006503922
000020 c7 cb 95 b9 55 ab 20 b9 48 f8 02 3a 94 14 5a 3a
       -0.0002857132 -0.00015322615 0.0004996103 0.00083191064
000030 b6 b3 9b 3a d0 6d 38 ba 23 52 e3 39
       0.001187912 -0.00070354063 0.0004335801

exp_avg_sq f4 [5, 3]
000000 14 3a aa 36 d8 f4 e6 36 fd 59 06 37 b9 ed 92 36
       5.073156e-06 6.8830377e-06 8.007974e-06 4.3788136e-06
000010 a9 07 14 37 6d 10 48 37 b1 0d 9a 37 b8 3a 2d 37
       8.823271e-06 1.1924753e-05 1.8364606e-05 1.0325275e-05
000020 fb 6b c2 37 7f 7e ce 36 47 46 da 37 85 94 e1 37
       2.3176884e-05 6.1540045e-06 2.602035e-05 2.689125e-05
000030 98 14 21 38 a0 7f dc 37 15 37 4c 38
       3.840457e-05 2.6285474e-05 4.868869e-05
