apka/backend/siec/final_version.pth (torch, 244134 bytes, 41 tensors)

embeddings.0.weight f4 [5, 3]
000000 2a b1 b6 3f 2e d6 5f 3f 91 64 b6 3f 3a 3d f6 be
       1.4272816 0.8743619 1.424944 -0.48093587
000010 fe 12 f9 3f b0 c4 45 3e 2c aa d3 b9 2e bf 18 3f
       1.9458921 0.19313312 -0.00040371844 0.5966672
000020 25 2c 25 bf 27 69 aa bd d9 b9 82 3f 1a 34 ab 3f
       -0.64520484 -0.083208375 1.0212966 1.3375275
000030 94 c3 51 3f cd d9 19 3f a9 a0 e2 3f
       0.81939054 0.6009796 1.770528

embeddings.1.weight f4 [7, 4]
000000 66 c6 97 3f 6d 8f 54 bf 76 de 0e 40 e6 4f 1a 40
       1.1857421 -0.8303135 2.232328 2.4111266
000010 0a 17 e5 bd a1 e6 8c be 7f cb 3d 3f f6 49 c0 bf
       -0.11186035 -0.27519706 0.74138635 -1.5022571
000020 5a 46 ce 3e 47 94 26 3f 7b 81 6e bf 87 b9 b0 3f
       0.4028805 0.65070003 -0.9316632 1.3806618
000030 57 c6 38 3e bb ae 26 3f 73 3f 87 3f c8 6d 20 3f
       0.1804441 0.6511037 1.0566238 0.6266751
000040 62 b3 8e c0 76 50 af 3f dc cd 48 3f 4e 27 a5 3f
       -4.4593973 1.369643 0.78439116 1.290262
000050 83 2a 9c 3f a5 31 6e 3f f2 52 0f c0 41 29 b3 bf
       1.2200474 0.930445 -2.2394376 -1.3996965
000060 0e c2 c2 be 1c 8d cc be 4f 15 86 3f 84 03 08 3f
       -0.38038677 -0.39951408 1.0475253 0.53130364

embeddings.2.weight f4 [6, 3]
000000 29 3a fc 3f 9e 07 c8 be 5e 9c af bf b7 39 02 be
       1.9705249 -0.3906831 -1.3719594 -0.12717329
000010 c4 81 84 3f 2a b1 bd 3f 86 b0 dc 3f 29 dd 24 bf
       1.0352101 1.4819691 1.7241371 -0.64399964
000020 6b f2 6e be a4 fe 9b bf d9 11 a1 3e b4 41 1d c0
       -0.23334663 -1.2187085 0.3145893 -2.4571352
000030 7e f0 05 3f 8f cd 4f bf 37 a9 36 bf 5b 6f 82 bf
       0.52320087 -0.8117303 -0.7135195 -1.0190233
000040 bd 47 f5 be f1 58 ea 3f
       -0.47906294 1.8308393

embeddings.3.weight f4 [6, 3]
000000 c3 19 b6 bf a5 63 de be 7a 82 12 3f ab 1c 3b 3e
       -1.4226612 -0.43435398 0.5723034 0.18272655
000010 8f b9 c0 be 87 90 2e 3f fa 03 a0 3f 6d 20 7b 3d
       -0.3764157 0.6818928 1.2501214 0.06131022
000020 52 98 89 bf b1 e7 23 be e0 5f 3d 40 f8 8c 9d 3f
       -1.074961 -0.16006352 2.9589767 1.2308645
000030 49 e6 5f bf 48 6d 77 bf b1 2e 08 3f 3e 05 99 bf
       -0.8746076 -0.96651125 0.53196245 -1.1954725
000040 83 0c ba 3e 7d 05 66 3f
       0.3633767 0.89852124

embeddings.4.weight f4 [4, 2]
000000 61 c3 74 3f 27 6f 8f 3f 84 d8 2e bf 8e 95 8b bf
       0.95610625 1.1205796 -0.68299127 -1.0905015
000010 ab 9f c3 bd 72 a0 b1 3f 94 34 16 bf c2 4c 4d 3e
       -0.095519386 1.3877089 -0.5867398 0.20048812

embeddings.5.weight f4 [8, 4]
000000 85 d2 99 3f 6e c5 b9 3f 30 d2 e0 bd ef 5f 94 3f
       1.201737 1.4513376 -0.1097759 1.1591777
000010 42 a6 14 bf 7e ee 34 3f cc 00 47 3f b4 28 9f be
       -0.5806619 0.7067641 0.7773559 -0.31085742
000020 88 00 26 3e 63 1b d5 3f 5b f3 55 3f 22 2e 5a bf
       0.1621114 1.6648983 0.83574456 -0.85226643
000030 d8 d4 fe 3c 81 f4 df be 5e 72 d9 bf 03 5e 89 3f
       0.031107351 -0.4374123 -1.6988027 1.0731815
000040 de e6 a9 3e a4 20 ef 3e b2 4c 1c bf f9 42 52 bf
       0.3318395 0.4670459 -0.6105453 -0.8213344
000050 8e fc 9c 3e 7b 6f 84 bf 23 62 6c 3e 42 da 9f 3f
       0.30661434 -1.0346521 0.23084311 1.2488482
000060 65 06 a2 bf 63 b3 c3 bf 67 0a c8 3f 38 65 7f bf
       -1.2658201 -1.528912 1.5628175 -0.9976382
000070 eb 1d b6 3f 9c 20 07 40 52 fe 91 3f df f3 fc bf
       1.422788 2.1113653 1.1405737 -1.9761924

embeddings.6.weight f4 [3, 2]
000000 cd 20 e5 be cd 3b 3b bf f8 95 63 bf c9 40 b9 3f
       -0.44751588 -0.73138124 -0.8890071 1.4472896
000010 60 8e 7f 3f ae 6c 77 bf
       0.9982662 -0.9665021

embeddings.7.weight f4 [8, 4]
000000 c8 72 62 3f e9 9a 69 be bc 5e 06 3d 2c 81 15 3f
       0.8845639 -0.22813 0.03280519 0.58400226
000010 ac 93 eb 3e 1a 89 37 c0 b3 1a e6 3e 43 cf 9d 3e
       0.46011102 -2.867743 0.44942245 0.3082219
000020 4f c0 55 bf 6e 3e 73 be 13 e1 97 bf 0e 61 12 bf
       -0.83496565 -0.23754284 -1.1865562 -0.57179344
000030 6a 5c 2e 3f 6a d7 1f 3e b0 ce c5 3e f0 97 80 3e
       0.6810976 0.15609518 0.38634253 0.2511592
000040 73 0e 0c 3f 6c 76 34 3e c3 37 e8 3f 6f 44 04 bf
       0.5470955 0.176233 1.8142017 -0.5166692
000050 a4 da ba 3e 68 1c e4 bf 6c f2 a2 be 6d 12 6b 3f
       0.36494935 -1.7821169 -0.31825578 0.9182499
000060 e3 0f 1b bf ce ce 2d 3f 06 0d 57 3e f5 36 d3 bf
       -0.60571116 0.67893684 0.21001062 -1.6501147
000070 9f 26 95 3f 56 e9 d4 3f e0 1c 17 bf 0c 68 78 bf
       1.1652411 1.6633708 -0.59028435 -0.9703376

embeddings.8.weight f4 [7, 4]
000000 4d 7a 23 3f 84 b4 74 3e 22 ff 11 be e1 3b 4f 3f
       0.6385849 0.23896986 -0.14257482 0.8095074
000010 98 95 12 40 55 dd 84 3f ff b4 d8 3d 84 32 16 bf
       2.2903805 1.0380045 0.10581397 -0.5867083
000020 3d 1e 2d 3f a6 ae 3d 3c 7b e3 55 3f b8 87 1f 3f
       0.67624265 0.011577284 0.8355023 0.62316465
000030 19 01 83 be 5c 78 c4 3f 58 f3 02 3f cf b6 b2 bf
       -0.25586775 1.5349231 0.51152563 -1.3962039
000040 24 17 c4 3f ed d2 38 3f 6d 12 d0 3f e6 d4 0c 3f
       1.5319562 0.7219685 1.6255623 0.5501236
000050 70 7f f9 3f ec 2c 3b 3d 23 fb eb 3f df c8 d5 3e
       1.9492016 0.045697138 1.8436016 0.41754815
000060 76 33 10 bf 10 b4 98 3f f0 ce 62 bf 31 37 8f 3f
       -0.56328523 1.1929951 -0.8859701 1.1188718

embeddings.9.weight f4 [7, 4]
000000 a8 36 e6 bf 59 76 5d 3f 42 0d af 3e 23 9b d9 be
       -1.798543 0.8650871 0.34189802 -0.42501172
000010 65 57 d0 be 78 25 1b 3f 6c a3 ad be 85 65 17 3f
       -0.40691677 0.6060405 -0.33913743 0.5913928
000020 66 17 c4 be 2d 7b d6 3c 4f 7f 48 bf 58 f3 c1 be
       -0.38299102 0.026181782 -0.7831926 -0.3788097
000030 0e 0f f6 3e 4a 49 64 be 1a 80 13 bf da 41 2c be
       0.4805836 -0.22293583 -0.5761734 -0.16821995
000040 8a a2 00 3f cf 7c 90 bf fd e0 6c 3e 17 25 95 bf
       0.50248015 -1.1288089 0.23132701 -1.1651944
000050 f0 2e cf bf c1 90 bf 3f 08 69 f9 bd 7e 92 5b 3e
       -1.6186199 1.496605 -0.12178236 0.21442601
000060 02 82 12 3f 71 d2 3c 3f 16 92 10 3e d9 7b 03 3e
       0.57229626 0.7375861 0.14118227 0.12840213

embeddings.10.weight f4 [5, 3]
000000 35 7f dc bf 28 80 e6 3f a0 9f 28 bf 4e 2c a3 be
       -1.722632 1.800786 -0.6586857 -0.3186974
000010 35 20 1b be 8e 8f e7 3e 58 f8 dd 3e 98 51 02 40
       -0.15149005 0.4522671 0.43353534 2.03623
000020 16 8b ce 3f 69 a4 af bd 1e 22 36 bf d7 ed 6d be
       1.6136196 -0.085762806 -0.7114581 -0.2323526
000030 29 bd ff be 9e 3e 1f 3f b1 82 2a 3f
       -0.49949005 0.6220492 0.6660567

embeddings.11.weight f4 [7, 4]
000000 03 bc 27 3f b0 cc 0b 40 63 c4 8f bf 25 93 15 3f
       0.6552126 2.1843681 -1.1231807 0.5842765
000010 1e 8d c8 be 27 c6 cb 3e 72 56 c0 3e 53 df f5 3d
       -0.39170164 0.39799616 0.37565953 0.12005486
000020 6d 8c 1c c0 73 4c 02 c0 27 74 8d 3f 29 ee 43 3e
       -2.446071 -2.035916 1.1051072 0.1913382
000030 f5 74 18 3e 23 08 cb 3e d0 89 99 be 3f b5 ad 3d
       0.14888366 0.39654645 -0.29987955 0.084818356
000040 1a 0e 03 bf d2 55 21 3f d7 be 00 3f b6 0f 91 bf
       -0.5119339 0.63021576 0.502912 -1.133292
000050 ef 67 b7 3f cd 75 e1 3d 2e 73 5b 3f 05 94 a6 bf
       1.4328593 0.11008797 0.85722625 -1.3013922
000060 35 07 bc 3f 21 24 5a bf 62 80 2d 3e b0 c5 02 40
       1.46897 -0.8521138 0.16943505 2.043316

embeddings.12.weight f4 [3, 2]
000000 2f e3 55 3f c8 11 d2 3f 0d cd 0b 3f 62 bb 3c 3f
       0.8354978 1.6411676 0.5460976 0.73723423
000010 e4 8f 92 3f 92 c5 02 3f
       1.1450162 0.5108272

embeddings.13.weight f4 [7, 4]
000000 aa f7 23 bf 08 1a c9 3e 7f 20 3c 3f 5a 32 1c bf
       -0.6404978 0.39277673 0.73487085 -0.6101433
000010 ef 47 56 3e e0 03 fb 3f 23 20 86 3e 4d 81 18 40
       0.20925878 1.9610558 0.26196393 2.382892
000020 3f b3 b5 3e 2e 2b 42 3f df f2 f3 bc eb 14 64 bf
       0.35488316 0.75847137 -0.029778896 -0.8909442
000030 15 88 45 bf ca 3d 2b 3b 20 09 5a 3f 73 ce 12 c0
       -0.7716077 0.0026129358 0.85170174 -2.2938507
000040 a9 d2 c9 bf 8e 14 d2 3e 12 13 df 3f 1b a4 a7 3e
       -1.5767413 0.41031307 1.7427695 0.3274239
000050 7a 1b 46 3f 8c b1 d2 bf ed e7 3c be 9d 77 cf be
       0.77385676 -1.6460433 -0.18447848 -0.40520945
000060 0e 30 9b 3e c5 2c a4 bf ef a3 9f 3e 6e 76 85 3d
       0.303101 -1.2826163 0.3117976 0.06516729

embeddings.14.weight f4 [6, 3]
000000 37 3d cb bd a2 50 7c be c8 68 eb 3f c7 bf 4e 3f
       -0.09923785 -0.24640134 1.8391352 0.8076138
000010 0d b3 c3 3f 68 5e 6b bf 2e 4e 59 3e 3e 41 0f c0
       1.5289017 -0.9194093 0.2122123 -2.238357
000020 54 c2 ce bf 55 48 07 3e 7e 3c 02 3f d2 c4 62 3e
       -1.6153054 0.13211186 0.50873554 0.22145393
000030 8d 2b 14 bf ee 7f 0d 40 c2 10 91 3f 8a b4 bc 3e
       -0.57878953 2.2109332 1.1333239 0.3685649
000040 31 bb 79 be 92 dc 1e 40
       -0.24387814 2.4822125

embeddings.15.weight f4 [6, 3]
000000 ce e9 2a 3f 2e d1 ab be 31 57 01 c0 16 ef f7 3d
       0.6676301 -0.3355803 -2.0209467 0.12106149
000010 b0 8d 8b be cd 96 83 3f 9a 25 e8 3e 52 e8 e9 3c
       -0.27256536 1.0280396 0.45341188 0.028553162
000020 99 77 18 3f 72 23 13 3e f3 a9 06 bf 21 ee 75 bf
       0.5955749 0.1436899 -0.5260307 -0.9606648
000030 53 56 e1 be 4e 2b 98 3f ed 02 61 bf ab e2 82 bf
       -0.44011173 1.1888216 -0.8789509 -1.0225424
000040 05 62 be 3d c4 7e 32 bf
       0.092960395 -0.6972468

embeddings.16.weight f4 [4, 2]
000000 32 34 08 bf 52 bf 7d bf d2 4b b5 be b0 9e 78 bf
       -0.53204644 -0.99120057 -0.3540941 -0.9711714
000010 09 0b e6 be 4c 5d 0f be 9a 10 6b bf e5 7d 51 bf
       -0.44930294 -0.14000434 -0.91822207 -0.81832725

embeddings.17.weight f4 [8, 4]
000000 9a 16 d0 be 30 d8 44 bb 01 be 87 3f 21 9d 62 3f
       -0.40642244 -0.0030036084 1.060486 0.8852101
000010 7d 8d 26 3f 6e 18 e4 be 17 30 af bf 60 c5 43 be
       0.65059644 -0.44549888 -1.3686551 -0.19118261
000020 31 41 8b 3f a1 f8 19 bf 3d 3a f3 3f 41 c7 e3 bd
       1.087927 -0.60145 1.9002148 -0.11121989
000030 54 dc 8a bf 98 73 1c be 75 76 1c bf df 91 36 bf
       -1.0848489 -0.1527847 -0.6111825 -0.7131633
000040 71 58 c1 bf e8 a1 a7 3e a2 36 f2 3d 57 ce 64 3f
       -1.5105115 0.32740712 0.11826827 0.8937735
000050 58 8d 88 bf 23 b4 09 3f 7b bb 26 3f ab 4a 7b 3f
       -1.0668135 0.5379049 0.6512982 0.9816081
000060 5d a5 32 bf 77 19 08 bf 07 07 d8 3f dd 07 65 bf
       -0.69783574 -0.53163856 1.6877145 -0.89465123
000070 a4 70 bb bf 9d 15 07 bf 9b 9f 2b bf 74 ea 60 3d
       -1.464375 -0.52767354 -0.67040414 0.054911092

model.0.weight f4 [128, 65]
000000 e5 1e aa bd 48 77 a5 bd 7b 69 8f bd a2 83 5f 3c
       -0.08306674 -0.08079392 -0.07002541 0.013642224
000010 ae ad 4e bd f5 0b bc bc 10 ed 82 bd 27 1b 17 be
       -0.050458603 -0.02295492 -0.06392872 -0.14756452
000020 c9 95 85 bc 7a 5e 38 3c fa 23 83 3c e2 d7 4f bd
       -0.016306775 0.011252994 0.016008366 -0.05074299
000030 aa 52 a2 bc 22 fe 7c 3c a3 99 2a 3e ef 85 94 3d
       -0.019814808 0.015441449 0.1666017 0.07252108
000040 bf bb c9 bc 28 4a 19 3c 88 2f a1 3d 6a e8 87 bd
       -0.024625657 0.009356059 0.07870394 -0.06636126
000050 bc 54 0f be 7a c2 8b bc df 19 bc 3d 65 08 76 3d
       -0.13997167 -0.017060507 0.09184622 0.0600666
000060 89 1b 0c 3d 25 f9 38 3d c4 c5 91 ba e4 74 6b 3d
       0.034205947 0.045159478 -0.0011121561 0.057484522
000070 74 8e 84 bd 95 50 8f bd 1e d1 ae bd bf f8 93 3d
       -0.06472483 -0.06997792 -0.0853598 0.07225179
000080 9e 4f 69 3c a8 37 10 be fc d7 59 bd ec 72 80 3d
       0.014240174 -0.14083731 -0.053184494 0.062719196
000090 85 dc 81 bd 38 43 d3 3d f3 a9 b3 bd 50 c8 b8 3d
       -0.06340889 0.10315555 -0.087726496 0.090225816
0000a0 33 f0 a6 3d 28 1f 8f 3d 7a ff 8e 3c 03 d2 56 3d
       0.08151283 0.069883645 0.017455805 0.052446377
0000b0 e7 18 e8 3c 0c a9 50 bd bf fc ac 3d ff d4 f7 bb
       0.028332187 -0.050942466 0.08446645 -0.007563233
0000c0 a0 d8 23 bc aa ef e8 bd 37 12 02 be 04 cd b7 3b
       -0.010000378 -0.11373837 -0.12702261 0.0056091566
0000d0 f1 0b 05 be 42 82 eb bd c7 a1 4d 3d 5e 43 eb bd
       -0.12992837 -0.11499454 0.05020311 -0.11487459
0000e0 98 4e 1f bd 23 22 e7 3c dc c2 25 3d 8f 0e 15 be
       -0.038893312 0.02821452 0.040469036 -0.14556335
0000f0 d3 b7 ba 3d 9d 17 84 3d 23 9b cf bd 7b 01 24 bc
       0.09117093 0.064498164 -0.10137012 -0.010010119
000100 ab e8 cc 3d b0 06 ad bd 11 8f 20 3e e9 e3 08 3e
       0.100053154 -0.08448541 0.15679576 0.13368191
000110 be 63 06 3d 07 21 07 bc c7 bc e2 3c a0 3c d1 bc
       0.032809965 -0.00824762 0.027677907 -0.025541604
000120 41 5c d8 bc b1 82 f9 3c 76 24 88 3d bc 00 3d 3d
       -0.026411178 0.030457826 0.06647579 0.04614328
000130 ad e5 60 bd 47 66 05 3d 84 54 09 3c d7 1f 19 3c
       -0.054906536 0.032568242 0.0083819665 0.00934597
000140 3d 77 45 3c 53 6f de bd 24 5c 96 3c 42 be e5 bd
       0.012052354 -0.10861077 0.018354483 -0.112179294
000150 f6 63 7c 3d 01 3a ea bc e6 14 95 bd 82 0f e3 bd
       0.061618768 -0.028592112 -0.07279377 -0.11086942
000160 f8 a3 a9 bd 5e 7c 05 ba 0b aa 1c 3e b7 94 96 bd
       -0.08283228 -0.00050920795 0.15299241 -0.07352584
000170 39 ce 8c 3d 15 35 ce 3d 33 db d8 bb fe 33 31 3e
       0.06875271 0.10068718 -0.0066179275 0.1730499
000180 77 74 09 be 3a ab d7 3d c8 1d 33 bd 74 02 82 bc
       -0.13423334 0.10530706 -0.043729573 -0.01587031
000190 b4 d3 0b bc 24 f0 1c be a3 a2 5a 3d 91 3a 5d bc
       -0.008534361 -0.15325981 0.05337776 -0.013502733
0001a0 16 2c fd bc c3 a0 a8 3c 8a 9e ab bc 1b d3 93 bd
       -0.03090481 0.02058447 -0.02094962 -0.072179995
0001b0 b2 bc a6 3b 7b 6b 8e bd 27 e2 f0 bd f4 04 08 3d
       0.005088412 -0.06954094 -0.11761885 0.03320785
0001c0 e2 14 02 3e 63 7d ff 3d 37 b6 0b be 5d 14 16 bb
       0.12703279 0.124750875 -0.13643728 -0.002290032
0001d0 fb 14 ec bd fc fa fc bc 76 95 3a be bc 3e ca bc
       -0.11527439 -0.030881397 -0.18221077 -0.024688117
0001e0 1c b7 37 3c eb 16 42 bc 13 59 c5 bd af 0c eb bd
       0.01121309 -0.011846284 -0.0963613 -0.114770286
0001f0 ea 10 0c bd 94 36 a8 3d 28 6d 2c 3e 0a ed 92 3d
       -0.034195818 0.08213535 0.16838515 0.07174118
000200 a4 24 8c 3d 23 52 13 bd b6 ba a0 3d e5 dc b3 3d
       0.06842926 -0.035967004 0.07848112 0.08782367
000210 79 b5 d6 3d 4f df d9 ba 56 fd d8 bc 17 8d cb bd
       0.10483832 -0.0016622337 -0.026487987 -0.0993902
000220 3d 6a e5 bd e6 29 36 bd 93 64 3d 3d a9 a2 8f 3d
       -0.11201904 -0.04447355 0.046238493 0.07013447
000230 cd 39 ce 3d 17 63 d7 bd 1b da 61 bc 17 3a bc ba
       0.100696184 -0.10516947 -0.013784911 -0.0014360574
000240 0f e8 db 3d dd 4b a4 3d 03 77 21 bd f9 8e 82 3d
       0.10737621 0.08022282 -0.03942014 0.06374926
000250 f9 73 80 3b 70 2e 7d 3d 04 be da 3d 31 10 80 bc
       0.003920075 0.061811864 0.10680774 -0.01563272
000260 a3 8d 1e be 5f f2 c6 3d b1 e3 37 3d d6 d2 90 bd
       -0.15483718 0.09714197 0.044894878 -0.07071464
000270 02 c9 92 3d 1d 9b 80 bd 84 f9 cd 3d d6 2a 96 3c
       0.071672454 -0.062795855 0.10057357 0.018330973
000280 8f 79 17 bd ac 0f 99 bd 11 65 29 3b be 37 12 bb
       -0.03698116 -0.07473692 0.0025847594 -0.0022311057
000290 86 90 c2 3d b1 f4 c6 3c 28 8c 29 3d 2a ca 1c 3e
       0.09500222 0.0242866 0.04139343 0.15311494
0002a0 1c 00 5c bd e8 06 95 bc 35 f7 87 3c 2b 71 0e 3e
       -0.05371104 -0.01819177 0.01659737 0.13910358
0002b0 4c 39 f0 3c e9 8d d8 bc 4c 90 e7 3c 2e 88 7e 3d
       0.029324196 -0.026434856 0.028267048 0.06214159
0002c0 4b d0 00 3e 95 f7 f1 3d 60 0c 82 3c 46 1b 23 3d
       0.12579457 0.11814801 0.015875041 0.03982093
0002d0 ea 9e 70 bc db 97 30 bd e7 65 11 be 0e 2d e2 bd
       -0.014686326 -0.04311357 -0.14199029 -0.1104375
0002e0 50 51 04 be a4 f1 01 3d b2 cf d7 3c 5e dc 07 3d
       -0.12921643 0.031724587 0.026344154 0.033169143
0002f0 ef 18 16 3b eb f6 9d 3d ee 9b 9b bd 3e df 00 bd
       0.0022903045 0.077131115 -0.075981006 -0.0314629
000300 6c 3c 41 3d dd 54 95 3d b6 c8 89 bd cc b8 19 3d
       0.047176763 0.07291577 -0.06727736 0.03752975
000310 14 67 2a 3e 00 c8 b7 bb a9 de 8f 3d b6 e8 0c 3e
       0.16640884 -0.0056085587 0.07024891 0.13760647
000320 5f 05 99 bd f0 c0 00 be c0 68 a1 3d 28 1f cb bd
       -0.074717276 -0.125736 0.078813076 -0.09918052
000330 9e 4d 7d 3d f3 6c a9 bd a5 77 68 bd 8c f3 a9 bd
       0.0618416 -0.082727335 -0.056754727 -0.08298406
000340 72 48 b2 3c 54 42 0d 3e f8 0c 25 3d 37 68 fd bd
       0.02176306 0.13794833 0.04029557 -0.12373393
000350 f1 80 a4 3d d7 88 82 3d 13 da e3 3c df d4 3d 3d
       0.08032406 0.063737564 0.027813947 0.046345588
000360 f9 09 ed 3d 19 33 49 bd 4a e5 01 3e cf cb 3e 3c
       0.11574168 -0.049120996 0.12685123 0.011645271
000370 ad 0a 7d 3c b0 58 d2 bd b5 48 a7 b9 1f 41 69 3d
       0.01544444 -0.10270822 -0.00031906893 0.05694687
000380 8f 85 87 bd 59 84 1f bd 6d 56 fa bc 9b f2 4a bc
       -0.06617271 -0.038944576 -0.03055879 -0.012386943
000390 01 98 c1 bd ec 38 f0 3d 38 0c 97 3b 27 58 34 be
       -0.094528206 0.11729607 0.004609611 -0.17611752
0003a0 68 5a 98 3d 4f 1c c4 3d 97 89 8c 3d 23 fa 20 3e
       0.074391186 0.09575712 0.06862181 0.1572042
0003b0 9f 11 02 3e 18 a8 b7 bd 36 bf 51 ba 7e 62 12 3c
       0.12702034 -0.08967608 -0.000800121 0.008934615
0003c0 1c dd 36 be de da 27 be 9b 2d 20 be ec 28 82 3d
       -0.17857784 -0.16392085 -0.15642397 0.063554615
0003d0 c7 f4 33 be 14 98 ff 3d f0 79 91 bd a7 4a 09 bd
       -0.17573844 0.124801785 -0.07103336 -0.03351846
0003e0 59 a6 1b be b7 f0 22 be 69 16 8d bc f4 04 d5 3d
       -0.15200175 -0.15912138 -0.0172226 0.10401335
0003f0 6a 78 3a bd 33 02 72 bd 7e 69 b6 3b d5 eb 06 be
       -0.045524992 -0.05908413 0.005566775 -0.131759

model.0.bias f4 [128]
000000 ff 65 7b bd ef 91 66 bc 27 5b d1 3d 81 38 4a 3e
       -0.061376568 -0.014072879 0.10222464 0.19748117
000010 b3 38 05 3e c6 55 b2 bd 40 5d d2 3d 25 8c e6 bc
       0.1300991 -0.08707766 0.10271692 -0.028142998
000020 34 20 22 3d f7 3b f6 bb 56 30 e2 bb 2f 11 18 3e
       0.039581493 -0.0075144726 -0.0069027347 0.14850305
000030 1a 76 a6 3c 18 fa 07 3e 37 90 98 bb 10 3a c5 3d
       0.020319987 0.13278997 -0.0046558636 0.09630215
000040 90 f3 b3 3d f9 b8 00 3e 8a b4 39 bd 9a 14 3f 3d
       0.0878669 0.12570561 -0.04533819 0.046650507
000050 43 4b f3 3d 4c a4 c2 bb 92 f6 44 3d b7 fe c1 bd
       0.118795894 -0.005939996 0.04808671 -0.09472411
000060 8b ae ed bc 66 15 0b 3e 09 2f 2f 3e 23 67 57 3d
       -0.029013893 0.13582382 0.17107786 0.052588593
000070 23 57 ff 3b b7 bc 14 3c 7a cb d2 3c ca d6 de 3d
       0.00779237 0.009078196 0.02573179 0.108808115
000080 eb e4 8a 3d 6a 80 f3 bd 43 80 45 3d 07 ba d8 3d
       0.06781944 -0.118897274 0.048218023 0.10582357
000090 84 1a bf 3d e1 7c 1a bb b0 2f ba 3d d1 e2 87 bd
       0.09331229 -0.0023572969 0.09091127 -0.06635059
0000a0 38 8a 2d 3d 43 f9 a2 3d c6 a8 97 3d 1d 64 dc bc
       0.042368144 0.07957699 0.07405238 -0.026903206
0000b0 81 dc 14 3e c5 3e e7 bc 99 9f 20 bd 90 25 74 3d
       0.1453724 -0.028228173 -0.039214704 0.059606135
0000c0 9a 2c 58 bd 76 c3 9c bd 14 35 ae bd f8 55 fd bb
       -0.05277691 -0.07654469 -0.085062176 -0.0077311955
0000d0 5e 15 73 3d 8f eb 43 bd b4 41 58 bd ca e8 4f 3d
       0.05934655 -0.047832068 -0.052797034 0.050759114
0000e0 62 ca ed 3d 59 1c ee bd 0f 62 35 3d 7f 6e 90 bd
       0.11610867 -0.11626501 0.04428297 -0.070523255
0000f0 80 0e bf 3d 07 a4 e6 3d 0c 46 e6 3d fb ae 31 3d
       0.093289375 0.112617545 0.11243829 0.043379765
000100 22 9d ba bd ec 32 25 bd e4 97 07 3e 19 9d 72 3d
       -0.09112002 -0.040331766 0.13241535 0.05923185
000110 0d 61 ff bc 1a 4e a2 3d c2 f2 be 3d 77 fb 77 bc
       -0.031174207 0.07925053 0.09323646 -0.0151356375
000120 3e 26 ea bc ff 5d 2a 3c 62 4f cb 3d e5 10 10 bd
       -0.028582688 0.010398387 0.099272504 -0.035172362
000130 a1 4d 2e b8 08 a8 84 3a d0 17 8b bc 9e f3 31 3d
       -4.155713e-05 0.0010120878 -0.016979128 0.043445222
000140 bd 18 80 bd c3 e2 b8 bd 56 d7 23 bd ca 9d f1 3c
       -0.062547185 -0.09027626 -0.040000282 0.029494185
000150 f1 c5 a4 bc c6 41 9b 3d af 54 e5 bc 97 9b 2b 3c
       -0.020113917 0.07580905 -0.027994482 0.010474107
000160 f0 ce 49 3d b7 64 b2 3c a7 4e dc 3d a7 34 17 3d
       0.049269617 0.02177654 0.10757189 0.036915448
000170 ba ce 08 3e a5 a5 24 bd f5 1f 8c 3d 1d bd 12 3d
       0.1336011 -0.040197033 0.06842033 0.035824884
000180 53 9a f0 3d a0 e9 12 3d 0c aa b6 bd e3 3c 09 bd
       0.11748185 0.035867333 -0.089191526 -0.03350533
000190 7f 09 ba 3c 3d b8 f3 3d 26 ab cf bd be 71 a1 3d
       0.022709606 0.11900375 -0.10140066 0.07883023
0001a0 1c 54 85 32 3b 58 a9 bd ce 38 23 3d aa 1f 86 bd
       1.5521486e-08 -0.08268782 0.039849095 -0.06549008
0001b0 e1 19 76 bd 4a 51 d4 3d f0 bb c3 3c ec db c4 bc
       -0.060083274 0.10367067 0.023893327 -0.024030648
0001c0 16 9e 98 bc 2c 6c e5 3d fa 09 7f 3d 04 3e 40 b5
       -0.018630069 0.11202273 0.062265374 -7.161582e-07
0001d0 6c 69 ca 3d fc 20 ba 3d 71 15 e0 b7 df 0f 63 3b
       0.09883389 0.090883225 -2.6712865e-05 0.003464691
0001e0 9f 78 dd bc 8a 90 80 bd 1c 34 4e bc de 55 bb bd
       -0.027035056 -0.06277569 -0.012585666 -0.09147237
0001f0 41 eb 2a 3d f6 ba 3d bd 24 50 04 bd a7 90 da 3d
       0.04172826 -0.046320878 -0.03230299 0.106721215

model.2.weight f4 [64, 128]
000000 b1 5e 6e bd 67 c0 cb 3d 8c be 87 bb ed 49 15 3e
       -0.058195774 0.09948807 -0.004142588 0.14578982
000010 7f 78 fc 3c dd c8 dd 3d 97 e4 52 3c 63 b2 a1 3d
       0.030819176 0.10829327 0.012871883 0.07895353
000020 0b ab 0e 3d 51 23 00 3e bd f8 23 3e a7 01 da 3d
       0.034831088 0.12513472 0.16012855 0.106448464
000030 73 42 20 3b ac 21 63 3d 1c 29 0a bd 8d d5 c6 3b
       0.002445367 0.055452034 -0.03373061 0.0060679377
000040 6d a1 07 3c 37 b6 87 bc cb 4a b8 bd ee 0e 0d 3e
       0.008278233 -0.016566379 -0.089986406 0.13775226
000050 a6 fb 2e bd 8c 5e a6 3d 68 03 ed 3d 1f 31 2e ba
       -0.04272046 0.08123502 0.11572915 -0.0006644893
000060 f4 cb 4e 3d 23 78 94 3d 2a 21 38 bc e5 50 22 bd
       0.050487474 0.07249477 -0.011238376 -0.03962793
000070 f0 04 bd 3d 35 18 cc 3b 3e ea cd bc 58 10 12 bd
       0.092294574 0.0062284716 -0.02513611 -0.035660118
000080 77 e6 81 bd 85 f0 9f bd 27 80 42 bc 88 f2 ab 3d
       -0.06342786 -0.07809547 -0.011871374 0.083958685
000090 4b 1c 29 3d f9 cc 69 3d 2d 19 65 bc d3 01 b2 3d
       0.041286748 0.057080243 -0.013983053 0.08691754
0000a0 b4 cd 8b bd 9f 23 6f 3d 51 a2 85 3d 48 4d 3e 3b
       -0.06826344 0.05838358 0.065251 0.0029037762
0000b0 5f 86 45 3d e8 b7 78 bd da 68 af 3d 9b 16 cc bc
       0.04822385 -0.06072226 0.08564921 -0.024913123
0000c0 40 cf 7a 3c c9 8a b7 bd 05 02 80 3d 1a 0d 11 3d
       0.015308201 -0.08962018 0.06250385 0.035412885
0000d0 4e df ba 3d 72 d9 8d bb 30 31 6b 3d 48 d7 cb 3d
       0.09124623 -0.0043289 0.057419956 0.09953171
0000e0 69 a3 63 3b 16 8f 3f 3d 60 f0 72 bd 42 57 85 3d
       0.0034734851 0.046767317 -0.05931127 0.06510784
0000f0 1f 5e 3c 3c b8 21 05 3d 58 e3 27 3e 5b 6e df 3c
       0.01149705 0.03250286 0.16395319 0.027274301
000100 8a 0b 57 3c 10 cf e7 bc 86 d4 ec 3d 9d 3e 84 bc
       0.01312531 -0.028296977 0.11563973 -0.016143138
000110 3e ac ee 3d 3b 29 df 3d 84 80 bc bc 74 2f 0c 3d
       0.11653946 0.10896536 -0.0230105 0.034224942
000120 3e 18 0f 3d 64 98 ff 3b 74 74 85 3d 75 e3 af 3d
       0.03493523 0.007800149 0.06516352 0.08588306
000130 6d af 8e 2f b3 89 58 3d 28 45 a0 3d 8d 66 35 3b
       2.5954297e-10 0.052865695 0.078256905 0.0027679533
000140 eb 82 0b 3e 22 fa 9b 3d 4f 0d 14 bc fd 53 0e 3e
       0.1362416 0.076160684 -0.009036376 0.13899226
000150 f0 41 a8 36 91 00 6d bd c4 9a b7 3d 73 b1 19 3b
       5.0144663e-06 -0.05786187 0.08965066 0.0023451715
000160 d1 27 09 bd 53 ff b9 3d d0 88 1e 3d ea c7 56 bd
       -0.033485238 0.09081902 0.038704693 -0.052436747
000170 1b 23 45 bd fb 36 a9 3a d9 2f ef 3c 2a 90 4f 3d
       -0.048129182 0.0012910062 0.02919762 0.050674595
000180 2e 45 61 bd 17 2d 17 3e af 22 38 bd 14 94 9b 3d
       -0.054997616 0.14763294 -0.04495495 0.07596603
000190 ee 10 27 3d 4f 01 8f bc 27 28 b6 3d 2d b4 a0 3d
       0.04078763 -0.017456679 0.08894377 0.07846866
0001a0 29 0a ba 34 9f 0f 11 bd bc 7d cd 3c c6 90 52 bd
       3.4652592e-07 -0.035415288 0.025084369 -0.051407598
0001b0 e1 59 ff 3c b6 c4 b1 bc 5b 7e 0d 3c 92 ee 29 3d
       0.031170787 -0.021700244 0.0086360825 0.041487284
0001c0 35 95 19 3d f0 07 c4 3b fa e7 4f 3d 6b b4 d4 34
       0.03749581 0.0059823915 0.05075834 3.9619349e-07
0001d0 6b d5 07 bd 4f fa 60 3d 0b 94 a9 38 c4 f9 7f 3d
       -0.033162516 0.054926213 8.086123e-05 0.062494054
0001e0 a1 2d 83 3d c1 1c 4a 3b 9c d8 89 3d 50 bd 0d bd
       0.064051874 0.0030839893 0.06730768 -0.03460437
0001f0 f3 4b f7 3c e4 c6 79 bd 43 64 90 3c 7a 68 7e bc
       0.030187583 -0.060980693 0.017625934 -0.015527839
000200 4a d0 3f 3d 6d 06 a2 3c 25 05 f4 bb 07 b5 cd 3b
       0.0468295 0.019778455 -0.0074469023 0.0062776837
000210 15 28 b7 bd 4c 3f a9 bd 3c 03 a9 bd fa a9 8e 3c
       -0.08943192 -0.08264026 -0.0825257 0.017415036
000220 a6 9b 42 3d ff 22 36 bd ad 85 90 bc 69 b4 46 3d
       0.04751172 -0.04446697 -0.017641867 0.048511896
000230 60 9d ba bd ed e7 49 bd c0 ce 69 bd ac 50 2f 3d
       -0.09112048 -0.049293447 -0.057081938 0.042801544
000240 4f 67 bc bd 03 0c cc 3c e1 87 87 3d 7b f3 93 bc
       -0.09199392 0.024908071 0.06617714 -0.018060436
000250 ab 6a 1d bb ea 58 a0 3d 47 58 a3 bd e3 56 a5 3d
       -0.0024019878 0.07829459 -0.07975822 0.08073213
000260 29 1a 06 3c ee 93 b8 bc 0f 90 53 bd 92 8e f6 3c
       0.008184948 -0.022531476 -0.051651057 0.03009728
000270 14 57 1d 3a a8 f7 c5 bc 64 99 1a bd fc 06 76 bd
       0.00060020504 -0.024165943 -0.03774394 -0.060065255
000280 42 41 b4 bd 40 d6 95 bd 68 b1 44 bc 2e 71 a3 bb
       -0.088015094 -0.073162556 -0.012005188 -0.0049878573
000290 a9 c4 b2 bd a2 ff 7f 3b a3 b2 9d bd 5a 46 19 bd
       -0.08728916 0.003906228 -0.07700088 -0.037420608
0002a0 cb bb 49 bb 32 62 de bc 55 a0 d5 bc 05 47 24 b0
       -0.00307821 -0.027146433 -0.026077429 -5.976378e-10
0002b0 b1 ca 10 bc 42 a6 55 3d a6 65 de 3c 09 a8 fa 3c
       -0.008837388 0.05216051 0.02714808 0.030597704
0002c0 10 e0 80 bd 4d 62 44 3d d1 1d 23 3d c9 ac 9e bc
       -0.062927365 0.04794531 0.039823357 -0.0193695
0002d0 a5 ea 3c 3d d1 84 37 3d cc 40 96 bd b4 50 20 3d
       0.046122212 0.044804398 -0.07336578 0.039139464
0002e0 6a c2 29 bd 5d f0 22 3d 1c dd 73 bd 76 a6 83 3d
       -0.041445173 0.03978001 -0.05953704 0.06428234
0002f0 45 4a fd bc 78 4c 44 bd 2d 38 8c b2 33 79 0c 3d
       -0.030919204 -0.04792449 -1.632369e-08 0.034295272
000300 82 86 a0 3d b4 99 77 3d 77 9f 52 3d 22 4b 29 bd
       0.07838155 0.060449317 0.05142161 -0.041331418
000310 8f 38 5c 3d 2b 1d 8e 3d f5 d2 5c 3d 12 aa 08 3d
       0.053764876 0.06939157 0.05391212 0.033365317
000320 32 9b 36 bd 88 b6 b3 bd a7 f9 33 bd 16 ed 1e 3d
       -0.0445816 -0.087750494 -0.04393926 0.03880032
000330 7f 56 16 2e c2 7b 5c 3d 8c 16 90 3d dd a0 8b 3d
       3.4182875e-11 0.053828962 0.070355505 0.068177916
000340 25 36 45 bd 53 ba 68 bd f1 c5 a6 bc 4a 7e 2e 3d
       -0.04814734 -0.056818318 -0.020358058 0.042600907
000350 a5 a2 bc af d7 e2 b6 bd 57 ad d4 3c 69 65 cb b7
       -3.4312567e-10 -0.08929985 0.025961561 -2.4246709e-05
000360 7c 91 a1 bd 7c 35 92 3d 5a 61 a0 3c 7c b5 39 31
       -0.07889077 0.071391076 0.01957767 2.7024205e-09
000370 68 bb 54 3d aa e6 fd ba 15 31 33 3d 35 cf 1f bd
       0.051936537 -0.0019371111 0.04374798 -0.039015967
000380 c5 f9 dd 3c bf 73 24 bd 72 08 ba bc fd 34 30 3b
       0.027096638 -0.040149447 -0.022709105 0.0026887052
000390 0b 3d 55 3d 7e 2a bd bd e0 63 1d bd b1 40 09 3d
       0.05206017 -0.0923662 -0.038425326 0.03350896
0003a0 fd 28 b4 3a f4 5c a8 3d bb ae 6c 3d 96 d9 84 3d
       0.0013745126 0.082208544 0.057783823 0.06486814
0003b0 9f 7f aa 3c 3c 87 24 bd d2 60 6f 3d 80 d9 71 bc
       0.020812808 -0.040168032 0.058441944 -0.014761329
0003c0 2e f9 b9 3c 54 54 bc 3c 46 e8 03 3d 35 27 59 b0
       0.022701826 0.02298943 0.032203935 -7.8999857e-10
0003d0 09 3f 73 bd ea 91 83 bc d5 d6 33 b2 ee 87 b8 bd
       -0.059386287 -0.016060788 -1.04680185e-08 -0.090103015
0003e0 ab a3 b5 bd e9 d4 95 bd 32 18 d3 bb de 5a f3 3c
       -0.08869108 -0.07316 -0.0064420933 0.029706415
0003f0 e2 1f 3d bd 61 83 32 bd 48 f3 af af 91 aa 0f 3c
       -0.046172984 -0.043582324 -3.2005176e-10 0.008768694

model.2.bias f4 [64]
000000 49 cd bb 3d 59 aa 97 bb 13 4f 1f bd 5e 0c d4 3c
       0.091700144 -0.0046284613 -0.03889377 0.025884803
000010 89 f3 3f 3d 13 01 47 bd ec 0d 6c 3d 91 76 8b 3c
       0.046863113 -0.04858501 0.057630464 0.01702431
000020 88 6c cc 3d 86 86 5d 3c 8c 04 e1 3c 2e cb 0c 3d
       0.09981638 0.013520842 0.027467988 0.034373455
000030 ae 9a 9a 3d 53 a5 23 bb 89 4e 9a 3d 8b 69 35 3c
       0.07549034 -0.0024970367 0.07534511 0.011072527
000040 a9 9d ae ba 4b 04 cf 3d 47 85 8d bd f8 bf a5 3c
       -0.0013322133 0.10108241 -0.06910186 0.02023314
000050 f3 6b 88 3d 4c 58 b2 bc f8 31 8e 3c cc fa b4 3d
       0.06661215 -0.021770619 0.017357811 0.08836898
000060 84 dc e0 3d 86 c3 9f 3d 6c 71 4c bd 5d b0 8a 3d
       0.1097956 0.07800965 -0.049912855 0.0677192
000070 a2 26 82 bc a8 a8 8d 3d 04 39 21 bd 69 a3 e8 3d
       -0.015887562 0.06916934 -0.039361015 0.11359293
000080 56 10 2f bd 60 a4 29 bc 06 ff 41 bd 60 bb 6e 3d
       -0.04274019 -0.010354131 -0.04736235 0.058284163
000090 57 6e 1a 3d 07 9b ae 3d 1b 8c 6e bb 00 34 6b 3a
       0.037702885 0.08525663 -0.0036399427 0.0008972287
0000a0 08 6b 77 bd 5e aa da ba f8 c9 e6 3b 43 83 69 bd
       -0.060404807 -0.0016682853 0.0070431195 -0.057009947
0000b0 62 6b 5f 3d 65 79 9d 3d 88 19 f2 3c 1f 8a 26 bd
       0.054545768 0.0768917 0.02955319 -0.040659066
0000c0 a8 a2 fe 3b 6b 0b 81 bb 84 26 fc bc c2 f0 66 3d
       0.007770855 -0.0039381287 -0.030780084 0.05638195
0000d0 f7 c5 4d 3d 62 1a 16 3c a5 4a 39 bc c3 0d dc bb
       0.050237622 0.009161564 -0.011309301 -0.0067155077
0000e0 c9 33 c3 3c 51 d5 2e 3d cb a1 7c 3d bf 4d e6 3d
       0.023828404 0.042683903 0.061677735 0.11245298
0000f0 56 7b 22 3c 44 2e 8f 3d 64 89 3d 3d 67 8f 74 3d
       0.009917101 0.06991246 0.046273604 0.05970707

model.4.weight f4 [32, 64]
000000 79 3d db 3c 29 c9 fd 3b 27 f8 ca bd ec 50 f9 bb
       0.02676271 0.0077449274 -0.099106126 -0.0076085236
000010 06 2a 66 3c 5c 65 8a bd f3 41 e6 3c 87 e3 d1 ba
       0.014048105 -0.06757614 0.028107619 -0.0016013243
000020 c3 8d a4 3d 57 2b dd 3c 77 1b aa 3c 31 6a f4 3d
       0.080348514 0.026998205 0.02076505 0.11934317
000030 9d 54 d2 3c 61 83 cd bd 8a 5d 11 bd bc d4 bc 3d
       0.025675112 -0.10034824 -0.035489596 0.09220263
000040 15 da b8 bd 5b 9b ad 3b f1 d5 1c bb f0 c0 05 bc
       -0.09025971 0.005298061 -0.002393123 -0.008163676
000050 f8 99 33 af 39 ff 30 ad 22 78 dd bd 56 d7 3e bd
       -1.6334656e-10 -1.00611125e-11 -0.10813929 -0.04659208
000060 5f 09 85 3d e3 b6 3d bc f7 fa 83 bd 9f 2f 42 bb
       0.06495928 -0.011579248 -0.06444352 -0.0029630435
000070 2c 1a b0 3d 97 2d a6 b9 59 87 03 be 8e 42 f6 bc
       0.08598742 -0.00031695954 -0.128446 -0.030061033
000080 04 10 b2 3d a5 9a 1d bb d7 7f 0c bc e5 6a 99 3d
       0.08694461 -0.0024048474 -0.008575401 0.07491092
000090 c3 93 f3 bb 10 9e 98 bd 83 5a 28 b7 92 8a 03 3c
       -0.007433386 -0.07452023 -1.0034654e-05 0.008028643
0000a0 bf ab 93 3b e4 63 0b 2e c8 09 f2 bc 37 e0 93 3d
       0.0045065577 3.169366e-11 -0.02954568 0.072205
0000b0 12 b8 6b bd 1c ea 98 bd a8 f3 01 b0 c6 21 ed 3a
       -0.05754859 -0.07466528 -4.7276183e-10 0.001809173
0000c0 f3 fe 06 bd 64 de 19 b2 3a 72 22 bc 8c 4c fd ba
       -0.032957982 -8.956338e-09 -0.009914929 -0.0019325181
0000d0 54 12 8c bc 0a 03 0d bc fd 1f be b8 09 e6 57 3b
       -0.017098583 -0.008606682 -9.065864e-05 0.0032943508
0000e0 af 57 e8 3d 8c b3 3b bc a1 c8 ca bc 80 e6 a4 bd
       0.11344849 -0.0114563815 -0.02475387 -0.08051777
0000f0 97 91 9e 3d d3 40 95 37 d8 40 0a bd 7c 8f c4 3d
       0.07742613 1.779237e-05 -0.033753246 0.0959768
000100 c3 eb 03 3d 7a 43 a8 bd d1 f3 11 bd 58 bf 35 bd
       0.03220726 -0.08215995 -0.035632912 -0.044371933
000110 be 65 fa bd bd ab f7 bd cb 8e 80 3d 1c 49 b6 3d
       -0.12226437 -0.12093303 0.062772356 0.08900663
000120 ee 4c 31 3d bd 45 ef bc 33 e1 cd bd f3 e5 8f 3d
       0.043286256 -0.029208058 -0.10052719 0.07026281
000130 98 a0 f6 bd 4a 9f 9b 3d 4f 02 a6 bc 1d da 3c bc
       -0.120423496 0.07598741 -0.020264773 -0.011526612
000140 31 a2 a2 bd 8c a8 90 3d 13 4f 45 bc 4b 8e 57 3d
       -0.07941092 0.07063398 -0.012042779 0.052625936
000150 6c f7 81 3d 20 0c a5 3d c3 19 83 3d 0e 82 01 be
       0.0634602 0.08058953 0.06401398 -0.12647268
000160 aa 0e 35 bc 19 10 60 3d 4c ec 3e bc fd 92 4a 37
       -0.0110508595 0.054702852 -0.011653017 1.2074362e-05
000170 f9 fa f2 bd d5 33 c5 3d dc 75 b9 3d 88 0c 72 3c
       -0.118642755 0.09629027 0.09055683 0.0147734955
000180 92 00 e7 bd b1 e1 9e 3d 3f 0c 02 be 3f 48 95 3d
       -0.11279406 0.07757891 -0.12699984 0.072891705
000190 a2 06 91 3d cb 6a 58 bd c2 2c cc bc 3b ae e1 b6
       0.07081343 -0.05283622 -0.024923686 -6.7258056e-06
0001a0 f5 87 ce 3d 03 6f 05 bc 4b 6a 53 ba 5e bf d0 bd
       0.100845255 -0.008144143 -0.000806485 -0.101927504
0001b0 2a 20 8d bd 9a b6 8d bc fc 7e 8a 3d a9 94 7e 3d
       -0.068909004 -0.017298985 0.067625016 0.062153492
0001c0 ac 5e b6 bd b3 1a 6e ba 2c 33 07 3d 32 8d 3d 39
       -0.08904776 -0.0009082958 0.033007786 0.00018077044
0001d0 e3 86 26 bd 24 94 41 2b 1f ed d1 bd 0a 4e d3 bc
       -0.04065598 6.877296e-13 -0.102503054 -0.025794048
0001e0 75 7a 9e bb 79 ec 92 3d c1 90 9e bd 65 1e 6c bc
       -0.0048363754 0.0717401 -0.07742453 -0.0144115435
0001f0 26 41 2e bd c7 0c 3b bc 89 26 82 bd fa 57 91 bd
       -0.0425426 -0.011416621 -0.06355006 -0.07096858
000200 6c 79 bd bd f9 a7 19 3c 1e f6 84 3c 96 c3 79 bd
       -0.09251675 0.009378427 0.01623064 -0.06097754
000210 f3 af 20 3d e4 37 c2 3c c6 7c cc 3d 48 c4 46 3b
       0.0392303 0.023708291 0.09984736 0.0030329395
000220 22 38 8b 3d ad f7 0e 3c 8b f4 b6 bc a1 0c 66 3d
       0.06797816 0.008726043 -0.022333404 0.056164388
000230 4e 81 07 3c 7a 10 e0 3b 88 8f 6a 3d 74 09 d1 3d
       0.008270575 0.0068379017 0.05726579 0.10206881
000240 f7 02 36 3d 10 58 bb bd 53 77 72 3d 83 b4 81 3c
       0.04443642 -0.09147656 0.059195828 0.015833145
000250 ea d3 82 38 2b bb 76 bb 3b 96 b0 bd 58 a4 b5 ba
       6.238355e-05 -0.0037648182 -0.08622404 -0.0013858182
000260 53 fa d7 3d 6a 1d 7f 3c 0c cd 17 be 2d ea bb 3d
       0.105457924 0.015570978 -0.14824313 0.09175525
000270 2c 71 04 be ca e2 c0 bc 18 73 9e bd cf 8a 76 3d
       -0.12933797 -0.023545641 -0.07736796 0.060190972
000280 9c 65 fb 3c 5a b1 89 bb da 9c ed 3a 86 89 17 3d
       0.0306881 -0.00420205 0.001812841 0.036996387
000290 26 0c 08 be 0e 3a fd bd 77 fa 83 bb 32 c5 45 2e
       -0.13285884 -0.12364589 -0.0040276605 4.496776e-11
0002a0 b6 9e ce 3d 80 a4 58 bc dc f9 86 3d 6f 2c 82 3d
       0.100888655 -0.013222814 0.06590626 0.06356131
0002b0 fb 44 07 bd e4 75 03 be 20 ee 1d 3d 37 8a 51 3a
       -0.03302477 -0.1283794 0.03855717 0.0007993313
0002c0 7e 35 4b bd c4 2c 7c b2 f7 68 93 bd cd 11 0a 34
       -0.04961156 -1.4678509e-08 -0.07197755 1.2858727e-07
0002d0 cc 43 6a 3c 17 66 04 3b 90 50 ef bd 69 0b d9 bd
       0.014298391 0.0020202452 -0.11685288 -0.105978794
0002e0 fb d8 32 3d 65 d3 36 3d 22 ed df bd 95 a2 12 be
       0.04366396 0.044635195 -0.10933901 -0.14319833
0002f0 c4 04 25 bd c4 c2 e4 ad fc da 85 bd bc 59 86 3d
       -0.040287748 -2.6007092e-11 -0.065359086 0.06560084
000300 5b cf bd bd 01 44 e5 bc 42 cc 7c bc 68 71 cb 3d
       -0.092680655 -0.027986528 -0.015429558 0.0993374
000310 55 29 00 be 54 30 ee bc 9b 9f 00 be 35 d3 bb bd
       -0.12515767 -0.029075779 -0.12560885 -0.09171144
000320 91 49 a8 bd ad 70 25 bc 16 af 97 3d f9 8c 17 bd
       -0.08217157 -0.010097665 0.07406442 -0.036999676
000330 62 36 06 bd ce e3 bd 3d 1f c4 43 bb 36 06 b7 3d
       -0.032766707 0.09271966 -0.0029871536 0.089367315
000340 cb 3a e0 3c cd 65 a0 bd be a7 f3 3d 7d 22 92 bd
       0.027371785 -0.07831917 0.11897229 -0.07135484
000350 b1 77 d2 30 b0 7d ac bc 37 59 49 3d 76 a2 42 3c
       1.5313529e-09 -0.021056026 0.049157348 0.011879554
000360 e2 31 55 3d c6 c6 96 3d 48 06 eb 3d 00 fe 95 bb
       0.052049525 0.07362132 0.114758074 -0.0045773983
000370 42 48 ed bd 47 57 68 3d d1 f8 8d bd 8b ae b5 bd
       -0.11586048 0.05672386 -0.069322236 -0.08871182
000380 8e 51 07 bd 78 7b e8 3d f2 79 cc 3c d6 2d bc bd
       -0.03303676 0.11351675 0.024960492 -0.0918843
000390 e2 b8 cc bd dd f1 e4 bd 9f bf ce bc ef 44 0d 3a
       -0.09996201 -0.11178944 -0.025237856 0.0005388995
0003a0 48 86 ba 3c 34 35 70 3d 77 30 46 3b 28 02 5c 3c
       0.022769108 0.05864449 0.003024129 0.013428248
0003b0 63 33 72 3c 64 00 24 bd 33 b3 1f 3d 76 ae 7c af
       0.014782759 -0.040039435 0.038989257 -2.2981247e-10
0003c0 14 be 29 3d 98 86 3e b0 e6 54 49 bd 25 0d 92 3b
       0.04144104 -6.9312867e-10 -0.04915323 0.0044571334
0003d0 a2 8a b6 bd c2 72 76 3c 88 da 6e bd 6a da 86 bc
       -0.08913161 0.015042009 -0.058313876 -0.01646157
0003e0 e6 66 dd b8 e1 00 b2 3c c7 15 25 3b a5 72 bd bd
       -0.000105572675 0.021728935 0.0025189982 -0.09250382
0003f0 9c 97 96 3c 83 3b d1 3d 1f 3b 5c 3c c0 b2 3c 3d
       0.01838284 0.10216429 0.01344183 0.046068907

model.4.bias f4 [32]
000000 49 c4 e9 3b 7a 67 c9 3d ba 74 98 bd 66 95 28 3d
       0.0071339947 0.0983419 -0.07444139 0.041158102
000010 a9 5a 73 bd 3a f6 d0 bd 81 cc 55 bd 6b cf 90 bd
       -0.059412632 -0.10203214 -0.052196983 -0.07070812
000020 3a c4 19 bd 6c 2e f6 bc b1 4a e4 bd d2 3a a5 3d
       -0.03754065 -0.030051433 -0.11147059 0.0806786
000030 14 6c ba 3d d8 04 22 bd 7c 62 9b 3d a4 cc 42 3d
       0.091026455 -0.0395554 0.07587144 0.04755844
000040 2b 43 9f 3d 2f a4 97 bd 74 bc b6 ba 46 7a f3 bd
       0.07776483 -0.074043624 -0.0013941661 -0.11888556
000050 f2 6e 88 3d d1 41 4f 3d a2 9d 78 bd 4d f7 a9 3d
       0.06661786 0.050599877 -0.060697205 0.08299122
000060 a9 85 bc bc 8d b7 db 3c c9 ab 8b bd c3 26 1e 3e
       -0.023012953 0.026820922 -0.06819875 0.15444474
000070 b3 77 03 be 73 78 0c 3d c3 af 5a 3d a6 58 d6 3d
       -0.1283863 0.034294557 0.053390276 0.10466127

model.6.weight f4 [1, 32]
000000 8d 6b 9d bd 24 8d 17 be fd 96 d1 3c fd 04 15 be
       -0.07686529 -0.14799935 0.025584692 -0.14552684
000010 df 24 34 bd bc 1c db bc f6 9d ea bd 6a 8e 16 be
       -0.043980476 -0.0267471 -0.1145591 -0.14702764
000020 1e f9 02 be 92 af f9 bd aa 48 d4 bd ae 92 47 3e
       -0.12790343 -0.121916905 -0.10365422 0.19489548
000030 41 4a d6 3d 30 af d1 3d 64 8a b4 bd d3 f8 d4 bd
       0.104633816 0.102384925 -0.088154584 -0.10399022
000040 4b fb fb bc 2e 82 02 be 5d 44 d9 3b eb b6 69 bd
       -0.030759474 -0.12744972 0.006630464 -0.05705921
000050 7d 40 e3 3c 31 f1 b4 bd 83 d9 7e 3d 31 1e 6c 3d
       0.027740711 -0.08835066 0.062219154 0.05764598
000060 d1 0b a1 bd ec 5b df bd 03 d6 58 3d df d5 ac 3d
       -0.07863582 -0.109062046 0.052938472 0.0843923
000070 21 f1 ab bd 49 bd 18 3d 1a 3e 24 3e b8 be 93 bb
       -0.08395601 0.03728989 0.16039315 -0.0045088194

exp_avg f4 [5, 3]
000000 7d 00 77 ba 98 3a 66 ba 94 a6 76 b9 27 46 01 3b
       -0.0009422375 -0.0008782535 -0.00023522443 0.0019725652
000010 a0 4a fb 3a ae bf 55 3a 06 a5 0e ba e5 f5 c7 b9
       0.001917202 0.00081538677 -0.00054414605 -0.00038139443
000020 b0 50 91 b7 a2 9e 6e 39 5a e3 90 38 90 8a 10 39
       -1.732292e-05 0.00022756544 6.9088026e-05 0.00013784529
000030 ae 13 08 3b 49 1b 03 3b 9a 0a 6e 3a
       0.0020763683 0.0020005277 0.0009080559

exp_avg_sq f4 [5, 3]
000000 63 f8 0a 36 11 ec 8a 36 ba 5e 8c 35 84 91 03 36
       2.0708183e-06 4.1402022e-06 1.0458382e-06 1.9605222e-06
000010 98 08 98 36 e3 af 9e 35 45 e9 f4 35 3a c6 6c 36
       4.5309534e-06 1.1823107e-06 1.8247307e-06 3.5282123e-06
000020 1b 54 66 35 18 a9 0e 36 53 ab 9a 36 89 c2 be 35
       8.5804066e-07 2.1258074e-06 4.6095024e-06 1.421272e-06
000030 d5 5d 18 36 b1 67 73 36 fd d6 90 35
       2.2704382e-06 3.6270178e-06 1.0791406e-06

exp_avg f4 [128, 65]
000000 48 80 ab b8 cf 25 ab 37 10 0c 4a b8 41 4f 18 38
       -8.17781e-05 2.0402395e-05 -4.8171787e-05 3.6313435e-05
000010 1c 7f fe b6 3e 93 d4 b8 5a d6 9d b8 6a e9 9b b8
       -7.5845874e-06 -0.00010136374 -7.5262695e-05 -7.434453e-05
000020 7a a9 2d 36 15 3a 3a b8 1a 08 86 38 cf 40 80 b8
       2.5877657e-06 -4.439995e-05 6.391127e-05 -6.115587e-05
000030 27 21 93 b8 eb 5d 47 b6 0a 61 2f b6 98 76 5a b8
       -7.015681e-05 -2.9707978e-06 -2.6133516e-06 -5.20857e-05
000040 ec d0 5b b8 dc 31 5b 38 6c 3b 62 b8 5b 22 e2 b7
       -5.2408242e-05 5.2260104e-05 -5.393794e-05 -2.6957297e-05
000050 80 4c 1b b7 25 3c f1 36 00 fc 3f b9 93 01 52 38
       -9.2565315e-06 7.1893614e-06 -0.00018309057 5.0069368e-05
000060 2e 16 98 38 ec fa 63 38 bd 84 ea b8 6c da 67 37
       7.252056e-05 5.4354707e-05 -0.00011182714 1.3819528e-05
000070 02 a5 b7 38 4e de c9 b8 21 5c de 37 0c fc ef 36
       8.756855e-05 -9.625834e-05 2.6507363e-05 7.152097e-06
000080 58 99 ca b7 8c a8 00 38 5a 6f 8c 37 1e 59 27 37
       -2.4151683e-05 3.067455e-05 1.6741153e-05 9.974725e-06
000090 39 be ec b8 14 6e 93 38 d2 a6 34 b8 cc 23 3b 38
       -0.00011288789 7.03001e-05 -4.3070708e-05 4.4617613e-05
0000a0 56 33 03 b5 97 9c d4 b7 03 b2 2f 38 a6 cd 14 b7
       -4.8876007e-07 -2.5345287e-05 4.1889038e-05 -8.869369e-06
0000b0 24 45 03 b8 53 8e 8a 38 8d 5c 26 b7 0a 2c 0f 38
       -3.1297226e-05 6.606863e-05 -9.91592e-06 3.413487e-05
0000c0 4e 86 91 b8 c2 a3 66 b7 21 03 63 b8 b6 93 ea 35
       -6.939155e-05 -1.3747196e-05 -5.412393e-05 1.7477348e-06
0000d0 a0 63 9b b7 7d bb 8c b6 5c 20 30 38 9d 19 47 b7
       -1.8523831e-05 -4.1941516e-06 4.1991807e-05 -1.1867288e-05
0000e0 f2 be af 37 df 01 e8 33 07 d1 94 b9 91 83 67 b9
       2.0950542e-05 1.0803682e-07 -0.00028384497 -0.00022078889
0000f0 5f 25 56 b9 8f d1 25 b8 08 de 99 36 6c be 04 b8
       -0.00020422552 -3.9534232e-05 4.585603e-06 -3.1648597e-05
000100 9f 7a 87 37 79 a9 06 3a 02 b7 02 3a e4 31 6d 3a
       1.6150354e-05 0.0005136948 0.0004986377 0.0009048267
000110 f8 29 d8 39 6d 93 b5 39 dd 56 62 b9 1c 97 3a ba
       0.0004123 0.0003463285 -0.00021585399 -0.0007117854
000120 35 ce 92 ba c6 2e a8 36 3d 9a 52 ba f8 0c 0f 39
       -0.001120037 5.0122353e-06 -0.00080338476 0.00013642374
000130 a0 ab 79 3a 43 d2 62 3a 46 b8 be 39 c6 07 e2 39
       0.00095241703 0.0008652547 0.00036376918 0.0004311187
000140 9b 07 9e b8 b6 41 95 ba aa a9 d6 ba b5 fd ca 3a
       -7.535444e-05 -0.0011387381 -0.0016377468 0.0015486988
000150 ef 24 1b ba eb cd 39 3a ca 1c 45 b9 04 b2 aa ba
       -0.00059182843 0.0007087874 -0.00018798109 -0.0013023023
000160 84 08 c7 39 48 8a 52 ba a3 3e d9 3a 30 ad 11 ba
       0.00037962582 -0.000803147 0.0016574453 -0.0005557118
000170 5c 02 a7 3a 09 3d bb 3a 02 fd a7 ba c1 4b 51 3a
       0.0012741792 0.0014285158 -0.0012816491 0.00079840055
000180 08 af 05 3a a5 fe b0 b9 a8 27 59 ba b3 17 2e 3b
       0.0005099629 -0.0003375906 -0.00082838023 0.0026564419
000190 b9 4c 07 3a bc a0 91 39 6e 5c 62 3a 15 d4 ab 39
       0.0005161274 0.00027776312 0.0008634989 0.00032773675
0001a0 6f 5c 48 ba 38 4c 61 3a d2 db cd 39 74 59 84 b9
       -0.0007643168 0.00085944263 0.00039264426 -0.0002524365
0001b0 62 73 40 39 f6 b0 0c 3a 7e 78 18 3a 1e 4c 97 39
       0.0001835353 0.00053669454 0.00058162946 0.00028857676
0001c0 db ba 22 39 a6 17 c9 3a 0e 4c aa b9 93 10 2f 39
       0.00015519133 0.0015342131 -0.00032481592 0.00016695475
0001d0 b8 50 60 ba b3 8a c6 b9 b4 da 05 ba d9 da 5e ba
       -0.000855695 -0.00037868842 -0.00051061367 -0.0008501239
0001e0 6b 49 c5 b8 61 26 8c 39 60 ce f7 39 5f f8 52 39
       -9.407367e-05 0.00026731475 0.00047265273 0.00020119686
0001f0 73 4b ff 3c 24 a6 7a 3c 1f 65 80 39 45 d7 28 39
       0.031163907 0.0152984 0.00024489404 0.00016101923
000200 cf 4e 99 b8 83 bc 46 3a 06 60 a7 b8 48 8f d1 39
       -7.310288e-05 0.0007581191 -7.981066e-05 0.0003997034
000210 52 18 14 39 a4 a7 2e 38 44 ae 0a b7 96 9f c6 38
       0.0001412344 4.164096e-05 -8.266015e-06 9.471101e-05
000220 b7 26 07 b9 a8 95 ab 38 80 16 e9 b8 a6 5a c8 39
       -0.00012889026 8.181791e-05 -0.00011114497 0.0003821451
000230 b5 24 56 b9 55 aa dc 37 4c 11 aa 38 9e 26 c9 38
       -0.00020422305 2.630536e-05 8.1094535e-05 9.59162e-05
000240 74 58 8e 39 85 bb 07 39 3c 99 86 39 e8 d3 64 38
       0.00027150253 0.0001294446 0.0002567264 5.455679e-05
000250 7c 07 96 38 cf 06 d0 b8 bc 18 4c 39 5a 83 33 39
       7.1539514e-05 -9.919481e-05 0.0001946417 0.00017119703
000260 4e e6 d8 36 3e a3 17 39 10 3f 35 b6 92 1b a3 39
       6.4641126e-06 0.00014461295 -2.700781e-06 0.00031110324
000270 09 ac 05 39 7c 49 65 39 5b b6 44 39 07 63 3f b9
       0.00012747956 0.00021866517 0.0001875995 -0.0001825207
000280 52 dd 24 39 79 5b 00 37 1b 8b 21 36 76 b0 90 b8
       0.00015722707 7.650692e-06 2.407184e-06 -6.8993235e-05
000290 96 52 9a 39 9e 0f 0c 39 75 33 54 38 76 48 9f 38
       0.000294347 0.00013357258 5.0592662e-05 7.595208e-05
0002a0 80 f0 57 38 43 cb a9 b8 0b 9f 41 39 f4 2b 94 b8
       5.1483978e-05 -8.0964084e-05 0.00018465162 -7.065377e-05
0002b0 0b 8e 4b b8 f5 79 23 b9 67 a5 07 39 07 52 8c b9
       -4.853126e-05 -0.00015590324 0.0001293622 -0.00026763996
0002c0 db eb 38 b7 51 6b 05 36 98 d4 f1 39 0a c4 bb b8
       -1.1022169e-05 1.988101e-06 0.00046125497 -8.95337e-05
0002d0 ab 53 34 38 c2 5d d4 b8 29 6c 08 b9 1d 26 76 b9
       4.2993266e-05 -0.000101264115 -0.00013010264 -0.00023474586
0002e0 f5 44 a1 b9 7c 26 23 b9 25 74 9f b6 ee a5 04 b9
       -0.0003075969 -0.00015559228 -4.7520903e-06 -0.00012650315
0002f0 6f a4 83 3a 9f 63 1b 3c 27 80 75 3a e3 44 90 39
       0.0010043512 0.009484201 0.00093651045 0.00027517145
000300 9d 0f 1a 39 fc e0 7a 38 e7 f9 2b 39 96 5b 67 39
       0.00014692401 5.9814178e-05 0.00016400927 0.00022063995
000310 71 68 f9 3a b5 ce 44 3b 39 2a 81 b9 a8 f5 24 3a
       0.0019028318 0.0030030434 -0.00024636256 0.0006292709
000320 90 d1 4c b9 f6 e8 0f ba 30 75 e1 b8 ac 0d dd 3a
       -0.00019533024 -0.0005489731 -0.00010750664 0.0016865036
000330 49 45 d7 39 90 9d d8 39 89 58 83 3a 75 8c 3a b9
       0.00041059617 0.00041316124 0.0010020892 -0.00017790667
000340 a4 63 f8 b8 bb a5 03 3b 12 61 32 ba d7 59 8a 39
       -0.00011844121 0.0020087797 -0.0006804626 0.00026388347
000350 97 74 2e 3a 38 d2 e5 b9 cb f2 90 ba c4 e1 05 3b
       0.00066549465 -0.0004383491 -0.0011058686 0.0020428756
000360 51 d0 30 3a 3b 77 bb ba 16 21 7d 38 c4 35 23 3a
       0.0006744909 -0.0014302501 6.0350714e-05 0.0006225968
000370 48 e7 09 3b 40 78 2a 3a e6 68 f9 3a e3 52 19 3a
       0.0021042395 0.0006502904 0.0019028455 0.0005848838
000380 85 30 39 39 b5 1f 99 ba 88 94 2e b8 67 2b ad ba
       0.0001766105 -0.0011682423 -4.1623163e-05 -0.0013211787
000390 9a ed 41 3a c9 fa 80 39 f7 68 37 3a bb ac 57 39
       0.0007397771 0.00024600912 0.0006996537 0.00020568345
0003a0 49 61 ec b8 f5 c3 cb 39 62 08 f8 b9 21 96 b3 3a
       -0.00011271478 0.00038865177 -0.00047308492 0.0013701358
0003b0 3c ce 22 3a 8f 2c 11 bb 37 de 27 3a ef e1 05 3b
       0.0006210541 -0.0022151803 0.0006403657 0.0020428856
0003c0 a0 3b a5 ba a2 c0 18 b8 da 2c 4a 3a b9 91 a6 3a
       -0.0012606271 -3.6419027e-05 0.0007712372 0.0012708224
0003d0 57 90 3e ba db 59 2b 3a f0 ba 1d bb aa 63 19 ba
       -0.0007269433 0.0006536522 -0.0024067722 -0.0005851338
0003e0 a9 30 2d ba 71 d4 37 bb c5 ab c2 b6 bb 16 b4 ba
       -0.0006606677 -0.002805021 -5.801647e-06 -0.0013739684
0003f0 fa c5 08 3b 84 83 4c 3b ee dd ca 3d 27 2c 63 3c
       0.0020869956 0.003120632 0.09905611 0.013865507
