apka/backend/siec/final30.pth (torch, 243396 bytes, 41 tensors)

embeddings.0.weight f4 [5, 3]
0	0x3fc4d13a	1.5376351
1	0xbebf6153	-0.3737894
2	0xbf372a93	-0.7154934
3	0x3d39b1af	0.045335468
4	0xbfa1378c	-1.2595077
5	0xbf560296	-0.83597696
6	0x3d439523	0.04774965
7	0xbe60beb3	-0.21947746
8	0x3eb53641	0.35392955
9	0xbf44a6a6	-0.76816785
10	0x3bfe3aff	0.0077584977
11	0xbfa4713d	-1.2847058
12	0xbf7e87f8	-0.9942622
13	0xbf79eb2e	-0.9762448
14	0xbcab002a	-0.020874102

embeddings.1.weight f4 [7, 4]
0	0xbf1a23d2	-0.6021091
1	0xbe5d3006	-0.2160035
2	0x3daa49be	0.083148465
3	0x3f9a8d39	1.2074348
4	0x3f2aee84	0.66770196
5	0xbf4afa3f	-0.79288095
6	0x3fcf0658	1.6173811
7	0xbe4c9847	-0.19979964
8	0xbdee3aed	-0.11632333
9	0x3f91545f	1.1353873
10	0xbf705284	-0.9387591
11	0xbf6ad99c	-0.91738296
12	0xc022ec1c	-2.545661
13	0xbf9bd3c6	-1.2174003
14	0x3f2ebde9	0.6825853
15	0xbf079dc9	-0.52975136
16	0xbd811b87	-0.063040785
17	0xbf0f8fcc	-0.5607879
18	0x3fb62415	1.4229761
19	0xbc9ba8d5	-0.019001404
20	0xbfd11016	-1.6333034
21	0x3f6fc6cd	0.9366272
22	0x3fb8746d	1.441053
23	0x3ed909f3	0.42390403
24	0xbeaf426a	-0.34230357
25	0xbf3ead30	-0.74483013
26	0xbeaf6963	-0.3426009
27	0x3c93d14c	0.018044136

embeddings.2.weight f4 [6, 3]
0	0x3e7c5a78	0.24643886
1	0xbfc18cf7	-1.5121144
2	0xbf1488b9	-0.5802112
3	0xbeb50fe0	-0.35363674
4	0xbed4149a	-0.41421968
5	0xbef85a13	-0.4850622
6	0x3faf8af1	1.3714277
7	0xbf0a97a9	-0.54137665
8	0xbf43fff4	-0.7656243
9	0xbeba705f	-0.36413857
10	0xbfccb478	-1.5992575
11	0x3f281571	0.65657717
12	0x3f8a3888	1.0798502
13	0xbeac5475	-0.33658186
14	0x3eac0415	0.33596864
15	0x3fa72641	1.3058549
16	0x3e085dfe	0.13317105
17	0x3f080788	0.5313649

embeddings.3.weight f4 [6, 3]
0	0xbefb76e5	-0.49114147
1	0xbf9c882a	-1.2229054
2	0x3f35d8df	0.71034044
3	0x3fe12823	1.7590374
4	0xbf1bae62	-0.6081296
5	0x3ebcaf07	0.36852285
6	0x3cba968e	0.022776868
7	0xbfa174c6	-1.2613761
8	0xbf92d7ec	-1.1472144
9	0xbe848583	-0.2588311
10	0x3efc43c6	0.49270457
11	0x3f3e3505	0.7429965
12	0x3cedba12	0.02901939
13	0x3ee6c78c	0.45074117
14	0x3d405379	0.046954606
15	0xbe8ecd63	-0.27891073
16	0xc00b081e	-2.1723704
17	0x3e7c3299	0.24628676

embeddings.4.weight f4 [4, 2]
0	0xbe88585a	-0.26629907
1	0xbeb7b966	-0.35883635
2	0xbbdd76d7	-0.0067585516
3	0x3f56b5d5	0.83871204
4	0xbdc8ba14	-0.098011166
5	0x3e85396a	0.26020366
6	0x3f591428	0.8479638
7	0x3f6b9668	0.92026377

embeddings.5.weight f4 [8, 4]
0	0xbf6c770b	-0.92369145
1	0x3f799146	0.97487295
2	0xbf8f4a2a	-1.1194508
3	0x3ed9f767	0.42571566
4	0xbeed4944	-0.4634496
5	0x3fa8dbc9	1.3192073
6	0x3fb6469f	1.4240302
7	0x3eb979c6	0.36225718
8	0xbe883717	-0.2660453
9	0x3fd6fae9	1.6795322
10	0xbfbbb570	-1.4664745
11	0x3f29e6ba	0.66367686
12	0xbfe62248	-1.7979212
13	0xbd428ade	-0.047495715
14	0xbf3800ea	-0.71876395
15	0x3f59273f	0.8482551
16	0x3fd71a0d	1.6804825
17	0x3e82cbfa	0.25546247
18	0x3f114e3d	0.5676001
19	0x3f4cc433	0.79986876
20	0xbf321f66	-0.6957916
21	0xc010149c	-2.251258
22	0xbeaf5197	-0.34241936
23	0xbf5c44b6	-0.86042345
24	0x3f5490fb	0.8303372
25	0x3e2c0322	0.1679807
26	0x3f978de6	1.1840179
27	0xbfb611b3	-1.4224151
28	0xbfe06265	-1.7530028
29	0xbf535c35	-0.8256257
30	0x3f15a611	0.5845652
31	0x3f4af13d	0.7927435

embeddings.6.weight f4 [3, 2]
0	0x3f85f2d4	1.046473
1	0x3f7d5c6a	0.9896914
2	0xbe0cb880	-0.13742256
3	0xbdda2f2e	-0.1065353
4	0x3ebcc0a8	0.36865735
5	0xbf5f4f5e	-0.8723048

embeddings.7.weight f4 [8, 4]
0	0x3eb8e5a9	0.36112717
1	0xbf9a0685	-1.203324
2	0x3fb1c870	1.3889294
3	0xbee13c1e	-0.43991178
4	0xbf461103	-0.7736971
5	0xbf547387	-0.8298878
6	0x3e8e7d85	0.2783014
7	0xbf8744d6	-1.0567882
8	0xbf4cf4ae	-0.8006085
9	0x4005d350	2.0910225
10	0xbe36a2e7	-0.1783558
11	0x3fcf44b2	1.6192839
12	0xbef141e7	-0.47120592
13	0xbf2725bc	-0.65291953
14	0x3f70ed94	0.94112515
15	0x3fa1f2e2	1.2652247
16	0xbf72fb39	-0.94914585
17	0x3fd3452f	1.6505488
18	0x3fcd21df	1.6025962
19	0x3df8d3e9	0.12149794
20	0xbf3cdb99	-0.7377258
21	0xbfcb50a5	-1.5883986
22	0x3e83af56	0.25719708
23	0xbb9eab8e	-0.0048422283
24	0xbd4338d5	-0.04766162
25	0x40005c4c	2.0056334
26	0xbf112c13	-0.56707877
27	0x3f207c5d	0.62689763
28	0xbf75a5e6	-0.95956266
29	0xbfb51bd7	-1.4149121
30	0xbf268124	-0.650408
31	0xbfb19ec8	-1.3876581

embeddings.8.weight f4 [7, 4]
0	0x3c40d39a	0.0117692
1	0x3f241714	0.64097714
2	0x3e239909	0.15976347
3	0x3fb10989	1.3831035
4	0xbf2cb8ef	-0.67469686
5	0x3fd63a91	1.6736623
6	0x3e338782	0.17532161
7	0xbf15f34b	-0.5857436
8	0xbf9b45ad	-1.2130638
9	0x3fa1082e	1.2580621
10	0xbfb47421	-1.409794
11	0xbf85138f	-1.0396594
12	0xc0109aa1	-2.2594378
13	0xbf7d0b86	-0.9884571
14	0xbdc34951	-0.09535468
15	0x3f26fc9d	0.6522921
16	0x4038a41f	2.8850172
17	0xbf0a6d3a	-0.54072917
18	0xbdb48a2b	-0.08815416
19	0x3e6fd1a3	0.23419814
20	0xbeaec5c6	-0.34135264
21	0xbfe80d25	-1.8129011
22	0x3f18650e	0.595292
23	0x3fef6489	1.8702556
24	0xbfba8888	-1.4572916
25	0x3fd89127	1.6919297
26	0x3f64bca9	0.8935037
27	0xbfb38924	-1.4026227

embeddings.9.weight f4 [7, 4]
0	0x3f0e1fb4	0.55517125
1	0x3deb7fea	0.11499007
2	0x3f9a6ada	1.2063859
3	0xbd5b0cc6	-0.05347898
4	0x3f29dd57	0.6635336
5	0xbc84260a	-0.01613142
6	0x3f02a4c6	0.51032674
7	0xbef9b59f	-0.48771378
8	0xbcccc379	-0.024995552
9	0x3ed25cc2	0.41086394
10	0xbf8bd9bb	-1.0925821
11	0xbfbe9cc7	-1.4891595
12	0xbcebcb93	-0.028783595
13	0xbf7338f3	-0.9500877
14	0x3e303392	0.17207173
15	0x3c835525	0.016031811
16	0xbeb1ba39	-0.3471239
17	0x3f8a830e	1.0821245
18	0x3da15f52	0.07879509
19	0xbeda1f0d	-0.42601815
20	0x3efdf39d	0.49599925
21	0x3e2f8a28	0.17142546
22	0x3ee40c8f	0.4454083
23	0x3dde03fb	0.10840603
24	0x3f36d401	0.7141724
25	0xbf27fbe5	-0.65618736
26	0x3d39d98e	0.045373492
27	0x3e9738b3	0.29535446

embeddings.10.weight f4 [5, 3]
0	0x4024eeba	2.5770707
1	0xbe375e1b	-0.17906992
2	0x3decd1ef	0.11563479
3	0x403039bb	2.7535236
4	0xbfd59e5b	-1.6688951
5	0xbf1872bf	-0.5955009
6	0x3ed959e2	0.42451388
7	0xbf90e1e1	-1.1318933
8	0x3df6785c	0.120346755
9	0xbeb3d243	-0.35121354
10	0xbe68ef85	-0.2274762
11	0xbd6d0b3f	-0.057872053
12	0xbefbdfeb	-0.49194273
13	0x3ea3e4c2	0.32010466
14	0xbdfcaa12	-0.12337126

embeddings.11.weight f4 [7, 4]
0	0x3e6ae2dc	0.22938102
1	0x3eca3129	0.3949063
2	0x3ec20e4b	0.3790153
3	0xbfaaf6e3	-1.3356594
4	0x3e7a681e	0.2445378
5	0x3fb1f97e	1.3904264
6	0x3fffbfeb	1.9980444
7	0xbcaa91f1	-0.020821543
8	0x3ea7dfb3	0.32787856
9	0x3eae30c1	0.3402157
10	0xbf8385ce	-1.0275209
11	0xbfe9926b	-1.8247808
12	0xbf38b59c	-0.72152114
13	0xbf4a4de3	-0.79025096
14	0xbfe168a6	-1.7610061
15	0xbd9f5153	-0.07779183
16	0xbfc13257	-1.5093488
17	0xc0549ece	-3.3221927
18	0x3f670240	0.9023781
19	0x3f7c9710	0.98668003
20	0xc015de8d	-2.3417084
21	0xbfbc2103	-1.4697574
22	0xba5eb295	-0.0008495239
23	0x3f631a56	0.8871206
24	0xbfe8ae14	-1.8178124
25	0x3ee702bb	0.4511927
26	0xbe82b1f5	-0.25526395
27	0x3d6f4e00	0.058423996

embeddings.12.weight f4 [3, 2]
0	0x400eb612	2.2298627
1	0x3f8b9336	1.09043
2	0x3d4c6ce0	0.04990852
3	0x3ee54e60	0.44786358
4	0x3cd83256	0.02639119
5	0x3fd9bf81	1.7011567

embeddings.13.weight f4 [7, 4]
0	0x3f455b76	0.77092683
1	0xbeafe511	-0.3435445
2	0xbf3bff39	-0.73436314
3	0xbec7b87b	-0.39007935
4	0x3e277aca	0.16355434
5	0x3f9e7c65	1.2381712
6	0xbf3f1999	-0.74648434
7	0xbe7f7d5b	-0.24950163
8	0xbc940ccb	-0.018072506
9	0xbf283ed4	-0.6572087
10	0x3f53a7e2	0.82678044
11	0x3da7c096	0.0819103
12	0xbf421f83	-0.75829333
13	0x3f7fa733	0.998645
14	0xc011e06e	-2.279323
15	0xbf133c2d	-0.57513696
16	0x3f59a0e3	0.8501112
17	0xbf112399	-0.5669494
18	0x3fa0f165	1.2573668
19	0x3d3ae749	0.045630727
20	0xbf990d71	-1.1957227
21	0xbf2b1ed8	-0.6684394
22	0x3d135929	0.0359737
23	0xbcca93a1	-0.024728598
24	0x3eefe3e5	0.46853557
25	0xbfc8f0d0	-1.569849
26	0x3fd9cc51	1.7015477
27	0x3f706c60	0.9391537

embeddings.14.weight f4 [6, 3]
0	0x3feb23a8	1.8370256
1	0xbf964130	-1.1738644
2	0xbf4a0a54	-0.7892201
3	0x3f3eb1be	0.74489963
4	0x3f8d1874	1.1023088
5	0xbf4c844f	-0.79889387
6	0xbf45430d	-0.77055436
7	0xc020d0c5	-2.5127423
8	0xbf9602a7	-1.171956
9	0xbfc7adc3	-1.5599903
10	0x40147c6c	2.320094
11	0x3e2c20c8	0.1680938
12	0xbf748856	-0.9552053
13	0x3edbf8ef	0.4296336
14	0xbf5c7856	-0.8612112
15	0x3f8a0e8a	1.0785687
16	0xbfba6f38	-1.4565191
17	0x3e2d1a47	0.16904555

embeddings.15.weight f4 [6, 3]
0	0xbf601fcf	-0.87548536
1	0xbec79c22	-0.38986307
2	0x3dcdd6cd	0.100507356
3	0xbfa70504	-1.3048406
4	0xbe9bd3b6	-0.3043496
5	0xbf02a930	-0.5103941
6	0xbfb577c5	-1.4177176
7	0x3f17c074	0.59278035
8	0x3f27ca98	0.6554351
9	0x3f9d7b6e	1.2303293
10	0x3fc4515d	1.533733
11	0xbf884e60	-1.0648918
12	0x3d8be91e	0.06831573
13	0x3f6ea475	0.9321969
14	0xbf56da2b	-0.8392665
15	0xbf89ea47	-1.0774621
16	0x3f960e98	1.1723204
17	0x3e6f3bf6	0.23362717

embeddings.16.weight f4 [4, 2]
0	0xbf813424	-1.0094037
1	0x3e6a55a6	0.22884235
2	0x40012a6c	2.0182142
3	0x3faa6203	1.3311161
4	0x3f1e6611	0.6187449
5	0xbfcb678e	-1.5890977
6	0x3f9f8d18	1.2464933
7	0xbf38babe	-0.72159946

embeddings.17.weight f4 [8, 4]
0	0x40098f1e	2.1493602
1	0xc003104c	-2.0478697
2	0xbf63782d	-0.8885525
3	0xbf0da96c	-0.5533664
4	0xbe868bf3	-0.26278648
5	0xbf225502	-0.6341096
6	0x3e0df967	0.1386467
7	0xbe1e337f	-0.15449332
8	0x3f804041	1.0019609
9	0x3f7f9585	0.99837524
10	0x3f851344	1.0396504
11	0xbe1ad478	-0.15120113
12	0xbf83adc0	-1.0287399
13	0x3ebee292	0.37282234
14	0xbf7565e9	-0.9585863
15	0xbfb62d20	-1.4232521
16	0xbe694b5c	-0.22782654
17	0x3f8d5e21	1.1044351
18	0xbf9d5121	-1.2290384
19	0x3e272b59	0.1632513
20	0xbe1f0926	-0.15530834
21	0x3fa6fe64	1.3046384
22	0x3f09fcaf	0.5390119
23	0xbff20a31	-1.890936
24	0xbeae2ac6	-0.3401701
25	0xbf312fa8	-0.6921334
26	0xbe59a567	-0.21254502
27	0x3f8aa99f	1.0833014
28	0x3ed6d9e3	0.4196311
29	0xbd99083e	-0.07472275
30	0xbf9b92f8	-1.2154226
31	0xbf504859	-0.81360394

model.0.weight f4 [128, 65]
0	0x3dcef46b	0.10105213
1	0x3c9392ce	0.018014338
2	0x3dde48b8	0.10853714
3	0xbd319d09	-0.04336265
4	0xbda635f0	-0.081157565
5	0xbdf31c5d	-0.11870644
6	0x3e1d01b4	0.15332681
7	0x3dd45edb	0.10369655
8	0xbd5ba3e1	-0.053623084
9	0xbe14b41f	-0.14521836
10	0xbbbcf6ba	-0.005766717
11	0x3b47c627	0.0030483098
12	0x3d664722	0.05622018
13	0x3d689f58	0.056792587
14	0x3d066fb3	0.03282137
15	0xbdad40dc	-0.084596366
16	0x3dace1c9	0.084415026
17	0x3d4e0dbd	0.05030607
18	0xbdb2d53a	-0.08732076
19	0xbdd92362	-0.10602452
20	0xbe299ff4	-0.16564924
21	0x3d869d34	0.06572953
22	0xbdc32ee1	-0.09530426
23	0xbd4e6fe3	-0.050399672
24	0x3d7692ea	0.060198702
25	0xbde07be8	-0.10961133
26	0x3d8c1c31	0.068413146
27	0x3df16676	0.11787121
28	0xbc9ee423	-0.019395893
29	0xbd519d57	-0.05117544
30	0x3dbb0669	0.09132082
31	0x3dad1c35	0.08452646
32	0x3c6c5a58	0.0144258365
33	0x3d65ad80	0.056073666
34	0xbd38e8f5	-0.04514404
35	0xbd927f2b	-0.071531616
36	0xbd5bd24d	-0.053667355
37	0xbd93a6de	-0.07209562
38	0x3cfc9e4c	0.0308372
39	0x3d6b3545	0.05742385
40	0xbcf35258	-0.02970235
41	0xbe1256bc	-0.14290899
42	0xbde6add5	-0.112636246
43	0xbc504675	-0.012712111
44	0xbc5a0063	-0.013305756
45	0x3d9c2d0d	0.0762578
46	0xbc29dd2e	-0.010367675
47	0xbd7e583b	-0.062095862
48	0xbcb85037	-0.022499187
49	0x3d55bd0a	0.052182235
50	0x3d0310da	0.031998493
51	0xbd836a67	-0.06416779
52	0xbdaf3a71	-0.08556069
53	0xbdcbe11c	-0.099550456
54	0x3dd3f436	0.10349314
55	0x3ce82261	0.028336706
56	0x3e11688d	0.14200039
57	0x3dc696d4	0.09696737
58	0x3deb9956	0.11503856
59	0x3de0cebd	0.10976932
60	0x3df550dd	0.11978314
61	0xbca1f8ec	-0.019772016
62	0xbe1c571b	-0.15267603
63	0x3d6f6318	0.058444113
64	0x3d669dd8	0.056302875
65	0x3e00a18c	0.12561625
66	0xbdfa8b26	-0.12233572
67	0xbdfce006	-0.123474166
68	0xbcff68b1	-0.03117785
69	0xbe197a60	-0.14988089
70	0x3e27a622	0.16371968
71	0x3d641733	0.055686187
72	0x3a2bffb0	0.0006561233
73	0xbdf9ef27	-0.12203818
74	0xbded74f6	-0.11594574
75	0xbd4a207d	-0.04934739
76	0xbdd7b100	-0.10531807
77	0x3d93b8e9	0.07213003
78	0xbd17fae0	-0.037104487
79	0xbbae0a3c	-0.0053112786
80	0x3db97dd6	0.090572044
81	0xbbe4a876	-0.00697809
82	0x3d14ecff	0.03635883
83	0xbc7dff61	-0.015502782
84	0x3e195bb2	0.14976385
85	0x3dfe59ed	0.12419496
86	0xbe3c2e69	-0.18377079
87	0xbd2b61bc	-0.041841254
88	0x3d1853f9	0.037189458
89	0x3c6de3ad	0.014519614
90	0x3dcf899f	0.10133671
91	0x3db9269c	0.09040567
92	0x3e0e9942	0.1392565
93	0x3d90be5f	0.070675604
94	0x3c1d29e5	0.009592508
95	0xbd6a8761	-0.057258014
96	0x3d7b178b	0.06130175
97	0xbc8678ac	-0.016414963
98	0xbb9b68fa	-0.004742739
99	0xbcc01388	-0.023446813
100	0xbc123b59	-0.008925282
101	0xbd05a652	-0.03262932
102	0xbd1e1cae	-0.03860157
103	0x3db06d5d	0.086146094
104	0xbc25c5b9	-0.010117942
105	0x3da59403	0.080848716
106	0x3e29de5a	0.16588727
107	0xbdce4c11	-0.10073102
108	0x3df8936e	0.12137495
109	0xbe283eb4	-0.1643017
110	0xbe2d0ed1	-0.16900183
111	0x3e188ce9	0.14897503
112	0xbdb6634c	-0.08905658
113	0xbda21c20	-0.07915521
114	0xbdfe2143	-0.12408688
115	0x3e289794	0.16464072
116	0x3e3a8eca	0.18218532
117	0x3df01691	0.11723054
118	0xbe03203d	-0.12805267
119	0xbd8cc30c	-0.0687314
120	0xbdea89a1	-0.11452032
121	0xbde55e3d	-0.11199615
122	0xbd22df79	-0.0397639
123	0xbd84e251	-0.06488479
124	0xbd0888ee	-0.03333371
125	0x3d061dd7	0.0327433
126	0x3c8a240e	0.016862895
127	0x3d0c923f	0.03431916
128	0xbd8a21fc	-0.06744763
129	0xba9fdabc	-0.0012195925
130	0xbce5259e	-0.027972039
131	0xbb283826	-0.0025668233
132	0x3c48ac4d	0.012248111
133	0x355457b3	7.9103773e-07
134	0xb5adbaff	-1.2943927e-06
135	0x3d25d0a2	0.04048217
136	0x3c0a7473	0.008450615
137	0x3c778201	0.015106679
138	0xb57a4966	-9.3239066e-07
139	0xbd3e39a1	-0.046441678
140	0xb81934e8	-3.6527315e-05
141	0x3c99c8a5	0.018772433
142	0x36065882	2.0019074e-06
143	0xbcc767ae	-0.02434143
144	0x3c31ee2a	0.010860005
145	0x3d0409ce	0.032235913
146	0xb5085de9	-5.0800605e-07
147	0x3586b5b3	1.003666e-06
148	0xb6bbd8d9	-5.5982787e-06
149	0xbc72a20a	-0.014809141
150	0xbcd62c33	-0.026144123
151	0x3c93d2c7	0.018044842
152	0x35de87e0	1.6579834e-06
153	0x3cf41bac	0.029798351
154	0xb9e8ba9f	-0.00044389532
155	0xb5cd7c24	-1.530982e-06
156	0xba58b6a6	-0.0008266963
157	0xb3fb0860	-1.1689622e-07
158	0xbc3e3741	-0.011609853
159	0x3bab65df	0.00523065
160	0xbd363ff3	-0.04449458
161	0xbd0fad30	-0.035077274
162	0xb2c40424	-2.2819286e-08
163	0x3d478927	0.048714783
164	0xbd119f2d	-0.035552192
165	0x3d1c6b7b	0.03818844
166	0x3bbfbf0e	0.005851633
167	0xbb958acd	-0.0045636655
168	0xbd0b1a4a	-0.033960618
169	0xbcaa66d6	-0.02080099
170	0xb61bf237	-2.3237787e-06
171	0x3448b49c	1.8692157e-07
172	0x3d35eb46	0.044413827
173	0xbd156cfd	-0.036480892
174	0xbc5834b4	-0.013196159
175	0xbb80ea52	-0.003934183
176	0x340aad78	1.2915359e-07
177	0x3ce093d7	0.027414246
178	0x3cf30f9f	0.029670535
179	0x3ce9fdd4	0.028563417
180	0x35d08c90	1.5538117e-06
181	0x3d3c6bdd	0.046001304
182	0xbc8a8f8b	-0.01691415
183	0xb2118d50	-8.472242e-09
184	0x3a876288	0.0010329047
185	0x375066a8	1.2421668e-05
186	0x3349385a	4.685021e-08
187	0xbbdebf50	-0.0067977086
188	0xbc03d462	-0.0080462415
189	0xbd02c384	-0.03192474
190	0xbd2cf1dc	-0.042222843
191	0x3d303317	0.043017473
192	0x3d292d05	0.0413027
193	0xb4bea99a	-3.551366e-07
194	0x36323515	2.6554965e-06
195	0x3da50269	0.080571
196	0xbdcd0036	-0.10009806
197	0x3c7a5fb1	0.015281604
198	0xbda93bed	-0.08263383
199	0x3da9b4bf	0.08286428
200	0xbd534f58	-0.05158934
201	0x3d09faa9	0.033686314
202	0x3cf89169	0.030342774
203	0xbc872bfd	-0.016500467
204	0x3cf1b137	0.029503448
205	0x3d90ad89	0.07064349
206	0xbad2910c	-0.0016064956
207	0xbddcfee6	-0.107908055
208	0xbdbf2a60	-0.09334254
209	0xbbfd1799	-0.0077237603
210	0xbddc0c62	-0.10744549
211	0xbb30aef7	-0.0026959756
212	0xbd8f5928	-0.06999427
213	0xbc90d53f	-0.017679809
214	0x3daab775	0.08335773
215	0x3dff72d7	0.12473076
216	0xbd3c383a	-0.04595206
217	0x3cdb575c	0.026775055
218	0x3d41993c	0.047265276
219	0x3d7835e3	0.060598265
220	0x3d3c2b8f	0.04593998
221	0x3d0be61a	0.03415499
222	0x3d85486c	0.06507954
223	0x3ddba73c	0.10725257
224	0x3cd40dba	0.025885452
225	0x3db920fa	0.09039493
226	0x3e0186ec	0.12649125
227	0xbdda22ba	-0.10651155
228	0xbd9348df	-0.071916334
229	0xbdc6dc59	-0.09709997
230	0x3d2566fd	0.04038142
231	0x3c1d7d10	0.009612337
232	0x3db51c2a	0.088432625
233	0xbd3ff1e4	-0.046861544
234	0xbd051288	-0.032488376
235	0x3c8dbd35	0.017302135
236	0xbacb3d1d	-0.0015505884
237	0x3abc4dea	0.0014366482
238	0x3c557222	0.0130277
239	0xbd3ea15e	-0.04654061
240	0xbd05fe2a	-0.032713093
241	0xbccd517f	-0.025063274
242	0x3d1072e1	0.035265807
243	0xbdd178bd	-0.10228107
244	0xbd9022ef	-0.07037913
245	0x3d0f9e38	0.035063
246	0xbd6b2fd7	-0.05741867
247	0x3dc07207	0.09396749
248	0x3d253bbc	0.04034017
249	0x3c283b18	0.010267995
250	0xbc49d5f4	-0.012319077
251	0x3da8c5d9	0.082408614
252	0xbe0283d2	-0.12745598
253	0x3d057c90	0.032589495
254	0x3d82971f	0.0637648
255	0xbde8be94	-0.11364475

model.0.bias f4 [128]
0	0xbd0d7b1d	-0.034541238
1	0x3d77bde1	0.060483817
2	0xbbba420f	-0.0056841443
3	0xbd4f20bb	-0.050568324
4	0xbd88de5e	-0.06683038
5	0x3d83e60f	0.064403646
6	0xbda71062	-0.08157422
7	0x3dca6b3a	0.09883733
8	0xbe114940	-0.14188099
9	0x3d29277f	0.041297432
10	0x3d9e78f0	0.07737911
11	0x3e199c62	0.15001062
12	0x3e3dd032	0.18536451
13	0xbd133e29	-0.035947952
14	0x3def6560	0.116892576
15	0xbd6614f2	-0.05617232
16	0x3d128e7e	0.035780422
17	0x3da7948f	0.08182632
18	0x3e3837bc	0.17990011
19	0x3d318b6c	0.043345854
20	0x3df72485	0.120675124
21	0xbbb879f9	-0.0056297746
22	0xbd9f2d0d	-0.07772265
23	0x3d90224f	0.07037794
24	0x3d15d019	0.03657541
25	0x3dc25e82	0.09490682
26	0x3de2f44b	0.110817514
27	0xbd1300c0	-0.035889387
28	0xbb043845	-0.002017514
29	0xbd71b282	-0.05900813
30	0xbdddd798	-0.10832137
31	0xbbc44e02	-0.0059907446
32	0x3b2214a1	0.0024731534
33	0xbd31bcb2	-0.043392844
34	0x3ddaca69	0.10683138
35	0xb4f92785	-4.6408618e-07
36	0x3df6c8b7	0.12050002
37	0x3c03f161	0.008053155
38	0xbce5b33d	-0.028039569
39	0x3b800df7	0.0039079147
40	0xbcf1574c	-0.029460572
41	0x3dc6b7e0	0.0970304
42	0x3e039d34	0.12852937
43	0x3d6ea3a8	0.058261544
44	0xbc40d725	-0.011770044
45	0xbd93250c	-0.071848005
46	0x3d61799d	0.05504762
47	0x3de34dd5	0.1109883
48	0xbdb5e52b	-0.08881601
49	0x3d6c5d1a	0.057705976
50	0x3d614d0c	0.05500512
51	0x3da5aebd	0.08089969
52	0x3e0c4b8b	0.13700692
53	0x3de66e10	0.112514615
54	0xbd0593ab	-0.03261153
55	0x39fb3d48	0.0004792011
56	0x3b68d0d5	0.0035524864
57	0x3dbcbb09	0.092153616
58	0x3ddf0e8c	0.108914465
59	0xbb74eb92	-0.0037371856
60	0xbd81e440	-0.06342363
61	0x3d53a4b0	0.05167073
62	0xbdeed05e	-0.11660837
63	0xbd0e6daa	-0.034772553
64	0xbdc0e6d1	-0.09419025
65	0xbd292cac	-0.041302368
66	0x3e0cf48a	0.13765159
67	0x3e2432af	0.1603496
68	0xba096978	-0.00052418513
69	0xbd0ce11e	-0.034394376
70	0x3d7576bc	0.059927687
71	0x3c72ce61	0.014819712
72	0x3d48998b	0.048974555
73	0x3da02ccf	0.078210466
74	0xbc1f0b68	-0.009707309
75	0xbc770e6c	-0.015079122
76	0xbdecd522	-0.11564089
77	0xbd8a9fe1	-0.06768776
78	0xbd2ff253	-0.042955708
79	0x3e1330ce	0.14374086
80	0x3c80c072	0.015716765
81	0xbd0490ea	-0.032364763
82	0xbd814796	-0.06312482
83	0xbd98f16a	-0.07467921
84	0x3dd19409	0.102333136
85	0x3d29015a	0.041261055
86	0x3de6f31b	0.112768374
87	0x3e04a978	0.12955272
88	0x3dec1ca4	0.115289
89	0x3dd81359	0.10550565
90	0xbdb90f69	-0.090361424
91	0xbdd42489	-0.10358531
92	0xbbe150eb	-0.0068761013
93	0x3e08775d	0.13326783
94	0x3de731d3	0.112888
95	0x3dc983d6	0.09839599
96	0xbb701a3a	-0.0036636726
97	0x3db71b1b	0.08940717
98	0xbc34ac05	-0.011027341
99	0x3d97ac53	0.07405915
100	0x3df3a837	0.11897319
101	0xbdc45d91	-0.09588159
102	0xbd0b9c69	-0.03408471
103	0x3e31a61e	0.17348525
104	0xbd2e25fe	-0.0425167
105	0xbda44732	-0.08021392
106	0x3dc68764	0.096937925
107	0xb784794d	-1.5792111e-05
108	0xbb1339ad	-0.0022464797
109	0xbd01442f	-0.031559166
110	0xbd571534	-0.052510455
111	0xbd02e17c	-0.03195332
112	0x3d209893	0.039208006
113	0x3bb0ffe2	0.0054015974
114	0xbd3ecce0	-0.046582103
115	0x3d4dd72a	0.050254025
116	0xbda3111a	-0.07962246
117	0x3d33a463	0.043857943
118	0xbbddacc4	-0.00676498
119	0x3da237f5	0.07920829
120	0x3d269a17	0.040674295
121	0x3d397cf5	0.045285184
122	0xbdb5494a	-0.088518694
123	0x3d725d37	0.059170928
124	0xbd2b2307	-0.04178145
125	0x3d44fb32	0.04809112
126	0x3deb9ff2	0.115051165
127	0x3cce4fad	0.025184477

model.2.weight f4 [64, 128]
0	0xbd40553a	-0.04695628
1	0x3da5251b	0.08063718
2	0x36a254a9	4.837832e-06
3	0xbd3ca2cb	-0.04605369
4	0xbd382b32	-0.04496307
5	0xbd52e3d4	-0.051486805
6	0xbb94d44b	-0.004541909
7	0x3d69a052	0.05703766
8	0x3d0e7120	0.034775853
9	0x3d683970	0.0566954
10	0x3d7ed886	0.06221821
11	0x3d59cffc	0.053176865
12	0xbcbd5bb0	-0.02311501
13	0x3db5e05d	0.088806845
14	0x3d471833	0.048607063
15	0x3d085eee	0.033293657
16	0x3c1a477b	0.009416456
17	0xbc97f0f1	-0.018547507
18	0x3cbfc569	0.023409562
19	0xbd51ba0d	-0.051202822
20	0x3dc1eb72	0.09468736
21	0x3dacdc19	0.08440418
22	0x3d56ccff	0.052441593
23	0x3d51fcf5	0.05126663
24	0xbc27e1b1	-0.01024668
25	0xba885843	-0.0010402281
26	0x3d5cf6fe	0.053946488
27	0x3dd74741	0.105116375
28	0x33a673ba	7.751028e-08
29	0x3d3a23c7	0.045444276
30	0x3c27f62b	0.010251562
31	0xbd7cd48d	-0.06172614
32	0x3d64c51f	0.05585205
33	0x3d4819e3	0.048852812
34	0x3d9dc7d8	0.07704133
35	0xba901e7c	-0.0010995413
36	0xbc96fc62	-0.018430892
37	0xbc8d47f5	-0.017246226
38	0x3d8ae6a7	0.06782275
39	0x3d0eec44	0.03489329
40	0x39fd56af	0.00048320505
41	0x3d0a3114	0.03373821
42	0xbda7167b	-0.08158585
43	0xbd167562	-0.03673304
44	0xb814074f	-3.5292756e-05
45	0x3dd50b20	0.104025126
46	0x3badbe66	0.0053022383
47	0x3db2821e	0.08716224
48	0xbd1112e7	-0.035418417
49	0x3d82e434	0.063911825
50	0x3d8fc28a	0.07019527
51	0xbbdec270	-0.006798081
52	0x3c833542	0.016016606
53	0xb7937c10	-1.7581537e-05
54	0x3ded340c	0.11582193
55	0x3b1073af	0.002204161
56	0x3d973c73	0.07384577
57	0x3cefb35a	0.029260326
58	0x3d81c56f	0.063364856
59	0x3c201369	0.009770253
60	0xbc9c27e4	-0.01906199
61	0x3d85280e	0.065017805
62	0x3c8fbcf4	0.017546155
63	0x3d97484f	0.07386839
64	0xbdbbe889	-0.09175212
65	0xbbad490a	-0.005288248
66	0x3ccb534d	0.024819994
67	0x3dc4d882	0.09611608
68	0x38d69198	0.00010231434
69	0x3d010de9	0.031507406
70	0x3c5e11be	0.013554035
71	0xbd4dee57	-0.050276127
72	0xbb41c855	-0.002956887
73	0x3cff6b12	0.031178985
74	0x3cfca0e5	0.03083844
75	0x3dc3cc33	0.09560432
76	0x3a8f8cb5	0.0010951968
77	0xbda011ff	-0.078159325
78	0x3d1b0ba8	0.037852913
79	0xbbfd87f4	-0.007737154
80	0x39d750a9	0.00041068092
81	0x3b61ba5f	0.0034443361
82	0xbcb89905	-0.022533903
83	0xba9d388e	-0.0011995004
84	0x3d956001	0.07293702
85	0xbc9fedb2	-0.019522522
86	0x3d6d6375	0.057956178
87	0x3df007da	0.117202476
88	0x3c97362f	0.018458454
89	0x3dd439a2	0.10362555
90	0x3d328ca8	0.04359117
91	0xbd44e0e7	-0.048066046
92	0xbc841de5	-0.016127536
93	0x3c9e939c	0.019357495
94	0x3daa8576	0.08326237
95	0xbd55dafc	-0.052210793
96	0x34939f3e	2.7496748e-07
97	0xbd879112	-0.06619467
98	0xbbf858da	-0.0075789513
99	0xbd4778c0	-0.04869914
100	0xbcd8076d	-0.026370728
101	0xbd411978	-0.04714343
102	0xbd8c6f51	-0.068571694
103	0x3dc9f96f	0.09862029
104	0xbc4c2925	-0.0124609815
105	0x3b7c9d92	0.0038546068
106	0x3cfe24cb	0.031023404
107	0x3c83879e	0.016055878
108	0x3c51a89d	0.012796548
109	0x3db00c4c	0.085960954
110	0x3d70857e	0.058721058
111	0xbc090b56	-0.008364519
112	0x3dabd75c	0.08390686
113	0x3d186714	0.037207678
114	0x3d65d38e	0.056109957
115	0x3d990bdf	0.07472967
116	0xbc2f8602	-0.010713102
117	0xbd9f67b3	-0.07783451
118	0x3cc416e9	0.023936706
119	0xbd6e12df	-0.058123466
120	0x3da74651	0.08167709
121	0x3dbcd442	0.092201725
122	0xbd091c1e	-0.03347408
123	0xbc8f63d4	-0.017503656
124	0x3d0bc9a4	0.034127846
125	0x3c4dfd40	0.012572587
126	0x3dc7a504	0.09748271
127	0x3d1db368	0.038501173
128	0x3d74ad9e	0.059735887
129	0xbd09381d	-0.03350078
130	0x344e8dcf	1.9236835e-07
131	0xbd986c93	-0.07442584
132	0x3ccfb134	0.025353052
133	0x3d6a3f40	0.057189226
134	0x3d2f3de7	0.042783644
135	0x3bca254f	0.0061689983
136	0xbd804506	-0.06263165
137	0x3d43e97d	0.047830094
138	0x3d0ef288	0.034899265
139	0xbd35baa0	-0.044367433
140	0x3bcde94f	0.006283916
141	0xbd5d5af4	-0.054041818
142	0xbdb0eee8	-0.08639318
143	0x3d6580e4	0.056031123
144	0xbd12eab0	-0.035868347
145	0x3d1b3f23	0.03790201
146	0xbd8a5628	-0.06754714
147	0x3cd0236e	0.02540752
148	0x3c257fe9	0.010101297
149	0xbca25bed	-0.019819224
150	0xbc201502	-0.009770634
151	0x3d18b10e	0.037278228
152	0x3d87013a	0.06592031
153	0x3d709d49	0.05874375
154	0xbd2b5828	-0.04183212
155	0x3d93c439	0.07215161
156	0x36bf2823	5.696916e-06
157	0x3d289a8a	0.041163005
158	0xbcd38ba7	-0.025823427
159	0xbcd689b9	-0.026188718
160	0xbd359ed3	-0.04434092
161	0xbc8d5938	-0.017254457
162	0xbd8e9a2c	-0.06963
163	0xbb9cd192	-0.004785725
164	0xbc124c1c	-0.008929279
165	0x3d312ea7	0.04325738
166	0xbd28fb26	-0.04125514
167	0x3d82dcc0	0.06389761
168	0x3643fc63	2.9204173e-06
169	0x3c8719fa	0.016491879
170	0xbdb1935d	-0.086706854
171	0xbd48666d	-0.048925806
172	0x3c882b29	0.016622143
173	0xbcfa8b91	-0.030584129
174	0xbd35c29f	-0.04437506
175	0x3bbf8a7e	0.005845367
176	0x3d9caebc	0.076505154
177	0xbbdf147a	-0.006807861
178	0x3d944a6e	0.07240759
179	0xbca7ac0d	-0.020467782
180	0xbbab3b33	-0.005225563
181	0xbbdfcd65	-0.006829905
182	0xbbe9402e	-0.0071182465
183	0xbd3837d4	-0.044975117
184	0x3da7266c	0.08161625
185	0x3d00bb6e	0.031428747
186	0x3d645623	0.05574621
187	0x3d8188a0	0.06324887
188	0xbd5f5937	-0.05452844
189	0x3d86826f	0.06567847
190	0x3d87b983	0.066271804
191	0xbd82bf8a	-0.063841894
192	0x3d71c198	0.059022516
193	0xb80dd0ef	-3.3811604e-05
194	0xbb89cb4e	-0.004205144
195	0xbbc1a067	-0.005909014
196	0x3c62a71f	0.01383379
197	0xbd274911	-0.040841166
198	0x3d307d6c	0.04308836
199	0x3c80f0f8	0.015739903
200	0x3bc28749	0.0059365374
201	0x3d83bf19	0.06432933
202	0xbd3ea453	-0.04654343
203	0xbc23c074	-0.009994615
204	0x3d4e3d93	0.05035169
205	0xbd322782	-0.04349471
206	0x3c9a9822	0.01887137
207	0xbdabc0a9	-0.083863564
208	0xb6680eab	-3.4579232e-06
209	0xbd9492f8	-0.072545946
210	0x3d84aee4	0.0647867
211	0x3cc3f6ac	0.023921333
212	0x3d213638	0.039358348
213	0xbd0151a4	-0.031572
214	0xbd45a220	-0.048250318
215	0x3be7a960	0.0070697516
216	0x3b3f3b30	0.0029179566
217	0x3d27a4a2	0.04092849
218	0xbd1c799a	-0.038201906
219	0xbd18fc22	-0.037349828
220	0x3d06945e	0.032856338
221	0x3c463815	0.012098332
222	0xbd42c610	-0.04755217
223	0xbbcd018f	-0.0062562893
224	0xb524d20e	-6.140043e-07
225	0x3b794fce	0.0038041952
226	0xbd95eb68	-0.07320291
227	0xbd71b0d6	-0.059006535
228	0xbcd124a0	-0.02553016
229	0xbd347f7f	-0.044066902
230	0xbc5c896e	-0.0134605
231	0xbd88eb36	-0.06685488
232	0xbd527351	-0.051379506
233	0x3cbe3145	0.023216853
234	0xbc43c8a0	-0.011949688
235	0x39b79d17	0.0003502152
236	0x385d9fe1	5.2839405e-05
237	0xbd9e3ede	-0.07726835
238	0xbdb2c5f1	-0.087291606
239	0xbbf31200	-0.0074179173
240	0x3c4dca0e	0.012560381
241	0xbd50fbfc	-0.05102156
242	0x3d94abc4	0.07259324
243	0x39786890	0.00023690076
244	0xbdaff6bd	-0.085919835
245	0xbcf1fcc8	-0.02953948
246	0xbdae6091	-0.08514512
247	0x3d86ba5a	0.065785125
248	0x3da7c821	0.081924684
249	0xbca5c8ae	-0.020237293
250	0xbc0ba632	-0.008523511
251	0xbd930b7b	-0.07179924
252	0x3da8ea3c	0.08247802
253	0xbcddab20	-0.027059138
254	0xbd1e776b	-0.038688105
255	0xbd8c4605	-0.06849293

model.2.bias f4 [64]
0	0xbb1a92f8	-0.0023586135
1	0x3d8ecbbe	0.069724545
2	0x3c88d695	0.016703883
3	0xbcea6e33	-0.028617
4	0x3a2fc76b	0.0006705436
5	0xbc7cb86d	-0.01542483
6	0x3d23e36f	0.04001182
7	0x3c6bbb6d	0.0143879475
8	0xbd44a3de	-0.04800784
9	0x3df08aa9	0.11745197
10	0x3ddf9ea2	0.10918929
11	0x3dc0b912	0.09410299
12	0x3da113c7	0.078651
13	0xbb7baa9d	-0.0038401254
14	0x3da72810	0.08161938
15	0xbd87d8bf	-0.06633138
16	0xbdae8eaa	-0.08523305
17	0xbd61c692	-0.055121012
18	0xbc3694d6	-0.011143884
19	0xbd4691ff	-0.048479076
20	0xbc6581c5	-0.01400799
21	0x3dc88c15	0.097923435
22	0x3d99a3f7	0.07501977
23	0x3d617fe4	0.055053607
24	0x3d872888	0.065995276
25	0xbd2905e6	-0.04126539
26	0xbd969452	-0.073525086
27	0xb9725ff0	-0.00023114658
28	0xbda44279	-0.08020491
29	0x3d7ed222	0.062212117
30	0xbd0f70d0	-0.035019696
31	0x3b7ff5a7	0.0039056332
32	0x3d3be483	0.045872223
33	0x3d118042	0.035522707
34	0x3dd12c95	0.102135815
35	0x3abbfcf8	0.0014342358
36	0xb9577700	-0.00020548329
37	0x3e010c67	0.12602387
38	0x3d57eda5	0.05271687
39	0x3deadb37	0.11467593
40	0x3d57bfd4	0.052673176
41	0xbd19f7e3	-0.03758992
42	0xbd2b6bc7	-0.04185083
43	0x3d803b02	0.06261255
44	0x3c5c31fe	0.013439653
45	0x3d4847b9	0.048896525
46	0x3d9d02fa	0.07666583
47	0xbd0600d0	-0.03271562
48	0x3cf98340	0.030458093
49	0x3d810237	0.062992506
50	0x3d801d25	0.06255559
51	0x3c4be075	0.012443651
52	0xbdb32c90	-0.08748734
53	0x3cf02d7b	0.029318562
54	0xbd8d4318	-0.06897563
55	0x3c0ccb61	0.008593411
56	0x3d2c0831	0.042
57	0x3c663dbf	0.014052807
58	0x3c64d9dd	0.013967958
59	0xb94061a5	-0.00018346922
60	0xbd171fcc	-0.03689556
61	0x3c9bcac4	0.019017585
62	0xbd7fe7cc	-0.062476918
63	0xbc966567	-0.0183589

model.4.weight f4 [32, 64]
0	0xbb087b81	-0.0020825567
1	0xbd83e196	-0.064395115
2	0x3d660ea2	0.0561663
3	0x3db70f51	0.08938468
4	0x3cf40cbe	0.029791232
5	0xbda338a8	-0.07969791
6	0xbdd2044e	-0.10254727
7	0xbd8dfb00	-0.0693264
8	0x3c3d1de7	0.011542774
9	0xbcaf5bcd	-0.021406079
10	0x3dd133eb	0.10214981
11	0x3a2c1762	0.00065647636
12	0xbb8a70fb	-0.004224894
13	0x3c03cdba	0.0080446545
14	0x3dd05a66	0.10173492
15	0x3db1c024	0.08679226
16	0x3d3948ad	0.045235325
17	0xbdcb30bc	-0.09921405
18	0xb593e5fe	-1.101929e-06
19	0x3b80a27e	0.0039256206
20	0x3d3e6372	0.046481557
21	0xbdf2e280	-0.11859608
22	0xbc4cbb9f	-0.012495904
23	0x3b4f9e0d	0.00316799
24	0xbd950f51	-0.07278312
25	0xbc2d3a1b	-0.010572935
26	0x3b489c71	0.0030610824
27	0xba8f1a00	-0.0010917783
28	0xbbd2c52d	-0.0064321966
29	0x350d833f	5.271758e-07
30	0x3d44d58d	0.04805522
31	0xb54a2950	-7.531098e-07
32	0x3c3cfae8	0.01153443
33	0x3b5aec48	0.0033404995
34	0xbde25b36	-0.11052553
35	0xbd5bcb13	-0.053660464
36	0xbdbecd0f	-0.093164556
37	0xba727d51	-0.0009250241
38	0x3db606b0	0.08887994
39	0xbb909399	-0.0044121263
40	0xb8383a4e	-4.392332e-05
41	0x3dba70bb	0.09103533
42	0xbd816758	-0.063185394
43	0xbd2aab18	-0.041667074
44	0x3ae61797	0.0017554638
45	0x3cde6710	0.027148753
46	0x3d395dd5	0.0452555
47	0x3a3f25ca	0.0007291703
48	0xbb83d0ad	-0.004022679
49	0xbc60519b	-0.013691331
50	0xbd1710be	-0.0368812
51	0x3cdb6ba6	0.02678473
52	0xbd9b0ad6	-0.07570426
53	0x3ce1894b	0.027531287
54	0x36960282	4.4706403e-06
55	0xbc1438f7	-0.009046785
56	0x3ccac04b	0.024749896
57	0xbda89bb1	-0.08232821
58	0xb60b8aee	-2.0793482e-06
59	0xb71e100a	-9.421268e-06
60	0xb6caa5a1	-6.039351e-06
61	0x3d2b2478	0.041782826
62	0x3c07e499	0.008294248
63	0xbc579669	-0.013158419
64	0xb5aa989c	-1.2710402e-06
65	0xb856f8b4	-5.12532e-05
66	0x3de8a5df	0.113597624
67	0xbd08fbcb	-0.033443253
68	0x3c197abe	0.009367643
69	0x3d5d44cf	0.0540207
70	0xbd23dd58	-0.04000601
71	0x3cb80874	0.022464968
72	0xbdce3aad	-0.10069785
73	0xbd8a2b1e	-0.06746505
74	0xbe06d17b	-0.13165848
75	0xba0fd46a	-0.0005486669
76	0x35e7fc32	1.728424e-06
77	0xbdd00d4b	-0.101587854
78	0xbc9e8443	-0.019350177
79	0xbddc3049	-0.10751397
80	0xbda6a1d6	-0.081363365
81	0xbcf8a20b	-0.030350706
82	0x33567935	4.9935995e-08
83	0x3ca4ae1a	0.02010255
84	0x3d09aa1e	0.033609502
85	0xbdd6bab7	-0.10484832
86	0x3d2a2040	0.041534662
87	0xbd716606	-0.058935188
88	0x3c8fc4d2	0.017549906
89	0xbc45d46e	-0.012074573
90	0x3dd450b0	0.103669524
91	0xbd37e41f	-0.044895288
92	0xbdd25831	-0.102707274
93	0x3ba7b9cf	0.0051185857
94	0x3c249783	0.010045889
95	0x3d3af816	0.04564675
96	0xbdff3ed5	-0.12463156
97	0xbd53e88e	-0.051735453
98	0xbcbd6e3a	-0.02312385
99	0xbcb9711f	-0.022636948
100	0xbd5df32e	-0.054186992
101	0x3d1f933a	0.038958766
102	0xbce9400d	-0.028472925
103	0xbd4cf744	-0.0500405
104	0x3d4ae2e8	0.0495328
105	0xbdd339f4	-0.10313788
106	0xbcc48c6e	-0.023992743
107	0x3d660885	0.05616047
108	0x3d9bce24	0.076076776
109	0xbb2e4606	-0.002659203
110	0xbcb37fb8	-0.021911487
111	0xbd39e203	-0.045381557
112	0x3d0e2f18	0.03471288
113	0x3da092ae	0.07840477
114	0x3b4239a4	0.0029636407
115	0xbd915e42	-0.070980564
116	0xbdf177cf	-0.1179043
117	0x3d542d07	0.051800754
118	0xbc86f4c5	-0.016474137
119	0xb9baf5b4	-0.00035659748
120	0x3d0bc8a2	0.034126885
121	0xb557e65c	-8.042896e-07
122	0xbcefd25f	-0.029275117
123	0xb60e26cc	-2.1182232e-06
124	0x3990b31d	0.0002759927
125	0x3cbb42b4	0.022858955
126	0xbd8c171b	-0.068403445
127	0xbd98a681	-0.07453633
128	0xbcf4bf42	-0.029876355
129	0x3db90dbc	0.09035823
130	0x3c6c4f3b	0.014423187
131	0x3dc45e36	0.09588282
132	0xbd61b40b	-0.055103343
133	0x3dbf2eb2	0.09335078
134	0x3c2a0486	0.010377055
135	0x3c8612f0	0.016366452
136	0xbbef1817	-0.007296573
137	0x3c9aef2e	0.018912878
138	0xbdd7543e	-0.10514115
139	0xbd8474c0	-0.06467581
140	0xbd917dd6	-0.071040794
141	0xbca7b70d	-0.020473028
142	0xbda96639	-0.082714505
143	0x3c8382d4	0.016053595
144	0xbe076885	-0.13223465
145	0xbd0d2aef	-0.034464773
146	0xbd106a07	-0.035257366
147	0x3da3414b	0.07971438
148	0x3d2e989f	0.04262602
149	0x3db496e9	0.08817846
150	0xbd09208f	-0.033478316
151	0x3d1b0a94	0.037851885
152	0xbd5d34cc	-0.05400543
153	0x3ce8b8b6	0.02840839
154	0xbd6f18c1	-0.058373217
155	0xbb2ca6cb	-0.0026344534
156	0x3da09a18	0.07841891
157	0xbd84b75a	-0.06480284
158	0xbd3fb84d	-0.046806622
159	0x3d4dcaaf	0.050242122
160	0xbdc01964	-0.09379843
161	0xbd7f62a3	-0.062349927
162	0xbc92e2e3	-0.017930454
163	0xbc2888f7	-0.010286561
164	0x3cbf3092	0.02333859
165	0xbdd29a8e	-0.10283385
166	0x3cfd5eda	0.030929018
167	0x3dc85852	0.09782471
168	0x3ce5302d	0.027977074
169	0x3de166aa	0.1100591
170	0xbcab61d5	-0.020920673
171	0x3c65f996	0.014036557
172	0xbb4d9ae0	-0.003137283
173	0xbda299a4	-0.07939461
174	0x3ce9dd6e	0.028547969
175	0x3c940edf	0.018073497
176	0x3c9c54fd	0.019083494
177	0xbdf89139	-0.12137074
178	0xbdee8f35	-0.11648408
179	0x3d7944cb	0.06085662
180	0x3de88f52	0.11355461
181	0xbca2d03c	-0.019874685
182	0x3cb13a16	0.021634143
183	0xbd997439	-0.07492871
184	0x3da05164	0.07828024
185	0x3dd87745	0.10569624
186	0xbbc11021	-0.0058918153
187	0x36991f43	4.5633947e-06
188	0x3b2f57c8	0.0026755203
189	0xbdf9e6be	-0.12202214
190	0x3d6f44fe	0.058415405
191	0x3d9cdd89	0.07659442
192	0xbd3aa205	-0.04556467
193	0x3dc341ed	0.09534059
194	0x3dfdbc2a	0.12389405
195	0x3d84eee6	0.06490879
196	0x3d33404b	0.043762486
197	0x3cd378bb	0.025814405
198	0x3df1149c	0.11771509
199	0x3d753fb0	0.05987519
200	0x3c9e694e	0.019337323
201	0x3daaa27d	0.083317734
202	0xbd990298	-0.07471198
203	0x3db1ab28	0.086752236
204	0x3c806ec2	0.015677813
205	0xbc25fc41	-0.010130943
206	0xbbbcb314	-0.0057586525
207	0x3a84419c	0.0010090354
208	0xbd515646	-0.051107667
209	0x3c9ecfee	0.019386258
210	0x375e15a0	1.3237266e-05
211	0xbc89c95a	-0.016819645
212	0x3e044a61	0.12918998
213	0xbddb5f98	-0.107115924
214	0xbcec25ca	-0.028826613
215	0x3cf21968	0.02955313
216	0xbc75b949	-0.014997789
217	0x3e0fba80	0.14035988
218	0xbdc2cf07	-0.095121436
219	0x3d1790f4	0.037003472
220	0xbddf2fff	-0.108978264
221	0x3db82be4	0.089927465
222	0xbd8923db	-0.06696292
223	0x3ba66162	0.005077527
224	0x3d8ef5d1	0.069804795
225	0xbca81a79	-0.020520436
226	0xbcfdd374	-0.030984618
227	0x3d933ab5	0.07188932
228	0x3c315f77	0.010825983
229	0x3e10b365	0.14130934
230	0x3db34d9a	0.08755036
231	0xbd35d403	-0.044391643
232	0xbd71b2e5	-0.059008498
233	0x3d12afe6	0.03581228
234	0x3cd48397	0.025941653
235	0x3dc8400f	0.09777843
236	0x3e090d71	0.13384034
237	0x3db1bb35	0.08678285
238	0x3c941917	0.01807837
239	0x3d573825	0.052543778
240	0x3d476e54	0.0486892
241	0x3d3d5a9c	0.04622899
242	0xbd189967	-0.03725567
243	0x3cf02ba9	0.029317694
244	0x3e0283d2	0.12745598
245	0x3db23376	0.08701222
246	0x3b2af76a	0.0026087412
247	0x3d05e515	0.032689173
248	0x3ce50ffb	0.027961722
249	0x3db3d441	0.087807186
250	0x36738e0a	3.62925e-06
251	0xbbbd5b45	-0.0057787024
252	0x3a5de770	0.0008464968
253	0xbd947e31	-0.072506316
254	0x3d0abaaa	0.033869423
255	0xbdbccde2	-0.092189565

model.4.bias f4 [32]
0	0xbde36821	-0.111038454
1	0xbddd4f00	-0.10806084
2	0x39c5e1db	0.00037743044
3	0x3dfee6a0	0.12446332
4	0x3d43f83c	0.047844157
5	0x3db6c725	0.089247026
6	0xb687b27c	-4.044092e-06
7	0xbd1222a4	-0.035677567
8	0x3d0f6074	0.035004094
9	0x3ddad02d	0.10684238
10	0x3de2a0cb	0.11065825
11	0x3df07571	0.1174115
12	0xbdd14d82	-0.102198616
13	0x3c818f3d	0.015815372
14	0x3e1ab659	0.15108623
15	0x3d94672b	0.0724624
16	0xbd8f34ef	-0.06992518
17	0xbd1612ee	-0.036639147
18	0x3cf22f64	0.029563613
19	0x3ce4b6e3	0.027919238
20	0xbdd0b67b	-0.101910554
21	0x3d57aa87	0.052652862
22	0xbd92c440	-0.07166338
23	0x3db2bf31	0.08727873
24	0x3d379539	0.044820044
25	0xbd1c157a	-0.03810642
26	0xbdf306d6	-0.11866538
27	0xbd3299aa	-0.043603577
28	0xbdfb8492	-0.12281145
29	0xbdd25406	-0.102699324
30	0x3c677db5	0.014129092
31	0x3dc158f5	0.09440795

model.6.weight f4 [1, 32]
0	0xbbca5ee4	-0.0061758626
1	0xbd9deb4f	-0.07710897
2	0xbda138af	-0.0787214
3	0x3d03f122	0.032212384
4	0x3d9a2234	0.07526055
5	0xbd657d04	-0.056027427
6	0x3d0f5a32	0.034998126
7	0xbd1459c6	-0.036218427
8	0x3de75719	0.112959094
9	0xbe1ee888	-0.15518391
10	0x3d0614af	0.03273457
11	0x3e27bfd7	0.16381775
12	0xbc670493	-0.014100212
13	0x3e21d693	0.1580451
14	0x3defdee4	0.11712435
15	0xbd6e7434	-0.05821629
16	0x3de041e7	0.1095007
17	0xbca12657	-0.019671602
18	0xbd4caacc	-0.049967572
19	0xbe186937	-0.14883886
20	0xbdf426fa	-0.11921497
21	0x3daf25eb	0.08552154
22	0xbde1cd67	-0.110255055
23	0x3e4957a2	0.19662336
24	0x3db5189b	0.08842584
25	0xbdc382a3	-0.09546401
26	0xbdbaca01	-0.091205604
27	0x3d261351	0.040545765
28	0xbe1de44a	-0.15419117
29	0xbdb09175	-0.08621494
30	0x3e0c2433	0.13685684
31	0xbccb5546	-0.024820935

exp_avg f4 [5, 3]
0	0xba037d0e	-0.0005015888
1	0x3a376c5d	0.00069970434
2	0x39f30bcf	0.0004635737
3	0x3a76ead1	0.00094191456
4	0xbabe7ef3	-0.0014533683
5	0xbae9bb76	-0.0017832357
6	0xba86fee4	-0.0010299352
7	0x3a5f4689	0.00085172855
8	0x3a9b6cbd	0.0011857968
9	0xba7407d1	-0.0009309026
10	0x3a77056b	0.00094231096
11	0x3a975070	0.0011544358
12	0x387bf46a	6.007069e-05
13	0x39ffc26f	0.00048782254
14	0x39e96c99	0.00044522135

exp_avg_sq f4 [5, 3]
0	0x34e73f59	4.3073194e-07
1	0x3583da3a	9.823773e-07
2	0x35cc7d70	1.5235692e-06
3	0x35124d68	5.450188e-07
4	0x356d5634	8.841482e-07
5	0x35f2861f	1.8069439e-06
6	0x348ef4e3	2.662774e-07
7	0x34cb7d4f	3.790287e-07
8	0x35973923	1.1267006e-06
9	0x35045a23	4.9305e-07
10	0x35683ae2	8.651242e-07
11	0x360c118d	2.0871842e-06
12	0x34a1a714	3.0110152e-07
13	0x35559996	7.957218e-07
14	0x35da5ba0	1.6268932e-06

exp_avg f4 [128, 65]
0	0xb9b0ff14	-0.00033759384
1	0x39e65e28	0.0004393917
2	0x39117f24	0.00013875641
3	0x39d8880c	0.00041300093
4	0x3ab743e5	0.0013982026
5	0xba5d3c91	-0.0008439506
6	0xba92879e	-0.0011179333
7	0x3a5b1771	0.000835768
8	0x3867bc6b	5.525017e-05
9	0x39ddb906	0.00042290258
10	0x38c66619	9.460393e-05
11	0x3a465fbb	0.00075673655
12	0xbab9ac6a	-0.0014165763
13	0xb9011782	-0.00012311156
14	0x39659f35	0.00021898451
15	0x3ad5bdff	0.0016307234
16	0x3a63a70d	0.00086842553
17	0x3a7ead3c	0.0009715145
18	0x38453d32	4.7025453e-05
19	0x3a26f95b	0.00063695543
20	0x3aabb7cb	0.0013101039
21	0xb9c363ec	-0.00037267746
22	0xb991359a	-0.0002769649
23	0x3a9267d9	0.0011169865
24	0x3a93a288	0.0011263648
25	0x3a1d057e	0.0005989893
26	0x3ac9b6de	0.0015389582
27	0xba718cc0	-0.0009214394
28	0xba8f4c70	-0.0010932814
29	0x3938b972	0.00017616691
30	0x39ddb003	0.00042283544
31	0x3a794e6f	0.00095102837
32	0xb75d6a9f	-1.3197451e-05
33	0x39f004b1	0.00045779863
34	0x39dd4bbb	0.00042208828
35	0x3a33117f	0.0006830915
36	0x3aca12b1	0.0015416947
37	0x3a7bf2c2	0.0009611064
38	0x39b032b4	0.00033607113
39	0xbaa995ec	-0.0012938357
40	0xb99100f7	-0.00027657274
41	0x3abebe43	0.0014552552
42	0x39cb45e3	0.00038771247
43	0x3a00ee66	0.00049183366
44	0xb9c2c33f	-0.00037148033
45	0x38e46775	0.000108911576
46	0x39ac6740	0.00032883324
47	0x3a570350	0.0008202093
48	0x39626838	0.00021591864
49	0xb8a3917f	-7.7995464e-05
50	0x3a3d1a53	0.00072137004
51	0xb880385a	-6.114012e-05
52	0xba1b981d	-0.00059354474
53	0xba2a190d	-0.0006488718
54	0xbae59949	-0.0017516996
55	0x39c5a7de	0.0003769984
56	0x38ec74c6	0.00011275108
57	0x39e5cca9	0.00043830767
58	0xbbecd915	-0.0072280266
59	0xbc780473	-0.0151377795
60	0xbc569c58	-0.013098799
61	0x3a28e31b	0.0006442533
62	0x39cccb79	0.0003906151
63	0xb8e44c2e	-0.00010886077
64	0x3a86442b	0.0010243704
65	0x3a1e55d3	0.00060400105
66	0x39bdd013	0.00036203917
67	0x3b00598b	0.0019584622
68	0x3a0b871d	0.00053225626
69	0xbafc4097	-0.0019245323
70	0xbb5a5c79	-0.0033319278
71	0x3ac83202	0.0015273693
72	0xbb914ed4	-0.004434446
73	0x3910f21d	0.00013823104
74	0x39bd6dd0	0.00036130706
75	0xba97000d	-0.0011520401
76	0xb85c57a6	-5.2533716e-05
77	0x3b6e30e7	0.0036345066
78	0x3a654dc4	0.0008747245
79	0xb9d4bb80	-0.0004057549
80	0x39c97b63	0.00038429638
81	0xbb816e54	-0.0039499197
82	0x3b25b4ed	0.0025284842
83	0xbb57508f	-0.0032854413
84	0xbaabe1e3	-0.0013113584
85	0xbad4ccb6	-0.0016235325
86	0x3aafc586	0.0013410307
87	0x3b4b0b5c	0.0030982113
88	0xbb543d63	-0.0032385222
89	0xba919296	-0.0011106308
90	0xbb2a4368	-0.0025980119
91	0xb73238f6	-1.0622889e-05
92	0xb9e248e0	-0.00043160375
93	0xba5dbeb5	-0.00084588985
94	0xba3a0477	-0.0007096002
95	0x38a66c3a	7.9356556e-05
96	0xb991b0e4	-0.0002778835
97	0xb81bccd7	-3.714565e-05
98	0xbb8971c9	-0.0041944725
99	0xb910e25b	-0.00013817234
100	0xba599752	-0.00083004416
101	0xbb0d247e	-0.0021536644
102	0xbb32d3e4	-0.0027286941
103	0x39a22424	0.00030925975
104	0x3b27f883	0.0025630302
105	0x39dc698c	0.00042040308
106	0xbb878be7	-0.0041365507
107	0x3a2ce8b1	0.0006595953
108	0xbad240f4	-0.0016041086
109	0x3b0625f6	0.0020469404
110	0x3899949b	7.3232884e-05
111	0x38e59e80	0.00010949094
112	0x3a8da3f5	0.0010806309
113	0x3a1b75fe	0.0005930363
114	0x3b5890ff	0.0033045409
115	0xbb584eb3	-0.0033005893
116	0xbaae2d6c	-0.0013288683
117	0xbb691c3e	-0.0035569812
118	0xba126e11	-0.0005585859
119	0x3b7b1216	0.003831034
120	0x3a3421b8	0.00068714796
121	0x3acc2d97	0.0015577552
122	0xba049eb1	-0.0005059047
123	0xbb8421a4	-0.0040323306
124	0xbb266433	-0.0025389313
125	0x3cda95bd	0.026682729
126	0xbafabde4	-0.0019130078
127	0xba82f94a	-0.0009992507
128	0x3a94f6fe	0.0011365113
129	0xbb239aca	-0.0024964088
130	0xb64d59bc	-3.0599613e-06
131	0xb4b568ef	-3.3790226e-07
132	0x35bd43b8	1.4101306e-06
133	0xac134f36	-2.0933927e-12
134	0xae73829c	-5.5367808e-11
135	0x3691df88	4.347359e-06
136	0x3586336f	9.998747e-07
137	0x35e62204	1.7146235e-06
138	0x2d860e99	1.5240519e-11
139	0xb6a65154	-4.9566534e-06
140	0xb24e9be2	-1.2026222e-08
141	0x360d0558	2.1013748e-06
142	0x301689f0	5.4765703e-10
143	0xb634124b	-2.6832738e-06
144	0x35a941f3	1.2610675e-06
145	0x366ae743	3.500333e-06
146	0x2d07e5f6	7.724923e-12
147	0x2c3804db	2.6150668e-12
148	0xb0058e79	-4.8587584e-10
149	0xb5e1e5a6	-1.6830643e-06
150	0xb640a35a	-2.8705313e-06
151	0x3607e34d	2.0248874e-06
152	0x2f958c50	2.720264e-10
153	0x365a0656	3.248822e-06
154	0xb39d8c4e	-7.3364035e-08
155	0x2e61157a	5.1178152e-11
156	0xb405a456	-1.2446375e-07
157	0x2fd514b5	3.8759188e-10
158	0xb5b41486	-1.3417018e-06
159	0x352cccea	6.437318e-07
160	0xb69fa537	-4.757803e-06
161	0xb67e87c5	-3.7927978e-06
162	0xad885f96	-1.5503859e-11
163	0x36ae1963	5.1885595e-06
164	0xb680e736	-3.8416138e-06
165	0x3689fc26	4.112272e-06
166	0x353f76f1	7.132613e-07
167	0xb51897e0	-5.684542e-07
168	0xb676d298	-3.6779438e-06
169	0xb61b4a69	-2.3140112e-06
170	0xaf8c99bd	-2.557509e-10
171	0x2fe4e707	4.1637113e-10
172	0x369f5e54	4.7495505e-06
173	0xb6841ac3	-3.937022e-06
174	0xb5cadd26	-1.5114535e-06
175	0xb5055747	-4.9673366e-07
176	0x2c376341	2.6060961e-12
177	0x3649796b	3.0022009e-06
178	0x36592378	3.2356165e-06
179	0x36517519	3.1211587e-06
180	0x300f5d79	5.215593e-10
181	0x36a4cf27	4.9116966e-06
182	0xb5ffc9a8	-1.905767e-06
183	0x2f0fb881	1.3071323e-10
184	0x34221d0f	1.5097997e-07
185	0x3116694a	2.1887723e-09
186	0xac9640f9	-4.27047e-12
187	0xb55baaf2	-8.1832616e-07
188	0xb580446a	-9.556654e-07
189	0xb668c03d	-3.4682591e-06
190	0xb697da0b	-4.525534e-06
191	0x369a9439	4.606813e-06
192	0x3694b131	4.4313715e-06
193	0xae0e4d19	-3.235554e-11
194	0x30b93f97	1.3478595e-09
195	0xb9307e07	-0.00016831617
196	0xb9b71706	-0.00034921634
197	0xb9cf5a44	-0.0003954937
198	0xb873967d	-5.8075868e-05
199	0xb977f986	-0.0002364871
200	0x39d7e301	0.00041177127
201	0x39b213c3	0.0003396553
202	0x394a89e9	0.00019315597
203	0xb87c60a7	-6.0171496e-05
204	0xb91ec67b	-0.00015141994
205	0x3750a817	1.2436903e-05
206	0xb9ee6307	-0.0004546868
207	0x3a0374e1	0.000501467
208	0x37b59b0c	2.164908e-05
209	0xb5b4fdde	-1.348493e-06
210	0xb9754a23	-0.00023392639
211	0x38c81d3d	9.542189e-05
212	0xb99e5c95	-0.00030205087
213	0x3a023567	0.0004967064
214	0xb8cc52ad	-9.7428776e-05
215	0xba04943a	-0.0005057488
216	0xb7ebb2a7	-2.8097375e-05
217	0xb9ac4200	-0.0003285557
218	0xb96ba1a3	-0.00022471561
219	0xba3fbc20	-0.00073141046
220	0xb87e124f	-6.057537e-05
221	0xba3d499d	-0.0007220747
222	0x3a12babe	0.0005597285
223	0x3a0c92d6	0.00053624564
224	0x3814f485	3.5513676e-05
225	0xb99d41e5	-0.0002999447
226	0xba002af8	-0.00048892153
227	0xb7c9676c	-2.4009227e-05
228	0xb8d48a9e	-0.00010134767
229	0xb92b4b76	-0.00016335942
230	0xb98ee551	-0.00027255205
231	0xba4defe9	-0.0007855879
232	0xb96ec86e	-0.00022772115
233	0xb9ba27ee	-0.00035506435
234	0x39d78298	0.00041105296
235	0x39c81b8a	0.0003816749
236	0xb9a99699	-0.00032346396
237	0xb9852881	-0.00025397915
238	0xb977ad72	-0.00023620369
239	0x37bf27b6	2.2787466e-05
240	0xb6e0b187	-6.696387e-06
241	0xb94a8a92	-0.00019315843
242	0xb91c1b38	-0.00014887459
243	0xb954561f	-0.00020249978
244	0xb922aaaa	-0.00015513101
245	0x38ffd7dc	0.000121995545
246	0x3786eb70	1.6083679e-05
247	0x3a110cb6	0.0005533205
248	0x39a9c330	0.00032379618
249	0x39d78be2	0.00041112216
250	0xb8253518	-3.9388513e-05
251	0xb85e3114	-5.2974632e-05
252	0xb93c8f3f	-0.0001798244
253	0x3bd564b8	0.0065122508
254	0x3c79770c	0.015226137
255	0x3badabd7	0.005300026
