apka/backend/network/model_fine_tuned_topOuter.pth (torch, 241657 bytes, 41 tensors)

embeddings.0.weight f4 [5, 3]
0.9322134 -1.275792 -0.7864771 0.2289441 0.2862029 0.015599475 0.54334277 1.0524464
0.38084286 0.68986136 -0.18114144 1.2746711 -0.6985276 -0.14160036 1.9447635
00000000: 8aa5 6e3f 274d a3bf 9056 49bf 5270 6a3e
00000010: 3089 923e f194 7f3c 8318 0b3f 90b6 863f
00000020: d6fd c23e c19a 303f 247d 39be 6c28 a33f
00000030: b4d2 32bf afff 10be 03ee f83f

embeddings.1.weight f4 [7, 4]
-1.8060199 -1.6576304 0.2887072 0.47399622 -1.3873483 -0.39354968 1.3629823 -2.3315377
-0.1520786 0.010913734 -0.61365366 -0.74997973 -0.9377167 0.45959234 0.4804587 0.24901249
2.080907 0.25106856 0.91933185 0.14006865 0.10458562 -2.1295621 0.20295808 -0.19878179
-2.4920146 -0.97710806 -0.7023796 0.9511717
00000000: a92b e7bf 3c2d d4bf 6ed1 933e a2af f23e
00000010: a194 b1bf 587f c9be 3476 ae3f ea37 15c0
00000020: 7eba 1bbe 85cf 323c 6818 1dbf acfe 3fbf
00000030: 340e 70bf b04f eb3e affe f53e 21fd 7e3e
00000040: 952d 0540 0f8c 803e 5559 6b3f 286e 0f3e
00000050: fc30 d63d bf4a 08c0 3ed4 4f3e 748d 4bbe
00000060: 2b7d 1fc0 c123 7abf 26cf 33bf fd7f 733f

embeddings.2.weight f4 [6, 3]
-0.36174828 -2.0565612 -0.7281205 1.3967611 0.8126024 -0.27659708 -1.2615337 -1.0001668
0.2594906 0.36555552 0.20903604 -1.0240816 -0.14945234 0.08386025 1.2154715 -0.8289645
0.99182856 0.5227055
00000000: 1237 b9be b39e 03c0 1b66 3abf 11c9 b23f
00000010: b606 503f 229e 8dbe f079 a1bf 7705 80bf
00000020: f4db 843e 182a bb3e 8b0d 563e 1b15 83bf
00000030: 090a 19be ecbe ab3d 9294 9b3f 0437 54bf
00000040: 7ae8 7d3f 07d0 053f

embeddings.3.weight f4 [6, 3]
2.2357125 0.2839529 0.27867267 2.6383507 0.89153135 -1.5931325 -0.6183714 0.071047045
-0.39009008 2.0324118 -0.008773557 -1.8481383 -0.31024972 -0.16643922 0.36106196 -1.9190567
-0.3141415 1.8813404
00000000: ea15 0f40 4662 913e 2fae 8e3e bdda 2840
00000010: 663b 643f c4eb cbbf 974d 1ebf 1d81 913d
00000020: e3b9 c7be 0913 0240 f7be 0fbc cc8f ecbf
00000030: 0dd9 9ebe 0b6f 2abe 1ddd b83e a6a3 f5bf
00000040: 28d7 a0be c3cf f03f

embeddings.4.weight f4 [4, 2]
0.49806988 1.4783032 -0.88870776 -0.17474087 -0.19918494 1.6685293 -0.8454367 0.45491353
00000000: 0403 ff3e 0a39 bd3f 5a82 63bf 45ef 32be
00000010: 23f7 4bbe 5e92 d53f 8a6e 58bf 6dea e83e

embeddings.5.weight f4 [8, 4]
0.931404 -0.3476918 -1.9641619 2.0232263 -0.04766083 -1.3881434 1.103917 0.79293334
1.6218125 -0.11787809 -0.92434514 -0.56785595 -1.3855588 -1.111744 0.53792924 1.3730093
-0.038027603 -0.9236932 -0.6319493 -1.2355281 -0.3163336 0.6103405 2.1872766 -0.37897408
0.096079126 1.9551847 0.29458213 0.68263674 -0.49891123 0.65391046 0.5217067 -0.8539883
00000000: 7e70 6e3f a904 b2be a869 fbbf 8a7c 0140
00000010: 0138 43bd afae b1bf 274d 8d3f aefd 4a3f
00000020: 8d97 cf3f 116a f1bd e2a1 6cbf 025f 11bf
00000030: fe59 b1bf a14d 8ebf bbb5 093f c5be af3f
00000040: d5c2 1bbd 2877 6cbf 6ec7 21bf c925 9ebf
00000050: 7af6 a1be 463f 1c3f 57fc 0b40 e408 c2be
00000060: 22c5 c43d 7e43 fa3f 78d3 963e 48c1 2e3f
00000070: 4b71 ffbe ad66 273f 928e 053f fa9e 5abf

embeddings.6.weight f4 [3, 2]
-0.36664626 0.18298015 1.6617242 1.4581112 0.5295545 -0.16857055
00000000: 0fb9 bbbe 265f 3b3e 61b3 d43f 63a3 ba3f
00000010: e290 073f c29d 2cbe

embeddings.7.weight f4 [8, 4]
1.0346175 2.2352958 0.58031905 -2.2502542 -0.030873673 0.51090145 -0.89457047 1.0312371
1.5187541 1.5812829 -1.2671776 -1.0975499 -1.6610488 -0.79876435 -0.7251753 0.3241897
0.64770454 -1.0694772 -0.27776092 -1.7085812 -0.89424556 0.3506267 1.4194502 1.0902207
0.42789704 -0.0062510786 1.1907744 -0.26103485 1.5234869 2.0601962 -1.0048507 0.7221457
00000000: 596e 843f 160f 0f40 ca8f 143f 2a04 10c0
00000010: c9ea fcbc 70ca 023f 9202 65bf 94ff 833f
00000020: 8966 c23f 7a67 ca3f e032 a2bf 847c 8cbf
00000030: 3f9d d4bf d27b 4cbf 17a5 39bf 31fc a53e
00000040: f7cf 253f a1e4 88bf ae36 8ebe cab2 dabf
00000050: 47ed 64bf 5885 b33e 8bb0 b53f 5a8c 8b3f
00000060: 5215 db3e d9d5 ccbb 4c6b 983f 5ca6 85be
00000070: 9e01 c33f 41da 0340 f39e 80bf 8ade 383f

embeddings.8.weight f4 [7, 4]
0.26219034 2.4742396 -1.7679178 -0.088437304 -0.5815043 0.90969926 0.2493561 0.54734975
1.0225638 0.8340295 0.41353348 0.8731355 0.08662864 0.6075308 -0.30852443 0.34826124
-1.0690137 -0.6028547 -0.1932525 1.3878653 0.7757861 1.565636 0.4471187 0.90418047
-0.899716 1.110126 -0.6573983 1.0103143
00000000: d03d 863e f159 1e40 214b e2bf 9e1e b5bd
00000010: 77dd 14bf 0de2 683f 3557 7f3e 1d1f 0c3f
00000020: 5fe3 823f f582 553f a9ba d33e cf85 5f3f
00000030: 5b6a b13d 2387 1b3f eaf6 9dbe 4c4f b23e
00000040: 71d5 88bf b054 1abf fce3 45be 92a5 b13f
00000050: eb99 463f c366 c83f beec e43e 5f78 673f
00000060: ca53 66bf 9c18 8e3f 414b 28bf fb51 813f

embeddings.9.weight f4 [7, 4]
0.28058952 0.6998316 0.5411168 0.20819859 -1.6685144 -0.86099786 -0.9855736 2.231256
-0.03724254 -0.6945909 -1.1153862 1.3657362 -0.49588197 0.19708768 -0.10950796 -0.084717676
-0.14459729 -1.0600781 -1.0884254 -0.52185076 1.3424674 0.9048268 1.6919492 0.8331289
-1.3478876 0.29079637 0.098367855 -0.5410724
00000000: 6ea9 8f3e 2a28 333f a186 0a3f 0332 553e
00000010: e191 d5bf 5b6a 5cbf 8d4e 7cbf e6cc 0e40
00000020: a28b 18bd b6d0 31bf fac4 8ebf 72d0 ae3f
00000030: 3ee4 fdbe 5ad1 493e b645 e0bd 7680 adbd
00000040: 5011 14be a4b0 87bf 8651 8bbf 0398 05bf
00000050: f9d5 ab3f bba2 673f cb91 d83f f047 553f
00000060: 9587 acbf 43e3 943e 1675 c93d b983 0abf

embeddings.10.weight f4 [5, 3]
0.9414544 1.7865562 -0.5329854 0.49868688 0.5948771 -0.046450295 0.76786023 -1.0368177
0.5430617 -0.17621866 0.33751225 -1.6671952 1.0965662 -0.21584135 0.39277315
00000000: 2803 713f e0ad e43f bb71 08bf e353 ff3e
00000010: de49 183f aa42 3ebd 7d92 443f 71b6 84bf
00000020: 1706 0b3f aa72 34be 68ce ac3e a766 d5bf
00000030: 485c 8c3f 8405 5dbe 9019 c93e

embeddings.11.weight f4 [7, 4]
-0.45980015 -2.0258818 -2.1918645 -1.3022467 1.4322445 0.098157704 0.60972536 -0.097303346
-0.6082691 0.8094761 -0.28858265 0.89693266 2.4911697 -1.2756824 -0.41890928 -1.1291335
-0.10965528 0.13472818 -0.17911577 -0.66802585 -1.0994436 -1.018219 -0.5350331 -0.035872873
0.78859156 1.1476272 1.4846463 0.46184343
00000000: ed6a ebbe 0ca8 01c0 8247 0cc0 05b0 a6bf
00000010: ca53 b73f e806 c93d f616 1c3f fa46 c7bd
00000020: 86b7 1bbf d339 4f3f 1bc1 93be 619d 653f
00000030: 536f 1f40 9049 a3bf 477b d6be 7287 90bf
00000040: f392 e0bd 2ff6 093e 206a 37be be03 2bbf
00000050: 91ba 8cbf 0055 82bf eef7 08bf 6fef 12bd
00000060: 23e1 493f 73e5 923f e408 be3f be76 ec3e

embeddings.12.weight f4 [3, 2]
-0.62133557 -0.27685133 -1.3555514 1.4133586 -0.12134934 -1.7525905
00000000: d90f 1fbf 75bf 8dbe b582 adbf efe8 b43f
00000010: 0186 f8bd e354 e0bf

embeddings.13.weight f4 [7, 4]
-0.25244057 0.5045874 -2.564881 1.6419327 1.8945246 -0.4976277 -0.6849741 -0.7456159
-0.6265816 -0.8178433 -0.818296 -0.3810926 -0.7981799 0.8499047 1.2575946 -0.1954415
0.26299194 1.1015623 -0.6529485 -0.048703607 -1.3389302 0.31768537 0.457731 0.40870112
0.042951457 -0.49743578 -1.6976573 -1.0996789
00000000: e43f 81be a42c 013f 0327 24c0 da2a d23f
00000010: c87f f23f 0fc9 febe 765a 2fbf afe0 3ebf
00000020: a767 20bf 2e5e 51bf d97b 51bf 921e c3be
00000030: 8555 4cbf 5b93 593f dcf8 a03f d121 48be
00000040: e1a6 863e feff 8c3f a227 27bf 6f7d 47bd
00000050: 1162 abbf a8a7 a23e b85b ea3e 4641 d13e
00000060: deed 2f3d e7af febe d64c d9bf 47c2 8cbf

embeddings.14.weight f4 [6, 3]
1.8364276 -1.1993151 -0.6199817 0.7721386 0.53090346 -0.091723576 -1.4626368 0.53330225
-0.33927628 -0.38935354 -0.99054164 0.24500602 0.024478221 1.0961683 -1.1897752 0.58947676
0.871173 -0.20997977
00000000: 0f10 eb3f 2883 99bf 1fb7 1ebf e0aa 453f
00000010: 4ae9 073f 92d9 bbbd af37 bbbf 7f86 083f
00000020: 9fb5 adbe 5959 c7be 2394 7dbf dce2 7a3e
00000030: 8d86 c83c 3e4f 8c3f 8e4a 98bf f3e7 163f
00000040: 3205 5f3f f004 57be

embeddings.15.weight f4 [6, 3]
1.4790157 0.8912377 -2.460613 -1.0377617 -1.4638101 -0.409799 -0.35427216 -0.8244038
-1.8621327 -1.7587256 0.47811088 1.1638205 1.114842 0.09591984 0.1374518 -1.414496
1.5123856 0.33533883
00000000: 6350 bd3f 2728 643f af7a 1dc0 60d5 84bf
00000010: 215e bbbf 2dd1 d1be 2963 b5be 210c 53bf
00000020: 5d5a eebf ec1d e1bf f3ca f43e 12f8 943f
00000030: 25b3 8e3f 9f71 c43d 2ac0 0c3e 340e b5bf
00000040: da95 c13f 88b1 ab3e

embeddings.16.weight f4 [4, 2]
-0.20109713 0.7716215 0.39717534 -0.3465351 0.32482252 -0.27473345 -1.6229743 -2.6881979
00000000: 68ec 4dbe fd88 453f 915a cb3e 0c6d b1be
00000010: 234f a63e dda9 8cbe 9fbd cfbf 6f0b 2cc0

embeddings.17.weight f4 [8, 4]
-0.066113435 0.9042133 0.6197765 1.2562693 0.28891525 0.88029474 0.7404845 -0.33134058
-0.78237814 0.6245225 1.3756849 0.8073158 0.8702454 -0.18705282 0.7897185 0.4158631
1.8679857 1.0289747 -1.9321243 -1.6474105 0.8210336 0.16836718 -0.4250952 0.43734583
-0.70566356 -0.7003483 -0.63042486 0.6989895 -0.08103759 0.11027098 1.0882013 -1.9320548
00000000: 7b66 87bd 867a 673f aca9 1e3f 6fcd a03f
00000010: b3ec 933e ff5a 613f 6490 3d3f 79a5 a9be
00000020: ef49 48bf b5e0 1f3f 7116 b03f 40ac 4e3f
00000030: 67c8 5e3f c68a 3fbe fe2a 4a3f 02ec d43e
00000040: 281a ef3f 71b5 833f d94f f7bf 59de d2bf
00000050: 422f 523f 7268 2c3e 14a6 d9be cbeb df3e
00000060: 5ea6 34bf 074a 33bf 8663 21bf faf0 323f
00000070: 09f7 a5bd c0d5 e13d 2e4a 8b3f 924d f7bf

model.0.weight f4 [128, 63]
-0.016015124 -0.030363798 -0.011242555 0.06323208 -0.037809003 0.025399853 -0.09822081 0.0072925976
0.084795736 -0.17870744 -0.16921759 -0.15936153 0.116549276 0.01526106 0.10318976 0.06595808
0.03629916 0.06759038 -0.019585399 0.1208943 -0.019317245 -0.14061558 0.1140434 -0.16276525
-0.015955316 -0.15482737 0.08513204 0.039860114 0.012926907 0.111850806 0.24653383 0.03994036
0.08719281 0.04138096 0.017616117 0.030568019 0.01677226 0.10303083 -0.034739003 -0.0070994757
-0.052193876 -0.06972977 0.0930584 -0.06602207 -0.1795142 -0.031147622 -0.042671017 0.027184702
-0.09673113 0.041951038 0.16018097 -0.15813214 0.046530273 -0.02187306 0.09246301 0.045843504
0.0030642394 0.059281953 0.12796809 -0.027632426 -0.05134041 0.04085963 0.10217035 0.03676198
0.0055655474 -0.08266087 0.050493475 -0.014189599 -0.08759645 -0.005390759 0.012348798 0.12241972
-0.10138929 -0.111691214 -0.121834956 -0.07027534 -0.12453969 0.14571375 0.040508173 -0.06133515
0.13146709 -0.096750565 -0.12009333 0.114961945 -0.12911457 0.0015007665 -0.015795464 -0.07297559
-0.031889245 -0.028325478 -0.014112817 -0.043742027 0.12644273 -0.13529705 0.06913988 0.20200083
0.108126715 0.10157834 0.13537292 0.08681561 -0.1005784 -0.0685901 0.0647694 0.09958426
-0.11815554 0.0484438 0.058358036 -0.05028569 0.07998337 0.035612263 0.15884225 -0.032185953
0.020755447 0.12167154 0.068504415 -0.09683768 -0.09717625 0.070778474 -0.065034695 0.04841196
0.03151094 -0.16521849 0.033166528 0.065341845 0.040039197 -0.05062647 0.010179426 0.02926173
0.050965838 -0.029301215 -0.037168548 0.08100201 0.10258156 -0.034842238 -0.018626127 -0.09055107
0.101535864 -0.098019205 -0.034247033 -0.11925879 0.07153861 -0.09609466 0.044467673 0.047409102
-0.14152884 0.071630076 0.13943264 -0.10174041 -0.13081881 0.086777285 -0.02107488 0.15778866
0.15033029 0.07923426 0.074932836 0.044084977 0.0029351234 0.0071197716 0.05813213 0.15132552
0.049069054 0.08959604 -0.0019110454 0.069485605 0.07074822 -0.023533488 0.110846765 -0.07035213
-0.12818225 0.14787726 0.12352742 -0.13906534 0.13783193 0.10978754 -0.093014784 -0.04236245
-0.032436665 0.09448748 0.048474714 0.042683147 0.09874011 -0.02181017 0.04123338 -0.067871496
-0.036761727 0.06964976 -0.04433625 0.13733998 -0.05450086 0.08040795 0.036938086 -0.061592042
0.074828625 -0.021909377 0.104274504 0.029471872 0.0075185588 -0.11690115 0.0071696714 0.08500271
0.095398754 -0.09837498 0.011786707 -0.12991479 0.027172633 0.049747266 0.04326845 -0.04728487
-0.01677098 -0.041634228 0.04799365 -0.09092069 -0.059739206 0.0047773705 -0.028094716 -0.09844368
0.009874134 -0.09545762 -0.0057698074 0.07421751 -0.044933356 0.03649645 -0.047514915 -0.04327838
0.07791361 0.09868597 0.10774323 0.11421122 -0.017732276 0.119610354 -0.0790373 -0.022840457
0.084944546 -0.078623205 0.02612899 -0.117766514 -0.024683699 0.078495406 -0.045036554 0.04820848
0.057044778 0.095303625 -0.0034975219 -0.12025979 -0.0013941716 -0.05336622 -0.021919109 -0.09563205
-0.021397086 -0.008543597 -0.115883335 -0.07934872 0.124751344 -0.121641934 0.047585405 0.055349153
00000000: 2632 83bc 80bd f8bc b232 38bc d27f 813d
00000010: 9ddd 1abd 5a13 d03c fe27 c9bd bef6 ee3b
00000020: 63a9 ad3d 15ff 36be 6047 2dbe ab2f 23be
00000030: 63b1 ee3d 8609 7a3c 2755 d33d 0815 873d
00000040: 6eae 143d d36c 8a3d 8f71 a0bc 6e97 f73d
00000050: 333f 9ebc 88fd 0fbe 968f e93d efab 26be
00000060: b9b4 82bc 118b 1ebe b559 ae3d 5c44 233d
00000070: 61cb 533c 0912 e53d 5d73 7c3e 8198 233d
00000080: 2592 b23d 157f 293d ad4f 903c c869 fa3c
00000090: fb65 893c d401 d33d 7c4a 0ebd b8a2 e8bb
000000a0: 3fc9 55bd 7bce 8ebd 6795 be3d 9436 87bd
000000b0: 92d2 37be 4c29 ffbc cec7 2ebd 74b2 de3c
000000c0: f81a c6bd dad4 2b3d 7b06 243e 64ed 21be
000000d0: 8796 3e3d 222f b3bc 3f5d bd3d 66c6 3b3d
000000e0: 68d1 483b a2d1 723d 110a 033e 665d e2bc
000000f0: 524a 52bd 6d5c 273d b03e d13d bb93 163d
00000100: 325f b63b 1a4a a9bd 3fd2 4e3d 7e7b 68bc
00000110: c465 b3bd f7a4 b0bb 9d52 4a3c 31b7 fa3d
00000120: 30a5 cfbd 5dbe e4bd 9b84 f9bd 84ec 8fbd
00000130: aa0e ffbd fc35 153e e6eb 253d 913a 7bbd
00000140: 4f9f 063e 2925 c6bd 7ef3 f5bd 2b71 eb3d
00000150: 9c36 04be 5eb5 c43a 7d65 81bc 3a74 95bd
00000160: 4c9e 02bd d50a e8bc 7239 67bc d72a 33bd
00000170: 347a 013e 4f8b 0abe 3699 8d3d 4ed9 4e3e
00000180: 8a71 dd3d 4e08 d03d 339f 0a3e 62cc b13d
00000190: 0cfc cdbd f778 8cbd d2a5 843d d5f2 cb3d
000001a0: 88fb f1bd 026d 463d d608 6f3d 5ef8 4dbd
000001b0: 52ce a33d 2ade 113d 8ba7 223e 6bd5 03bd
000001c0: 5407 aa3c ee2e f93d 0b4c 8c3d d552 c6bd
000001d0: 5704 c7bd 4ef4 903d e930 85bd 9f4b 463d
000001e0: 9e11 013d 092f 29be a0d9 073d f2d1 853d
000001f0: 2400 243d b45d 4fbd 9bc7 263c 4cb6 ef3c
00000200: 8ec1 503d 1a09 f0bc 0c3e 18bd 62e4 a53d
00000210: 4816 d23d bcb6 0ebd d295 98bc d772 b9bd
00000220: 09f2 cf3d 4bbe c8bd 9e46 0cbd f43d f4bd
00000230: d682 923d 47cd c4bd bc23 363d 0c30 423d
00000240: f0ec 10be cab2 923d 6ec7 0e3e 475d d0bd
00000250: 5ef5 05be 4ab8 b13d 3aa5 acbc 5a93 213e
00000260: 2ff0 193e 9245 a23d 6376 993d 7392 343d
00000270: 335b 403b f94c e93b f51b 6e3d 14f5 1a3e
00000280: a2fc 483d 217e b73d 0b7c faba 784e 8e3d
00000290: 71e4 903d 4dc9 c0bc a103 e33d c714 90bd
000002a0: 3542 03be 236d 173e f2fb fc3d 2567 0ebe
000002b0: d023 0d3e 4ad8 e03d 897e bebd 4084 2dbd
000002c0: 4fdc 04bd a782 c13d 6c8d 463d 86d4 2e3d
000002d0: 4138 ca3d 3eab b2bc 55e4 283d 3600 8bbd
000002e0: 7793 16bd 89a4 8e3d ed99 35bd daa2 0c3e
000002f0: 4b3c 5fbd ecac a43d 644c 173d f047 7cbd
00000300: c03f 993d 4b7b b3bc df8d d53d ff6e f13c
00000310: 3e5e f63b df69 efbd 90ef ea3b e715 ae3d
00000320: 6c60 c33d d278 c9bd 081d 413c 6208 05be
00000330: 2499 de3c cac3 4b3d 423a 313d c8ad 41bd
00000340: 4b63 89bc a788 2abd fd94 443d a034 babd
00000350: 19b1 74bd 7d8b 9c3b e426 e6bc d79c c9bd
00000360: 1fc7 213c 497f c3bd a710 bdbb 5aff 973d
00000370: 0a0c 38bd 4d7d 153d 009f 42bd ac44 31bd
00000380: 2c91 9f3d df1b ca3d 7ca8 dc3d 92e7 e93d
00000390: 4743 91bc 46f6 f43d 4fde a1bd e91b bbbc
000003a0: 68f7 ad3d 3405 a1bd 770c d63c 922f f1bd
000003b0: 7835 cabc 33c2 a03d 4078 38bd 4176 453d
000003c0: c9a7 693d 8c2e c33d ae36 65bb c44a f6bd
000003d0: a3bc b6ba 8a96 5abd b48f b3bc bcda c3bd
000003e0: f148 afbc 71fa 0bbc 3e54 edbd 9581 a2bd
000003f0: a27d ff3d 681f f9bd eae8 423d cbb5 623d

model.0.bias f4 [128]
-0.040644754 -0.08679506 0.07534316 0.09009883 0.070855275 0.13198943 -0.057200957 -0.16061288
0.10036643 -0.044918057 0.091964856 0.05804405 0.06203863 -0.03340427 -0.047678288 0.11494765
0.18938823 0.10420829 -0.013395443 -0.07564403 0.06924232 -0.07012089 0.08503709 0.006718099
-0.016206006 0.031240348 -0.096260265 0.052726436 0.03050865 -0.057486527 -0.023630356 -0.023901416
-0.066986494 0.061022043 -0.053536125 -0.037386965 -0.06496666 5.147792e-08 -0.021749184 -0.021748401
-0.032565076 -0.04409786 -0.09686934 -0.06489703 -0.031093916 -0.08429011 0.07650731 0.038842633
-0.07117783 -0.024190107 0.0034066353 -0.14705603 -0.08520172 -0.07745903 0.08801756 0.12642941
-0.08581022 -0.11143983 0.059135444 0.01228218 -0.0082765 -0.015041616 -0.031048479 0.008005301
-3.2829632e-09 -0.00417851 -0.019380787 -0.011121742 0.008256771 0.08458494 -0.024545006 -0.024053982
0.1328056 0.10908771 -0.024045452 0.08906452 -0.15902075 0.026728747 0.009141332 -0.010103663
-0.011684097 0.083108194 0.17673306 0.023791913 0.0056481394 0.05724175 -0.14015244 0.10892033
-0.018612053 -0.06479552 0.1038592 0.0028155963 0.06307145 -2.629788e-07 -5.319737e-07 -0.0015884292
0.17550963 -2.9467512e-07 0.042266063 0.08152759 -3.831222e-08 -0.09377853 -0.029656153 -0.08525353
0.046434984 -0.012538446 0.055364452 0.03907289 1.4944426e-05 0.08592547 0.02150117 -0.13474774
0.06315704 -0.027650436 -0.08267993 0.00036872894 -0.008680902 -0.05886047 -0.07450681 -0.0097239865
0.060182177 -0.06306101 -0.14220534 0.082488455 -0.0045887334 0.004217857 -0.019328829 -0.09364733
00000000: 1d7b 26bd 9cc1 b1bd 844d 9a3d bc85 b83d
00000010: 921c 913d 3d28 073e 8d4b 6abd b477 24be
00000020: ea8c cd3d fffb 37bd 1258 bc3d 99bf 6d3d
00000030: 381c 7e3d ead2 08bd 4f4a 43bd ac69 eb3d
00000040: fdee 413e 286b d53d 8f78 5bbc 42eb 9abd
00000050: ebce 8d3d 8b9b 8fbd ed27 ae3d 8023 dc3b
00000060: 75c2 84bc c2eb ff3c 1a24 c5bd adf7 573d
00000070: 47ed f93c fe76 6bbd 7394 c1bc e7cc c3bc
00000080: 3730 89bd 40f2 793d b248 5bbd 1323 19bd
00000090: 3e0d 85bd 9218 5d33 582b b2bc b429 b2bc
000000a0: f562 05bd f59f 34bd 6f63 c6bd bce8 84bd
000000b0: abb8 febc 4ba0 acbd ddaf 9c3d 7419 1f3d
000000c0: afc5 91bd 552a c6bc db41 5f3b db95 16be
000000d0: 3d7e aebd d7a2 9ebd 8d42 b43d b676 013e
000000e0: 45bd afbd 913a e4bd 0238 723d 323b 493c
000000f0: 289a 07bc 1c71 76bc 6159 febc aa28 033c
00000100: 809a 61b1 e2eb 88bb 75c4 9ebc f837 36bc
00000110: 6847 073c de3a ad3d 9c12 c9bc db0c c5bc
00000120: 31fe 073e 6169 df3d f8fa c4bc 7667 b63d
00000130: 56d6 22be 3ff6 da3c 86c5 153c d689 25bc
00000140: a86e 3fbc a134 aa3d 83f9 343e 42e7 c23c
00000150: 0714 b93b 5376 6a3d 1f84 0fbe 9f11 df3d
00000160: 4e78 98bc 83b3 84bd 22b4 d43d de85 383b
00000170: 9b2b 813d 882f 8db4 f4cc 0eb5 d732 d0ba
00000180: ccb8 333e d733 9eb4 2e1f 2d3d f0f7 a63d
00000190: bb8c 24b3 f50e c0bd 76f1 f2bc 6799 aebd
000001a0: 9c32 3e3d 0e6e 4dbc d6c5 623d e50a 203d
000001b0: d2b9 7a37 b1f9 af3d 3923 b03c 50fb 09be
000001c0: 7a58 813d 2b83 e2bc 1854 a9bd f651 c139
000001d0: 583a 0ebc ad17 71bd 0797 98bd 5b51 1fbc
000001e0: 9681 763d 2126 81bd 479e 11be b5ef a83d
000001f0: 165d 96bb f335 8a3b 7e57 9ebc 2cca bfbd

model.2.weight f4 [64, 128]
0.1275229 0.08976134 0.036973096 0.08982346 -0.029348167 -0.014109633 0.09270465 0.04083927
-0.06524377 0.007990932 0.042104412 0.0647191 -0.010491127 0.0003994899 0.054438356 0.11592514
0.104764104 0.0047276025 0.13997336 0.046737317 0.09417159 0.060940288 0.036826737 0.07450443
0.11741922 0.0141165275 0.043848883 -0.051590014 0.07929557 0.02859599 0.008414201 0.021042742
-0.075235106 -0.050864805 0.00907913 -0.0012620816 -0.05413978 3.6757044e-06 0.070589 -0.0042519
-0.014034623 0.12207452 -0.009927814 -0.040210307 0.0008155122 -0.03914302 -0.0060824994 -0.047524873
-0.039899476 -0.065364756 -1.4033416e-08 0.022466104 0.023687802 -0.0389922 -0.09198594 0.1073189
0.09534455 0.09884541 0.06125215 0.051298097 -0.012019536 -0.048540745 -0.0064695776 -0.010538737
-0.0007935424 0.08343423 0.0076088 0.06974275 0.013485604 0.1170134 -0.058725245 0.020796992
0.03793458 0.09506074 0.07542104 -0.027170315 -0.026245153 -2.9226118e-08 0.022470035 0.003995997
-0.03772531 0.05253946 0.041265674 0.0049764495 -0.02944315 -0.009945119 -0.020548586 -0.03637529
0.076981746 0.1253039 0.05044937 0.0817588 0.015082961 0.000149451 -4.73611e-07 3.499063e-05
0.009233256 -1.9121917e-06 0.05717291 -0.033434924 -4.7533467e-06 0.040303186 -0.048310038 0.00066785497
-0.06078629 0.10695069 0.054977715 0.055008058 0.067509934 0.12317921 0.028902646 -0.04763432
-0.04175593 -0.06129661 0.07110568 -0.06352778 -0.07973397 -0.063460425 -0.070174985 0.011547513
0.12995651 -0.056168936 -0.054018747 0.1296492 0.008978423 -0.02092604 1.7757407e-05 -0.021258406
0.095348276 0.044826567 -0.075083524 0.05536583 -0.055126797 0.0492189 -0.089442395 -0.10030098
0.07503931 0.00564259 0.047868166 -0.050764877 -0.058101032 0.010371275 -0.031796698 0.085176066
0.058204334 0.019693512 0.10887896 0.026131129 -0.032201223 -0.08546707 0.023123836 0.03729837
0.037976548 0.06928885 -0.057373337 0.021419281 -0.004641657 -0.08739595 -0.06557435 0.020856071
0.022062058 0.072849005 0.014022092 -0.060093515 -0.0043891706 1.1833605e-07 0.01395046 0.0016144196
0.021065352 0.105066314 -0.040577672 0.041821882 -1.086724e-06 -0.041999843 0.0080960095 0.017586987
0.06831914 -0.015855376 0.0075816996 0.03884416 0.014154219 -0.03337398 0.069733396 0.027620267
0.074469805 0.031763136 0.012051075 0.08441515 -0.055460356 0.042801615 0.079223305 0.023267683
-0.0038828612 -0.022182392 -0.084705584 0.060936227 -0.03907792 0.074838705 -0.08316 -0.102095895
0.060650673 0.05960734 0.05307576 0.06953174 0.07762462 -0.0006633593 0.04904797 0.05003748
-0.07693147 -0.030576833 0.036399387 0.05696318 -0.024810456 0.06729325 -0.091239005 0.006506488
0.0022413551 0.085891485 0.0604637 0.025170114 -0.07648466 7.1878793e-07 -2.3953264e-05 0.0072022034
-0.0022675607 0.007942101 0.040537294 0.040052317 -8.5681195e-10 -0.024225853 -0.022875672 0.016213674
-0.040783748 0.025308242 -0.07087544 -0.0036546856 -0.02489592 0.0048374506 -0.04987725 0.030513467
-0.024408277 0.014230335 -0.08668913 0.06133125 -0.064680256 -0.04953546 0.013841937 -0.0066809948
0.095066525 0.0009967702 0.031363487 0.04952308 -0.0032059147 0.07831956 6.5553468e-06 0.05284483
00000000: 5d95 023e cbd4 b73d 1a71 173d 5df5 b73d
00000010: 916b f0bc 172c 67bc efdb bd3d 1447 273d
00000020: 879e 85bd 66ec 023c ad75 2c3d 738b 843d
00000030: fae2 2bbc a072 d139 c1fa 5e3d 296a ed3d
00000040: 908e d63d 01ea 9a3b 2d55 0f3e a16f 3f3d
00000050: 09dd c03d 869c 793d a2d7 163d c795 983d
00000060: 7d79 f03d 0249 673c e39a 333d 0d50 53bd
00000070: b765 a23d 2342 ea3c b8db 093c d461 ac3c
00000080: dd14 9abd 9d57 50bd a2c0 143c 6e6c a5ba
00000090: adc1 5dbd 1fac 7636 f790 903d 8653 8bbb
000000a0: 7af1 65bc 3502 fa3d 45a8 22bc 90b3 24bd
000000b0: 19c8 553a 6e54 20bd b44f c7bb 71a9 42bd
000000c0: a26d 23bd f5dd 85bd 9e17 71b2 d60a b83c
000000d0: ec0c c23c 49b6 1fbd 2063 bcbd 03ca db3d
000000e0: 0144 c33d 766f ca3d 89e3 7a3d f41d 523d
000000f0: 97ed 44bc a9d2 46bd c0fe d3bb abaa 2cbc
00000100: bb05 50ba 91df aa3d 3e53 f93b 49d5 8e3d
00000110: b9f2 5c3c b9a4 ef3d e289 70bd 745e aa3c
00000120: 4a61 1b3d 35af c23d 5976 9a3d 4894 debc
00000130: 1300 d7bc ea0c fbb2 1413 b83c daf0 823b
00000140: db85 1abd 9e33 573d 3206 293d 7c11 a33b
00000150: c332 f1bc daf0 22bc 8255 a8bc 42fe 14bd
00000160: 9ba8 9d3d aa4f 003e 00a4 4e3d 2871 a73d
00000170: 861e 773c f3b5 1c39 9a44 feb4 e7c2 1238
00000180: 1547 173c 3453 00b6 242e 6a3d 0ff3 08bd
00000190: f07e 9fb6 f414 253d bfe0 45bd fd12 2f3a
000001a0: 0bfb 78bd f708 db3d 5030 613d 2150 613d
000001b0: a642 8a3d 6245 fc3d 3ec5 ec3c 341c 43bd
000001c0: 4408 2bbd 2712 7bbd db9f 913d da1a 82bd
000001d0: 904b a3bd 8af7 81bd e7b7 8fbd c831 3d3c
000001e0: 5213 053e 6611 66bd c342 5dbd c3c2 043e
000001f0: 3c1a 133c 166d abbc bef5 9437 1c26 aebc
00000200: f545 c33d 109c 373d 64c5 99bd 48c7 623d
00000210: a3cc 61bd c299 493d 932d b7bd 9a6a cdbd
00000220: 36ae 993d 7ae5 b83b 6911 443d d5ee 4fbd
00000230: 59fb 6dbd 48ec 293c 413d 02bd ca70 ae3d
00000240: ab67 6e3d 4a54 a13c effb de3d f310 d63c
00000250: 6ee5 03bd 5c09 afbd 336e bd3c 2dc6 183d
00000260: 4c8d 1b3d 50e7 8d3d 4e00 6bbd 7d77 af3c
00000270: 0b19 98bb a6fc b2bd d84b 86bd 5ada aa3c
00000280: 7dbb b43c dc31 953d ebbc 653c 9e24 76bd
00000290: 08d3 8fbb ee1f fe33 7890 643c ef9a d33a
000002a0: 3f91 ac3c 022d d73d c634 26bd 6c4d 2b3d
000002b0: 8ddb 91b5 0708 2cbd 20a5 043c 9612 903c
000002c0: e8ea 8b3d 22e3 81bc e86f f83b 0e1b 1f3d
000002d0: 19e7 673c 28b3 08bd 62d0 8e3d e643 e23c
000002e0: a083 983d 101a 023d df71 453c dae1 ac3d
000002f0: 662a 63bd bf50 2f3d d43f a23d de9b be3c
00000300: 9a77 7ebb d9b7 b5bc 1f7a adbd 4498 793d
00000310: 2b10 20bd 0945 993d ca4f aabd a717 d1bd
00000320: d76c 783d d326 743d f865 593d a866 8e3d
00000330: a8f9 9e3d 4ae5 2dba 86e6 483d 1af4 4c3d
00000340: 3f8e 9dbd 447c fabc 8617 153d 3952 693d
00000350: 4c3f cbbc 0bd1 893d 84db babd 6134 d53b
00000360: b3e3 123b e0e7 af3d c9a8 773d 8e31 ce3c
00000370: fda3 9cbd bbf2 4035 3eef c8b7 7600 ec3b
00000380: 5b9b 14bb 961f 023c 6f0a 263d e60d 243d
00000390: c884 6bb0 4c75 c6bc c365 bbbc 8ad2 843c
000003a0: dc0c 27bd 3b53 cf3c 2527 91bd 7383 6fbb
000003b0: 87f2 cbbc 7a83 9e3b 164c 4cbd 61f7 f93c
000003c0: def3 c7bc 5a26 693c 128a b1bd 7a36 7b3d
000003d0: 1577 84bd b2e5 4abd 4bc9 623c 3fec dabb
000003e0: 3db2 c23d 0fa6 823a 0077 003d b7d8 4a3d
000003f0: 531a 52bb 0166 a03d 00f6 db36 d273 583d

model.2.bias f4 [64]
0.09008008 -0.037959434 0.050804205 -0.06059643 0.007826617 0.025564538 0.08689233 0.0677974
0.1391256 -0.047031973 -0.028631316 0.023772154 -0.06089264 -0.098137334 -0.016280679 0.023326468
-0.059945863 0.07203184 0.0036944842 -0.050845478 -0.056112073 0.038337335 0.04568687 -0.023299964
0.003919744 -0.043083917 0.025899533 0.048847675 0.09226113 -0.0034791038 0.05440321 0.049033653
-0.039577756 -0.026112454 -0.042411316 0.017670356 -0.0054269405 -0.018911952 -0.086702146 0.1176785
0.09805595 0.07867544 0.054617234 -0.0019643966 0.026458923 0.004615528 0.08560756 -0.08545966
0.11937048 -0.00712326 -0.08663827 -0.02517496 -0.037885647 0.017789982 0.0918102 -0.025810972
-0.107812665 -0.061734907 0.02715317 -7.594499e-05 0.06376368 0.094483554 -0.010055585 -0.0732192
00000000: e87b b83d 5a7b 1bbd 1218 503d f633 78bd
00000010: 363b 003c b96c d13c 9bf4 b13d 5dd9 8a3d
00000020: f176 0e3e 99a4 40bd 398c eabc d2bd c23c
00000030: 906a 79bd 3afc c8bd 0f5f 85bc 2617 bf3c
00000040: cb89 75bd 6e85 933d 291f 723b 5943 50bd
00000050: c6d5 65bd 9c07 1d3d 2822 3b3d 91df bebc
00000060: 3271 803b c378 30bd 422b d43c 8014 483d
00000070: 67f3 bc3d ad01 64bb e6d5 5e3d 83d7 483d
00000080: 491c 22bd c9e9 d5bc 7db7 2dbd 6cc1 903c
00000090: 7ad4 b1bb 3ded 9abc e590 b1bd 6d01 f13d
000000a0: 8fd1 c83d 9720 a13d 52b6 5f3d 1bbd 00bb
000000b0: 62c0 d83c db3d 973b 0453 af3d 7905 afbd
000000c0: 8378 f43d 3c6a e9bb 686f b1bd b83b cebc
000000d0: fb2d 1bbd 4cbc 913c fc06 bc3d 8871 d3bc
000000e0: e3cc dcbd bedd 7cbd 5370 de3c a844 9fb8
000000f0: 8896 823d 9880 c13d 2ec0 24bc f3f3 95bd

model.4.weight f4 [32, 64]
0.0072652786 0.015908606 -3.7613543e-06 2.1134665e-05 4.324817e-07 0.0064357114 -2.2124848e-08 -0.00041763906
2.1823357e-08 2.6131383e-07 -0.000713054 9.979545e-09 -2.8819725e-06 -0.01568683 0.008463009 2.5374213e-06
0.01689488 0.014250525 -0.008881972 0.007933612 0.004111855 0.0012895227 5.8526066e-08 1.2215551e-08
-1.1913984e-07 0.009938611 0.013263634 -0.011996823 1.7470676e-07 -0.000534401 0.013721574 5.356923e-07
-0.0008444005 0.031685024 2.5531108e-07 -0.018957958 0.0006253608 0.014860008 -0.00861019 8.40923e-09
3.9031636e-07 -1.5485882e-07 -0.01124904 -2.6573531e-08 0.0043507814 -0.0059995176 -1.585251e-07 3.0656486e-06
-0.021549126 -1.2935448e-09 0.023547132 2.4035575e-07 0.029388553 3.2799733e-08 0.002215915 -0.017108848
-0.00087164226 -0.008512842 4.304372e-09 0.013000395 0.022049895 -0.0022021423 -0.024304312 -0.023601484
-0.117589414 -0.064680986 -0.06650194 6.145945e-08 0.03402992 -0.060388282 0.045845374 -0.03358911
-0.00075356406 -0.03072969 -0.12244567 -0.014330968 0.008502814 -0.09924769 0.033944596 -0.0001895327
0.08234069 0.033076134 -0.042284496 0.019778814 0.028626068 2.6690971e-08 -0.01621142 -0.04365243
1.4427265e-07 0.079810895 0.004482667 -0.028919661 -0.015905289 0.0236769 0.09471994 0.06060512
-0.110127166 9.386428e-09 -1.6581613e-08 0.002960213 0.0017167724 -0.022205764 0.072615035 -0.03882436
1.01425336e-07 -0.041308925 0.00077427214 0.064161345 0.0710239 0.061682284 0.08499024 0.008328591
0.01032064 -0.010767765 -0.03258403 -0.027797695 -0.015381771 -0.09101904 -0.107545644 0.032780673
0.034413747 -0.07298265 -0.03254957 -3.21689e-06 1.0796801e-08 -0.0046030967 -0.0404758 0.00010124671
0.13524541 -0.08418413 -0.061516277 -0.028074127 -0.034586668 -0.07771029 0.11862462 -0.041391123
0.013152404 -0.033607524 0.055579104 -0.0734038 -0.07437539 0.064511165 -0.039036687 0.025584072
0.014966991 -0.04021122 0.12737677 0.10922404 0.1246967 0.122318 -0.09021545 0.015060097
0.06179006 -0.10557842 0.03522037 0.15585002 -0.10425281 0.1256695 -0.08451843 0.1197787
-0.07038771 -0.079736166 -0.09735723 0.038590547 0.0010301762 0.0853361 0.03563572 0.047668952
0.043390796 -0.07832384 -0.076367155 0.06802702 0.097951815 -0.121900305 -0.09271918 -0.06565601
0.13385612 0.02952092 -0.040487673 -0.0552179 -0.032948315 0.047663 0.04432234 0.059681136
-0.083181605 0.12276331 0.035490565 -0.001052192 -0.010759451 0.11015091 -0.036422428 -0.0733707
1.4182174e-07 1.45117465e-08 2.052072e-08 -0.028598528 -0.030136527 0.00023452888 0.00028570788 0.02296863
3.843851e-08 1.6055247e-07 -0.0060670245 0.03244328 -0.011069411 -0.015880631 0.00900568 -1.3042292e-06
0.0018435003 -7.723013e-09 -3.9764245e-06 -0.0026960366 -0.00024194963 -0.022297362 0.03313816 0.023632493
-0.017017359 0.00056748925 -1.0514149e-07 -0.009561879 -0.018305562 0.0232531 0.011042669 -4.567808e-08
3.1088064e-08 -0.019758444 -0.029936668 -0.011694124 0.0069079553 0.0029826192 -2.2389184e-05 -0.029456971
-0.008197956 0.00432959 0.026387671 -2.264363e-06 -0.0009837486 -2.7382265e-07 0.01214501 3.4120686e-09
-0.030739672 4.2389692e-10 -0.02892189 -0.023611221 0.005465671 3.732164e-06 0.0034454654 -0.02874414
-0.0089943055 -0.014647562 0.006179192 -0.00030566833 -0.0024119997 -0.008909346 0.013918577 4.9615537e-08
00000000: 9311 ee3b c452 823c 936b 7cb6 594a b137
00000010: d52f e834 a9e2 d23b 0e0d beb2 91f6 dab9
00000020: 1276 bb32 b34a 8c34 3eec 3aba 8172 2b32
00000030: e967 41b6 ab81 80bc 6fa8 0a3c 9148 2a36
00000040: 2267 8a3c 097b 693c b185 11bc fbfb 013c
00000050: bdbc 863b 3405 a93a 175e 7b33 90dc 5132
00000060: d2d9 ffb3 8ed5 223c b74f 593c 538e 44bc
00000070: 0797 3b34 0b17 0cba 74d0 603c 7fcc 0f35
00000080: c25a 5dba 28c8 013d b011 8934 b84d 9bbc
00000090: 41ef 233a 6477 733c c111 0dbc 2f78 1032
000000a0: ac8c d134 4547 26b4 e54d 38bc d043 e4b2
000000b0: 0091 8e3b 9a97 c4bb 0c37 2ab4 71bb 4d36
000000c0: cb87 b0bc 90c8 b1b0 eae5 c03c 3e0a 8134
000000d0: 43c0 f03c b0df 0c33 e238 113b db27 8cbc
000000e0: ec7e 64ba 7279 0bbc a8e5 9331 9cff 543c
000000f0: fba1 b43c d151 10bb d619 c7bc e657 c1bc
00000100: b8d2 f0bd 7777 84bd 2b32 88bd b1fb 8333
00000110: f562 0b3d b459 77bd 5cc8 3b3d bc94 09bd
00000120: d48a 45ba d5bc fbbc ccc4 fabd 70cc 6abc
00000130: 634f 0b3c 5f42 cbbd 7d09 0b3d 4cbd 46b9
00000140: 3ca2 a83d d77a 073d 8232 2dbd 2e07 a23c
00000150: 3781 ea3c 1146 e532 d0cd 84bc e4cc 32bd
00000160: 5de9 1a34 e573 a33d 56e3 923b ede8 ecbc
00000170: cf4b 82bc 0ff6 c13c 87fc c13d 133d 783d
00000180: 5a8a e1bd f241 2132 5a6f 8eb2 2200 423b
00000190: 5305 e13a dde8 b5bc 31b7 943d 4b06 1fbd
000001a0: 2bcf d933 8c33 29bd 86f8 4a3a 0667 833d
000001b0: fa74 913d 90a6 7c3d 5d0f ae3d a474 083c
000001c0: e717 293c 486b 30bc d576 05bd feb7 e3bc
000001d0: d303 7cbc 3168 babd e440 dcbd 0745 063d
000001e0: 6ef5 0c3d ed77 95bd b352 05bd c0e1 57b6
000001f0: d57c 3932 93d5 96bb f4c9 25bd 6a54 d438
00000200: c67d 0a3e bb68 acbd 7ef8 7bbd b6fb e5bc
00000210: c0aa 0dbd 9326 9fbd 77f1 f23d bd89 29bd
00000220: 2e7d 573c 0ba8 09bd eaa6 633d bb54 96bd
00000230: 2052 98bd 6e1e 843d efe4 1fbd b095 d13c
00000240: 1c38 753c 85b4 24bd 0e6f 023e dab0 df3d
00000250: fc60 ff3d dc81 fa3d e1c2 b8bd a0be 763c
00000260: 9317 7d3d 8039 d8bd 3c43 103d 2697 1f3e
00000270: 7f82 d5bd 81af 003e 0018 adbd 894e f53d
00000280: 6f27 90bd b74c a3bd 3a63 c7bd 1f11 1e3d
00000290: fa06 873a b1c4 ae3d c3f6 113d 8540 433d
000002a0: 8cba 313d 4068 a0bd 6266 9cbd c051 8b3d
000002b0: f69a c83d dea6 f9bd 8ee3 bdbd a876 86bd
000002c0: 9411 093e dbd5 f13c 67d6 25bd 2a2c 62bd
000002d0: d0f4 06bd 473a 433d 588b 353d 3574 743d
000002e0: 1e5b aabd 556b fb3d 8e5e 113d b4e9 89ba
000002f0: 6948 30bc cd96 e13d af2f 15bd 6143 96bd
00000300: aa47 1834 564f 7932 8a45 b032 7647 eabc
00000310: e1e0 f6bc deeb 7539 10cb 9539 b528 bc3c
00000320: 9717 2533 5464 2c34 e4cd c6bb 3fe3 043d
00000330: 7a5c 35bc 1918 82bc 8f8c 133c f90c afb5
00000340: 9ba1 f13a 2cae 04b2 3a6d 85b6 fdaf 30bb
00000350: dcb3 7db9 f5a8 b6bc e1bb 073d ee98 c13c
00000360: fd67 8bbc 8fc3 143a 25ca e1b3 6da9 1cbc
00000370: 8cf5 95bc 497d be3c 50ec 343c 952f 44b3
00000380: b085 0533 76dc a1bc be3d f5bc b698 3fbc
00000390: 215c e23b 0c78 433b 68d0 bbb7 bf4f f1bc
000003a0: b850 06bc 3cdf 8d3b f52a d83c 76f5 17b6
000003b0: 20f1 80ba e601 93b4 ddfb 463c bf79 6a31
000003c0: c4d1 fbbc 300a e92f 99ed ecbc 526c c1bc
000003d0: 5f19 b33b 1776 7a36 51cd 613b d578 ebbc
000003e0: da5c 13bc 54fc 6fbc d27a ca3b 1c42 a0b9
000003f0: a412 1ebb 81f8 11bc be0a 643c dc18 5533

model.4.bias f4 [32]
2.395103e-07 -0.003183571 0.004356713 0.0050618127 0.07292576 -0.031422235 -0.003905496 0.113886125
-0.03727956 -0.10322674 0.0422538 -0.04530515 0.10323269 -0.019821405 0.0034638122 0.12419023
-0.14666116 0.11806447 0.09130398 0.005808233 -0.05441552 0.07367517 0.12329713 8.039165e-08
0.08566736 0.018469796 -0.0694766 0.014219259 0.03942054 0.124934465 0.041726388 -0.0840191
00000000: 0c96 8034 75a3 50bb c2c2 8e3b 90dd a53b
00000010: 1a5a 953d 9ab4 00bd 5af3 7fbb 213d e93d
00000020: 74b2 18bd 8b68 d3bd 5212 2d3d e591 39bd
00000030: a96b d33d 8060 a2bc 2001 633b 7357 fe3d
00000040: 582e 16be c9cb f13d 95fd ba3d fd52 be3b
00000050: cfe2 5ebd 02e3 963d 3583 fc3d c7a3 ac33
00000060: 5e72 af3d f84d 973c bf49 8ebd e5f7 683c
00000070: 6f77 213d a4dd ff3d 4ae9 2a3d 3512 acbd

model.6.weight f4 [1, 32]
-0.00023637585 -0.06990684 0.14962247 1.7023384e-08 -0.1357912 -0.1422528 0.07420702 -0.11742355
0.111574605 -0.02258088 0.10589516 -0.11761949 -0.123747155 3.4410298e-06 -0.12240841 0.1011586
-0.022318894 0.13367777 -0.016159914 0.1696807 0.021981776 0.050886743 0.15574688 -0.007831608
0.055708073 0.009236959 0.08733866 -0.07379777 0.013058595 0.21199603 0.036346965 -0.13117987
00000000: a9db 77b9 512b 8fbd a236 193e d13a 9232
00000010: d90c 0bbe b8aa 11be daf9 973d c27b f0bd
00000020: 3a81 e43d 8afb b8bc 90df d83d 7de2 f0bd
00000030: 266f fdbd 71ec 6636 43b1 fabd 3d2c cf3d
00000040: 1dd6 b6bc d3e2 083e cc61 84bc c7c0 2d3e
00000050: 2013 b43c 9e6e 503d 1c7c 1f3e 2550 00bc
00000060: 262e 643d 9d56 173c 9dde b23d 4923 97bd
00000070: b8f3 553c 7d15 593e 8ee0 143d 0454 06be

exp_avg f4 [5, 3]
-0.0010596813 0.0012774058 -0.0018339364 0.00025065758 5.159465e-05 0.00024609745 -0.00090696977 0.00095760764
-0.0013561691 -0.00010904573 5.2073417e-05 -0.00022115734 0.0008377192 -0.0005691136 0.0008758353
00000000: 01e5 8aba a06e a73a b260 f0ba b16a 8339
00000010: 5567 5838 a406 8139 b6c1 6dba f607 7b3a
00000020: 7cc1 b1ba 7baf e4b8 6869 5a38 79e6 67b9
00000030: 629a 5b3a 9130 15ba 5098 653a

exp_avg_sq f4 [5, 3]
1.5376351e-06 3.2522496e-06 2.6772534e-06 2.0155787e-06 4.1679014e-06 3.4983702e-06 1.6840521e-06 3.1000784e-06
2.3423534e-06 3.3392623e-06 5.706341e-06 4.878561e-06 1.8425742e-06 4.4221515e-06 3.8382277e-06
00000000: bd60 ce35 3941 5a36 ddaa 3336 6143 0736
00000010: 00da 8b36 8bc5 6a36 9707 e235 f10a 5036
00000020: 5331 1d36 1718 6036 1979 bf36 85b2 a336
00000030: 5e4e f735 fe61 9436 20ca 8036

exp_avg f4 [128, 63]
-0.0011845358 0.0018547563 0.0013257682 -0.0034501408 -0.00091732934 0.00060322345 0.00011170307 0.0012392316
0.00057528197 0.00043982262 0.0026938037 -0.00073843007 0.00038439216 -0.0005002113 0.00062292337 0.001022305
0.0032604248 -0.00020210708 -0.003622242 0.003206869 0.0015964969 0.003294251 0.00092749484 -0.0008071099
-0.00073271076 -0.0008263577 -0.0001968032 -0.0009942368 -0.0014000852 -0.0040329834 -0.0016112097 -0.0040763705
-0.0006034666 -0.00022311046 -0.0018509983 0.0013675335 -0.0024580066 -0.0010960597 -0.0020314604 -0.00023501678
0.0007626491 -0.0015247347 -0.00075409206 -0.00027627786 -0.0025137148 0.0017219102 0.001963963 -0.00022542034
-0.00016876083 0.002610788 -0.0024902995 -0.003645475 -0.00041585963 -0.0013676783 -0.0024814105 0.0006246411
-4.1301996e-06 -0.0041875397 0.01922218 -0.009112571 0.0061718165 0.001545996 -0.00063291914 -0.00080998894
0.0003096897 0.00030395927 0.00017204146 6.866255e-05 0.00068291085 -0.0013434414 0.000972393 -0.0011228194
-0.00012716271 -0.0005327628 -0.00014314761 0.0009161137 0.00042450946 -0.00034697924 -0.00021988708 0.00032388023
-0.0006442086 -0.0003618665 0.0014258736 0.00041592392 -0.00056581997 -0.0006888913 -0.0005649971 0.00026394942
0.00042558296 -0.0003867186 -0.00018532404 -0.0012436355 -0.0019131518 0.00040810925 -0.00060526415 -0.0011302504
-0.0013682017 -0.0009783421 -0.0011559493 -0.0012635234 -0.0010786887 -0.000537353 -0.00029252208 8.948318e-05
0.0017162289 0.00017012745 -0.00027609014 -0.00074615475 0.00068835483 -0.00078754313 -0.0009490886 0.000121598125
0.0016330391 -0.00038328735 0.001224689 0.0006660858 0.0011523328 -0.0005451975 0.0010661021 0.00014784944
-0.0017631816 -0.0022836316 0.027085207 0.0058080875 -0.00078383327 -0.000669666 -0.0003264046 9.969323e-06
0.00045211116 -0.00074517744 -0.0005046435 0.00043250143 -0.00022215639 0.00045060148 -0.00057567254 -0.00019455008
0.00027090765 -9.438957e-05 0.0003129831 8.682681e-05 7.2414005e-05 0.0002521782 0.00050935434 -0.00023848968
-0.00049948366 0.0008182436 0.00032616348 -0.00013553226 -0.00015558973 -0.00048233249 0.00016064532 2.1376825e-06
7.1773e-05 -0.0001843055 -0.000422775 -0.0010776197 0.00017188283 -0.0004522782 -0.0003213444 -0.00032863175
-0.00047907123 -0.00035665144 -0.0007714413 -0.0002074265 -0.00028340553 0.00010867625 -1.4006825e-05 0.00034651702
8.8060006e-05 -8.430772e-05 -0.0007811613 0.00021558003 -0.00020969631 -8.2456674e-05 -7.1813556e-05 0.0008381717
-0.00025993583 -9.458823e-05 0.00021988488 2.223163e-05 -0.0007101101 0.00027493687 0.0003224185 -0.0012794513
0.0030973488 0.009494892 0.0011189627 0.00013617988 -0.00033853998 8.061834e-06 3.7060743e-06 -6.1682226e-06
7.491152e-06 -2.1964463e-06 1.0444184e-05 2.9520509e-06 7.532551e-07 -1.1709778e-05 7.1929924e-07 8.5048005e-06
9.562023e-06 -9.846509e-06 1.1814839e-06 -1.3008512e-05 2.7245173e-06 4.9858354e-06 4.3325654e-06 -4.7389567e-06
-1.6784671e-06 -4.1671597e-06 4.8044726e-06 -9.116061e-06 -5.9849067e-06 4.787694e-07 -2.8161758e-06 -9.854825e-06
9.91327e-07 -9.558949e-06 -5.7833483e-07 7.442467e-06 -4.501344e-06 3.6568288e-06 -4.766053e-06 -4.338487e-06
7.801597e-06 9.879677e-06 1.0797156e-05 1.1441325e-05 -1.7783917e-06 1.2082898e-05 -7.908943e-06 -2.2878141e-06
8.51137e-06 -7.87142e-06 2.6177443e-06 -1.1792321e-05 -2.4735969e-06 7.873871e-06 -4.5083475e-06 4.8257157e-06
5.719235e-06 9.570882e-06 -3.5068635e-07 -1.204293e-05 -1.3979273e-07 -5.3444683e-06 -2.193534e-06 -9.568168e-06
-2.1397548e-06 -8.543982e-07 -1.1652436e-05 -7.977327e-06 2.2549377e-05 -1.616802e-05 2.0090894e-05 0.00010015292
00000000: 6d42 9bba 4b1b f33a 66c5 ad3a c21b 62bb
00000010: ee78 70ba a421 1e3a 2142 ea38 b66d a23a
00000020: 85ce 163a fe97 e639 878a 303b 3493 41ba
00000030: 3e88 c939 9d20 03ba ae4b 233a ddfe 853a
00000040: daac 553b b5ec 53b9 2363 6dbb 552a 523b
00000050: 8c41 d13a 5ce4 573b 2023 733a 3a94 53ba
00000060: 6313 40ba ed9f 58ba f55c 4eb9 0d51 82ba
00000070: 1083 b7ba 1e27 84bb 3a2f d3ba 1393 85bb
00000080: f531 1eba c2f2 69b9 329d f2ba cf3e b33a
00000090: 8216 21bb a9a9 8fba 4022 05bb d66e 76b9
000000a0: 84ec 473a 9bd9 c7ba 43ae 45ba 63d9 90b9
000000b0: 23bd 24bb b8b1 e13a d5b5 003b d05e 6cb9
000000c0: 64f5 30b9 c119 2b3b 4b34 23bb ece8 6ebb
000000d0: bc07 dab9 ab43 b3ba 299f 22bb f4be 233a
000000e0: 2596 8ab6 a137 89bb d577 9d3c e54c 15bc
000000f0: f33c ca3b 05a3 ca3a 7cea 25ba 7055 54ba
00000100: d95d a239 b95c 9f39 0766 3439 edfe 8f38
00000110: 5f05 333a 6a16 b0ba 31e8 7e3a 912b 93ba
00000120: fb56 05b9 1ba9 0bba e519 16b9 5a27 703a
00000130: b290 de39 c4ea b5b9 7d91 66b9 78ce a939
00000140: 1be0 28ba e6b8 bdb9 61e4 ba3a 5d10 da39
00000150: 8953 14ba b696 34ba 501c 14ba b162 8a39
00000160: c720 df39 7ec0 cab9 8b53 42b9 7c01 a3ba
00000170: b9c2 faba 7ff7 d539 97aa 1eba e924 94ba
00000180: 3b55 b3ba b73b 80ba 3983 97ba cf9c a5ba
00000190: c962 8dba 26dd 0cba a65d 99b9 eba8 bb38
000001a0: 16f3 e03a 3d64 3239 31c0 90b9 9999 43ba
000001b0: b672 343a 2073 4eba 42cc 78ba 7f02 ff38
000001c0: b30b d63a f5f3 c8b9 be85 a03a 439c 2e3a
000001d0: df09 973a 96eb 0eba 73bc 8b3a 0808 1b39
000001e0: 8f1a e7ba fba8 15bb cce1 dd3c c551 be3b
000001f0: 297a 4dba 868c 2fba 4921 abb9 eb41 2737
00000200: 5509 ed39 0358 43ba 0d4a 04ba 5cc1 e239
00000210: a7f2 68b9 b53e ec39 bbe8 16ba 2400 4cb9
00000220: 9c08 8e39 04f3 c5b8 e117 a439 ca16 b638
00000230: f9dc 9738 c936 8439 3186 053a 1613 7ab9
00000240: c8ef 02ba 667f 563a ec00 ab39 aa1d 0eb9
00000250: cd25 23b9 92e1 fcb9 e672 2839 1b75 0f36
00000260: d684 9638 2242 41b9 e6a7 ddb9 eb3e 8dba
00000270: 723b 3439 c11f edb9 1e7a a8b9 354c acb9
00000280: da2b fbb9 f2fc bab9 8d3a 4aba a180 59b9
00000290: 0c96 94b9 1ee9 e338 dbfe 6ab7 baac b539
000002a0: dbac b838 5dce b0b8 d9c6 4cba 530d 6239
000002b0: ede1 5bb9 97ec acb8 9c9a 96b8 c0b8 5b3a
000002c0: ff47 88b9 ab5d c6b8 e690 6639 107e ba37
000002d0: af26 3aba 6725 9039 470a a939 43b3 a7ba
000002e0: e4fc 4a3b 7790 1b3c 28aa 923a 82cb 0e39
000002f0: 117e b1b9 5041 0737 dfb5 7836 a1f8 ceb6
00000300: 815c fb36 a966 13b6 6e39 2f37 d91b 4636
00000310: 4c33 4a35 1d75 44b7 de15 4135 d7af 0e37
00000320: 936c 2037 6f32 25b7 7a93 9e35 223f 5ab7
00000330: dad6 3636 004c a736 7460 9136 5403 9fb6
00000340: b147 e1b5 a1d3 8bb6 1b36 a136 2ff1 18b7
00000350: f5d1 c8b6 c884 0035 88fd 3cb6 2756 25b7
00000360: bd0d 8535 605f 20b7 de3e 1bb5 4eba f936
00000370: 400a 97b6 d767 7536 15ec 9fb6 5293 91b6
00000380: 9be3 0237 e4c0 2537 6f25 3537 1ef4 3f37
00000390: 13b1 eeb5 a7b7 4a37 a7b0 04b7 5988 19b6
000003a0: 0ecc 0e37 7e0f 04b7 81ac 2f36 a2d7 45b7
000003b0: 1200 26b6 051a 0437 6946 97b6 95ec a136
000003c0: dbe7 bf36 a092 2037 f745 bcb4 fe0b 4ab7
000003d0: ef19 16b4 a254 b3b6 a134 13b6 f886 20b7
000003e0: b598 0fb6 cc59 65b5 d57e 43b7 5cd6 05b7
000003f0: 6b28 bd37 8fa0 87b7 de88 a837 3109 d238

exp_avg_sq f4 [128, 63]
1.6201805e-06 2.1340836e-06 4.199526e-06 8.018868e-06 4.597113e-06 1.7286601e-06 3.3273395e-06 2.1936428e-06
4.3486302e-06 2.1248538e-06 1.0334064e-05 4.3512892e-07 5.281663e-06 1.4108028e-06 5.8521077e-06 2.8020052e-06
3.1820655e-06 2.4580286e-06 3.4651978e-06 3.0469562e-06 1.5113836e-06 9.982859e-06 8.710379e-06 3.538278e-06
1.7956211e-06 2.6715243e-06 6.4951923e-06 1.4609268e-06 3.8410863e-06 7.920431e-06 1.7596376e-06 4.9223327e-06
1.8746028e-06 4.0858604e-06 6.1741853e-06 1.291703e-06 4.1576295e-06 3.6162676e-06 4.7625554e-06 1.3158956e-06
1.079608e-06 7.918989e-06 2.9321623e-06 1.7551245e-06 1.0734057e-05 2.1205187e-06 3.7235984e-06 3.0750405e-06
1.6404907e-06 6.5824656e-06 4.5881434e-06 9.349405e-06 4.9095997e-06 1.2918304e-05 3.7382754e-06 1.0078558e-06
3.5444007e-06 4.2487213e-06 0.0016256047 0.0061656986 0.0007021046 9.955082e-07 1.4453447e-06 1.1886649e-06
1.0443805e-06 3.7886264e-06 4.6484683e-06 3.880338e-06 1.5127254e-06 2.3229823e-06 2.1198491e-06 3.3692063e-06
1.1893264e-06 8.882431e-06 2.8882613e-07 3.1926613e-06 1.3411175e-06 4.5276506e-06 2.2561999e-06 1.4521386e-06
3.1531779e-06 1.966079e-06 4.8329193e-06 4.1989947e-06 3.1692425e-06 2.5968313e-06 1.6121712e-06 2.6019404e-06
3.1319566e-06 7.1494487e-06 1.2995326e-06 3.8918192e-06 1.6478006e-06 1.0541067e-06 2.2953275e-06 5.6019157e-06
2.277983e-06 2.6332095e-06 2.3199289e-06 3.6205467e-06 1.523023e-06 1.325537e-06 1.368016e-06 1.749202e-07
1.561785e-05 2.9637547e-06 1.7084718e-06 5.730413e-06 1.096142e-06 1.977316e-06 2.1085277e-06 1.0399496e-06
4.841698e-06 3.6406345e-06 6.185342e-06 2.2195047e-06 5.988611e-06 2.0779432e-06 9.54737e-07 2.5491147e-06
4.7848357e-06 0.00019995018 0.015524186 0.00095863064 1.1425537e-06 1.2282272e-06 2.6368906e-07 2.4893131e-07
8.27412e-07 1.0070805e-06 8.334845e-07 3.0639524e-07 4.2534373e-07 4.193469e-07 6.4900064e-07 3.0249663e-07
1.9112458e-06 6.626389e-08 7.348585e-07 2.9572868e-07 9.200864e-07 4.2419748e-07 3.4051857e-07 6.5989747e-07
3.7183142e-07 8.9564867e-07 7.756271e-07 9.3236866e-07 8.5159917e-07 4.012031e-07 4.3347504e-07 6.245843e-07
1.4074564e-06 2.943901e-07 8.3231475e-07 6.2921134e-07 2.0949676e-07 4.7561457e-07 8.7310775e-07 5.4907036e-07
6.0606817e-07 3.7041187e-07 7.864158e-07 3.7472066e-07 4.5401478e-07 2.6860243e-07 1.2534687e-07 3.0601063e-06
4.2093853e-07 3.082131e-07 1.1589576e-06 2.2091999e-07 4.622011e-07 3.3782135e-07 2.0666592e-07 8.6784894e-07
7.584629e-07 1.295016e-06 5.74636e-07 1.4567066e-06 5.8069503e-07 1.6028521e-07 5.360483e-07 9.350928e-07
0.0001278875 0.0031700267 0.00019767434 1.6798012e-07 2.1719889e-07 7.538324e-09 4.6920685e-09 2.3960908e-08
4.1823377e-08 8.159445e-09 1.9964359e-08 1.8879284e-08 1.4868198e-08 1.8178202e-08 4.888114e-09 1.8044337e-07
9.564502e-09 6.111959e-08 9.050266e-09 2.9870833e-08 7.2412196e-09 1.0336069e-08 2.939173e-08 1.0508764e-08
7.68664e-08 6.362795e-08 4.5294506e-08 7.4115483e-09 1.5215129e-08 1.1045905e-08 9.0528225e-09 4.5464436e-08
3.3012744e-09 2.6914263e-08 9.3486685e-09 6.62888e-09 1.6190493e-08 1.328694e-08 5.5036304e-09 8.517714e-09
2.9745518e-08 4.071734e-08 1.14693774e-08 1.643943e-08 6.0909797e-09 5.1233534e-10 1.17780985e-07 1.889215e-08
1.29820625e-08 3.8309008e-08 1.4965075e-08 2.9004637e-08 1.148424e-08 5.3808566e-09 4.7265345e-08 5.0304678e-08
7.708342e-09 2.8727316e-09 7.2361552e-09 2.585799e-08 7.1084894e-09 2.3758256e-08 9.355457e-08 1.899597e-07
6.4738735e-05 1.1422071e-05 1.7056138e-09 1.821255e-09 4.4413486e-08 4.885699e-08 7.72591e-08 2.272301e-07
00000000: fa74 d935 4737 0f36 a7e9 8c36 c788 0637
00000010: e640 9a36 4f04 e835 424b 5f36 7f36 1336
00000020: 73ea 9136 b698 0e36 7860 2d37 aa9b e934
00000030: 2439 b136 d15a bd35 395d c436 150a 3c36
00000040: 788b 5536 9cf4 2436 a58b 6836 4f7a 4c36
00000050: bfda ca35 0e7c 2737 cb22 1237 2773 6d36
00000060: 1201 f135 7048 3336 47f1 d936 1015 c435
00000070: aee2 8036 fee1 0437 b02c ec35 842a a536
00000080: dd9a fb35 4619 8936 d92b cf36 945e ad35
00000090: c481 8b36 01af 7236 0ace 9f36 d49d b035
000000a0: 0ce7 9035 ccdb 0437 2ac6 4436 9e91 eb35
000000b0: 6c16 3437 3c4e 0e36 efe2 7936 cb5c 4e36
000000c0: d52e dc35 f3de dc36 daf3 9936 64db 1c37
000000d0: 24bd a436 b1bb 5837 15df 7a36 a945 8735
000000e0: 57dc 6d36 3d90 8e36 3e12 d53a a109 ca3b
000000f0: 710d 383a 679d 8535 aafd c135 378a 9f35
00000100: a42c 8c35 1b40 7e36 0afa 9b36 da33 8236
00000110: d908 cb35 88e4 1b36 bb42 0e36 861a 6236
00000120: f2a0 9f35 c005 1537 f60f 9b34 8141 5636
00000130: 7200 b435 39ec 9736 3869 1736 1ae7 c235
00000140: 2f9b 5336 fbf0 0336 762a a236 17e5 8c36
00000150: 2caf 5436 3945 2e36 c861 d835 ff9c 2e36
00000160: 9b2e 5236 4ce5 ef36 9a6b ae35 7996 8236
00000170: ff29 dd35 d57a 8d35 6d09 1a36 17f8 bb36
00000180: 73df 1836 32b6 3036 13b0 1b36 85f8 7236
00000190: ac6a cc35 1be9 b135 ac9c b735 b3d1 3b34
000001a0: 1403 8337 ebe4 4636 a54e e535 df47 c036
000001b0: 271f 9335 08b2 0436 3b80 0d36 6594 8b35
000001c0: de75 a236 a051 7436 af8b cf36 cdf2 1436
000001d0: c7f1 c836 cb72 0b36 8324 8035 7511 2b36
000001e0: 6d8d a036 b8a9 5139 2859 7e3c 9d4c 7b3a
000001f0: d959 9935 91d9 a435 2691 8d34 dca4 8534
00000200: 521b 5e35 062b 8735 9ebc 5f35 a47e a434
00000210: cc5a e434 9922 e134 fc36 2e35 d266 a234
00000220: f442 0036 f54c 8e33 1743 4535 a4c4 9e34
00000230: dbfb 7635 42bd e334 84d0 b634 cf23 3135
00000240: 1fa0 c734 826c 7035 b034 5035 e347 7a35
00000250: 7399 6435 ef64 d734 5bb8 e834 1ba9 2735
00000260: d5e7 bc35 ab0c 9e34 3c6c 5f35 13e7 2835
00000270: 08f2 6034 f857 ff34 825f 6a35 d463 1335
00000280: b0b0 2235 05dd c634 151a 5335 372d c934
00000290: 51bf f334 7034 9034 1697 0634 3a5c 4d36
000002a0: 5afd e134 7c78 a534 7b8d 9b35 0636 6d34
000002b0: 6f24 f834 d05d b534 e5e7 5d34 20f6 6835
000002c0: 2c99 4b35 69d0 ad35 af40 1a35 0f84 c335
000002d0: 0fe1 1b35 dd1a 2c34 f5e4 0f35 1703 7b35
000002e0: 8a19 0639 39c0 4f3b cd46 4f39 065e 3434
000002f0: 2d37 6934 e681 0132 df37 a131 98d2 cd32
00000300: 4aa1 3333 9e2d 0c32 177e ab32 fc2b a232
00000310: 076f 7f32 4a26 9c32 4ef4 a731 e5bf 4134
00000320: 2051 2432 da40 8333 7e7b 1b32 544b 0033
00000330: 71ce f831 8392 3132 1979 fc32 088a 3432
00000340: c011 a533 d6a3 8833 d689 4233 aba8 fe31
00000350: 6cb2 8232 67c4 3d32 bc86 1b32 ad44 4333
00000360: a2dc 6231 1731 e732 e19b 2032 3fc4 e331
00000370: 4513 8b32 9544 6432 721a bd31 4d55 1232
00000380: 1683 ff32 30e1 2e33 db0a 4532 b036 8d32
00000390: d348 d131 65d4 0c30 c8ee fc33 4748 a232
000003a0: b707 5f32 3389 2433 8c8c 8032 df25 f932
000003b0: 394c 4532 84e2 b831 cc00 4b33 940e 5833
000003c0: a66d 0432 a169 4531 e5a1 f831 521e de32
000003d0: ef3e f431 f514 cc32 2be8 c833 baf7 4b34
000003e0: 58c4 8738 6ca1 3f37 f36a ea30 b74f fa30
000003f0: 25c1 3e33 d4d6 5133 a4e9 a533 89fc 7334
